mdrc-pacbot-server/checkpoints/q_net.safetensors (safetensors, 625856 bytes, 15 tensors)

advantage_head.0.bias f4 [5]
000000 4c d0 f9 bd 7c 6b 53 3d 14 60 b1 bc d2 f3 ce 3c
       -0.121979326 0.051616177 -0.021652259 0.025262747
000010 e6 51 6b 3d
       0.05745115

advantage_head.0.weight f4 [5, 256]
000000 57 a5 4e 3c 97 ef a3 bc 7e 8a e7 bb 64 00 96 3b
       0.012612662 -0.020011706 -0.00706607 0.0045776833
000010 63 75 d9 bb f5 d3 3a bd 34 40 39 bc 50 7e 52 3e
       -0.006636308 -0.045612294 -0.011306811 0.20555997
000020 b4 04 a1 3c 10 c2 a2 bd cb 55 31 bd 80 51 b2 bc
       0.019655563 -0.07947171 -0.04329471 -0.021767378
000030 6d eb 2d be d1 db 89 3d 60 c9 cc 3c cd 96 fa bd
       -0.16984339 0.0673138 0.024998367 -0.12235794
000040 e6 55 06 3d 5d ff 6f 3b ff 40 66 3d ce 33 2f be
       0.032796763 0.0036620714 0.05621433 -0.17109606
000050 58 55 26 bc fb 22 bf 3d aa b9 76 3c ea 40 fb 3c
       -0.0101521835 0.09332844 0.015058914 0.030670602
000060 c2 7e 92 3b 20 09 b9 bb 8e a2 74 3b 1c 34 36 3e
       0.004470677 -0.0056468397 0.0037328335 0.17793316
000070 13 99 cb bd 68 c4 24 bc 8f 8b 78 bd 45 23 7e bd
       -0.09941306 -0.0100565925 -0.06067997 -0.062045354
000080 83 b1 8e 3d 62 12 be 3c 10 61 83 3c 1f e9 51 3e
       0.069674514 0.023202125 0.016037494 0.20499085
000090 8a 6f 4e bc e7 8e 11 3c 45 bd 49 3c 5a a9 e2 bc
       -0.012599835 0.008884168 0.012313192 -0.027668644
0000a0 20 56 31 3d 99 9f 3f 3d 53 fd 83 bb 33 1b 89 3c
       0.043295026 0.046783064 -0.0040280013 0.016736602
0000b0 a9 3d 99 3d 60 41 6f bb fe 20 8e 3a 21 e5 02 3a
       0.07482464 -0.0036507472 0.0010843573 0.00049932493
0000c0 49 07 0a 3c 02 f6 83 3b b3 33 87 3d bb 5b 80 bb
       0.0084245885 0.004027129 0.06601658 -0.003917185
0000d0 3f 16 70 bd db 30 71 3c d1 7d ea 3c 51 6a 9d bb
       -0.058614966 0.014721121 0.028624447 -0.0048039337
0000e0 38 da de bc 0a ed 10 bc ac 05 80 bc 35 dc a2 bd
       -0.027203664 -0.008845577 -0.015627705 -0.079521574
0000f0 e3 1c 4c 3b 49 2a 6d 3c 63 6e 7b 3d f9 62 29 3b
       0.0031145148 0.014475414 0.06138457 0.0025846346
000100 f4 4f ac 3d 60 05 b5 bc fa 05 f0 3c 4e 37 19 3b
       0.08413687 -0.02209729 0.029299725 0.0023378911
000110 11 9e 8d bb 80 4d 02 3b 51 52 fb 3b a8 6d db bd
       -0.0043218215 0.001988262 0.007669725 -0.10714275
000120 d6 0b 91 3c 6e 5b e6 bd dd 57 47 3d 1e 80 b4 3b
       0.01770584 -0.112479076 0.048667777 0.005508437
000130 22 bd 80 be 7e a0 4b 3d d6 e7 ae 3c bf ab d2 3c
       -0.25144297 0.049713604 0.021350782 0.02571666
000140 4a b1 a2 bc 9b 50 c6 bc aa c3 9e 3d cc 5a 2a 3d
       -0.019859929 -0.024208358 0.07752164 0.041590497
000150 2e db b8 3d 32 15 1e 3e c6 ee 54 3e fb ca c6 3e
       0.0902618 0.15437773 0.2079421 0.38826737
000160 4d 9f bf bc c2 c6 d0 bc 5d d6 5c 3d 68 1b 48 3c
       -0.02339139 -0.0254854 0.05391537 0.012213565
000170 36 c8 f7 bc fe 21 a1 bc 00 69 65 bb 6e 04 44 3d
       -0.030246835 -0.019669529 -0.0035005212 0.047855787
000180 ff 6c f6 3c 53 0e 7b 3d 8f be e8 3e 8d f1 2e bc
       0.03008127 0.061292958 0.45457885 -0.010677707
000190 ce 16 9d 3e 40 39 6b 3b f8 64 8b 3d 2d 6a 49 ba
       0.3068146 0.0035892278 0.06806368 -0.0007683363
0001a0 10 8e 13 3f a0 a4 83 bd cb ef e0 3c 71 b1 8f 3a
       0.57638645 -0.06427884 0.027458092 0.0010962916
0001b0 86 d5 51 3b 56 76 8f 3c bc b2 f2 3c 2d 5b a0 bc
       0.003201814 0.017512482 0.029626243 -0.019574726
0001c0 03 08 62 be 48 b0 d0 bc fc a5 bd 3c f9 fd 4f 3d
       -0.22073369 -0.025474682 0.023150437 0.050779317
0001d0 90 06 9d be 6f 8c 91 3c 72 51 96 3c 72 bf a3 3c
       -0.3066907 0.01776716 0.018349383 0.01998875
0001e0 38 8b d3 39 75 c9 31 3d e1 64 bf bd dc 69 aa 3e
       0.00040348782 0.043405015 -0.09345413 0.3328389
0001f0 5b 08 4a 3b 1d 48 e8 bb aa c2 32 bd 5f 91 94 3e
       0.0030827734 -0.0070886747 -0.043642677 0.2901716
000200 37 49 bf 3e db 8d 1b be 88 e0 a8 3d c6 66 58 3e
       0.37360546 -0.15190832 0.08245951 0.21132955
000210 ac e1 96 3c b0 6b 07 bd f6 cb c5 3c 76 15 50 3c
       0.018418156 -0.033061683 0.024145108 0.012700429
000220 4d 52 87 b9 4e b6 26 bb eb a2 8b be be e3 50 bd
       -0.00025810525 -0.0025438252 -0.27272734 -0.050998442
000230 68 6a 51 3a eb 91 c7 3c 3e d4 5e 3c 39 3f fb ba
       0.0007988573 0.024361571 0.013600407 -0.0019168622
000240 e8 c0 1e 3d 1b f3 00 bc 28 8a 27 3e 9f 83 3f bd
       0.03875819 -0.007870461 0.16361296 -0.046756383
000250 11 a4 48 3d 1c a6 19 3d ea 19 46 3e 7c 89 71 bc
       0.04898459 0.03751193 0.19345823 -0.0147422515
000260 b3 fd 85 3b 33 96 88 bd dd 2a eb bb 7f 8a d3 3c
       0.004089081 -0.06669273 -0.0071767406 0.025822876
000270 02 a1 ae 3b 9d 50 0a 3f 01 00 f6 3b ef 85 a2 3d
       0.005329252 0.54029256 0.0075073247 0.07935702
000280 9a 8a 0b be bd 1c 78 39 e6 59 81 3c 0b d8 6a 3e
       -0.13627091 0.00023661829 0.015789937 0.22933976
000290 79 3c 36 3d 31 74 c9 3e a4 58 4b bb ef f3 3c be
       0.044491265 0.3934646 -0.0031028176 -0.18452428
0002a0 f7 5a 0c 3e 52 4a d4 3d 7f a7 af 3c e2 72 0b 3d
       0.13706575 0.10365738 0.021442173 0.034045108
0002b0 61 7c 19 bd 1c f9 8f bc 9e e2 e7 bc 01 e8 83 3d
       -0.037472133 -0.01757484 -0.028306302 0.064407356
0002c0 88 12 86 bb 71 cd 6b 3d bb aa 33 3e 12 cf d4 3d
       -0.0040915646 0.05756897 0.17545597 0.10391058
0002d0 ed c8 29 bd c1 c8 50 3d 7b c8 98 3c 09 f6 11 be
       -0.041451383 0.050972704 0.018650284 -0.14254011
0002e0 69 89 43 3d d5 0c 2e bf 9b b2 a8 3c 06 19 e9 3c
       0.047738466 -0.6798833 0.020592978 0.028454315
0002f0 7b 30 6f bc de 36 1d 3c 75 6a 58 3e b0 76 cd bc
       -0.014598961 0.009595601 0.2113436 -0.025081009
000300 c1 a9 01 3d 2a 6e a0 bd c8 c5 b7 bc ca d6 9a bd
       0.03165603 -0.07833512 -0.022433177 -0.07560499
000310 ab 0e 32 bd bb 5e c2 3c d2 06 ec ba f4 97 52 bc
       -0.04347102 0.023726812 -0.0018007404 -0.012853611
000320 20 70 1c 3d 3b f9 ae bc d8 d7 83 3d e9 94 5a bd
       0.03819287 -0.021359077 0.06437653 -0.053364668
000330 d6 a5 ca bd fb 7a 1f 3d 34 97 e3 bb e6 0e 85 3d
       -0.09894912 0.038935643 -0.006945515 0.06496982
000340 bf aa e3 3e cf e2 25 bc 5b a7 58 39 ba 47 82 3e
       0.44466206 -0.010124876 0.0002066171 0.25445348
000350 2c 6c b3 be b9 b9 1f 3d 90 1a 8c 3b fc 22 ea 3d
       -0.35043466 0.03899548 0.0042756274 0.11432454
000360 98 cc 0d bd a8 cd da bd 2e 98 a2 3a 2e 02 5a 3a
       -0.034618944 -0.10683757 0.0012404972 0.0008316365
000370 6f b6 86 3c 8d 29 8b bd 9e 08 5d 3c 31 31 d1 3d
       0.016444413 -0.067950346 0.013490824 0.10214461
000380 bd ef 4e 3d 88 ab ac 3c ca 1c 66 3d 8c 50 95 bd
       0.0505216 0.021077886 0.0561798 -0.07290754
000390 50 cb 26 3e fe f4 12 bd 8c 41 7e 3c 44 dd f2 3d
       0.16288495 -0.035878174 0.015518557 0.11858609
0003a0 14 d5 f8 bc 87 f2 5c 3d f0 b6 b5 3c c4 8b 8a bc
       -0.030375041 0.05394223 0.022181958 -0.016912349
0003b0 9e 20 00 3c 1f 83 fc 3d 3e 99 16 be ee e7 76 3c
       0.007820277 0.12329697 -0.14706895 0.015069945
0003c0 10 01 23 bc a1 5f 70 bc 1a d3 2b bc 57 a1 98 bc
       -0.009948984 -0.014671237 -0.010487342 -0.01863162
0003d0 7d 30 95 bd 53 1e 27 be 2f b5 8e bd 2f 6f d5 3b
       -0.07284639 -0.16320162 -0.06968152 0.0065134983
0003e0 78 fa c9 bc c7 a9 90 3c 26 a5 24 be b7 16 4a bd
       -0.024655566 0.017659081 -0.16078624 -0.04933807
0003f0 c6 0f a1 3c 45 25 c7 3d 1a a7 4d 3c 86 c0 2e bd
       0.019660842 0.097239055 0.012552047 -0.042664073

backbone.0.bias f4 [16]
000000 24 0a e2 3c 93 66 7c 3d 97 d5 3a 3d 54 f5 5e 3d
       0.027592726 0.06162126 0.04561385 0.054433182
000010 49 49 3b 3d 9b b5 c6 bd 2c 6a e5 3b 85 ee e3 bc
       0.045724187 -0.09702607 0.007001182 -0.027823696
000020 c4 b3 ac bc 28 92 27 3d 0e 95 5b bd 39 05 8f bb
       -0.021081813 0.04091087 -0.053608947 -0.0043646363
000030 30 53 c8 bc fc bb 4b 3d 2b 17 52 3d 73 0a f1 3c
       -0.02445373 0.049739823 0.051291626 0.029423928

backbone.0.weight f4 [16, 15, 5, 5]
000000 45 2b 9d bd c9 a8 c5 3d a0 a0 9f bd 02 e8 73 bd
       -0.07674269 0.09651334 -0.07794309 -0.05954743
000010 a1 29 d1 3c f5 c6 19 3d 74 19 44 3c 60 04 ee bc
       0.025532546 0.037543256 0.011968959 -0.02905482
000020 d8 4f 29 bd 8e 53 9f bd 4b e1 d0 3d f1 ad ac bd
       -0.04133591 -0.07779609 0.10199221 -0.08431614
000030 95 1d 1e be b7 57 75 bd 16 a7 12 3d 75 14 50 3e
       -0.15440972 -0.059898105 0.035803877 0.20320304
000040 84 5d 23 be c5 99 05 bc e9 1d 43 3d 4c 0b 89 3c
       -0.15953642 -0.008154337 0.047635946 0.01672902
000050 8e 1e c5 bc 06 21 9a bc 3c 46 fa 3d 2c 26 b9 bd
       -0.024062421 -0.018814575 0.122204274 -0.09040484
000060 0c 07 d1 3c a9 07 ac 3d df 73 0f 3e 9b 9a bf 3e
       0.025516056 0.083998986 0.14009045 0.37422642
000070 93 8c ec 3d d7 44 6f 3d b1 c2 ac 3d cc 2a 25 3d
       0.1155025 0.05841526 0.08435572 0.040324017
000080 a3 1e 18 3e 97 54 bb 3e 55 6d c8 3d c9 2f e9 bd
       0.14855437 0.36587974 0.097864784 -0.113860674
000090 23 b2 d6 3d 70 da 81 3e b3 9b 3f 3e bd df 96 bd
       0.10483196 0.25361967 0.18711738 -0.073668934
0000a0 69 04 86 bc 8d 9a 24 3e c0 97 b4 3e 80 97 72 3e
       -0.016359525 0.16074581 0.35272026 0.23690605
0000b0 7b a7 37 3e 9c 94 8c 3e 56 54 8f 3e 68 2a 02 3e
       0.17934982 0.2745713 0.2799403 0.12711489
0000c0 a2 85 86 3e e4 33 92 3e 74 2b b5 bd fa 22 21 3d
       0.2627383 0.28555214 -0.08846179 0.039339997
0000d0 14 73 1a be a7 7c 2f be 83 fc 75 bd 53 f5 8c 3d
       -0.15082961 -0.17137395 -0.060055267 0.068827294
0000e0 c9 92 db bd 23 5f 1c be de 37 40 bd 04 fa 3a be
       -0.107213564 -0.15270667 -0.04692828 -0.18259436
0000f0 f0 a2 6b bd ca ab 89 bd bb 3f aa bd cd b1 80 bc
       -0.057528436 -0.06722219 -0.08312937 -0.015709782
000100 9f 38 89 3c 15 21 ab bc c6 b8 25 bd 47 01 2b 3d
       0.016750632 -0.020889798 -0.040459417 0.041749265
000110 18 54 da bd 3f a0 20 be 81 e8 f8 3c e7 2e 46 37
       -0.10660571 -0.15686129 0.030384304 1.181264e-05
000120 91 8b b5 bd a0 71 01 be 04 42 0c 3e 51 03 df 3d
       -0.08864511 -0.12641001 0.13697058 0.108893044
000130 34 91 f0 3e 80 6d 63 3e 8c 83 37 3e 3f 29 8d 3e
       0.4698578 0.2220974 0.17921275 0.2757053
000140 ac ed d8 3e 1a 62 97 3e f7 b0 52 3e 97 32 86 3d
       0.4236883 0.29567033 0.20575319 0.06552618
000150 7d 62 fc 3d ed 81 09 3f a1 cb ca 3e 23 24 82 3e
       0.12323473 0.53713876 0.39608482 0.25418195
000160 15 1a 44 3e 93 56 19 3e 06 c1 b1 3e 26 8a c2 3e
       0.19150575 0.14974432 0.34717578 0.37996024
000170 9d 39 c4 3e 94 1f 06 be 84 27 80 bd 17 c7 85 3c
       0.38325205 -0.13097984 -0.06257537 0.016330285
000180 c8 ec 41 3e d6 fd 89 3e 7e f6 2a 3e bb 62 ae 3e
       0.18937981 0.26951474 0.16695592 0.340597
000190 dc ba 30 bb 89 79 9b bc a2 4c b1 bd fc fa 27 bc
       -0.0026966846 -0.01897885 -0.08657195 -0.01025271
0001a0 0a 06 c7 3d 43 db 0a 3e b2 51 02 3e 5a 03 b2 3d
       0.09717949 0.13560204 0.12726477 0.086920455
0001b0 2e 6c 2b 3d 31 fd 04 be 02 e6 eb 3d 25 a0 03 3e
       0.041851215 -0.1298721 0.1151848 0.12854059
0001c0 b1 05 ae bd 76 7f 20 39 ea db 24 3c d3 96 24 3e
       -0.08497179 0.00015306272 0.010062197 0.1607316
0001d0 7e 61 60 3d 76 80 3b be 01 ed 3d bc 04 6d 62 bd
       0.054780476 -0.18310723 -0.011592151 -0.055279747
0001e0 a7 e5 da 3d 0f 55 89 3d c9 12 fd 3d ff cb a4 bd
       0.10688334 0.06705677 0.123570986 -0.08046722
0001f0 34 26 cf bd 7c 6e a5 bc 37 65 90 3d 3e ab ce bc
       -0.101147085 -0.020194285 0.07050555 -0.025228139
000200 48 67 cd bc 5f da f7 3d 82 93 dd 3d 07 dc 86 bc
       -0.025073662 0.12102198 0.108191505 -0.01646234
000210 1e 8d 77 3d 2e 2a 97 3d 94 e2 8e 3c 9e 3e 1a 3e
       0.060437314 0.07381092 0.017442025 0.15062949
000220 75 f9 55 3e dc 03 a1 bd 4e c3 66 bc d5 9b 07 3d
       0.20895942 -0.07862064 -0.01408465 0.033107597
000230 04 cd 8e 3e 96 75 99 3d ed 39 c7 39 c5 30 35 3c
       0.2789079 0.07493131 0.00037999396 0.011058991
000240 8a 9c a7 3d 3b 20 30 3e 73 80 14 3e 43 fd ac 3c
       0.08184154 0.17199795 0.14502124 0.021116858
000250 53 97 e2 bd ef 53 3e bd 59 59 c4 bd 8f dc be 3c
       -0.11064019 -0.046466764 -0.09587354 0.02329853
000260 e5 07 82 3d 87 35 88 bd ec f9 c4 3c 54 fa 26 bc
       0.06349162 -0.066508345 0.024044953 -0.010191519
000270 fb df 63 be 8b 7b d4 3c 5d d2 ee 3d 7c 4f 5a bb
       -0.2225341 0.025937816 0.11661217 -0.0033311537
000280 c9 d5 a4 bd 81 a6 dd 3d 56 28 9e bd 54 14 57 bd
       -0.08048589 0.10822774 -0.07722537 -0.05250962
000290 bb c8 50 bc 7c 42 c8 3d b1 41 74 3d 9e 7a f5 bd
       -0.01274317 0.09778306 0.05963296 -0.11986278
0002a0 87 4a d3 ba 4e db 50 bd d6 a1 94 3d 25 f2 b9 3c
       -0.0016120233 -0.050990395 0.0725743 0.022698471
0002b0 bb a7 df bc 49 bb c5 bd c6 ce 4a bd d6 63 ef bb
       -0.02730166 -0.096548624 -0.0495136 -0.0073056025
0002c0 9c 54 8d 3c d7 4b 8c bd 30 ac cd bd 32 f8 5b b9
       0.017252259 -0.06850403 -0.10042608 -0.00020977927
0002d0 9b 14 27 bc 0f 00 0a be 0b e7 9e 3d 22 68 da 3d
       -0.010197784 -0.13476585 0.07758912 0.10664393
0002e0 8c 14 f4 bd b3 fd 8d 3d 00 0d ca 3d 79 69 25 be
       -0.119179815 0.06933155 0.09865761 -0.16153516
0002f0 b8 cc 42 bd 14 04 1d 3c b8 1a 14 3d 94 b2 7e 3d
       -0.047558516 0.009583492 0.036158293 0.062182024
000300 21 a9 75 be e1 ac 01 bd cb e8 13 bd 52 46 12 3d
       -0.23990299 -0.03165901 -0.03611068 0.035711594
000310 dc 85 9b 3c f3 d9 31 3d d6 9e 7f bd d5 f1 3c bd
       0.018984728 0.043420743 -0.062407337 -0.046129066
000320 ff 67 35 bd 10 4f 9d 3c e2 08 2e be 3b bf 5f be
       -0.04428863 0.019202739 -0.16995576 -0.21850292
000330 fc fd c7 3d f6 ab a4 3d 75 06 87 bc d3 82 84 bd
       0.097652406 0.080406114 -0.016482571 -0.06470265
000340 60 4b e4 bd 49 3d e6 bd b8 7c 48 3d e1 c7 92 be
       -0.11147189 -0.11242158 0.048947066 -0.2866812
000350 54 73 ed bd 77 19 de bd 75 9d 1f bd 07 51 a7 3d
       -0.11594263 -0.10844701 -0.038968522 0.081697516
000360 f6 52 9e bd ae 20 10 be 17 75 03 3e 2c d7 8d bd
       -0.07730667 -0.14074966 0.12837635 -0.069258064
000370 4a 81 07 3e fb ea 08 bc 69 8b e0 bb 40 46 af 3a
       0.13232914 -0.008356805 -0.0068525565 0.0013372377
000380 ba 13 f3 bd a7 12 95 3b b1 0e 53 3d af 63 8e be
       -0.11868997 0.0045493427 0.051527683 -0.27810428
000390 81 c5 3e be 44 29 26 bd 67 83 f6 bc ab 9b b7 3a
       -0.1863003 -0.040566698 -0.030091954 0.0014008185
0003a0 6e 7e a6 bd 78 45 fa bd 32 90 3c 3d 39 b6 47 3d
       -0.08129583 -0.12220281 0.046035953 0.048757765
0003b0 4d f5 b2 be 45 15 10 be 40 a7 50 be 1d ac ce bd
       -0.34952775 -0.14070614 -0.20376301 -0.10091422
0003c0 e3 0c df 3c 8e 58 fc bd b6 46 63 bd 39 57 5e 3d
       0.027227825 -0.12321578 -0.055487357 0.0542824
0003d0 e3 25 0a be 41 33 b6 3d 76 b6 29 3c 6a 35 95 3c
       -0.13491015 0.08896495 0.0103584435 0.018213946
0003e0 d9 8d e6 bc 79 1c aa bd 90 a5 48 bb 77 ec 9a 3d
       -0.02814381 -0.08306212 -0.003061626 0.07564633
0003f0 81 ec 16 be db 09 84 be a1 50 fc 3b 82 63 46 3d
       -0.14738657 -0.2578877 0.0077000414 0.04843474

backbone.11.bias f4 [128]
000000 36 f3 fb bd d5 79 b0 3d bb f5 21 bd ab f3 40 be
       -0.12302248 0.086169876 -0.039540987 -0.18842952
000010 15 49 d9 3c 41 1b 9c bc 93 b0 bf bd 04 60 92 3c
       0.026524106 -0.019055964 -0.09359851 0.01786805
000020 6b aa af bd 35 ce d4 3d 80 2e 87 bd c4 c5 4c 3d
       -0.085774265 0.10390893 -0.06600666 0.04999329
000030 fe 75 b0 3d 84 fb a0 3d 7a 02 38 be a7 30 5a bd
       0.08616255 0.07860473 -0.17969695 -0.053269055
000040 a1 e3 c2 bd c8 17 32 bd 60 48 0e be 8f fc a3 bd
       -0.09516073 -0.04347971 -0.13894796 -0.08007156
000050 bb ae b5 bc 4f 43 e3 3b 5a c5 88 3c e1 aa 74 3d
       -0.022178045 0.006935514 0.016695667 0.059733275
000060 02 f8 13 be 02 ba b4 bd ed 4e e4 38 d2 cc 98 bc
       -0.14450076 -0.08824541 0.00010886588 -0.018652353
000070 d0 47 83 3d be be 2b bd 9d fd 75 3c a6 1f 49 3d
       0.064101815 -0.041929953 0.015014079 0.049102448
000080 3d 65 56 bb 51 41 06 be 72 49 b8 bd 84 ef e9 bd
       -0.0032714151 -0.13110854 -0.089983836 -0.11422637
000090 7c 8e bd bc 6d 34 83 bd 7a 29 a0 3d 03 b5 0b be
       -0.02313923 -0.06406484 0.07820411 -0.13643269
0000a0 21 db 46 3c 51 a2 37 be d6 38 a1 bd 21 25 6f bc
       0.012137205 -0.17933013 -0.07872169 -0.014596255
0000b0 f1 8d cf 3c 29 34 a4 3b 74 d1 fb bc f0 c2 6d be
       0.025336238 0.005011101 -0.030739523 -0.23218894
0000c0 0b ea bf bc b7 03 c6 bd f8 fe a6 bd a1 26 f8 bd
       -0.02342703 -0.09668677 -0.081541 -0.12116743
0000d0 33 a4 a4 3d 8c 4a 80 3d a2 b9 4b bc fc 89 f1 bd
       0.08039131 0.06264219 -0.012434395 -0.117938966
0000e0 94 5e d6 3b db ea 2d bc 42 d6 da bd 60 b3 23 be
       0.0065420363 -0.010615076 -0.10685398 -0.15986395
0000f0 3e a3 fc bd 30 dd c1 bc c9 bc 87 bc 4a d5 13 3d
       -0.123358235 -0.02366504 -0.016569512 0.03609208
000100 e4 fc fc 3b c7 c4 ee 3d 0f 35 aa bd c1 de bd bc
       0.0077205766 0.11658626 -0.083109014 -0.023177506
000110 e8 f6 a4 bd 2b 89 e7 3b 5f 10 a9 3d 06 4b f3 3c
       -0.08054906 0.0070659122 0.08255076 0.02969886
000120 c7 6e e5 3c bb 40 24 3d d4 62 0a 3b 45 d0 f5 bc
       0.028006924 0.040100794 0.0021116035 -0.030006537
000130 a8 b3 91 3d d3 5f 32 be 58 50 0d bd 9e 45 0a 3e
       0.07114345 -0.17419367 -0.03450045 0.1350312
000140 b8 f5 8c bd 26 ac 0f be 9d d6 22 bc 55 fe d5 bd
       -0.06882805 -0.14030513 -0.009938863 -0.104489006
000150 7b 30 04 be 78 57 ad 3b 67 74 f4 3c b4 a0 8a bd
       -0.12909119 0.005289968 0.029840661 -0.06768933
000160 18 c7 35 be 79 16 95 3c 05 c5 c5 bd 14 88 48 3b
       -0.1775173 0.018199192 -0.09656719 0.0030598687
000170 c4 07 0e be 7f 38 d1 bd 8f ce e4 bc 6f cb 96 bd
       -0.1387015 -0.10215854 -0.027930526 -0.07363021
000180 57 6a 7a bb 25 8c 38 be 76 c6 8c bd 68 02 1b be
       -0.0038210356 -0.18022211 -0.06873791 -0.15137637
000190 6e ef 85 bd 6f 07 a2 bb 4d 59 94 bc 38 c6 a3 bd
       -0.06539808 -0.004944734 -0.018108988 -0.079967916
0001a0 1f 54 5d be 1d 53 44 bd f7 dd ea bd a7 7e 96 bd
       -0.21614121 -0.047930826 -0.11468118 -0.07348376
0001b0 92 db 43 be ad 2a cd ba b5 a5 e0 3c 74 f3 86 bd
       -0.19126728 -0.0015652977 0.027422765 -0.06589404
0001c0 45 f0 f8 bd e6 f6 2e 3d b9 c2 2b 3d 8a 1a 84 bd
       -0.12155203 0.04271593 0.04193375 -0.064503744
0001d0 35 66 64 3b 1c 97 73 3d ff 2c 33 3d db 3b 65 bd
       0.003485096 0.05947028 0.043744083 -0.055965286
0001e0 15 22 17 be 02 57 08 3d fb 34 ee bd a8 26 aa bc
       -0.14759095 0.033286102 -0.11631199 -0.020770386
0001f0 4f c6 64 3c 07 10 06 bd be cc eb bd 29 f1 12 3e
       0.013963296 -0.03273013 -0.11513661 0.14349808

backbone.11.weight f4 [128, 16, 3, 3]
000000 c5 a0 10 3e 3b 9b 7b 3b 03 82 17 be 86 9a 0f 3e
       0.14123829 0.0038392085 -0.1479569 0.1402379
000010 e9 2f 89 bd fb 6d 93 be 80 f7 41 be 59 a8 9e 3c
       -0.06698591 -0.28794846 -0.1894207 0.019367384
000020 74 8d 90 3e bc 4b 32 3d 75 6e 03 bc e8 cc 65 3e
       0.2823292 0.043529257 -0.0080219405 0.22441447
000030 10 0a 1d 3d af 2e 34 3d c2 d5 e3 3d 42 41 16 be
       0.038339674 0.043989833 0.111247554 -0.14673331
000040 3b 0b 32 bd c0 aa 51 3c 9d 68 b9 bd a6 40 fa bd
       -0.04346774 0.012797058 -0.090531565 -0.12219362
000050 9f 4e cc 3d c4 24 90 3d 7c 15 06 3d 87 2c db 3d
       0.09975933 0.070382625 0.032735333 0.10701852
000060 8d d1 61 3d bf 68 88 3d 34 13 12 be 7a 40 c4 bd
       0.055131484 0.06660604 -0.14265138 -0.095826104
000070 4e 3f 32 be a2 04 bc 3d ec 67 0c 3e 8d 7f 8a be
       -0.17406961 0.09180571 0.13711518 -0.2705044
000080 f5 1b 05 3d 0f 70 1b 3c ce 18 79 bd 86 27 c2 3d
       0.032497365 0.009487166 -0.06081467 0.09480195
000090 ac 2a 16 3e df 70 f8 3d 25 fd ea 3d 61 0a dc bd
       0.14664716 0.121309035 0.11474065 -0.10744167
0000a0 dd 6f 8a be 63 53 f8 3d 38 d1 88 bd 34 bd 3d bd
       -0.2703847 0.1212528 -0.0668053 -0.046323016
0000b0 81 8c 27 bd 15 f7 f1 bc 57 23 70 be 1b 5d f8 3d
       -0.04090548 -0.029536763 -0.23450981 0.121271335
0000c0 e3 38 27 3d d9 80 04 bd 4f cb 33 bd c3 9d da 3d
       0.040825736 -0.03234944 -0.043895062 0.10674622
0000d0 ca 91 2a be e7 ae 2d 3d 6c e1 8c 3c 88 82 c7 bd
       -0.16657177 0.042403128 0.017197333 -0.09741694
0000e0 37 4d 36 3d f1 96 30 be 52 55 f6 3d 06 c1 5c 3d
       0.04450723 -0.1724508 0.12027992 0.05389502
0000f0 55 f2 ff 3c fc 7e ae 3d c5 d9 a6 3d 72 c0 56 bd
       0.031243483 0.08520314 0.08147005 -0.052429624
000100 39 15 59 3d 45 15 af 3d be df 24 bc a9 19 45 bd
       0.052998755 0.08548979 -0.01006311 -0.048120175
000110 6a 91 c2 bd 8d 3e 18 3e fc 43 23 3d 87 45 1d be
       -0.09500392 0.14867611 0.039859757 -0.15358554
000120 24 e0 06 3e d4 4f de 3d 83 98 da 3d 6a 32 fb 3d
       0.1317144 0.1085507 0.106736206 0.12265475
000130 da 48 8d 3d 7d 5a 28 3d 26 fe dc 3d 21 2a 72 3d
       0.06898661 0.04110192 0.107906625 0.05912221
000140 66 02 68 bd 8d fa ed 3d 8e 70 aa bd f8 df 2b bb
       -0.056642912 0.116200544 -0.08322249 -0.0026226025
000150 14 16 15 3d e7 d1 11 be 47 7a 0e be 83 f9 9c 3d
       0.03639801 -0.14240228 -0.13913833 0.07664778
000160 75 04 9a be e9 ad ed bd 2e 50 26 bd 6a af d5 bd
       -0.30081525 -0.11605436 -0.04060381 -0.10433848
000170 60 34 68 be ba 51 f2 3e 0a d2 75 3e 32 df 4d be
       -0.2267623 0.47327977 0.24005905 -0.20104674
000180 b2 d6 14 3f 72 d2 15 bd fa 1f 18 bd 2c 36 8b bc
       0.581401 -0.03657765 -0.03713987 -0.016993605
000190 95 54 82 3d 9a e9 8a be 2b a3 16 3e 0e cb b4 bd
       0.06363789 -0.2713135 0.14710681 -0.08827792
0001a0 bb a9 a3 bd 66 59 42 bd 1a 67 df 3d 39 16 09 3e
       -0.07991358 -0.04744854 0.10908337 0.13387384
0001b0 b8 ce de 3d d4 5f a2 3d a6 fb 1e 3d 2f aa d7 3d
       0.10879272 0.07928434 0.03881421 0.10530507
0001c0 35 05 34 3e 4f fb 00 3d 8c ad 76 bc e7 f4 9a 3d
       0.17580111 0.031489667 -0.015056025 0.07566243
0001d0 4b d1 e8 bb c1 b4 19 be 85 d2 ca bd 9e f2 d9 bd
       -0.007105028 -0.15010358 -0.09903435 -0.10641979
0001e0 44 57 73 be 6c 87 bb bd 5d 2e 3f be e5 1c 84 3e
       -0.23763758 -0.09156689 -0.1867003 0.25803295
0001f0 dc 20 f8 bd b9 eb 9d bd 71 46 85 bd e3 59 c8 bc
       -0.121156424 -0.07710976 -0.06507576 -0.024456924
000200 3f 68 b1 bc f3 93 79 3e 5d 9f 77 bd f8 64 40 bd
       -0.021656154 0.24372844 -0.060454715 -0.04697129
000210 19 e4 a6 bd 75 d4 85 3c db 92 23 be db 68 7d bd
       -0.08148975 0.016336659 -0.1597399 -0.061867576
000220 8a 68 e4 bc ec e6 78 3d 79 0f 33 be 40 d5 28 3d
       -0.02788188 0.0607671 -0.17486371 0.041218996
000230 87 0f c7 bd 8e db 3c ba 7e 5f 2e be 1b 69 4e 3d
       -0.097197585 -0.0007204347 -0.17028615 0.050393205
000240 cb 62 16 3b 6e 6e 30 be 39 e7 4e bd 6b ae 86 be
       0.0022947069 -0.17229626 -0.05051348 -0.26304945
000250 77 cb 00 be 9e 1e cb 3a 2d 66 d9 bd 43 db 9b bc
       -0.12577616 0.0015496796 -0.106151916 -0.01902545
000260 d4 ec 7a be c0 ce a1 bd 42 14 2e bb 0d e0 d9 bd
       -0.24504405 -0.079007626 -0.0026562368 -0.106384374
000270 ed cc 92 3d 5d 1b c2 bd d7 fd 37 3d 19 17 a7 3d
       0.07167993 -0.094778754 0.044919815 0.081587024
000280 db 7e 5e bd b7 61 6e be 4b f7 21 bc 17 33 b4 3d
       -0.054320198 -0.23279463 -0.009885619 0.08798807
000290 d3 0d b7 bd 16 99 9f 3c 0e 9c 71 bd 03 e5 bd bb
       -0.08938184 0.019482177 -0.058986716 -0.0057951226
0002a0 1d 80 9f bd 78 8e 19 be 53 7f 3d be 36 81 06 3d
       -0.077881075 -0.14995754 -0.18505602 0.03283807
0002b0 26 04 92 3e b8 74 19 3e 56 b0 eb bd a3 b8 b5 bd
       0.2851879 0.14985931 -0.11508243 -0.08873107
0002c0 1a 48 a8 bc e9 69 86 bd 73 ce 8b 3c 44 4b 88 3e
       -0.020542193 -0.065631695 0.017066216 0.26619923
0002d0 d0 70 e7 bc b4 7d 00 be 3e 33 63 bd cd f3 23 be
       -0.028252035 -0.12547952 -0.05546879 -0.16010971
0002e0 52 bf eb bc cc 7a bd 3c 5c 71 ab bc a0 ef 28 3e
       -0.028777752 0.023129843 -0.020928077 0.1649766
0002f0 50 70 12 be 93 f1 48 bd 24 73 2b be a4 09 20 3d
       -0.14300656 -0.049058508 -0.16743141 0.039071694
000300 b8 9c 29 be f0 c6 11 be 08 82 a8 bc 50 0e d2 bd
       -0.1656369 -0.14236045 -0.020569816 -0.10256636
000310 65 77 92 be dc d7 bc bc 48 78 2d be fa 3b d4 3c
       -0.28606716 -0.023052149 -0.16940415 0.025907505
000320 c7 f8 b9 3d 4f 21 2a be 27 c4 37 be 4f 3b 57 bd
       0.09080654 -0.16614269 -0.1794592 -0.052546795
000330 cd 57 67 3d 35 90 13 be 36 d1 46 be 86 aa dc 3c
       0.056480218 -0.1441048 -0.19415745 0.02693678
000340 13 72 0c 3c b1 d7 91 bc 88 70 42 3e ca df 2e be
       0.008572119 -0.017803045 0.1898824 -0.17077556
000350 f4 b5 86 bd 11 b1 87 3a c2 89 55 be 3b ef 50 bd
       -0.065776736 0.0010352453 -0.20853332 -0.051009398
000360 58 1a 96 3e bc 49 1b 3e 35 aa c4 3d 9d 63 01 3e
       0.29316974 0.15164846 0.09602777 0.12635656
000370 d4 bf 58 bd b8 df 02 3e c5 e2 55 bd ed f6 55 3e
       -0.052917317 0.12780654 -0.052218217 0.20894976
000380 6f 41 94 be 43 23 ac 3e c2 4f db 3d 2f 5d b8 bc
       -0.28956172 0.33620653 0.10708572 -0.02250537
000390 a7 7a 67 3e b9 99 5c be 6c d8 01 bd 6a f7 a6 3c
       0.22605382 -0.21543016 -0.031700537 0.020381648
0003a0 9a ea dc bc 21 f8 99 bd 61 d0 75 bd cb 44 3a bd
       -0.026967335 -0.0751803 -0.06001318 -0.045475762
0003b0 db 41 5f be 79 4e d6 3e d2 3a 09 bc ac 17 c5 bc
       -0.21802466 0.41856745 -0.00837584 -0.02405914
0003c0 b9 6e 8b be 68 8f 4e 3d b9 93 22 3e 7e 01 6b 3c
       -0.27232912 0.05042973 0.15876664 0.0143436175
0003d0 cb 2e 0c bf fe 3d 42 3d e3 ed 63 be ab ba e3 bd
       -0.547589 0.0474224 -0.22258715 -0.111195885
0003e0 3b ad 81 bc 5a 3b a1 3d 20 a6 8d 3d 0a f0 b9 bc
       -0.015829673 0.078726485 0.069164515 -0.022697467
0003f0 a9 c4 81 3e 0e df 9a 3e 80 a6 f1 bd 03 fe 3d 3e
       0.25345352 0.30248302 -0.117993355 0.18553929

backbone.15.bias f4 [256]
000000 70 a0 fa 3d 66 96 38 3e 96 99 95 3d 20 d7 a3 3d
       0.12237632 0.18026122 0.07304685 0.08000016
000010 1c 3e 9f 3d ae 74 89 3c c5 f0 11 be d1 4b 0a bd
       0.07775518 0.01677927 -0.14252003 -0.03376371
000020 f1 c2 c6 bd 9d 76 aa bd f0 d8 15 3d f0 a3 ac bd
       -0.09705151 -0.08323405 0.03658384 -0.08429706
000030 a2 ad ef 3c 54 b1 e3 3d 0a 5b 0b 3e fe e4 f5 3c
       0.0292576 0.11117807 0.13608947 0.030016419
000040 ed a7 96 bc 31 21 02 3e 3a 94 65 bb eb 2d bf 3d
       -0.01839062 0.12707974 -0.0035030977 0.0933493
000050 6f 7b 6d 3e 59 59 89 3d e2 01 91 bd bf 86 63 be
       0.23191617 0.06706495 -0.07080437 -0.2221937
000060 42 22 2b 3e 71 79 40 bd 46 ef 00 bd 01 17 77 bd
       0.16712287 -0.046990816 -0.03147819 -0.060324673
000070 42 f5 34 3c 0d 30 46 bd 95 26 5b 3d 83 c5 21 bd
       0.011044802 -0.04838567 0.05350359 -0.039495002
000080 f9 2b ec bd 28 09 0f 3d 01 45 2a bd 83 cc 1b 3e
       -0.115318246 0.03492084 -0.041569714 0.15214734
000090 6c ac 97 3d f5 b7 09 3e fa 93 0d 3e e8 2c d2 3b
       0.07405934 0.1344908 0.1382598 0.0064140446
0000a0 11 2f 17 bd ba 32 a1 bd fa ed 14 3e 86 d2 86 bd
       -0.03691012 -0.078710034 0.14543906 -0.06583123
0000b0 39 f1 29 3d 5d a2 ac bd 36 a8 25 bc 5c e6 09 3e
       0.041489813 -0.08429406 -0.010110905 0.13466781
0000c0 45 30 06 3d 59 10 bd 3d ed d0 8f bd 2c 8f a9 bd
       0.032760877 0.09231634 -0.07022271 -0.08279261
0000d0 24 85 51 bc dd 26 37 3d 22 88 47 bd 4a ce df 3d
       -0.012788091 0.044714797 -0.04871381 0.109280184
0000e0 d8 94 d1 3d 6c d5 4f 3e e9 ba 42 bd 94 2a d8 3c
       0.10233468 0.20296258 -0.047541533 0.02638749
0000f0 8b f1 cf 3d 75 95 bc 3d db 9b 6a 3d f6 45 1e 3d
       0.101534925 0.09208194 0.05727754 0.03864094
000100 e4 9f e4 3b 8b 19 30 3e 4a e6 9f 3c ab c5 5a 3d
       0.0069770683 0.17197244 0.01951899 0.053411167
000110 86 c1 51 3e c2 6b c9 3c fa b1 1c 3b 1b 98 39 bd
       0.2048398 0.024587516 0.0023909793 -0.045311075
000120 23 ca 25 be 3f ef be bb d6 14 e3 3d 58 2a a5 3d
       -0.1619039 -0.00582686 0.110879585 0.08064717
000130 48 78 d1 bc b0 01 23 bc aa 28 1f bd 0d 45 e5 3c
       -0.02557005 -0.009949133 -0.03885714 0.027987028
000140 55 89 0c 3e 5b c5 5a 3e 3c df 8e 3d d3 51 3e 3d
       0.13724263 0.21364348 0.06976172 0.046464752
000150 7e 51 8c 3d 13 1c 39 3d fd 7b 92 3d 78 b5 88 3d
       0.06851481 0.04519279 0.07152555 0.066752374
000160 84 09 8a 3d 0c 6c 7d 3e d6 c4 a9 3d d2 8f 5d bc
       0.06740096 0.24748248 0.082894966 -0.013523059
000170 12 d3 4e be 5a 3c 65 3c bb 31 c7 3d 04 a9 3c bb
       -0.20197704 0.01399144 0.09726282 -0.0028787265
000180 c0 fd 9d 3d bb 04 45 bd b8 6c 15 3c 50 f4 02 3e
       0.077144146 -0.048100214 0.009120159 0.1278851
000190 cf 22 4f 3c f7 47 e6 3c d9 27 cd 3d 52 5b 07 3e
       0.012642576 0.028110487 0.10017366 0.1321843
0001a0 56 70 15 bd d2 b8 5a bd 5d fd e7 3c f7 94 a9 3d
       -0.036484085 -0.053398915 0.028319055 0.08280366
0001b0 a0 14 70 3e f1 7e 58 3e 8a f6 fd 3d 16 bf a3 3d
       0.23445368 0.21142174 0.12400539 0.07995431
0001c0 a9 d2 bb 3c 6c 56 21 bd 46 5d 8d 3d 14 12 ec ba
       0.022927599 -0.03938906 0.06902556 -0.0018010759
0001d0 0f b0 b4 bd c9 3f cc 3d 1d ef 92 3d c1 06 c1 3d
       -0.08822643 0.099731036 0.071745135 0.09425116
0001e0 b2 58 62 3e 13 be aa 3c 0f 6b ef 3c 91 cd b4 3d
       0.22104147 0.020842588 0.029225854 0.08828271
0001f0 e8 d1 0b 3e ad 19 c5 3d 7e 7b 17 bd e3 f4 8b bc
       0.13654292 0.09624038 -0.036983006 -0.017084545
000200 76 1d fe 3d 80 ba 37 bd a5 18 5b be 45 9d b4 bc
       0.12407963 -0.044855595 -0.2139612 -0.022047648
000210 a1 7c 02 3e d3 9e 9e 3c 99 69 ac 3d d5 26 8d 3c
       0.12742855 0.019362843 0.08418579 0.01723043
000220 a2 42 92 3d 24 65 9b 3d 0a 77 37 bc a3 cd 96 bb
       0.071416155 0.075876504 -0.011197815 -0.0046021505
000230 ee 31 c1 3d 63 9d 2d 3e 8b d8 02 3c 16 86 0a be
       0.094333515 0.1695457 0.007986198 -0.13527712
000240 d8 d0 fd 3d 80 af d0 bd 83 8c 40 3d 6e 09 d1 bb
       0.123933494 -0.10189724 0.047009002 -0.006379298
000250 8a ff 90 39 51 2f 0d be 27 48 42 bc ab c1 b3 bc
       0.00027656212 -0.13787581 -0.011858023 -0.021942934
000260 20 18 f0 bd 74 8e 0d bc 72 43 36 bc f8 72 9c 3d
       -0.117233515 -0.0086399205 -0.011124479 0.07639116
000270 6f 84 01 3e 23 6f 93 bb 0e 54 ba 3c e0 44 e5 3d
       0.12648176 -0.0044993325 0.022745159 0.111947775
000280 00 1a 2f 3e 8c 06 dc 3d 87 90 f6 bd ed db ed bb
       0.17099762 0.10743436 -0.12039285 -0.007258883
000290 ce cd 6d 3c 9d a1 10 3d 44 14 bb 3d 4b 65 08 3d
       0.0145144 0.035310376 0.09134725 0.033299726
0002a0 14 00 03 3d 1d 02 d0 bd e8 d2 9a bd a4 b0 3a 3d
       0.031982496 -0.10156653 -0.075597584 0.045578614
0002b0 fe 89 a8 bd f5 8c bc bd ba b4 9c 3d 42 e8 d8 3c
       -0.08229445 -0.09206573 0.07651658 0.026477937
0002c0 c9 11 27 3e fc 2d 77 3d c8 4a 0a bd 08 c2 65 3d
       0.16315378 0.06034659 -0.033762723 0.056093246
0002d0 d2 37 31 bd 4a bb 0d 3e b8 6a 05 bd 44 b8 86 3d
       -0.043266125 0.13840976 -0.032572478 0.06578115
0002e0 d8 f4 29 bc 66 a8 f6 bd 06 9e 78 be f0 de 0e 3e
       -0.010373317 -0.12043838 -0.24279031 0.13952231
0002f0 74 89 b4 3c 5a 0b b5 3d 96 11 a2 3c f9 25 1e bc
       0.022038199 0.08840056 0.019783776 -0.009652608
000300 2b bb 67 3b be c6 76 3d 2f 8d 5a 3e 33 c6 14 ba
       0.0035359364 0.06024813 0.2134292 -0.0005675286
000310 02 8a c2 3d 65 f1 02 3d 56 6d a0 3d 1e 51 2d 3e
       0.09498979 0.031968493 0.07833354 0.16925475
000320 a2 32 54 b9 2b ac bd 3c 2a b9 95 3d 76 05 db bc
       -0.00020236758 0.023153385 0.07310708 -0.026736002
000330 9b 3e 37 bc 9a a1 e8 bc cd b8 e0 bb 72 ab 19 bd
       -0.01118436 -0.02839737 -0.0068579675 -0.03751702
000340 a5 93 8c 3d 56 63 18 3e 7d 83 d0 bb fb bd b0 bd
       0.068640985 0.14881644 -0.006363331 -0.08629986
000350 da b3 a8 bd 4b 21 5d 3e c0 88 84 3d 47 88 4f 3e
       -0.08237429 0.21594732 0.064713955 0.2026683
000360 2e f8 ae 3c 87 28 c7 bd 57 51 b4 3d 85 61 2a 3e
       0.021358576 -0.09724527 0.08804577 0.16638763
000370 08 3c d3 3d cb 7b 2f 3c 84 c2 e3 bc b4 ac b8 3d
       0.103141844 0.010710667 -0.027802713 0.090173155
000380 38 9f 30 be b1 c6 08 3e e7 3a 05 3e b4 9c 9a bd
       -0.17248237 0.13357045 0.1301075 -0.0754942
000390 83 e4 47 3d 3c 6f 48 3d 48 1c a5 3d 40 29 ac 3d
       0.04880191 0.048934206 0.08062035 0.08406305
0003a0 d2 e1 df bc 44 3e 1d 3c 60 3d 0a 3e e3 87 56 bd
       -0.02732936 0.009597365 0.13499975 -0.052375685
0003b0 bb b5 11 3e 9c ed 78 bc 5f 63 9f 3d d4 b7 0c 3d
       0.14229481 -0.015193369 0.077826254 0.034355
0003c0 c4 09 43 be 44 cf da 3d c7 80 a0 bc 98 65 e0 3c
       -0.19046694 0.10684064 -0.019592656 0.027392194
0003d0 c7 71 e9 bb f0 8f 34 bc e1 e0 4b bb 5c a4 8f 3d
       -0.007124159 -0.0110206455 -0.003110938 0.07013771
0003e0 fe c0 be bd 86 90 10 3e 6e e1 f4 3c 35 c3 70 3d
       -0.09314154 0.14117631 0.02989265 0.058779914
0003f0 34 ec b3 3d 29 ff 94 bc 77 fb 78 3b b5 fb 4c 3d
       0.087852865 -0.018188076 0.0037991682 0.050044734

backbone.15.weight f4 [256, 128]
000000 c0 39 4c be 90 fb 27 3c 72 b0 be bc 97 56 4c bc
       -0.19943905 0.010252848 -0.023277495 -0.0124718165
000010 e7 d9 03 ba 7d 9e 46 bd f7 15 2c be 79 a7 13 be
       -0.00050297234 -0.04849099 -0.16805254 -0.14419354
000020 79 89 35 be 8a 0c 26 be 78 7e 8e 3d de 63 aa bd
       -0.17728223 -0.16215721 0.06957716 -0.083198294
000030 f9 7e d9 bd 8b df 31 3e 1d 59 2d be 02 d3 ef 3c
       -0.10619921 0.17370431 -0.16928525 0.029275421
000040 9e 65 d8 bd 9a 70 2e 3d f5 e3 11 be 24 7e e7 3d
       -0.10566257 0.042587854 -0.14247115 0.11303356
000050 2c 44 6d bd d4 51 d1 bd 5b e8 a0 bd 9d f7 a5 3d
       -0.057926342 -0.102206856 -0.07856818 0.08103869
000060 43 6a 95 bc 6f 98 76 bc c0 23 d5 3b 8c 8c 14 be
       -0.018239146 -0.015050991 0.006504506 -0.1450674
000070 32 30 79 3d 66 b0 15 be 30 44 93 3d 10 2e f4 3c
       0.06083698 -0.14618072 0.0719074 0.02980712
000080 4c 33 19 3d 44 9c 46 be a5 be fb 3c 16 a9 84 3c
       0.037402436 -0.19395548 0.030730555 0.016193908
000090 e2 9b 76 bd 50 74 b3 3c 95 4a 0c bc 9b a2 8c 3c
       -0.060207255 0.021906048 -0.008562704 0.01716738
0000a0 db e9 4a bd 8d 2e 28 bc 81 b9 9a 3d 11 02 d9 39
       -0.04953943 -0.010265005 0.07554913 0.00041391005
0000b0 03 49 7b 3c 7b c3 53 be 82 f5 4b be a7 9f 15 3c
       0.015337232 -0.20680039 -0.19917873 0.009132302
0000c0 4b 40 05 be 41 2a 0c bd 47 85 7a be a8 06 43 3d
       -0.13012807 -0.034219984 -0.24464904 0.04761377
0000d0 75 6f 16 be fc 92 ce 3b ce 9c 59 bd 5b 13 8e bd
       -0.14690955 0.006304143 -0.053128056 -0.069372855
0000e0 5f 52 ff 3c ee 59 8e bb 70 7c dd bd 84 59 8f bb
       0.031167207 -0.0043442165 -0.1081475 -0.0043746848
0000f0 b6 95 61 3d 5d 7d 56 bd dc 23 6f 3d da a2 30 bc
       0.055074416 -0.05236565 0.058383808 -0.010781014
000100 cc 0c 30 bc 96 76 a8 3d e1 94 71 bd 49 1b 3d 3d
       -0.0107452385 0.082257435 -0.058979873 0.0461686
000110 11 10 f0 3c d9 b2 20 3c e0 bf 37 3d 49 34 e4 3d
       0.029304536 0.009808266 0.04486072 0.11142785
000120 fe f5 3d 3d 04 58 ab bd 26 27 03 bd 80 7f 26 3d
       0.046377175 -0.08366397 -0.032019757 0.040648937
000130 8f 61 db 3c bb 03 ce 3c 2b 21 8c bc 34 aa a4 bd
       0.026779918 0.025148263 -0.01710566 -0.08040276
000140 c8 95 92 3d 99 88 a5 bd d8 8d 3d be 3d 1d 27 bd
       0.07157475 -0.080826946 -0.1851114 -0.04079937
000150 20 c1 7b bd d2 ab 81 bd 47 0c 16 3d ae d1 81 bd
       -0.061463475 -0.063316 0.036632802 -0.06338821
000160 2c 6a 08 be 50 94 bb bd 2a 54 4a 3d 3f 77 d5 bc
       -0.13321751 -0.09159148 0.04939667 -0.026057838
000170 37 25 5c 3c 02 a5 c1 3d c6 85 57 3d 5c 42 6b bc
       0.013436607 0.09455301 0.05261781 -0.014359083
000180 fe 9b b9 bd 0e 02 13 bd 91 b8 b7 3c b0 da 4c 3d
       -0.09062956 -0.03589063 0.022426875 0.050013244
000190 2a 9a 2b bc eb 2e 9a bd 1b 4b a7 3d 05 ef 2d be
       -0.010473767 -0.0752848 0.08168622 -0.1698571
0001a0 85 b0 1c be fd 63 d1 bd a3 8d 79 bb 34 b9 24 be
       -0.15301712 -0.102241494 -0.0038078807 -0.16086274
0001b0 f9 d5 2c bc 5f 7c fd 3d e5 e3 69 3c 3b 25 33 be
       -0.010549062 0.123772375 0.014275526 -0.17494671
0001c0 2b 44 c6 bc 22 59 bc 3d 37 be 20 bc 12 19 8c 3c
       -0.024202427 0.09196688 -0.009810976 0.017101798
0001d0 85 46 2f 3e b5 c2 72 bd 2e 06 94 3d ac c2 dc bd
       0.17116745 -0.05926772 0.07227741 -0.10779318
0001e0 84 ed ba bd c9 c9 1d 3e bb c7 2f bc 7d 85 c5 3d
       -0.09127334 0.15409006 -0.010728772 0.096446015
0001f0 e0 78 a8 bd ca db 1b bd a4 88 0a be 61 60 b3 3c
       -0.0822618 -0.038051404 -0.13528687 0.021896543
000200 f2 64 d0 bc 99 8f 74 bd e8 bf f0 bc e2 4f ed 3c
       -0.02543876 -0.059707258 -0.029388383 0.028968755
000210 ae ff 2b 3d 1a 7a 9a bb d7 ed f2 3d dd 98 91 bc
       0.041991882 -0.0047142627 0.118617706 -0.017773086
000220 e9 eb f0 bd 45 d5 9d 3c c2 fd a1 3d 5f fb 16 3c
       -0.11763746 0.019266734 0.079097286 0.009215205
000230 ac e2 c7 bd 2d 66 bb 3c 2b 3b a0 bc a2 65 17 bd
       -0.09760031 0.02287587 -0.019559463 -0.03696216
000240 0a 57 36 3d d0 1f 9b bc 73 3d 9b bd 8e 78 bf 3c
       0.0445166 -0.018936068 -0.0758008 0.023372915
000250 42 32 f0 bc 74 80 de 3d 88 40 94 3b 46 bc 9b 3c
       -0.02932084 0.10864344 0.0045242943 0.019010674
000260 15 66 43 bd bc c6 6b bd 0d 26 e3 3c f6 f0 a2 3b
       -0.047704775 -0.057562575 0.027728105 0.0049725724
000270 56 61 85 bd 0e d9 a4 bd 9f b3 3c 3d 75 4e b0 bd
       -0.06512706 -0.080492124 0.046069738 -0.086087145
000280 9b 1e df 3c 98 27 35 bd 71 8d 1f be 18 1b 22 3d
       0.027236274 -0.044227213 -0.155813 0.03957662
000290 c2 80 ff bb 32 67 88 bd de 35 9f 3d c1 57 30 be
       -0.0077973315 -0.06660308 0.07773946 -0.17220975
0002a0 51 6f 08 3e c7 33 99 3d 8f 35 0e 3d 5e aa 2e 3c
       0.13323714 0.07480579 0.034719046 0.010660736
0002b0 33 2d 9c bc 65 f5 4f 3d 39 89 0d bd 95 b2 3c 3e
       -0.019064521 0.050771136 -0.034554694 0.18427499
0002c0 5e 87 d8 3d ef 99 74 bd 7c 24 d1 bd e5 b1 f8 bb
       0.10572694 -0.059717115 -0.10212037 -0.007589566
0002d0 09 94 b4 3d d1 ed be 3d 0e 0a 07 3e 18 1c a3 3b
       0.08817298 0.09322704 0.1318743 0.0049777143
0002e0 aa fa 39 bd 9d 36 60 3d f4 9b 28 bd bb 15 16 bc
       -0.045405068 0.054739583 -0.041164353 -0.009160454
0002f0 6a 20 86 3d b3 d6 0f 3e dc db 4d bc 6e 4a d2 3d
       0.06549151 0.14046745 -0.012564626 0.102681026
000300 0e 39 45 3e 02 70 ec 3d b7 4c c5 3c c4 8b 48 be
       0.19260046 0.11544801 0.024084432 -0.19584566
000310 03 f1 a7 3b 80 84 ed 3d 1b fe 2a 3e 5d 88 34 3e
       0.0051251664 0.11597538 0.16698496 0.17630143
000320 e4 d6 53 3e b0 15 a9 be 3b de 1e 3e 60 ae 18 3e
       0.20687443 -0.3302436 0.15514462 0.14910269
000330 59 62 26 bd e1 14 21 3d 1d 12 e1 3c cc 96 2e 3d
       -0.040621135 0.039326552 0.027474457 0.04262428
000340 3a ad 90 3c 6a eb 73 bd 8c 04 28 bd 09 9d cf bd
       0.017660726 -0.05955068 -0.04101996 -0.10137374
000350 fb 45 3e 3d 22 c7 50 bb 99 7f a2 3d 3e 76 0d bd
       0.046453457 -0.0031856974 0.079344936 -0.034536593
000360 ad 6a e7 3c 0d 2e fe bc 1b 2d a5 3c ad 69 a0 3d
       0.02824911 -0.031027818 0.02016311 0.07832656
000370 a8 15 a4 bc 3f 41 92 bc 46 3a 26 3d ef 6c 10 bd
       -0.020029858 -0.017853377 0.040582918 -0.035260137
000380 d1 fc c3 bd ad b0 2e 3d 11 48 e8 3d 71 e5 bb 3d
       -0.09569705 0.04264896 0.113418706 0.09174622
000390 74 63 63 3c 87 3b 93 3d 4e 89 19 bc 3c a9 02 be
       0.013878692 0.07189088 -0.009371115 -0.1275987
0003a0 6a 63 32 3d e6 15 2d be f8 6d 05 3e 44 eb 36 be
       0.04355184 -0.16902885 0.13030231 -0.17863184
0003b0 c1 1c b6 bd 3a eb a9 bc 90 1b 64 3e 9c f7 6a 3d
       -0.08892203 -0.020742048 0.2227614 0.057365045
0003c0 d5 bc ef bc e4 fb 3d 3d c3 50 0f 3d 43 53 d3 bd
       -0.029264847 0.0463828 0.03498913 -0.10318615
0003d0 af 15 1e b9 5e 43 cd 3d 13 ec 54 3d b4 e3 08 3e
       -0.00015076132 0.10022615 0.05198295 0.13368112
0003e0 1d 7a b1 bd 0d 71 ab 3c 8a 37 14 3d 65 91 4a 3b
       -0.086658694 0.02092793 0.03618578 0.0030909416
0003f0 66 15 15 3e fe b1 23 bd 0a 72 3f be c8 a3 a8 bc
       0.14558944 -0.03996467 -0.18695846 -0.02058591

backbone.2.bias f4 [32]
000000 0f f9 19 bc d7 51 29 bd c4 b3 aa bd 14 f5 1b 3d
       -0.009397759 -0.041337814 -0.08335069 0.03807552
000010 6b 81 82 3b be c8 9d 3d ae 3c cc 3b 88 ef bc bc
       0.003982713 0.07704304 0.0062328195 -0.023063436
000020 2f 47 50 bd 26 f5 ab bb 7f 9e 1f 3d 74 56 36 3d
       -0.050849136 -0.00524773 0.038969513 0.044516042
000030 72 1e 78 bc a0 62 8a bd 56 5f 78 3d 73 16 cf bc
       -0.0151439775 -0.067570925 0.060637794 -0.02527926
000040 ae 04 21 3d d5 25 da bd 55 36 40 3d fb 38 55 bd
       0.039311104 -0.10651747 0.046926815 -0.052056294
000050 ab 10 9d 3d 28 d8 e1 bd 24 83 35 3d 86 b7 ad bd
       0.07669195 -0.11027557 0.04431452 -0.0848227
000060 64 de e8 3d 47 a2 31 bd 8a 46 a4 bd ac 68 1a bd
       0.11370543 -0.04336765 -0.08021267 -0.03769748
000070 b1 42 e4 bd 6d ec 7a 3c ca 45 b0 bb 70 d1 8a 3d
       -0.11145533 0.015315157 -0.0053794133 0.06778228

backbone.2.weight f4 [32, 16, 3, 3]
000000 0a ba a3 3d 89 66 bd 3e 64 a0 07 3b a4 67 1c 3e
       0.079944685 0.3699229 0.0020694965 0.15273911
000010 d2 6d b8 3e 95 e4 d0 bd 38 2b 11 3e 8f d7 de 3c
       0.36021286 -0.101998486 0.14176643 0.027202396
000020 7a e8 ac 3d 82 27 e0 be 0d 2c b5 3d b7 f1 f1 bd
       0.08442779 -0.43780142 0.08846293 -0.118136816
000030 0e 5c f6 be 1e ca da 3d 6f 57 17 be 29 fb ad be
       -0.48117107 0.10683082 -0.14779447 -0.33980682
000040 d2 f8 44 be 06 cf 16 3e c4 1f 65 bc 11 a0 8d bc
       -0.19235542 0.1472741 -0.013984624 -0.01728824
000050 62 e6 1f be dc 9a 34 be 34 7a 2a 3e a4 c6 4e be
       -0.15615228 -0.17637199 0.1664818 -0.20192963
000060 ed 03 1d 3e a1 06 64 bc 6c 17 86 be d1 22 49 bc
       0.15333529 -0.013917596 -0.26189744 -0.012276367
000070 f6 d2 35 bc ec bd 89 be d9 e0 48 3c 9d 30 1a bd
       -0.01109766 -0.2690271 0.012260639 -0.037644017
000080 ce 81 3e be 01 b0 71 bd 5e b7 51 be 13 3d 65 be
       -0.18604204 -0.05900574 -0.20480105 -0.22386579
000090 91 81 e3 3d e7 32 e3 3d 5a 83 60 bc 76 23 55 3e
       0.11108697 0.11093693 -0.013703192 0.20814309
0000a0 9b 44 19 bd ca 77 c7 bc b9 7f 56 3d 89 1c 59 bd
       -0.037418943 -0.024349112 0.0523679 -0.05300573
0000b0 ec de 0d be 12 45 67 be 9e e1 11 3d f5 81 1f be
       -0.13854569 -0.22584942 0.035615556 -0.15576918
0000c0 52 bc 16 3e 87 0e 0c be 3c db 88 3d 28 11 8e 3d
       0.14720276 -0.13677417 0.06682441 0.06936866
0000d0 55 e5 50 be 3f 73 f4 bc 88 fd 20 bd fa 53 2c be
       -0.20399983 -0.02984011 -0.039304286 -0.1682891
0000e0 a3 68 8a 3d de f4 96 bd d5 19 bc bc 93 01 f5 bc
       0.06758239 -0.073709235 -0.022961536 -0.029907977
0000f0 ff 87 1c 3c d5 18 8f bd f2 85 d8 3d 63 4c 31 3d
       0.009553908 -0.06987158 0.10572423 0.04328574
000100 7a da 54 be 26 d6 52 be 29 2d 01 bd c9 2b cb bd
       -0.20786467 -0.20589504 -0.03153721 -0.09920461
000110 67 38 12 3c ab b4 42 3c 5c 64 cc 3c 86 af f5 3d
       0.00892458 0.011883895 0.024950199 0.11996369
000120 f6 09 64 be df e9 2c b4 51 f9 76 be 5d de 62 be
       -0.22269425 -1.610383e-07 -0.24118544 -0.22155137
000130 31 f1 30 be 57 45 43 be f8 4e d2 bd ec 24 8e be
       -0.17279507 -0.1906942 -0.10268968 -0.27762544
000140 13 8e c3 3e 92 4a 8e bd 05 be 76 3c 65 46 1f bd
       0.38194332 -0.06947817 0.015059953 -0.038885493
000150 5d 84 f4 bd 93 36 85 3e 66 95 b8 3d 98 a2 cb 3d
       -0.11939309 0.260182 0.090128705 0.09943122
000160 ab fb fa 3b 6e 84 ed 3d 8a 4f 5e 3c 3e 0f 42 3e
       0.0076593957 0.115975246 0.013568768 0.18951127
000170 8d 1b e3 bd 77 bc 1e 3e 81 76 08 3d d7 fe 60 3e
       -0.11089239 0.15501581 0.03331614 0.21972214
000180 bc 4c 6c bd fa e8 9e 3e d6 69 03 3e a9 12 0e 3e
       -0.057690367 0.31037122 0.12833342 0.13874306
000190 66 d5 f8 3d a7 fe 7f bd f1 7d 09 3e bf 4f 5e bd
       0.121500775 -0.062498715 0.13426949 -0.05427527
0001a0 e3 09 3c 3d d4 e8 e8 bd d0 dc 33 3e e7 cc 0e bd
       0.045907866 -0.113725334 0.17564702 -0.03486338
0001b0 77 9f 2f 3e 06 c6 0d 3e 69 f9 d7 bd 92 80 9a 3e
       0.17150675 0.13845071 -0.10545618 0.30176216
0001c0 66 7d 23 be 09 5a a5 bd 00 28 23 be 9f 07 87 3d
       -0.15965804 -0.080738135 -0.15933228 0.065932505
0001d0 d4 9d 0d be 39 c7 09 3e 30 d0 4c bc 38 27 bf bc
       -0.13829738 0.13454904 -0.012500808 -0.02333413
0001e0 6b 62 83 bd be 27 56 3c 8d 9d bf 3b cf 8d 62 bd
       -0.06415256 0.013070999 0.005847639 -0.05531102
0001f0 a2 84 98 bd 7d 73 45 be ed 4e e9 bd 0e 2c e8 3c
       -0.07447173 -0.19282337 -0.11392007 0.02834132
000200 aa d4 10 3e ba b3 96 bd ee 9e cc bd c6 96 a3 bd
       0.14143625 -0.07358499 -0.09991251 -0.07987742
000210 1a 27 3e 3e f4 a1 0b be 99 31 4e be 67 42 61 3e
       0.18569604 -0.13635999 -0.20136108 0.21997987
000220 f1 45 00 bd 9a 60 22 3d f7 2f 42 3d 49 bf 37 3e
       -0.0313167 0.039642908 0.047409024 0.17944063
000230 8a f1 ed bc 70 a5 3c 3d 42 28 92 3b 36 f5 d2 3d
       -0.029045839 0.04605621 0.0044603655 0.103006765
000240 c0 8f 23 be 87 a7 99 be a4 c1 93 3e e3 39 05 be
       -0.15972805 -0.30010626 0.28858674 -0.13010363
000250 05 0e 2a 3d 8f e6 8e 3d df b6 33 be b6 c8 8a 3e
       0.041517276 0.06977569 -0.17550229 0.27106255
000260 15 2c 87 be 04 32 9c 3d da 14 5e 3e 8e 0f de 3c
       -0.2640082 0.07626727 0.21687642 0.027107026
000270 08 4c b6 bd 7c 36 4d be 9e 00 95 bc 35 f3 87 be
       -0.089012206 -0.20040315 -0.01818877 -0.2655274
000280 44 9a ff bd 66 32 b3 3d d0 96 38 3e 01 a5 6c bb
       -0.12480596 0.08749847 0.1802628 -0.0036109092
000290 33 36 c4 3d 01 a5 56 bc 3d 9d 5c bd b0 57 76 3d
       0.0958065 -0.013100863 -0.05386089 0.06014222
0002a0 eb d5 93 3d c3 88 57 3d 22 4e 9b 3d 3f 7f 1e be
       0.07218536 0.05262066 0.07583262 -0.15478228
0002b0 4b d9 63 3d 83 45 fd bd 9c fc f9 bd c9 34 4b be
       0.05562715 -0.12366774 -0.122063845 -0.19844355
0002c0 ff e4 6d bd 27 5f 93 3d bf 7e ba bc 45 e4 2b 3d
       -0.058079716 0.07195883 -0.022765515 0.04196574
0002d0 fa e1 ea 3d 46 0c 86 bc b2 25 84 bd 21 a6 3b be
       0.11468883 -0.016363274 -0.06452502 -0.18325092
0002e0 a7 6b 33 be 94 51 11 bd fa da c4 3d a3 48 c8 3e
       -0.17521535 -0.03547819 0.09612079 0.39117917
0002f0 7a cf 97 bc 83 65 ea bd 56 ee fe bc 9a 2e d9 3c
       -0.01853155 -0.11445143 -0.031119507 0.02651148
000300 41 0f a1 be bc d6 f8 3d a4 ba c5 bc a9 46 c8 bc
       -0.3145695 0.12150332 -0.024136849 -0.024447756
000310 37 80 77 3e 8b 92 8b be b6 3f 85 bc 9f c1 53 3c
       0.24170004 -0.2726024 -0.016265731 0.012924581
000320 72 a2 10 3e 20 2f c6 3d 07 f1 70 be 71 c1 77 be
       0.14124468 0.09676957 -0.23529445 -0.24194886
000330 71 b3 0a 3d 6b d9 59 3d 36 75 18 bd 5e b4 76 3e
       0.033862535 0.05318586 -0.037221156 0.24092242
000340 bd 17 0a be b4 05 ac 3c 17 77 25 bd 8a 7d 87 3d
       -0.13485618 0.020998813 -0.040396776 0.066157416
000350 52 3f a6 3c 55 11 98 3e 43 a4 de bc 53 22 61 3e
       0.020293865 0.29700723 -0.027177935 0.2198575
000360 99 6f eb bd 89 c9 92 be 20 94 da 3d a5 ee 90 bd
       -0.11495895 -0.28669384 0.10672784 -0.07076768
000370 6e a6 79 be 8a b0 1f bd 7f 67 85 bd 57 fd 52 3c
       -0.24379894 -0.03898672 -0.06513881 0.012877784
000380 69 6a fd bd 84 f1 d1 3d 37 6e f5 bd 78 6e 1c be
       -0.12373812 0.102511436 -0.119839124 -0.15276515
000390 0f d0 02 bc ca 3a 71 bd 46 41 a6 3d a0 a2 e5 bd
       -0.007984175 -0.058893956 0.08117919 -0.11212659
0003a0 f4 de 01 3e a1 a2 49 bd 69 fb 60 be 62 5d 18 be
       0.12682706 -0.04922736 -0.21970905 -0.14879373
0003b0 45 1d 3c 3c 39 d0 5e be 18 34 98 3e 5b 3d 5a 3e
       0.011481588 -0.21759118 0.29727244 0.21312468
0003c0 0b b4 7f bc 2c 68 24 be 12 67 60 3e 6d ac be bc
       -0.01560689 -0.16055363 0.21914318 -0.023275578
0003d0 23 20 2e bd c1 db c8 3d be ec d4 bc 5a a1 1c 3e
       -0.042511117 0.0980754 -0.025991794 0.15295926
0003e0 52 56 b4 3d 12 5f 22 3e 47 03 78 bd 01 96 d5 3d
       0.08805527 0.15856579 -0.06055 0.104290016
0003f0 ad 5a 6b be e1 48 05 be 35 a9 ea 3d 90 b0 2d be
       -0.22983809 -0.13016082 0.11458055 -0.16961884

backbone.5.bias f4 [64]
000000 03 15 08 3e 48 11 8d bd 7b 95 a0 bd 3a 5f 77 bd
       0.13289265 -0.06888062 -0.07841011 -0.06039355
000010 16 6a cb bc 37 ff a9 bd 55 ca 66 3d 71 d7 9a 3d
       -0.02483086 -0.083006315 0.056345303 0.075606234
000020 69 4e ad bc 84 8f d6 bd 3c 7a e6 bd eb dd bb 3c
       -0.021155553 -0.10476592 -0.11253783 0.022932967
000030 22 73 28 be 66 e4 9b bd d3 2a b4 bd ea de dd bd
       -0.1645017 -0.07611923 -0.087972306 -0.10833533
000040 32 27 e0 bd 4f d1 04 bd ca df 99 bc 51 5a 80 bd
       -0.10944976 -0.032426175 -0.018783469 -0.062672265
000050 f8 6a d7 3c 5a e8 77 bc 12 e5 16 bd 40 cd 88 bd
       0.026296124 -0.0151310805 -0.036839552 -0.06679773
000060 39 b8 5c bd 20 52 01 3c 5e ce fb 3b 76 08 3e 3c
       -0.053886626 0.007893115 0.007684513 0.011598697
000070 8b 8a 67 bc 71 ea 87 ba ee 33 ca 3d 04 68 01 bb
       -0.014132152 -0.0010369552 0.09873186 -0.0019745836
000080 50 87 8a bd 62 58 c4 3d d8 d5 02 be 05 48 06 be
       -0.0676409 0.0958717 -0.12776887 -0.13113411
000090 ed bb 29 be 4f 42 0f 3e a2 3a b7 bd 58 fc 90 bd
       -0.16575594 0.13990138 -0.0894673 -0.07079381
0000a0 ae 92 42 be 23 c9 96 bc 0b 41 f0 bd c6 33 b3 3d
       -0.19001266 -0.018406456 -0.11731156 0.087501094
0000b0 c9 79 5c be c0 ea cb bd 24 53 e6 3c 72 51 0a be
       -0.21530832 -0.099568844 0.028115816 -0.13507631
0000c0 26 d1 a4 bd dd e6 20 3d 5f 0c b2 bd 57 0e ee bc
       -0.080477044 0.03928267 -0.08693766 -0.029059572
0000d0 81 81 b2 bd 9e b3 fb bb 3f 4a 88 bc 3f cf fc bb
       -0.08716107 -0.007681324 -0.016636966 -0.0077151353
0000e0 1b 1a b7 bc e7 ba d0 bc 43 d3 38 3e 9c 32 59 3c
       -0.022351315 -0.025479747 0.1804934 0.013256695
0000f0 b2 5d b3 bc 0c 69 b0 bd 75 ec aa bc 0d 73 89 3d
       -0.021895263 -0.08613786 -0.020864705 0.06711397
