checkpoints/endgame.safetensors (safetensors, 629056 bytes, 15 tensors)

advantage_head.0.bias f4 [5]
00000000: cfc2 42be 4927 473c 532f 35bc 009d 9abc
00000010: 3772 fa3d
-0.19019626 0.012155362 -0.011058646 -0.018873692 0.12228816

advantage_head.0.weight f4 [5, 256]
00000000: e631 1ebe ad83 0c3d d07f 8cbe c899 c53d
00000010: da8a 763d fe15 cb3c 50db 55bf 584b 2c3d
00000020: 9443 d3bd dd32 a9be 2a93 e9bb 7f5c d73e
00000030: 7fb8 763d eeb8 2fbe 84da c83e a7da 94bd
00000040: 1f75 02bf 546e 22bc 22ed 0fbe 42f3 343b
00000050: 1dae 253d a97e a43d 061e 0ebc 26f5 403c
00000060: 001a 9b3c 4cce a83c aeff 853e 0e91 2a3e
00000070: 60ab 893d 7996 a33c 19ee 193e 2c20 1abe
00000080: f3c3 d93d 3358 2e3d f6c3 fd3b 1c80 713d
00000090: 5619 f1bc cdb5 86bd 01fc 843e 7546 ef3b
000000a0: 0ca9 213d 3c6b e7bb 3b0a 2ebd 68fb 483d
000000b0: 9044 d2bb e910 d3bb 7363 c1bc 9fd7 1a3e
000000c0: 5313 b53d f8cc b8bd b75b 2ebf a2bb e4bd
000000d0: 2bc1 b43d 4a5b 643e 0a32 a23d e6a7 043d
000000e0: 11a6 f63b 9271 9c3c be77 053d 3400 803d
000000f0: a0b5 8c3d 9ddd ec3c f577 a23c 0aee 9e3d
00000100: 077c db3d b982 12be 7e00 303c a119 0bbd
00000110: ef35 58bb 4e16 103e 6a4f 80bb 9033 4c3d
00000120: 03f8 9dbc ad70 003b e1b6 0f3e 620a 00be
00000130: 7f22 8e3e 62a9 093d 2589 0fbd 9ebf 1bba
00000140: bbdb 1f3d 0653 c13d 490b 293e 2a13 233c
00000150: ced3 7a3d dfa7 dd3b dbb2 1abe 6129 963d
00000160: cd8a 743e 7bd7 163d c8bb 9a3c fbb3 7cbb
00000170: 68a9 db3e f4af 9d3d 3363 5e3c dea0 d93c
00000180: 8d52 f3bd 9914 3abf 94cb 3a3e 40d3 873d
00000190: a178 32bc d3b0 0e3e 66a6 b63d 3833 a5bb
000001a0: 2255 4a3d e255 333e 0c45 b03d 5ff8 a6bc
000001b0: bf33 3f3c 4a63 123d 2d56 553c c9e8 473c
000001c0: fe72 20bd 5c62 cc3c 609c 1cbe 56d7 f8bd
000001d0: 2785 063d 509b c33d 483d 883c 8ffd 653d
000001e0: b554 593e 0c3d d13c 9409 85bd e01e d13c
000001f0: 8010 3f3d e955 e23b 64b0 e83b 049c 2b3d
00000200: 43e9 30be 71c9 413e 5706 d1be 77e4 dd3d
00000210: 486f b23c 7ca5 be3c c07c b6be 8d8c e4bd
00000220: d820 503c 61a0 85bd 893d 533d 3b98 943c
00000230: ff2f 853b f800 663e dbe2 173e 3773 803d
00000240: b478 24bd 2b7b 8e3c 8e05 e03e 5800 c43d
00000250: ce4b d136 bb8c 1b3c dfe2 cf3d f240 bfbe
00000260: 76a1 b03d c148 083d 91ef 503d a0ec 143e
00000270: 15d1 c03b 95ea a63b 9d60 4a3e a5cc 44bf
00000280: e2ea 9e3d 034f 723e e7ec a03c bd64 78bf
00000290: 5f85 483d 28b6 c83d add1 a13c 35ab b83d
000002a0: 14af 76bb 8338 223d ae93 5e3e 9618 e23c
000002b0: 7412 52be 73a7 7d3d a95c f03b e739 763c
000002c0: 2698 76bf 250e a93d 5aa9 a03c 20e9 1e3e
000002d0: 6292 723d 722a e83e ab46 d93c 20e5 f53a
000002e0: bcd6 2c3d f138 223d e7ce 08bc 6903 55be
000002f0: 2e43 223d fb81 a5bc 596a 253c 8f77 0a39
00000300: 65fa ef3d 42f0 d6bc d6b8 233d b89a 00be
00000310: b9a8 8d3b b748 333e 8075 843c b618 7d3d
00000320: 3ff2 5f3c 5e37 413e 776f 253e 4f6b 223d
00000330: 938e cb3e 2b67 543d af34 8dbe cc47 093e
00000340: 4619 2c3d a73e babc a526 8abe 7854 cb3d
00000350: a45b 733e 109e b23c d4cd a53d 5029 32be
00000360: 516e 583e 4897 073f 6db6 253d 575a 213d
00000370: fe0b 92bd e2b8 853d d81d 273d 6189 b93e
00000380: c6a9 7e3e b072 d83c 8efd 0f3c 70c9 633d
00000390: c069 0b3d 907c e13d ce47 143d f2bb 74be
000003a0: aacc d33c 6d51 88be e041 8c3d 6c3b f4be
000003b0: 1c62 203c 3265 ec3d 0665 683c d308 e1bc
000003c0: 43f6 32be 576d 6b3d b87d b83c d208 903d
000003d0: 876d 85be cef2 db3d 3de3 123e c3c3 403c
000003e0: 4f9f fc3c 16bc f9bc fac3 79bd de71 9b3c
000003f0: 1d39 0f3e a2a8 1bbe 9b09 1d3e 1bdb ae3d
-0.15448722 0.034305263 -0.27441263 0.09648472 0.060191013 0.02479076 -0.8353777 0.04206404
-0.10315624 -0.33046618 -0.007128139 0.42062756 0.060234543 -0.17160389 0.39229214 -0.07268267
-0.5095996 -0.009914 -0.14055303 0.0027610813 0.04044925 0.08031971 -0.00867415 0.011777198
0.018933296 0.020606183 0.2617163 0.16656896 0.0672214 0.019969212 0.15032233 -0.15051335
0.106330775 0.042564582 0.0077443076 0.058960065 -0.029431026 -0.065776445 0.25973514 0.0073021003
0.039467856 -0.007062344 -0.042490225 0.049067885 -0.0064168647 -0.006441225 -0.023606991 0.15121315
0.088415764 -0.0902347 -0.68108696 -0.111686006 0.08825906 0.22300449 0.079197004 0.032386683
0.007527121 0.019097123 0.0325849 0.06250039 0.0687058 0.028914267 0.01983259 0.07760246
0.10717016 -0.14307679 0.010742305 -0.03395999 -0.0032991131 0.14071009 -0.003915717 0.04985386
-0.0192833 0.001959841 0.14034607 -0.1250396 0.27760693 0.0336088 -0.0350429 -0.0005941334
0.03902791 0.094396636 0.16508211 0.0099533 0.06123715 0.0067643966 -0.1510729 0.07332111
0.23881073 0.036826592 0.01888837 -0.0038559425 0.42902684 0.07699576 0.013573456 0.026565965
-0.1188098 -0.7268768 0.18241721 0.066320896 -0.010893018 0.1393464 0.08918457 -0.005041506
0.049397595 0.1751323 0.0860692 -0.020382104 0.011670052 0.03573922 0.013021034 0.012201496
-0.039172165 0.024949245 -0.15294027 -0.12150447 0.032841828 0.09551108 0.016630784 0.056150015
0.2122372 0.025541805 -0.064959675 0.025527418 0.046646595 0.006907214 0.0071011055 0.041896835
-0.17276482 0.189245 -0.4082515 0.10834592 0.021781579 0.023272268 -0.35642052 -0.111596204
0.012703143 -0.065247305 0.051572356 0.018138995 0.0040645595 0.22461307 0.14832632 0.062719755
-0.040154174 0.017392715 0.43754238 0.09570378 6.23751e-06 0.009494002 0.10150694 -0.37354237
0.08624546 0.03327251 0.05100972 0.1454339 0.0058842995 0.0050938823 0.19763418 -0.7687476
0.07759644 0.23662953 0.019644214 -0.97028714 0.048955318 0.098003685 0.019753302 0.0901703
-0.0037640976 0.039604675 0.21736023 0.027599614 -0.20514852 0.06192727 0.0073352647 0.015028453
-0.9632591 0.08254651 0.019612003 0.15518618 0.059221633 0.45344883 0.026522955 0.0018760301
0.042196974 0.039605085 -0.008350111 -0.20802082 0.03961485 -0.020203581 0.010096156 0.00013205245
0.11717681 -0.02623761 0.039971195 -0.1255902 0.004323092 0.17508207 0.01616931 0.061791144
0.013668596 0.18868777 0.16155802 0.03965312 0.39757213 0.0518562 -0.27579257 0.13406295
0.04201629 -0.022734953 -0.26982608 0.099282205 0.23765427 0.021803886 0.08095899 -0.17398572
0.21135832 0.5296521 0.040457178 0.039392795 -0.071311936 0.06529404 0.040799946 0.36237624
0.24869451 0.026421875 0.0087884795 0.055612028 0.034036398 0.110100865 0.03620129 -0.2389982
0.025854427 -0.26624623 0.06848502 -0.47701585 0.009789016 0.11542739 0.014184242 -0.027470028
-0.17476754 0.05747732 0.022520885 0.07032932 -0.26060125 0.10739671 0.14344497 0.011765423
0.030837683 -0.030485194 -0.060977913 0.018975195 0.1398663 -0.15201047 0.15335695 0.08537885

backbone.0.bias f4 [16]
00000000: f1c3 2ebc f2d6 c7bd 756f c53c 68cb 7f3c
00000010: e074 af3d 2056 983c 8016 1a3d f3bb 8a3d
00000020: 172b 583b 46a8 f2bd fc51 b5bd 02fc 94bc
00000030: 00db a5bd 4959 07bd bb3a 343c 3eaa e23c
-0.010666833 -0.097577944 0.024100998 0.015612461 0.08567214 0.018595755 0.037619114 0.0677413
0.0032984668 -0.11848502 -0.08853528 -0.018186573 -0.080984116 -0.033044133 0.011000331 0.027669068

backbone.0.weight f4 [16, 17, 5, 5]
00000000: aa52 9b3c 967d c73d 6c92 4cbc 4328 07bd
00000010: f5fe c83c 22a3 ba3b e852 3abc 7e4a 85bc
00000020: f5f7 a4bd 4851 00bd 2bb4 513b 9439 70be
00000030: 2020 f2bd 0a3f 07be 6a31 aeba a590 ad3c
00000040: 5768 e9bc c8ff 10bd 0277 0bbe 26a0 12ba
00000050: 0304 ba3c f21b fcbd f3db c83d 65a1 443d
00000060: 1781 8e3d a230 bcbf d9eb d2bf 190d 5ebf
00000070: 8e81 88be 468b 21bf abd9 fabf ec75 b2bf
00000080: cba0 9cbf e042 42bd 6a2a 053d ff06 bf3d
00000090: 6262 41bf 2093 c4be e34a ae3c 9eef 20bd
000000a0: ddcb a7bf dcbe 3abf 8a44 18bf a6f1 893d
000000b0: 0714 52bf 5ffb 8dbf d974 4fbf eb2e 82bf
000000c0: 46a2 2c3d edb0 0bbb 8a2c f0bd 7889 923c
000000d0: f59c 8dbd 4dd4 c03d a495 aa3d cb96 c0bc
000000e0: 54f2 7cbe 5202 30be 92e2 ecbd 7473 963c
000000f0: 732f d3bd 7cc4 50bb 4883 99bd 2567 a03b
00000100: 6e5e 95bd 00c7 40bd 483e 05bc bce8 7c3d
00000110: 1e63 1dbe dd3f 883c c7e6 493c 680f 4e3e
00000120: 7a42 34bd c759 60bd 5d44 a5bd f621 0c3e
00000130: 1bc4 553f eea7 873e 952c ef3e ed17 8fbd
00000140: 3d10 003f 4b72 083f a994 5a3e 0372 803e
00000150: 80dc aa3d 7d37 103f 8ab7 c83e 42f2 863e
00000160: 979a bc3e 80ae 653e 7ab6 1c3e a614 573e
00000170: 2dca 1b3e 668c aabd 5728 df3e 909f 8ebe
00000180: 899a fbbd 4910 73bd 0cf2 6a3e 85a4 ac3d
00000190: 1371 38be 3eb5 18be 5ed6 96bd 38a5 e6bd
000001a0: d36d 05bd 9f17 583e ffb1 adbb 6fc2 8d3d
000001b0: dc3d 093c fbdd c3bb 485f 653e ba3b bb3e
000001c0: 00cd 153e 2f88 3b3d 5a85 203e 3abd 7dbe
000001d0: ef2e 4dbe 614a 7dbe 2375 fabd 4d06 42bc
000001e0: 4ae9 0abe 35d9 d73d aa70 4fbe 0728 4c3d
000001f0: 2e12 80bd caac 8fbd ed94 843d 8e27 e23d
00000200: 1b96 063e 7d95 1d3e c023 893e 0dd4 b2bc
00000210: 92eb bcbd 1b3d 78bd f54d 603e 8414 a63e
00000220: e9b8 8d3e 41d5 893e 683f 443d 0b9b 693e
00000230: dc68 8d3d 498c 85be dfa9 b2be c4d2 39be
00000240: 598e 293d 10be 5fbd 2492 f13d 2bc9 49be
00000250: f50b f1bd 3fae d53c 9631 69bd 7177 b63d
00000260: 2dc3 9d3d e1d4 e83c f5d9 ec3d 0657 8d3e
00000270: 76de 433c 743e 9cbd fbc0 8bbe 0832 3d3d
00000280: 210a 713e 02ab a53e d123 273e d6b0 dcbd
00000290: ed46 7d3d 3a08 c53d 2c9e f7bd 5b43 35be
000002a0: 905b 91be b7b3 fe39 5ae7 ad3d e77f 003d
000002b0: 535c 62be f6e5 e9bd bab1 273c 0d67 28bd
000002c0: 9af6 c83d c1d5 863e 4fab 573e 9a0b ad3d
000002d0: acfc 863e 8191 7c3e ac61 843e 6044 54be
000002e0: 577c 023e 2d34 953e 4946 fe3d 0148 3a3d
000002f0: 1c2b 0ebe 599a 293e 74dc 953d a754 9b3d
00000300: 2384 30bf 74b5 98be db30 8b3d 90a9 d23d
00000310: 9e12 6a3e 0468 1abe 4f0e cdbd 514b 77bc
00000320: 7d6b ac3e e33b 0f3e fa2d 1b3d bd9d 21be
00000330: 28a7 313d a21f eabc 0434 443e bbaf db3d
00000340: 415c 20be b754 aabd d696 aebd 2895 f2bd
00000350: e60f aebd c9c8 e5be ebdc c4bc dc35 c03d
00000360: 0018 9d3d c234 d93d 962d 52be 07fc 06be
00000370: d050 0a3d fc9c 113e f655 f23d b36f 083e
00000380: 6a6e 5a3d 61ad 8b3e 139b 2b3e 6942 27bd
00000390: b75d 8cbd 4569 f83d d6bb b1be 4eeb 213d
000003a0: 70f4 eb3d ea3a 31be 78b3 8ebd 166f 80be
000003b0: e9af 85be 7805 3c3c 1ce2 47be abed 193d
000003c0: 7e9b 603c 7bdd 5bbb 18d7 343e 9b63 1abd
000003d0: be63 8bbd 1903 f63d d9ad 433d d8e9 553e
000003e0: bc53 8e3e ab16 8c3d cbd3 633e c35b 4e3d
000003f0: ce3e 163d 34cb 3a3d 9819 0d3e a827 87be
0.018960316 0.097407505 -0.012486082 -0.03299738 0.024535635 0.0056957165 -0.011372305 -0.016270872
-0.080551066 -0.031327516 0.0031998258 -0.23459464 -0.118225336 -0.13207641 -0.0013289873 0.021187136
-0.028492136 -0.035400182 -0.13619617 -0.0005593322 0.022706991 -0.12310018 0.09807577 0.04800548
0.06958216 -1.4702342 -1.6478225 -0.86738735 -0.26661342 -0.6310314 -1.9597677 -1.3942237
-1.223657 -0.04742706 0.032511152 0.09327506 -0.75540745 -0.38393497 0.021275943 -0.039291017
-1.3109089 -0.7294748 -0.5947958 0.06735544 -0.8206181 -1.1092337 -0.8103767 -1.0170568
0.042146944 -0.0021315173 -0.11727245 0.017887816 -0.06914703 0.09415493 0.08329323 -0.023509404
-0.24701816 -0.17188385 -0.11566652 0.0183656 -0.103117846 -0.0031855395 -0.07495743 0.0048951083
-0.07293402 -0.04706478 -0.008132525 0.06174539 -0.15369841 0.016632015 0.012323088 0.20123065
-0.04400871 -0.05477312 -0.0806968 0.1368483 0.8350236 0.26495308 0.467137 -0.06986985
0.5002478 0.532994 0.21345772 0.25086984 0.08342838 0.5633467 0.3920253 0.26356703
0.36836693 0.22429848 0.15303984 0.2100397 0.15213843 -0.0832756 0.43585464 -0.27856112
-0.122853346 -0.059341703 0.22943896 0.08429817 -0.18011884 -0.14912888 -0.07365106 -0.11261982
-0.03257544 0.2110276 -0.00530076 0.06921851 0.008376565 -0.00597739 0.22399628 0.36569005
0.14628983 0.04578417 0.1567587 -0.24779215 -0.20037435 -0.24735405 -0.12229373 -0.011842323
-0.13565555 0.10539476 -0.20257822 0.04984286 -0.062534675 -0.07015379 0.06473718 0.11042701
0.13143198 0.15389057 0.26785088 -0.02182963 -0.09224619 -0.06060515 0.21904738 0.32437527
0.27680138 0.26920512 0.04791203 0.2281305 0.06904766 -0.26083592 -0.34895226 -0.18146807
0.04139552 -0.054624617 0.11795452 -0.19705646 -0.11769859 0.026084064 -0.056932054 0.089095004
0.077032425 0.028421821 0.115650095 0.27605456 0.011954894 -0.076290995 -0.2729567 0.04619029
0.2353902 0.3235703 0.16322257 -0.10775916 0.06183522 0.0962071 -0.12090716 -0.17701475
-0.2839017 0.00048580553 0.084913924 0.031371977 -0.22105531 -0.11420815 0.010235244 -0.041113902
0.098126605 0.26334956 0.21061443 0.084494784 0.26364648 0.2466488 0.25855768 -0.20729208
0.12742744 0.2914137 0.124157496 0.045478825 -0.13883632 0.16562785 0.07317439 0.075845055
-0.68951625 -0.29825938 0.06796428 0.10286248 0.22858664 -0.15078741 -0.10012495 -0.01509364
0.33675757 0.13987689 0.037885644 -0.15782829 0.043372303 -0.028579537 0.19160467 0.10726877
-0.15660192 -0.08316939 -0.085248634 -0.118448555 -0.08499126 -0.4487975 -0.024031123 0.09385273
0.07670593 0.10605766 -0.20525202 -0.13182078 0.033768475 0.14220041 0.11832802 0.1332386
0.053327955 0.27280715 0.16758375 -0.040834818 -0.06853812 0.121294536 -0.3471362 0.039531045
0.11521232 -0.1730763 -0.06967825 -0.25084752 -0.2611077 0.011475913 -0.19519848 0.037580173
0.013708947 -0.003354876 0.17660177 -0.037692647 -0.06806134 0.120123096 0.047773216 0.20889986
0.2779826 0.06840261 0.22248761 0.05038048 0.03668099 0.045603946 0.13779294 -0.26397443

backbone.11.bias f4 [128]
00000000: 18e9 c9bd 601b 42bc 719b c8bd 9fa9 01bb
00000010: bf84 d93d 33e2 6dbe f5be abbc 1be7 323d
00000020: a8df 2abe 2112 a2bc e314 48be 4fe1 173e
00000030: beca 6fbd 0c8b 89be 696b 38bd 419a 61bd
00000040: b1c8 f13b d065 183e c9e1 db3d 8810 b03d
00000050: 8e08 983c c4e5 063e a9d0 f73c e4f6 a5bd
00000060: 0715 f33d c34c 1fbd cef7 873b e557 d4bd
00000070: 591c 06bb b02a 7bbd 4876 e1bd 6472 36bd
00000080: dff0 2dbe 759b bbbd 6cbf 7fbe 5958 6fbe
00000090: bccf a7be 0bea 34be e9df a3be c1fe bebd
000000a0: 96a1 2fbe 466e 05be c99b fdbd beff 5dbe
000000b0: 2bab 74be 78f0 6ebe 23cb a1be aedc 69be
000000c0: cb98 9cbd 2e87 343d 09e6 d63d 4a37 25be
000000d0: 388a 18be 95bd 18be 7a7e 343e 0651 063d
000000e0: 5d27 8b3d 9447 f73c dbda bc3d 1298 6bbe
000000f0: 3fb4 26bd 901b ef3c e98c 643d 0a17 523d
00000100: c0ba d7bd 72aa 82be 0a52 fb3c 4d22 143d
00000110: 1401 0bbe fce2 abbc fdfb f3bc 7977 c6bd
00000120: 74f7 203d c6af 3ebe f3f5 c4be d6a1 583c
00000130: 10f4 91be dec8 3bbe 7d71 5e3d 6fa6 79bc
00000140: 4ff9 c13c 85ab 29bb 5051 35bd a552 a9bc
00000150: c093 67bd 3ab0 1bbe 3a72 f7bd f086 09be
00000160: dd92 2abd 4fa9 dbbd f6ae 583d 651a 71bd
00000170: 2591 9cbd 11a2 f63d 5e3c 0dbe b0c6 573d
00000180: 25aa 9cbd e106 5abe ba30 43be 55ca 40be
00000190: cb09 163d 7d89 d4bd 28ab 09bd cc9c bdbd
000001a0: f790 c7bd 2927 63be d760 48be e4ef f9bd
000001b0: db83 f2bd fb4d ea3d 94a0 c13b e150 29be
000001c0: 1181 a6bd 13af 87bd 12e4 46be e720 c03d
000001d0: d8a8 29bd 3a63 f6bd 5e53 5c3d 5f2e 90bd
000001e0: 7f1a 93bd aa8e 68bd 54a9 8e3e 649c 4a3e
000001f0: 5048 4c3d 5353 da3d 9a05 92bd 3098 093e
-0.09858912 -0.011847347 -0.09795273 -0.001978494 0.106210224 -0.2323082 -0.020965079 0.04367743
-0.1668688 -0.019784035 -0.19539218 0.14832042 -0.05854296 -0.26863897 -0.04502431 -0.05507875
0.0073786606 0.14882588 0.107364245 0.08596903 0.018558767 0.13173586 0.030250864 -0.08103731
0.11869245 -0.038891565 0.0041494137 -0.10368327 -0.0020463674 -0.061320007 -0.110088885 -0.044542685
-0.16986416 -0.091605105 -0.24975365 -0.23373546 -0.32775676 -0.17667405 -0.32006767 -0.09325934
-0.17151484 -0.13030347 -0.12383229 -0.21679589 -0.2389342 -0.23333919 -0.31600294 -0.22838089
-0.076463304 0.04407423 0.104930945 -0.16134372 -0.14896476 -0.1491607 0.17626372 0.032792114
0.06794617 0.030185498 0.09221431 -0.23007229 -0.04069924 0.029187948 0.055798445 0.051291503
-0.105336666 -0.25520664 0.030678768 0.036165524 -0.1357463 -0.020982258 -0.029783243 -0.09690756
0.03929849 -0.1862174 -0.38468894 0.013222178 -0.28506517 -0.18338344 0.05430745 -0.015237435
0.02367845 -0.0025889587 -0.044267 -0.02066929 -0.05653739 -0.15203944 -0.12082334 -0.13430381
-0.041643966 -0.107256524 0.05290123 -0.058863062 -0.076448716 0.120426305 -0.1379256 0.052679718
-0.0764964 -0.21291687 -0.19061556 -0.18827184 0.036630433 -0.10377786 -0.033610493 -0.09258422
-0.09744447 -0.22182907 -0.19568191 -0.12203959 -0.11841556 0.11440655 0.005909035 -0.16534759
-0.08130086 -0.0662519 -0.1942294 0.093812756 -0.041420788 -0.12030645 0.053790443 -0.070400946
-0.07182788 -0.05677668 0.27863562 0.19786221 0.04987365 0.10660424 -0.07129975 0.13436961

backbone.11.weight f4 [128, 16, 3, 3]
00000000: 8e06 d7bd 5ab0 1cbd 70ae 3ebe 0561 32bd
00000010: 51b3 183e 0c29 a83b ca9d 86bd eb36 803c
00000020: bd66 02bc 0fbc 1a3e abdc f33d 1c77 bfbe
00000030: 1516 833e d039 a13e f163 f7bd bc62 1b3e
00000040: 6989 c3bd 126c c63c bbd3 b5bc f4b4 00bd
00000050: ad16 573d f22b 88bd 77e1 39bd 351a 293d
00000060: 8931 643d e884 d4bb b1b8 273e d348 023e
00000070: 8e46 80bc f6a9 7e3e d4e1 d5bd e711 ba3d
00000080: 091a bebd 0a5e f3bd 59ab b13d ae73 fa3d
00000090: cac0 2f3e 7ebc 40bd 62a3 5cbe 696b 34be
000000a0: 6723 b93e fe0f 84be 4323 193e 4d78 f1bc
000000b0: 7c47 11bd 7c59 583e 7059 a8be 17d5 7fbe
000000c0: d42d 713e 03f5 a23d 5196 4b3d de79 763e
000000d0: d638 133e ecb8 e4bd 2115 92bd a372 9dbd
000000e0: 812c 40be d58b 7a3e b5b4 b93d 56e3 68bb
000000f0: f21a 603e 5cd1 183e bb6b 50be 57ef 203e
00000100: d85c 883e 07e2 b5bd ba2d 643d 7037 71bc
00000110: 057a 343d 8325 45bd 0e54 1ebe 5c80 af3d
00000120: 1b3c 25be 765a 8e3c e4b6 483d e744 ffbe
00000130: 5e57 95be 169e b93d c0db adbb c38c 28bd
00000140: 453b 243d f014 cabe 7282 72bd 9dce 16be
00000150: 4b79 7cbe e84f 04bd f1de 1dbe 0e00 f63d
00000160: 26c4 babe 40bb 9b3e c4e1 c73c 6982 4dbd
00000170: 8f3f 973d 473f e1bd ebde 49be 8e22 17bd
00000180: 9fe8 32bd b2ff 89bd 9e2f 84bd 2c54 6a3d
00000190: b96a 7cbe ba04 55be f7ce 163e eb37 fbbd
000001a0: 4a06 81be b4d1 793c a470 bb3d 7fee a1be
000001b0: b9ec 49be 9546 ec3d 4b04 82be e482 af3e
000001c0: e4f0 6f3e 9e5a d13d e6cc 84bd 2b83 c03d
000001d0: 1036 ab3e 532b 3f3e d1cc 9c3d 30b1 47bb
000001e0: e3b1 94bd cdc9 eb3c 6bb0 f33d 0fa6 03bf
000001f0: fcc5 94be 1be2 273c 572b 23be 5ca7 b5bd
00000200: 0911 933d 0efc 98bc 2dac c33d 9df9 d43c
00000210: d6d5 20be 992f 5a3e 6432 7dbc 68f9 be3c
00000220: de92 9b3b bc20 08bd e566 713e 3754 4c3e
00000230: bcc5 07be 8276 9d3d 4de4 0b3e acf0 63bd
00000240: 0c38 9e3c a61c 24bd ad4a 3bbe e2f7 453e
00000250: 511a ddbd e6bc 1cbd 3126 94bb 86b5 30bc
00000260: 6c4e 83be 6401 2a3c 0bc4 86bd c7eb f73c
00000270: f077 51bd 5cdf e43d 8cfe cebc 2043 98be
00000280: d4c8 ff3c 9b1e de3d 95a3 a13d d3c4 3c3e
00000290: 6c7b 4ebd 06e7 acbd 17dc 82bd d83c f53b
000002a0: 0271 9ebd 46bc a33d e910 7bbc 5ed1 213e
000002b0: c038 793e 0068 803e dacd 1ebd f7d3 a53b
000002c0: 5d65 1c3d 4bb3 eb3d dc1e ed3d b58c 233e
000002d0: 79db 2abc 6f95 35be c5c4 9bbe 04dd 39be
000002e0: 6b02 913d c6a0 c7be 36fd 10be 85a1 d4bb
000002f0: 1ffd b4be cf3c 2f3d bc28 033d 4361 ca3d
00000300: 195b 49bc 8f86 f23d 5d28 ef3c 72b7 f3bd
00000310: 860a 7fbc 1cce b8bc 07a5 abbc 645e e93d
00000320: cb6b 5a3d cfa7 ef3d 18a1 7abb 62fe dcbc
00000330: 72a3 b2bc 8c6f 1dbe 6dc9 54bc 84a9 ccbc
00000340: 144e 81be 6a9a b6bd 4f68 6bbd ad4b aebd
00000350: 5b08 4fbd bc42 5fbd 9c48 00be 54f3 49be
00000360: 8970 76be 4172 5c3e efbd eebd b7f8 5d3c
00000370: e6ba 2dbc 9192 bd3c 18c7 26be 5197 df3d
00000380: 4913 3e3e 6515 f9bd 5379 15be 6865 37bb
00000390: 412b 6f3d e024 b6bc bb3a 03be a4b7 35ba
000003a0: 7220 673c 52f9 61bc 8ae3 793e 17f4 dd3e
000003b0: c0d2 2b3d 94f5 593e 9ed5 733e c94f bc3d
000003c0: 2222 39bd cc43 d83e e98a 8d3e edd6 893d
000003d0: 4dc1 4b3e 7e7f 4bbd 6c92 4c3d 3487 fa3d
000003e0: 175f c73d 43f3 04be a40e ed3d ef38 3ebd
000003f0: 04b5 173d 602d 05be e1c9 da3d 2c8d 343d
-0.10499297 -0.03825412 -0.1862123 -0.043549556 0.14912154 0.0051318463 -0.065730646 0.015651187
-0.007959065 0.15110801 0.119073234 -0.3739556 0.25602785 0.3148942 -0.12079609 0.15174383
-0.09547693 0.024221454 -0.022195688 -0.03142257 0.05251186 -0.06649007 -0.045381036 0.04128476
0.055711303 -0.00648557 0.16379048 0.12723093 -0.015658643 0.24869522 -0.10443464 0.09085446
-0.092823096 -0.11883171 0.0867526 0.122290954 0.17163387 -0.04705476 -0.215467 -0.17619099
0.36159822 -0.2579345 0.14954858 -0.02947631 -0.035468563 0.21127886 -0.32880735 -0.24983631
0.23552638 0.079568885 0.0497039 0.24069926 0.1437715 -0.111680835 -0.07132936 -0.07687881
-0.18766977 0.24467404 0.0906767 -0.0035535893 0.21885279 0.14923614 -0.20353596 0.15716301
0.26633334 -0.08881002 0.05570767 -0.01472269 0.04406168 -0.048131477 -0.15461752 0.085694045
-0.1613621 0.01737712 0.049002543 -0.49857256 -0.29168218 0.090633556 -0.0053057373 -0.041149866
0.040095586 -0.394691 -0.059206434 -0.14727254 -0.24655645 -0.032302767 -0.15417077 0.12011729
-0.36477774 0.30416298 0.024399646 -0.050173197 0.0738517 -0.10998397 -0.19713943 -0.03689819
-0.043678876 -0.06738223 -0.06454395 0.05720918 -0.24650086 -0.20802584 0.14727388 -0.12266525
-0.2520011 0.015247751 0.09152344 -0.3162727 -0.19719209 0.115369 -0.253939 0.3427955
0.23431736 0.10222362 -0.06484394 0.09400018 0.33439684 0.1866887 0.07656253 -0.0030470602
-0.07260492 0.02878275 0.118988834 -0.5142526 -0.290573 0.010246779 -0.15934502 -0.08869812
0.071809836 -0.018674877 0.09554324 0.025997931 -0.15706572 0.2130722 -0.015453909 0.023312286
0.0047477325 -0.033234343 0.23574407 0.19954 -0.13259023 0.07688619 0.13661309 -0.055649444
0.019313835 -0.040066384 -0.18290205 0.19332841 -0.10796035 -0.038266085 -0.0045211543 -0.010785466
-0.2564577 0.010376308 -0.06580361 0.030263795 -0.051139772 0.11175415 -0.025267862 -0.29738712
0.031223692 0.10845681 0.07892529 0.18434457 -0.050410673 -0.08442502 -0.06389635 0.00748406
-0.07736398 0.07994895 -0.015323856 0.15802523 0.24338055 0.25079346 -0.038770534 0.0050606686
0.038182605 0.11508807 0.115781516 0.15971644 -0.010428303 -0.17732786 -0.3042356 -0.18150717
0.07080539 -0.38989848 -0.14159092 -0.006488981 -0.35349366 0.0427826 0.03202127 0.098818325
-0.012289786 0.11842071 0.029194051 -0.11900224 -0.015566474 -0.022559218 -0.020952715 0.11394957
0.053325456 0.11701929 -0.0038242992 -0.026976768 -0.021806452 -0.15374583 -0.012987477 -0.024983175
-0.2525488 -0.08916171 -0.057472523 -0.08510528 -0.050545078 -0.054507002 -0.12527698 -0.19721729
-0.24066366 0.2152796 -0.11657321 0.013548068 -0.010603642 0.023141177 -0.16286886 0.10917533
0.18562044 -0.12162284 -0.14597063 -0.0027984027 0.05839086 -0.02223438 -0.12815373 -0.00069319666
0.014106857 -0.013792353 0.24403206 0.43350288 0.041949034 0.21285087 0.23811957 0.09194905
-0.045198567 0.42239225 0.27645043 0.06730447 0.19897957 -0.049682133 0.049944326 0.12232819
0.09734934 -0.12983422 0.11575058 -0.046441015 0.037037864 -0.1300559 0.106830366 0.044079944

backbone.15.bias f4 [256]
00000000: 4338 1e3b 14d0 1ebb 59db c4bd be54 a73b
00000010: a7c7 023e 272d f5bc b00c 9f3c af7c 63ba
00000020: 25c0 553d a5a3 053e ba78 8f3c b357 1d3e
00000030: 24f3 ec3d 51dc 753d 5771 d23d d513 063e
00000040: 042a f73a 0ff4 e83d 4fcb c3bd 93ab 993e
00000050: 2c95 01be 46bf 4bbd abd9 06be acad 8abe
00000060: 4d5b b7bd ed03 603c 1bf2 063e 4a53 e23b
00000070: fac5 053d 7a11 393d 80c0 27bd 41a5 013e
00000080: b50d 963d 4518 a93d b889 aabe 8508 fa3c
00000090: dfd6 bb3d e40e 87bd 4928 3fbb 4991 233e
000000a0: 1b46 973d a773 613e 0d87 6c3d b3ad da3d
000000b0: 5f65 f13d 6c19 8e3c 12d7 043e f7db 243d
000000c0: 5ba1 8e3d 7446 45be bfe5 043e 0146 313d
000000d0: 05c4 883c 0803 a6bc 89da 003e 1522 df3b
000000e0: 7b99 083e 17ee 4c3e bdf2 973d 12bb 65bd
000000f0: 50e0 183e 4e43 353e 3680 3e3e 5d58 ffbc
00000100: 97d9 0c3d b4d1 8abe 3407 a23d eaee 89bd
00000110: 7522 aa3d 237c 1e3d 0746 eb3d 498e 103e
00000120: fe61 0c3e 4276 333d b442 c0bd b74a babd
00000130: 7e64 9a3d 8ccc 1b3e 8c6a 3b3d f79c ae3d
00000140: 4203 c43c d215 c33d 6c94 81bd 00eb acbb
00000150: 681c 513d d96d 023e 0cdb b93d 89a6 483c
00000160: de21 933c cdc1 1f3e 1fe9 6a3e 0a15 ed3d
00000170: e107 c53d 476e ec3d 8824 c73d 674d bd3d
00000180: 815e e5bd a827 ce3d 1c87 683e e307 0e3e
00000190: 22f0 683e 8686 3dbd 4a6c 02bb 02a2 003d
000001a0: 29fd 703d f121 cabe ff68 1b3d 91a9 293e
000001b0: 9f48 af3c 3a75 123d 2d75 0c3e 3361 6b3e
000001c0: 40e6 193e a7c5 93bd 6e66 e73d 3ecf d03d
000001d0: 30ea 87be d952 8c3d 4979 69be a60c 3e3e
000001e0: 86d9 103e 1e43 afbc a1ab 91bd 9561 eabd
000001f0: 51f9 a4bb c9e5 7b3d 012d 053e 354f 053e
00000200: 6eab a83d 93e5 d8bc 9c5d 04be 2120 84be
00000210: 22ea 173e b59f 6cbe ea91 803d adfe ba3c
00000220: e0e7 b4bd ba51 1c3e 48b0 033e 9ff3 183e
00000230: 636c aa3d 40b2 6f3e 5725 7e3d a565 103e
00000240: 2856 133e 32d1 5f3d 60d9 873d bdfb 3c3e
00000250: 5c2b ae3d daa4 e3be 6b8a a1bd fb5c 8c3d
00000260: e498 d3bd 8bf9 f73d 71be ad3d 6f19 b63a
00000270: bc28 1d3e 7f59 113e e202 a93c 4229 003e
00000280: 3422 063e e07a 5b3c 1e8d 0a3d cc36 653d
00000290: b7c8 37be c107 ddbd 3441 593e 6012 31bd
000002a0: 62a7 d83e 3a82 2d3e 3753 3f3e 84b0 363e
000002b0: b341 a93d feb5 b93d ffeb 293e 743a 3d3e
000002c0: 3a4e 69bc a1c7 493d a553 cc3d 4d07 9abd
000002d0: c99c 903d fd92 d2bd 60bb 683e fc3a 393e
000002e0: 499b cfbc 4657 dbbd f415 bd3d 3d12 903c
000002f0: 061a 033e ef1c eb3c 4230 123e 4fbb d33c
00000300: 6365 d73d b1c6 713c e927 5f3e 2bdb 0f3e
00000310: 394a d13d f8b4 8b3e 39d2 393d c7ff 85bc
00000320: 0773 3a3e a15f d83c 8a7c 9bba 7b45 4b3e
00000330: 0d6e 603e edd9 08bd 3385 043e 6a01 033d
00000340: fcc0 813d e276 4bbb f40d c53d 6d11 993d
00000350: 218a 1c3d fcdf 453d 93cc 3cbd 3a29 a7bb
00000360: 94ee 8d3d 12a8 cb3d d556 2d3d 326f 96bd
00000370: 7c14 eb3d 2fb9 1abb 0e43 0bbd 818d 513d
00000380: 374f 91bd 4d08 d3bc 0cc1 543e 7e08 863d
00000390: be8a 0d3e 9512 ccbd 0fea b73d b42d 043d
000003a0: 193c 0bbe 471a 0c3e 5c5d 0fbd 7bb4 5f3c
000003b0: af9c f43d e76c 7ebe 4f82 1a3e edc1 b53d
000003c0: 724c 8bbb 72a7 53bd 57d5 4a3e d2eb 3a3d
000003d0: 0299 f23c 34c3 c2bd bb4c 28bc 8586 243e
000003e0: da0d 423e 7d7c a03d 4bd4 433c f815 4b3d
000003f0: 01b7 4c3e 1cbf edbc 6e6f 613c 28af 7bbc
0.0024142421 -0.002423291 -0.0961215 0.0051065376 0.12771474 -0.029928757 0.01941523 -0.0008677942
0.052185196 0.13050707 0.017513622 0.15365486 0.11569813 0.060024563 0.10275524 0.13093503
0.0018857126 0.113746755 -0.095602624 0.30013713 -0.12654561 -0.04974296 -0.13168971 -0.27085626
-0.08952961 0.013672811 0.13178293 0.0069069015 0.03265951 0.045182683 -0.040955067 0.12660696
0.07326833 0.08256582 -0.33308196 0.03052164 0.09171843 -0.06594637 -0.00291683 0.1597339
0.073864184 0.22016774 0.057745982 0.10677662 0.11786913 0.017346106 0.12972668 0.040248837
0.0696437 -0.19265157 0.12978266 0.04327965 0.016695032 -0.020265117 0.12583365 0.006809483
0.13339798 0.20012699 0.074193455 -0.056086607 0.14929318 0.17701456 0.18603596 -0.031170065
0.034387197 -0.27113116 0.0791153 -0.06735022 0.083073534 0.038692605 0.11487966 0.14116777
0.13709256 0.04381395 -0.093877226 -0.09096282 0.075386986 0.15214747 0.045755908 0.085260324
0.023927335 0.09525646 -0.06327137 -0.0052770376 0.05105248 0.12737216 0.09074983 0.012246736
0.017960485 0.15601273 0.22940491 0.115762785 0.096206434 0.11544471 0.09723765 0.09243279
-0.11199666 0.100661576 0.2270779 0.13870196 0.22747853 -0.04627087 -0.001990097 0.031404503
0.058835182 -0.3947902 0.03794193 0.1656859 0.021396933 0.035756327 0.13716574 0.22986297
0.1502924 -0.072154336 0.11298834 0.10195778 -0.26545858 0.068517394 -0.22800173 0.18559512
0.14145479 -0.021394309 -0.07112814 -0.114443935 -0.0050346036 0.061498437 0.13005449 0.13018496
0.082358226 -0.026476657 -0.12926334 -0.25805762 0.14835408 -0.23107798 0.06277831 0.022826517
-0.08833289 0.15265551 0.12860215 0.14936684 0.083214544 0.2340784 0.06204733 0.14101274
0.14388335 0.054642864 0.06633258 0.18455406 0.08504364 -0.4446171 -0.07887729 0.06853672
-0.10331896 0.121081434 0.084835894 0.0013893078 0.1534757 0.14194296 0.020631257 0.12515739
0.13098985 0.013395995 0.033825986 0.05596046 -0.1794766 -0.107924946 0.2121628 -0.043230414
0.42315203 0.16944209 0.18684088 0.17840773 0.08264484 0.090679154 0.16593932 0.1847933
-0.014239842 0.049262647 0.099768914 -0.07520924 0.070611544 -0.10281942 0.22727728 0.18088907
-0.0253426 -0.107100055 0.09232703 0.017586822 0.12802896 0.02870032 0.14276221 0.025846152
0.10517385 0.014756844 0.21792568 0.1404845 0.10219235 0.27286506 0.0453665 -0.016357316
0.18207942 0.026412787 -0.0011862677 0.19850723 0.21916981 -0.033410955 0.12941436 0.03198377
0.06335637 -0.0031046201 0.09621802 0.07474027 0.038217667 0.04830931 -0.046093535 -0.00510135
0.06930271 0.09944166 0.042319138 -0.073454276 0.114785165 -0.0023608913 -0.033999495 0.05116034
-0.07095187 -0.025760794 0.20776767 0.065445885 0.13822457 -0.09964482 0.0898019 0.03227015
-0.13597144 0.13681899 -0.035001144 0.01365387 0.119439475 -0.2484623 0.15088771 0.08874879
-0.0042510564 -0.05167336 0.19807945 0.045635052 0.029613975 -0.09509888 -0.0102722 0.1606694
0.18950596 0.07836244 0.01195247 0.049581498 0.19991685 -0.029021792 0.013759477 -0.015361585

backbone.15.weight f4 [256, 128]
00000000: 79f9 10be 32b5 b13c 1973 acbc 6a37 2e3d
00000010: 4c52 57be 27f2 8e3d 64c6 a9be 2988 2ebc
00000020: 759f a1bd 4e8c c2bb 007f a4bc 05e2 dfbc
00000030: bf01 2e3e e061 02bd e00e b0bd 3fd3 0a3d
00000040: b508 9fbd f46c 4ebc e6ce 19be 1718 3bbe
00000050: 567d a4be 112d 1dbe 21ff bd3d 401d 2a3d
00000060: 6d06 963d f374 dc3d d788 8abd f985 bc3d
00000070: c350 11bd 124d d8bc 31ed 18be e6ae 00be
00000080: deed 243e 9335 7ebc 2f17 a43d 619a 593e
00000090: b9b3 7c3e 0d6e 5d3e ffa4 233e 8d9b 113d
000000a0: d010 4c3d f72b 86bd e409 013e 714b 13be
000000b0: f343 4b3e 97c4 4b3e 8e92 a53c cf8b de3d
000000c0: 5ec6 77bd 7c7e d03c 1dd3 e8bd 5d91 eabb
000000d0: a21a 973d caa7 80bd 02e1 b8bc 1b55 f53c
000000e0: cb92 7a3c cca4 373d 7666 0fbe bf80 c33b
000000f0: f92f 91bb b674 ba3d c3e5 633d 56c8 0bbe
00000100: c915 af3a 9339 463e f390 0dbe 01ce 363e
00000110: a074 af3d 130e b93d f91d 253d baf4 903d
00000120: 0307 86be 5cbb 933e 442f 963e 1dd1 2bbe
00000130: b15e a6bb 408c 9d3c cf90 a6bd b4d4 813d
00000140: dae0 2ebe 8811 9fbc 8af7 48bd ee17 34bd
00000150: b343 20bd 31cb b03a cb6c 97bd 7f04 293e
00000160: adfa afbd bf08 81bd d5a3 483c 6c71 a2bd
00000170: b300 3d3d 545a a23d 0eb7 ee3d 6132 8dbc
00000180: 6b2f 4cbc 744f e2bd 8dec a5be 8cd7 3dbd
00000190: 974f 0abe fafa 54be 6760 2ebe a9ed 08be
000001a0: b676 77be a1b8 b4be fb7e a7be 7edb b1bd
000001b0: 0aa8 5abe 173a 95be 9b25 eebd 23d2 233e
000001c0: 2b1b 913d 5e10 b6bd 43c0 b53d b0d2 003c
000001d0: aa90 85bc 7246 c23d 7f52 c63d 7ab7 143e
000001e0: 0933 323d 9615 50bd 7f53 9fbc 990f 1dbd
000001f0: c320 edbd 0db5 0b3c 7298 203e 45b7 313d
00000200: e8ad ffbc b3db 673e 442f 0e3d e6b6 b2bd
00000210: ef9f 15be d976 723e 80a1 69be 0261 9d3d
00000220: c50f 173e 73d1 1abe 786b c53d 3449 07be
00000230: 1811 be3e 7355 23be 4775 dcbd 5673 6abd
00000240: 3c48 91bd a810 b23d a560 373e 0fd9 263e
00000250: 3517 0b3e 3c77 bf3d 0e10 ed3d ee26 c4bd
00000260: 98c8 ef3d 1eef 893c 2c76 6d3e dc19 21be
00000270: 61b3 913d 5f10 313d 6d38 3a3e 014f 0a3e
00000280: e879 0d3e 113a 3fbe 9d39 adbd e38a 96bd
00000290: af0f cebd 598c 8abe 9f39 da3d 83df d43c
000002a0: 92e1 29be c7cf 37be 89ab 32bd 2a38 703e
000002b0: 169e 6d3e 2a56 dbbb 039e be3c 201a ea3d
000002c0: 05d8 823d 7c01 87bd 0528 b93d 5169 d9bd
000002d0: d410 9abd 93f5 093e c0e1 603d f237 ca3d
000002e0: 464b 5f3c e970 f63c d811 d8bd 0ecb dbbd
000002f0: 43b1 813d 713e 54be 9ffa 3c3b 3441 49bc
00000300: 3482 a23d 019d d93b e928 9a3d 7866 15be
00000310: d59f 113e 1cab 19ba c386 eabd 10f6 a6bd
00000320: 827f 983d 05c6 fbbd e8c0 03be 6093 43be
00000330: 4c4e 7ebc 4a99 36be 455b 893e 68e4 3ebe
00000340: 1c85 4a3b 5bda 1fbd fb2b d93d 02c2 8a3a
00000350: d7d9 9ebd ef2e d5bd f8e9 a8bd 5d98 9e3e
00000360: 508e febd 5d8a 963d 200a bc3d c429 06bb
00000370: 5d6b c63d be36 38be fc7b f33d 88e2 a7bd
00000380: 5551 223e 34dd f43c 4d13 3dbc 2c31 adbe
00000390: 7d1f d23d 0d8f 913d e846 e9bc 6572 5f3d
000003a0: afe5 ee3d dfe6 283e e2e4 4c3d 95d7 c73d
000003b0: 3dc6 493e bfaa 3c3e eb69 883d 42c4 163e
000003c0: c3b0 6abd a2ac 12be 5e56 67be 0832 3fbe
000003d0: bd6f 42bd f282 88be 6a70 163d bb06 803e
000003e0: 167c adbc 5b03 93bd 3c98 bebd 9feb e0bd
000003f0: cd9f 2fbe 7b87 28be f8cb 8ebd 3bf9 15bc
-0.14157666 0.021692846 -0.021050977 0.042533316 -0.21027488 0.06979781 -0.33159173 -0.01065258
-0.07891742 -0.005937136 -0.02008009 -0.027329454 0.16992854 -0.031831622 -0.08596587 0.033892866
-0.077653326 -0.012599219 -0.15020332 -0.18270908 -0.32126874 -0.15349223 0.092771776 0.0415318
0.07325444 0.10764494 -0.067643814 0.09205241 -0.03547741 -0.026403937 -0.14934231 -0.12566718
0.16106364 -0.015515703 0.080122344 0.21250297 0.24677934 0.21624012 0.1598091 0.035548735
0.04982072 -0.065513544 0.12601429 -0.14384247 0.1985014 0.19899212 0.020211484 0.1086651
-0.060491912 0.025450937 -0.11368392 -0.007158442 0.07378127 -0.06282003 -0.02256823 0.029947808
0.015293787 0.044834897 -0.1400393 0.0059662755 -0.0044307676 0.09104292 0.05563904 -0.13650641
0.0013357933 0.193579 -0.13824825 0.17852022 0.08567166 0.090358876 0.040311787 0.07077928
-0.26177225 0.2885388 0.29332936 -0.16778989 -0.005077206 0.019231915 -0.08133089 0.06339398
-0.17077962 -0.01941754 -0.049064197 -0.043968134 -0.039127063 0.001348829 -0.073937975 0.16505621
-0.085927345 -0.06300496 0.012246092 -0.0793179 0.046143245 0.07927385 0.11656009 -0.017235937
-0.012462477 -0.11050311 -0.32407036 -0.04634814 -0.13506924 -0.20798865 -0.17028962 -0.1337191
-0.24166378 -0.3529711 -0.32714066 -0.08684443 -0.21353164 -0.29145882 -0.116282664 0.1599813
0.0708526 -0.088898405 0.08874562 0.007862732 -0.016304333 0.094860926 0.09683704 0.14523116
0.043505702 -0.050801836 -0.019448994 -0.038344953 -0.115785144 0.008527053 0.15683153 0.04338767
-0.031210855 0.22642402 0.034713045 -0.08726291 -0.14611791 0.2367815 -0.22815514 0.076845184
0.1475211 -0.15118961 0.09639639 -0.13211519 0.37122416 -0.15950565 -0.107645564 -0.0572389
-0.07093856 0.08694583 0.1790796 0.16293739 0.13583072 0.09348914 0.11575328 -0.09577738
0.11708182 0.016837653 0.2318961 -0.15732521 0.07114292 0.043228503 0.18185587 0.135067
0.13816035 -0.18674494 -0.084582545 -0.07350709 -0.10061585 -0.27060202 0.106555216 0.025985485
-0.16589954 -0.17950355 -0.04362062 0.23458925 0.23204836 -0.006693621 0.023268705 0.11430764
0.06388859 -0.0659208 0.09040836 -0.10615791 -0.07522741 0.13472585 0.054902792 0.09873952
0.013628786 0.030083137 -0.105502784 -0.10732089 0.06332638 -0.20726945 0.0028835905 -0.012283612
0.079349905 0.006641031 0.07527334 -0.1458987 0.14221127 -0.0005861984 -0.11451485 -0.081524014
0.07446195 -0.122936286 -0.12866557 -0.19099188 -0.015521597 -0.17831913 0.26827446 -0.18641818
0.0030902093 -0.0390266 0.10604092 0.0010586383 -0.077563934 -0.104093425 -0.08247751 0.3097562
-0.12429488 0.073506095 0.09181619 -0.0020471672 0.09688447 -0.17989632 0.118888825 -0.08197504
0.15851338 0.029890634 -0.011540246 -0.33826578 0.10259912 0.07107363 -0.028476194 0.054552455
0.116649024 0.1649432 0.050022967 0.09757916 0.19704528 0.1842451 0.06660827 0.14723304
-0.05729748 -0.14323667 -0.2259154 -0.18671429 -0.047469843 -0.26662403 0.0367283 0.25005135
-0.021177333 -0.071783744 -0.0930638 -0.10982441 -0.17150803 -0.16457932 -0.06972498 -0.009153659

backbone.2.bias f4 [32]
00000000: 5428 c5bd 36a4 5dbe 0f81 9f3d 9ad1 6bbe
00000010: e7a7 fdbd 573d eb3b 11d7 fb3d d84e bdbd
00000020: 4a65 f23c a4f9 a5bb 9f36 b9bc a447 5cbe
00000030: 38b7 113d a892 7c3d 1020 9fbe b02e c5bd
00000040: db54 ab3b f5b2 a13d 1c85 2bbe 4e41 80bc
00000050: ad07 1cbe ba4d 133e 09e7 87bc 5aed 133e
00000060: f350 4e3c c58b 51bb 06d4 223d 8f78 723d
00000070: 8849 d1bd e593 65bd 9d15 3e3e 8acb 3bbd
-0.096268326 -0.21644673 0.07788288 -0.23029175 -0.123855405 0.007178943 0.1229688 -0.09243554
0.029589314 -0.00506516 -0.022609053 -0.21511704 0.03557512 0.0616633 -0.3107915 -0.096280456
0.0052286214 0.078954615 -0.16749996 -0.01565614 -0.15237303 0.14385119 -0.016589658 0.14446011
0.012592542 -0.0031974178 0.039752983 0.059197005 -0.10219103 -0.056049246 0.18562932 -0.045848407

backbone.2.weight f4 [32, 16, 3, 3]
00000000: eb93 633d 39a8 a13d 7c92 663d 6785 143e
00000010: a719 b13d 85cc ef3d 53aa 6e3e 3732 713e
00000020: 2c0d b03a 595f 143e 3b8b e33d 348a 7fbe
00000030: 224e df3d b2d1 843e 8efd 383e cbf0 253d
00000040: 3c13 913d b78d 0dbc dc98 853e c381 e43d
00000050: ad8d 393e 3ca7 563e 32eb 163e 08e8 463c
00000060: c120 433e da61 a63d 77c6 29be 76d4 2ebe
00000070: c0c3 f73c 50c9 b6bd d128 f73c 654c d33d
00000080: ac57 8a3d 8318 51bc 266b dcbd 588a b0bd
00000090: e989 893d 1877 3cbe 9090 40be c986 bc3d
000000a0: fb1a b83d c4e0 77bd d2a6 44bd f0c6 da3c
000000b0: 9ff0 bebd 4c99 6bbe 4efc 33bd 5227 1cbd
000000c0: 6e86 883d 7aa7 eebd 66e6 d6bd 0078 54be
000000d0: 2d60 c9bd 8e61 babd a689 86be f515 05bf
000000e0: e4db 6abd cedd 393d 677f 1ebe a4ce 8abd
000000f0: 406d 6bbe 9df1 f33b 1d04 44bd 5955 5ebc
00000100: 8985 d73c d3f5 a13e 5690 53bb 5e76 383d
00000110: fc19 d53d 9433 0e3e 049e 4e3c 49bc 6a3e
00000120: 6252 6bbe 8f76 4a3d 9aa0 7abd 2ee0 bfbc
00000130: e8a4 8b3d 50ae 48bd 5fbc c0bd d166 af3d
00000140: b3c8 4e3c 4ecc dfbd 8d01 8f3c 94d8 e4bd
00000150: b707 0dbe 69fc a3bd e89e a1bd 32df d93d
00000160: 6fda ffbd 551d 60bd d0cf 813d b809 583d
00000170: 0d21 9e3e cca3 b93b e520 483e 3885 713e
00000180: c184 e8bd 3660 233d f4b6 e7bb cc50 ca3c
00000190: 5c0a 543d 27bb d1bd 6161 63b8 99b9 c43b
000001a0: 1c20 87be b22a 0fbd 008e a73d 2807 8bbe
000001b0: 73c9 833d 3882 d23d d6a8 7c3e fbb4 46be
000001c0: 338b f43c 4189 f93d 2e9d 1fbe ff67 29bd
000001d0: c6dc e7bd 79a8 8dbd d221 fb3c f46e 09bd
000001e0: 5460 ce3d 8ed8 483d e84f 8fbd d29e a03d
000001f0: 6011 07bb ce72 bbbc 305c 54bd 948f a8bd
00000200: 71bc 34bd 18b5 653c 4399 9c3d 1873 0a39
00000210: 13c1 523d bcde 9d3d a7e4 2f3e 8dd1 70be
00000220: dad6 85bd 237f a33d a8e4 a8bd 2091 44be
00000230: acd3 22be fd75 89be e3d4 78be c458 94be
00000240: 8535 c6bc 08be d9bd 4aaa 813d 1cdb 8c3d
00000250: ccac 14be 7f9f 11be 67aa 013e 2645 82be
00000260: ac08 1e3e adfd 76bd 2923 a13c 2763 4fbe
00000270: 631e d7bc d8d2 cb3c 1a74 e8bd ad70 b63e
00000280: ad78 dd3d 764d 50bd c5d8 623e 4dab 3bbd
00000290: 060c acbd f03b bd3d 31fa a0bd a96f b0bd
000002a0: f346 a73e bf2a 67be cd8e 9fbe 5c8b b13d
000002b0: a15f 663e 6dfd 873e 70fd 833d 5695 a13c
000002c0: 6467 c73e b436 69be 4435 8cbe 38d1 913e
000002d0: c530 73be a3ed 3ebe f42c 8bbd adaa b43c
000002e0: fb00 5b3c 6ac0 e9bd a8a6 7e3d 6cda dc3d
000002f0: f44a ffbd af6f 92b9 56f8 a03d e32c 143c
00000300: 8cd8 d1bd a74a 28bc 27ba 713d 1d69 c8bd
00000310: 225a a3be 1a24 d93d 20d4 20bd fd0c c33d
00000320: 0ad1 8dbd a3e1 f23d 8b50 dc3d 1600 fbbb
00000330: c83d 3a3e f044 4fbd a767 1fbe f895 a1bd
00000340: d6eb d1bd 0691 55be 8be3 7b3d b18c 2fbe
00000350: d17c 8dbe 1f57 9b3d 7b86 18be 5989 13be
00000360: 58ba b83d a240 e2bc 6232 97bd c6ff 9b3d
00000370: ad7b 9abd d4c7 b53c 1a6b 193e 49b3 e73d
00000380: 3913 abbd a7d1 59bd 0600 413e 1a35 39be
00000390: 1d7d 8e3e c9dd 863e db66 cd3d 0810 57be
000003a0: bdc7 56be 529c a8bd 7f61 1d3d 1e89 c13c
000003b0: c957 0a3e 7f1a 11be aae4 cdbd 97a5 a83e
000003c0: d69b 373e 1ae0 3b3e dc89 3e3e e224 ab3b
000003d0: c9ad 2fbe 133f 35be 8d11 5ebe 7cb7 35bc
000003e0: e53d 8ebe b20e df3d 2f47 363d 648b 033d
000003f0: c2f7 75bd 8244 0a3d 5131 40bd 17ec 633e
0.055560987 0.07893414 0.056292042 0.14504014 0.08647471 0.11708931 0.23307161 0.23554312
0.001343166 0.14489497 0.111105405 -0.24955064 0.109035745 0.25941235 0.18065473 0.04051284
0.07083747 -0.0086397445 0.26093185 0.111575626 0.18120451 0.20962232 0.14738157 0.0121402815
0.19055463 0.081241325 -0.16579615 -0.17073235 0.030244708 -0.08925116 0.03017083 0.103173055
0.06755003 -0.012762192 -0.107626244 -0.08620137 0.067157574 -0.18404806 -0.18805146 0.09205396
0.08989521 -0.060517088 -0.048010655 0.026706189 -0.093232386 -0.23007697 -0.04394179 -0.038123436
0.066662654 -0.11653037 -0.10493164 -0.20748901 -0.09832797 -0.09100638 -0.26276892 -0.5198663
-0.05733861 0.045377545 -0.15478288 -0.06777695 -0.22990894 0.007444574 -0.047855485 -0.013570153
0.026308792 0.31632861 -0.0032282076 0.04503476 0.10405347 0.13886863 0.012610916 0.22923388
-0.22980645 0.049429473 -0.061188318 -0.023422327 0.06818563 -0.048994362 -0.09410929 0.085645325
0.012621093 -0.1092764 0.017456794 -0.111741215 -0.13772474 -0.08007128 -0.07891637 0.10638274
-0.12492835 -0.054715473 0.06338465 0.052743644 0.3088459 0.005665278 0.19543798 0.23585975
-0.11353446 0.039886676 -0.0070713703 0.02469673 0.051767692 -0.102407746 -5.421171e-05 0.0060035703
-0.26391685 -0.034952827 0.08181381 -0.27153897 0.06434908 0.102787435 0.24673781 -0.19404976
0.029851532 0.12184382 -0.15587303 -0.041358944 -0.11321406 -0.06916899 0.030655775 -0.03355308
0.10076967 0.049034648 -0.06997663 0.078427926 -0.0020609722 -0.022881892 -0.05184573 -0.0823051
-0.044125024 0.014020227 0.0764642 0.00013203581 0.05145366 0.07708499 0.17177068 -0.23517437
-0.0653512 0.07983234 -0.08246738 -0.19195986 -0.15901059 -0.2684783 -0.2429996 -0.28973973
-0.024195442 -0.10631949 0.06331308 0.06877729 -0.14519042 -0.14220999 0.1266266 -0.2544338
0.15432996 -0.060300518 0.019670086 -0.20252667 -0.026259607 0.024880812 -0.113502696 0.3563284
0.10814033 -0.050855123 0.22153004 -0.045817662 -0.08400731 0.09239948 -0.0786022 -0.086150475
0.32671317 -0.225749 -0.31163636 0.08669159 0.22497417 0.26560536 0.06444824 0.01972453
0.38946068 -0.22774774 -0.27384388 0.28479934 -0.23749073 -0.18645339 -0.067956835 0.02205404
0.013366933 -0.11413653 0.062170655 0.10783848 -0.12465468 -0.000279305 0.07859866 0.009043905
-0.10246381 -0.010271705 0.05901542 -0.09785674 -0.31904703 0.10602589 -0.0392648 0.09523962
-0.06924637 0.11859443 0.1075755 -0.0076599224 0.1818763 -0.050602853 -0.15566884 -0.078899324
-0.1025006 -0.20856103 0.0614963 -0.17143513 -0.2763429 0.075849764 -0.1489505 -0.14407863
0.09019917 -0.02761871 -0.07382657 0.07617144 -0.075431205 0.022190012 0.14982262 0.11313493
-0.08353276 -0.053178456 0.18847665 -0.18086663 0.2782983 0.26341084 0.10029384 -0.21002209
-0.20974632 -0.08232941 0.038423058 0.023624953 0.1351005 -0.14170264 -0.1005338 0.32938835
0.1793054 0.18347207 0.18607277 0.0052229026 -0.17156138 -0.17699842 -0.21686383 -0.011091109
-0.27781597 0.10891475 0.04450148 0.032115355 -0.060050733 0.03375674 -0.04692203 0.2225803

backbone.5.bias f4 [64]
00000000: 1aac 02be b550 70bd 61b4 60bc 17a7 d6bd
00000010: 2057 5d3c a1dc 62be f8a1 f4bd fc1e 1ebd
00000020: 91da 1f3e 2c7e ffbd 2f31 283c 5de3 c3bd
00000030: 9c41 3a3d 220a 7ebd 72bd 1d3e e3e0 1dbe
00000040: 3c8b a13c 8b41 75bd c0e3 81bd 6375 163d
00000050: 9de9 27be 413d b3bd 7b44 67bd ab5c 0c3d
00000060: 1aa5 133d cd14 8dbd 14d6 87be 6a8e 563c
00000070: 74db 13be f8ee 97bd df61 93bd 54a3 7ebd
00000080: 684b d8bd 2a34 4ebd 85d1 04be bc76 50be
00000090: d940 cc3d 76b9 69bd 89ad 93bd cb87 13be
000000a0: e52c 4f3d a0fe 813c 8a64 c9bd d977 97bc
000000b0: 9881 56bb c624 45be 7734 f3bd aaf9 2d3d
000000c0: 3d7f f9bc 2af2 0abe c7a3 49bd 6904 60bb
000000d0: 919c 3a3e 2bcc 3b3b e5bb 82bd fc9a fabd
000000e0: fd83 babe 8035 483e e8bb 96bc b9a8 8abd
000000f0: 2c36 36bd c033 a93c 609b 3bbd 7875 98bd
-0.12760964 -0.05867072 -0.013714881 -0.104810886 0.013509542 -0.22154476 -0.119449556 -0.038603768
0.1561072 -0.12475237 0.0102656325 -0.095648505 0.045472726 -0.062021382 0.15404299 -0.15417819
0.019719712 -0.05987696 -0.06342268 0.036733042 -0.1639771 -0.08751918 -0.056461792 0.034268063
0.036046125 -0.06888733 -0.26530516 0.013095478 -0.14439183 -0.074186265 -0.07196402 -0.06216748
-0.105612576 -0.050342716 -0.1297055 -0.20357794 0.09973306 -0.057061635 -0.072108336 -0.1440727
0.050579924 0.015868485 -0.098336294 -0.018489765 -0.0032731052 -0.19252309 -0.11875241 0.042474426
-0.03045618 -0.13568941 -0.049228456 -0.0034182316 0.18223788 0.002865563 -0.06383494 -0.12236592
-0.36428824 0.19551659 -0.018400148 -0.067704625 -0.044485256 0.02065456 -0.045802474 -0.074442804

backbone.5.weight f4 [64, 32, 3, 3]
00000000: 12ba 3bbe dac1 af3d 9a5b 8c3e 3ec5 c4bd
00000010: 2da7 10bc 5b7a e3bd e75c 08be db21 b3be
00000020: 2ab7 67be d6c8 5dbe 8bb8 a53d ec4f 2dbe
00000030: a709 4cbe 784a e8bc e07a 00be 442b b4be
00000040: 9d9a 073c eba1 d53d 00a0 d63c 61e6 a8bd
00000050: f58b f8bc aa82 0ebe 2ee5 01be db9f 54be
00000060: 352b da3d af3b c0bd aefc a6bc abb9 4fbe
00000070: 16d5 2dbe c67c a3be d905 9cbd 16e3 d33e
00000080: a4f9 463e c973 333f e809 fb3e 68ad d5bd
00000090: 4a26 1739 5603 4fbd 041d 613e 59ed 6dbc
000000a0: 52b1 963d 7750 97bb 0ee4 bebb 4d28 5e3d
000000b0: 4d36 f73c d6e4 7b3d 25e5 75bd 1a52 633d
000000c0: 471c 063e 53ab 11b9 4c84 83bd 53b2 2bbd
000000d0: 1d77 8dbd 6bd0 4fbd fe7e d2ba 6e10 293e
000000e0: aa82 45be f5d5 f63e 8601 6f3c c9b4 883d
000000f0: 237c 56be 8f7a 6d3e a5ee 9abc 5aca e1bd
00000100: c826 b6bb 064f 83bd c598 313d 1ace 2d3d
00000110: 8213 573d 9bd1 193e ff7f 3d3e 9809 a93d
00000120: 71c0 d5bd 9946 10be 682d ee3d e624 17be
00000130: 2f3d 31be 797d 83bc 1cae a73c 8b66 74be
00000140: 0acf 57bc 50f4 46bb 65a3 23bd c4a7 95bd
00000150: 1450 d23b 71d3 253d 3088 103c 9d41 e9b9
00000160: 6132 0ebe 3b2e d53d 765d 0b3e 6b06 83be
00000170: 111e 7bbd cc4c 553d 5600 6dbe bcae 8fbe
00000180: fc2c 833e 019f 7c3c c5ad f6bd a310 0d3c
00000190: a1b8 a63d 2f42 ff3d 465d 033e 9b22 d73d
000001a0: 04df 093e 3f0c 283e 1872 c43d 780b 8c3e
000001b0: 39c0 ac3c dd5e 733e 9572 fcbc 1113 e73d
000001c0: e9ca 273e 2941 6ebe 5899 abbd 2c65 15bc
000001d0: 1ce1 cd3c 55d9 a83c 92c2 243e e0ee c73d
000001e0: 304d 81bd 9b2e ed3d 7183 f73c ec0e 09bd
000001f0: 2c48 713e 3d3f eabd ccba 1cbe 10fe 24bd
00000200: 67f2 ef3d 515d 323d c055 9a3e 622a 0d3f
00000210: 2080 8e3e 82f5 893e 797b a93e 767d 99bd
00000220: 31ef eebc d36c 313e de2f 0e3e 85e0 293d
00000230: 78c1 18bd 3036 703e 6871 a03c f9f5 f5bd
00000240: 707a c4bd 255e 12bd 58aa 6c3d f30d f13e
00000250: b4d6 94bd 2958 123e 4fcc 5e3e e901 0dbd
00000260: 8a5e f53c 6562 883d dd69 f83b d37a 1dbe
00000270: de17 f63d 4888 ce3c 15e0 a0bd 6950 c73b
00000280: 14ca 8abe 27ad 67bd c0b9 343e ce50 a53a
00000290: 0ba7 a83d 30d7 c63c 8338 edbd 8402 0ebd
000002a0: 1b1d 013d cf5f 43be e924 3bbe f471 e83d
000002b0: 0980 56bb e7cf eb3b b3d1 96bd e26e 353e
000002c0: caf1 f43d 995e b93e b509 6dbc 3092 e73d
000002d0: 3009 c23c 097f 98be 7405 33be 9671 be3d
000002e0: 3be4 1e3d 02f7 d6bd 2c0d 043e 495a e93e
000002f0: d962 ad3d 56ec 1dbe 477a 463e b2db 18be
00000300: d5ec d63d 61e7 143a 77e4 f5bd ebf3 54bc
00000310: 340e 80be 93e1 57bd a886 873e eb1d 9dbc
00000320: 91b6 2a3e ceef 043e 2343 e93c ebcc f83c
00000330: 042b a53e 344e 213e f8b6 563d 2cfc bcbe
00000340: 0b3e 4abe 6ec1 28be dfea bdbc fa7d 1e3d
00000350: e292 15be 5c97 35bc f5b0 bdbd 3382 1fbf
00000360: 34d3 bcbd c66e 27be b3e3 39be f763 e7bd
00000370: afd0 d03d 78cb 33be 8221 9a3e 7202 dc3e
00000380: e68a 293e 06ea 9fbc a865 013d 7bb7 e2bb
00000390: d936 8c3e 1f39 663e c29c 743d c6e1 333e
000003a0: 29cc f63d 9dc8 2a3c d765 fc3c e763 b23d
000003b0: 806c 4a3e eebd 533e 1676 6abc ef47 24be
000003c0: 3248 733e 6810 853d ecf2 a5bc a26d 92be
000003d0: 1f11 88bd cb52 73be d77f cfbb cc20 bebd
000003e0: 8938 4cbe 0c07 ab3b b85a 49be fce2 64be
000003f0: d0d3 003d 599d 083e 63df 973e e4af 9c3e
-0.18332699 0.08581896 0.27413636 -0.096079335 -0.00882892 -0.11107322 -0.1331669 -0.34986767
-0.22628465 -0.21658644 0.080918394 -0.16925019 -0.19925557 -0.028355822 -0.12546873 -0.3518926
0.008276609 0.10431274 0.02619934 -0.08247066 -0.030340174 -0.13917032 -0.12685081 -0.20764105
0.10652772 -0.09386384 -0.020384159 -0.2028567 -0.16975817 -0.31931132 -0.07618303 0.4138419
0.19431168 0.7009855 0.49030995 -0.10433465 0.00014414746 -0.05054029 0.21983725 -0.01452192
0.0735804 -0.0046177465 -0.005825526 0.054237653 0.03017726 0.06149753 -0.060032982 0.05549822
0.13096724 -0.00013892101 -0.06421718 -0.04191811 -0.06907485 -0.050735872 -0.0016059575 0.16510174
-0.19288126 0.4821011 0.014587766 0.06675107 -0.20945792 0.23191284 -0.018912623 -0.110249236
-0.0055588223 -0.06411557 0.043358583 0.042432882 0.05250884 0.15021364 0.18505858 0.08253783
-0.10437096 -0.14089431 0.11629754 -0.1476017 -0.17308496 -0.016051041 0.020468764 -0.23867242
-0.013171921 -0.0030358024 -0.039950747 -0.073073894 0.0064182375 0.04048485 0.008821532 -0.0004449011
-0.13886406 0.104092084 0.13609871 -0.25590834 -0.06130797 0.052075192 -0.2314466 -0.28063
0.25620258 0.015418769 -0.12044863 0.0086099235 0.08140684 0.124637954 0.1282855 0.10504647
0.1346398 0.16410922 0.09592074 0.273525 0.021087753 0.23766656 -0.030816356 0.112829335
0.16385998 -0.23267044 -0.083788574 -0.00911836 0.025131755 0.020611444 0.16089848 0.09762359
-0.063135505 0.11581155 0.030214043 -0.033461496 0.23562688 -0.11437843 -0.15305632 -0.040281355
0.117161565 0.043546025 0.30143547 0.55142796 0.27832127 0.2694512 0.33102015 -0.07494633
-0.02916679 0.1732667 0.13885447 0.041473884 -0.03729388 0.23458171 0.019585326 -0.12009806
-0.095936656 -0.035734314 0.05777964 0.47080955 -0.07267514 0.14291443 0.21757625 -0.03442565
0.029952306 0.06659392 0.0075809793 -0.15378885 0.12016271 0.025211468 -0.0785524 0.0060825837
-0.27107298 -0.056561615 0.17648983 0.0012612583 0.08234986 0.024272531 -0.115830444 -0.034670368
0.031521898 -0.19079517 -0.18275799 0.1134986 -0.0032730123 0.0071964148 -0.07364216 0.1771808
0.1196018 0.36204985 -0.014467646 0.1130718 0.023686022 -0.2978442 -0.17482549 0.092990085
0.038791876 -0.10496332 0.1289565 0.45576695 0.08466119 -0.15422186 0.19382583 -0.14927557
0.10494391 0.000568023 -0.12006467 -0.012997608 -0.25010836 -0.05270536 0.26469922 -0.019179305
0.16671206 0.12982103 0.028474396 0.03037115 0.3225938 0.15752488 0.052420586 -0.36911142
-0.1975023 -0.16480038 -0.023183284 0.03869436 -0.14606813 -0.01108345 -0.092622675 -0.62308043
-0.09219971 -0.1635085 -0.18153267 -0.11298364 0.10196053 -0.17558086 0.3010369 0.42970616
0.16556892 -0.01952077 0.031591088 -0.006918845 0.27385595 0.22482727 0.05971981 0.17566594
0.12050659 0.0104238065 0.03081028 0.08710461 0.19767952 0.20677921 -0.01431038 -0.16043065
0.23758009 0.0649727 -0.020257436 -0.28599268 -0.066438906 -0.23762052 -0.0063323784 -0.09283599
-0.19943441 0.005219346 -0.19663513 -0.22352213 0.031452 0.13341273 0.29662618 0.30602944
