checkpoints/endgame.safetensors (safetensors, 629056 bytes, 15 tensors)

advantage_head.0.bias f4 [5]
0	0xbe512852	-0.20425537
1	0xbd5a0d6b	-0.053235453
2	0x3d6002ce	0.054690175
3	0xbd44b1bc	-0.048021063
4	0x3e2591b2	0.1616886

advantage_head.0.weight f4 [5, 256]
0	0xbddd5bf6	-0.10808556
1	0x3e380d42	0.17973807
2	0xbeea3fa2	-0.45751673
3	0x3df4db49	0.11955888
4	0x3df6a10f	0.12042438
5	0x3d3c79bc	0.046014532
6	0xbf4ccc83	-0.7999956
7	0x3d02f648	0.031973153
8	0xbe4095f7	-0.18807207
9	0xbef1ec43	-0.47250566
10	0xbbdd97f4	-0.006762499
11	0x3f1a490b	0.60267705
12	0x3d8ae2a9	0.06781513
13	0xbe6a115b	-0.22858183
14	0x3f06c742	0.52647793
15	0xbb58ab05	-0.003306092
16	0xbf14d945	-0.58144027
17	0x3bc86808	0.006115917
18	0xbcbba528	-0.022905901
19	0x3bc82984	0.0061084647
20	0x3d29f8a5	0.04149689
21	0x3dd88a12	0.1057321
22	0xbc0e1c94	-0.008673806
23	0x3da91894	0.08256641
24	0x3d1ae898	0.037819475
25	0x3d9bc743	0.076063655
26	0x3e94be6f	0.2905154
27	0x3e30e6a4	0.17275482
28	0x3d9c26b6	0.07624571
29	0x3b492487	0.0030691938
30	0x3e2097ba	0.15682879
31	0xbdd7665a	-0.10517569
32	0x3eb681a8	0.35645795
33	0x3d373253	0.044725727
34	0x3ccb2d1a	0.02480178
35	0x3d174088	0.036926776
36	0xbe1897a2	-0.14901593
37	0xbdc28744	-0.09498456
38	0x3e77166a	0.24129644
39	0x3cadcabf	0.021214841
40	0x3ebafffa	0.3652342
41	0xbc4bbce7	-0.012435175
42	0xbd8c7f65	-0.06860236
43	0x3d29e65c	0.041479453
44	0xbaf58143	-0.001873054
45	0xbcd456cc	-0.025920294
46	0xbcd11b94	-0.025525846
47	0xbe256c76	-0.16154656
48	0x3dcf370e	0.10117923
49	0xbdb8ccc6	-0.090234324
50	0xbf72d325	-0.9485343
51	0xbd713ad1	-0.058893982
52	0x3d55c3a5	0.052188534
53	0x3e2218ee	0.15829822
54	0x3de426a4	0.111401826
55	0x3d0d3607	0.034475353
56	0x3c26b1f3	0.010174262
57	0x3c59e54c	0.013299298
58	0x3b97c787	0.00463194
59	0x3e0b18bf	0.13583659
60	0x3d90afaa	0.07064755
61	0xba879182	-0.0010343047
62	0xbb96b425	-0.0045991116
63	0x3dac56d1	0.084149964
64	0x3dccd525	0.100015916
65	0xbe370a76	-0.17875084
66	0x3c9e4b55	0.01932303
67	0xbd0afb07	-0.033930805
68	0x3db34d12	0.08754934
69	0x3ecc7ee5	0.39940563
70	0xbd75d454	-0.060016945
71	0x3d653c32	0.05596561
72	0xbcb5d7be	-0.0221976
73	0xbbb35bb0	-0.0054735765
74	0x3e147d86	0.14501008
75	0xbdff748f	-0.12473404
76	0x3e5f9c8b	0.2183706
77	0x3d9aeaf2	0.075643435
78	0xbbdd3e13	-0.0067517846
79	0x3c60cc37	0.013720564
80	0x3d938061	0.07202221
81	0x3dc6c66e	0.09705816
82	0xbe20957c	-0.15682024
83	0x3a87b144	0.0010352512
84	0x3d9375ba	0.07200189
85	0x3c15ee24	0.009151015
86	0xbe656862	-0.224031
87	0x3ced821b	0.028992703
88	0x3de46b21	0.11153246
89	0x3d1ec46e	0.03876155
90	0x3cdb96d9	0.026805328
91	0x3bf40386	0.007446709
92	0x3ec550a2	0.3853808
93	0x3e70d127	0.23517285
94	0x3cab4d76	0.02091096
95	0xbd5b4b76	-0.053538762
96	0xbe190c28	-0.14946043
97	0xbf8375c1	-1.0270311
98	0x3e38b9d4	0.18039638
99	0x3db9a3f1	0.090644725
100	0xbc91b5dd	-0.017786914
101	0x3d74f660	0.059805274
102	0x3dfd6e59	0.12374563
103	0xbdcc6ea7	-0.09982043
104	0x3cbc3f1f	0.022979317
105	0x3e355707	0.1770898
106	0x3df01ebc	0.11724612
107	0x3ad50daf	0.0016254688
108	0xbeb7ba48	-0.3588431
109	0x3d173c73	0.036922883
110	0x3c96c049	0.018402236
111	0x3b67b120	0.0035353377
112	0x3db8401a	0.089966014
113	0xbe12b09a	-0.1432518
114	0xbe0bca10	-0.136513
115	0xbdca6fc0	-0.09884596
116	0x3d6b58fb	0.057457905
117	0x3e8ef842	0.2792378
118	0x3d47096f	0.04859298
119	0x3d6f6cf3	0.05845351
120	0x3ea902d8	0.33009982
121	0x3e357193	0.17719106
122	0xbe88e242	-0.2673512
123	0x3d898c52	0.06716217
124	0x3d2b8217	0.04187211
125	0x3cb3b9cc	0.02193918
126	0x3cdcd77e	0.026958223
127	0x3d3045d1	0.043035332
128	0xbe49c45a	-0.19703808
129	0x3f12b62d	0.5730923
130	0xbee49947	-0.4464819
131	0x3dc247de	0.09486364
132	0x3c54252e	0.012948317
133	0x3d13b16a	0.036057867
134	0xbf31945f	-0.6936702
135	0xbd395d5e	-0.045255058
136	0x3c9691fc	0.018380158
137	0xbe5e2eda	-0.2169756
138	0x3be5cfa8	0.00701328
139	0x3cf31e4b	0.02967753
140	0x3c0741f8	0.008255474
141	0x3d5412d9	0.051775787
142	0x3d5af1f1	0.05345339
143	0xbd7b7cc5	-0.061398286
144	0x3e5af6e0	0.21383238
145	0x3ca39194	0.019966878
146	0x3f288e73	0.6584236
147	0x3e7f5e75	0.24938376
148	0x3bf28880	0.007401526
149	0xbcda6f34	-0.026664354
150	0x3dd41255	0.10355059
151	0xbf0b4944	-0.5440867
152	0x3d92f132	0.071749106
153	0x3d819c4e	0.06328641
154	0x3d8e7075	0.06955043
155	0x3e3a81a8	0.18213522
156	0x3c2e9560	0.010655731
157	0x3bf4e00b	0.007472997
158	0x3e54f122	0.2079511
159	0xbf81e94f	-1.0149325
160	0x3d82c029	0.06384308
161	0x3ebfb097	0.37439415
162	0xbc9cef3b	-0.019157043
163	0xbf933911	-1.150179
164	0x3c883e9c	0.016631417
165	0x3e24fbc1	0.16111661
166	0x3c2921c1	0.010322989
167	0x3dc628e8	0.09675771
168	0x3b1e70c7	0.0024176107
169	0xbd56a0c7	-0.052399423
170	0x3f2ebbf2	0.6825553
171	0x3d0210e6	0.031754397
172	0xbeb394ca	-0.35074455
173	0x3d9c7a41	0.076405056
174	0x3c01cdb8	0.007922582
175	0x3cab3cc1	0.020902993
176	0xbfd101ca	-1.6328671
177	0x3d476f33	0.048690032
178	0xbc08b2f3	-0.008343446
179	0x3e35b24c	0.17743796
180	0x3c88cc2d	0.016698921
181	0x3f1a00e0	0.60157585
182	0x3d010ef7	0.031508412
183	0x3d86111b	0.06546231
184	0x3e2996a6	0.16561374
185	0x3dcb1bbe	0.09917401
186	0xbc8c5178	-0.017128691
187	0xbe0b529a	-0.13605729
188	0x3d37a28b	0.044832747
189	0xbd9a56a5	-0.075360574
190	0x3cffdf56	0.031234425
191	0xbd16028e	-0.03662353
192	0x3e303899	0.1720909
193	0xbcbfa124	-0.023392268
194	0x3d1b0df4	0.037855104
195	0xbeb0114d	-0.343882
196	0xbd64f785	-0.055900116
197	0x3e265ead	0.16247053
198	0x3c48b1d0	0.012249425
199	0x3e272f05	0.1632653
200	0x3caacfd6	0.020851057
201	0x3e958069	0.29199532
202	0x3e255f76	0.16149697
203	0x3cdd403b	0.027008167
204	0x3f18a3c1	0.5962487
205	0x3d5b40df	0.053528663
206	0xbe144ac4	-0.14481646
207	0xbdce6508	-0.10077864
208	0xbd8de6eb	-0.0692881
209	0xbda1e880	-0.07905674
210	0xbee5b3fe	-0.44863886
211	0x3d574917	0.05255994
212	0x3e96dcc8	0.29465318
213	0x3cdf9db0	0.027296871
214	0x3dfd4602	0.123668686
215	0xbec765ae	-0.38944763
216	0x3e573e25	0.210198
217	0x3ef6023b	0.48048577
218	0x3d6f0caf	0.058361705
219	0x3d9239f3	0.07139959
220	0xbcc43bb8	-0.023954257
221	0x3d5c87fb	0.05384062
222	0x3d86d538	0.06583637
223	0x3e367046	0.17816266
224	0x3ede97dc	0.43475235
225	0x3d14d75b	0.03633819
226	0x3bc9af9f	0.006154969
227	0x3e729e6b	0.23693244
228	0x3cd5eea5	0.026114771
229	0x3dfe486c	0.12416157
230	0x3ce9831f	0.028504906
231	0xbd238b11	-0.039927546
232	0x3cb16396	0.021653932
233	0xbe92cd30	-0.2867217
234	0x3db1c0ac	0.08679327
235	0xbf358d19	-0.7091842
236	0xbd3e76c1	-0.04649997
237	0x3dc88390	0.097907186
238	0x3c8535fb	0.016261091
239	0x3c720c2f	0.014773413
240	0xbece9f14	-0.40355742
241	0x3dab5a64	0.0836685
242	0x3ca0c6c1	0.019626023
243	0x3d58dfc4	0.052947775
244	0xbe596932	-0.21231535
245	0x3e0739b0	0.132056
246	0xbd722b7a	-0.059123494
247	0x3c4dec19	0.012568497
248	0x3c007264	0.007839773
249	0x3dc9a5b4	0.098460585
250	0xbcaebd7e	-0.021330591
251	0x3c9ce002	0.019149784
252	0x3d66dfb1	0.056365672
253	0xbe1a3ab0	-0.1506145
254	0x3e25cd6a	0.1619164
255	0x3c801182	0.015633348

backbone.0.bias f4 [16]
0	0xbc844384	-0.016145475
1	0xbdfffc06	-0.124992415
2	0x3cd2e2d9	0.025742935
3	0x3ca731e1	0.020409526
4	0x3ddae74c	0.10688648
5	0x3cb72983	0.022358662
6	0x3d683664	0.056692496
7	0x3d7f84d5	0.062382538
8	0xbc479e5b	-0.012183751
9	0xbe152a31	-0.14566876
10	0xbdacd3c5	-0.08438829
11	0xbc8f4261	-0.017487707
12	0xbdcc33b8	-0.09970802
13	0xbd424d56	-0.047437035
14	0x3c5274d0	0.012845233
15	0x3cdd783e	0.027034875

backbone.0.weight f4 [16, 17, 5, 5]
0	0xbba6b3fe	-0.0050873747
1	0x3d91494a	0.07094057
2	0xbcd2e8b4	-0.025745727
3	0xbd0068b2	-0.031349845
4	0x3c109e27	0.008826769
5	0x3b216ef6	0.0024632788
6	0xbd2c10d2	-0.04200823
7	0xbd060a9f	-0.032724973
8	0xbd73d26e	-0.059526853
9	0xbd8abe83	-0.067746185
10	0x3bbbff2b	0.0057372055
11	0xbe90a6fd	-0.28252402
12	0xbe03624b	-0.12830465
13	0xbe33756b	-0.1752526
14	0x3c97ca32	0.018529031
15	0x3c86879f	0.016422091
16	0xbcf65b95	-0.030072967
17	0xbc6dfa93	-0.014525074
18	0xbe251bb9	-0.16123857
19	0x3cc06199	0.023484038
20	0x3c81ca65	0.01584358
21	0xbdef30fd	-0.11679266
22	0x3dcb92fe	0.09940146
23	0x3d09c655	0.03363641
24	0x3d50d954	0.05098851
25	0xbfbc1095	-1.469256
26	0xbfda14f0	-1.703764
27	0xbf82a51d	-1.0206639
28	0xbe9925e8	-0.29911733
29	0xbf191491	-0.59797007
30	0xc0099139	-2.1494887
31	0xbfc16a00	-1.5110474
32	0xbfae0bd2	-1.3597357
33	0xbde25625	-0.11051587
34	0x3c902cde	0.01759952
35	0x3d48019d	0.048829664
36	0xbf4cff39	-0.8007694
37	0xbeb33838	-0.3500383
38	0xbbcdfd3b	-0.006286291
39	0xbd365004	-0.044509903
40	0xbf93015b	-1.1484789
41	0xbf255c50	-0.6459398
42	0xbe7ca70d	-0.246731
43	0x3d3abac0	0.045588255
44	0xbf35acaa	-0.7096659
45	0xbf85f0bc	-1.0464091
46	0xbf24179c	-0.64098525
47	0xbf45a8a0	-0.77210426
48	0xbc9848f7	-0.01858948
49	0xbcb40621	-0.021975579
50	0xbdd970de	-0.10617231
51	0xbd7385ef	-0.0594539
52	0xbdc92d7a	-0.09823127
53	0x3d267be7	0.040645506
54	0x3df2403b	0.11828657
55	0xbda597fb	-0.080856286
56	0xbe93e3c1	-0.288847
57	0xbe3027c2	-0.17202666
58	0xbe9e7a88	-0.3095286
59	0x3d37483c	0.044746622
60	0xbe824cf9	-0.2544935
61	0xbd588a7d	-0.052866448
62	0xbda83b83	-0.08214476
63	0xbc5c04c7	-0.013428873
64	0x3d313eea	0.04327289
65	0xbd5beefb	-0.053694706
66	0xbcb2eb94	-0.021840848
67	0x3cd28fe1	0.025703372
68	0xbdbf604b	-0.09344538
69	0x3d0415f4	0.0322475
70	0x3d372e6d	0.04472201
71	0x3e1ee3eb	0.15516631
72	0x3d87d61e	0.066326365
73	0x3cf3392c	0.029690348
74	0xbdea5373	-0.11441698
75	0x3e596e09	0.21233381
76	0x3f622ae9	0.88346726
77	0x3eb278e5	0.3485786
78	0x3f0ba5bd	0.5454977
79	0x3cb06d0f	0.021536378
80	0x3f12e0b4	0.5737412
81	0x3f013d4e	0.5048417
82	0x3d6ab609	0.05730251
83	0x3e8ba0f4	0.27271235
84	0x3d1c3b51	0.038142506
85	0x3f1ff7e1	0.6248761
86	0x3ebafa75	0.3651921
87	0x3ebdbaf3	0.37056693
88	0x3ef1b325	0.4720699
89	0x3e54d7c2	0.2078543
90	0x3dd63a8b	0.10460385
91	0x3e6fe9ac	0.23428982
92	0x3e863a83	0.26216516
93	0xbe2916c7	-0.16512595
94	0x3ec02886	0.37530917
95	0xbe8d7ac5	-0.27632728
96	0xbe23d552	-0.15999344
97	0xbd535fb0	-0.051604927
98	0x3e37911a	0.17926446
99	0xbcdac86b	-0.026706895
100	0xbdbf77fd	-0.09349058
101	0xbd636ff9	-0.055526707
102	0xbdd76f2b	-0.105192505
103	0xbdce1f23	-0.100645326
104	0xbd003692	-0.031302042
105	0x3e88c1c0	0.2671032
106	0x3e2c33d9	0.16816653
107	0x3e08b051	0.1334851
108	0x3d93f32d	0.072241165
109	0x3c972b90	0.01845339
110	0x3e76d0de	0.24103114
111	0x3ebaabe1	0.36459258
112	0x3e1b1e52	0.15148285
113	0xbd55dba4	-0.05221142
114	0x3dd98322	0.10620715
115	0xbe8064eb	-0.25076994
116	0xbe144725	-0.14480264
117	0xbe5dad10	-0.2164805
118	0xbdfa0331	-0.1220764
119	0xbd4c2451	-0.04983932
120	0xbd9f9ab7	-0.077931814
121	0x3cafdbc2	0.021467093
122	0xbe959ea1	-0.29222587
123	0x3d4220d2	0.04739458
124	0xbcee7604	-0.029109009
125	0xbe0987eb	-0.13430755
126	0x3dbd970a	0.09257324
127	0x3e0fb5a3	0.14034133
128	0xbc49c29b	-0.012314464
129	0x3e2a78a1	0.16647579
130	0x3e78bca5	0.24290712
131	0xbdd8261b	-0.10554143
132	0xbde6e953	-0.11274972
133	0xbe1f3a2e	-0.15549538
134	0x3e3a16f0	0.18172812
135	0x3e91acd7	0.2845218
136	0x3eb93321	0.3617182
137	0x3e389cd9	0.18028583
138	0xbbf98723	-0.0076149865
139	0x3e8c3ecb	0.27391657
140	0x3d735dba	0.059415556
141	0xbe4f1494	-0.20222694
142	0xbe66eba8	-0.22550833
143	0xbe351a75	-0.17685874
144	0x3e106f13	0.14104871
145	0xbd9d1da7	-0.07671671
146	0x3d92f36e	0.07175337
147	0xbe5605a7	-0.20900594
148	0xbd72a136	-0.059235774
149	0xbbee3827	-0.0072698775
150	0xbe0c88b3	-0.13724022
151	0x3dc44401	0.09583283
152	0x3cc2bd19	0.02377181
153	0xbc3e5068	-0.01161585
154	0x3e087f3f	0.1332979
155	0x3e8894ce	0.2667603
156	0xbdaa7931	-0.08323897
157	0xbd636e35	-0.055525023
158	0xbe9f721a	-0.3114174
159	0x3d744003	0.05963136
160	0x3e830615	0.25590578
161	0x3eb06347	0.34450743
162	0x3e918d30	0.2842803
163	0xbdcf7ec6	-0.10131602
164	0x3e68e43d	0.22743316
165	0x3e13f912	0.14450482
166	0xbe003f1f	-0.12524079
167	0xbec07dbd	-0.3759593
168	0xbe2eeeda	-0.17083302
169	0x3db09c5a	0.08623572
170	0xbc14c03e	-0.009079037
171	0x3cf43f80	0.029815435
172	0xbe5eb08f	-0.2174704
173	0xbddfa08d	-0.109192945
174	0x3d07073f	0.032965895
175	0x3d740934	0.05957909
176	0x3dc22f8c	0.09481725
177	0x3e8feaca	0.28108817
178	0x3e91ea08	0.28498864
179	0x3e35e5c3	0.17763428
180	0x3e8bf9ff	0.2733917
181	0x3e51f0f8	0.20502079
182	0x3eaaeb01	0.3338242
183	0xbe65bcd8	-0.2243532
184	0x3e2d7536	0.16939244
185	0x3e960bfa	0.29306012
186	0x3e07f303	0.13276295
187	0x3e216825	0.15762384
188	0xbd7b3bc4	-0.061336294
189	0x3ea1a1a7	0.31568643
190	0x3d674d0d	0.056469966
191	0x3d542806	0.05179598
192	0xbf32c7e5	-0.69836265
193	0xbe59ece9	-0.2128178
194	0x3dcb060f	0.09913265
195	0x3e293b07	0.16526423
196	0x3e9b0c59	0.30282858
197	0xbd732449	-0.059360776
198	0xbcd93d36	-0.026518445
199	0x3c9f7f4f	0.019469885
200	0x3e8ec958	0.27887988
201	0x3e19bc38	0.15013206
202	0x3cd8145c	0.026376896
203	0xbd92ed0b	-0.071741186
204	0x3de73155	0.11288706
205	0xbc815dd0	-0.015791804
206	0x3e1a12c5	0.15046223
207	0x3ddae6a5	0.10688523
208	0xbe1d8f5a	-0.15386716
209	0xbd5addec	-0.053434297
210	0xbc6c5e83	-0.01442683
211	0xbe1c30e6	-0.15253028
212	0xbcfd3f46	-0.03091396
213	0xbeed086a	-0.46295482
214	0x3d9107c8	0.07081562
215	0x3e4084ae	0.18800613
216	0x3caa622d	0.020798767
217	0x3dc05bad	0.09392486
218	0xbe114d3a	-0.14189616
219	0xbda1b54e	-0.07895909
220	0x3dd60d7b	0.1045179
221	0x3e0c1b29	0.13682236
222	0x3dd79a38	0.10527462
223	0x3d97b83a	0.07408185
224	0x3daacdaf	0.08340012
225	0x3e9c75cc	0.30558622
226	0xbd15ef00	-0.03660488
227	0x3d55a30e	0.052157454
228	0xbde5fe89	-0.11230189
229	0x3dc29884	0.09501746
230	0xbeae2c8d	-0.34018365
231	0xbb4d8f39	-0.0031365885
232	0xbd44e3a3	-0.048068654
233	0xbe5e38ba	-0.21701327
234	0xbddc8b1b	-0.1076872
235	0xbe53065a	-0.20607892
236	0xbea02fa1	-0.31286338
237	0xbda25b71	-0.07927597
238	0xbe823a7b	-0.25435242
239	0x3d726f04	0.059187904
240	0x3d5e036e	0.05420249
241	0xbd37b049	-0.044845853
242	0x3e1b70fd	0.1517982
243	0x3caa5bee	0.020795789
244	0xbe17fd28	-0.14842665
245	0x3da2a061	0.07940746
246	0x3dbfc0d0	0.09362948
247	0x3ead2a80	0.33821487
248	0x3e3ca2f6	0.1842154
249	0x3d4109ee	0.04712861
250	0x3e8d8705	0.27642074
251	0xbd4c22e4	-0.04983796
252	0xbcaefcdf	-0.021360813
253	0xbcb4a9c1	-0.022053601
254	0x3e027d0c	0.12743014
255	0xbea49b07	-0.32149526

backbone.11.bias f4 [128]
0	0xbe5463f0	-0.20741248
1	0xbd38515d	-0.04499947
2	0xbe05add2	-0.13054588
3	0x3d2149c3	0.039376985
4	0x3e065356	0.13117728
5	0xbe9e36eb	-0.30901274
6	0xbd957ed3	-0.072995804
7	0x3c6b5cf6	0.014365425
8	0xbe511acb	-0.20420377
9	0x3d21d2ef	0.039507803
10	0xbe87c6ed	-0.26518956
11	0x3e0494eb	0.12947433
12	0xbde4fff6	-0.11181633
13	0xbe8e45d7	-0.2778766
14	0xbd4c165d	-0.049826015
15	0xbdf867ee	-0.12129198
16	0x3dd6777f	0.10472011
17	0x3e114211	0.14185359
18	0x3dc77b20	0.09740281
19	0x3db22571	0.08698548
20	0xbc895725	-0.016765187
21	0x3de92679	0.11384291
22	0x3c640099	0.013916158
23	0xbd6330f6	-0.055466615
24	0x3ddd41ea	0.10803588
25	0xbdb6203b	-0.08892866
26	0xbc8be17a	-0.017075289
27	0xbe14d2aa	-0.14533487
28	0xbc9b0f07	-0.018928064
29	0xbd45819f	-0.04821932
30	0xbe0af476	-0.13569817
31	0xbd9eab66	-0.077475354
32	0xbe86d5d5	-0.26335016
33	0xbe055c0f	-0.13023399
34	0xbebd3390	-0.36953402
35	0xbe85e371	-0.26150087
36	0xbec532b2	-0.3851524
37	0xbe792019	-0.2432865
38	0xbebe5e04	-0.37181103
39	0xbdbc2ff5	-0.091888346
40	0xbe89dcb4	-0.26926196
41	0xbe800a15	-0.25007692
42	0xbe735e6d	-0.2376649
43	0xbe9ff4f3	-0.3124157
44	0xbe92449c	-0.2856797
45	0xbeac942a	-0.3370679
46	0xbecadfbf	-0.3962383
47	0xbecf75e1	-0.40519622
48	0xbd94e752	-0.07270683
49	0x3cdf914c	0.027290963
50	0x3d25aa65	0.040445704
51	0xbe173600	-0.14766693
52	0xbe49253c	-0.1964311
53	0xbe1aa350	-0.15101361
54	0x3e8c2fb4	0.27380145
55	0x3d030d56	0.03199514
56	0x3d9ebb87	0.07750612
57	0x3e0ab879	0.13546933
58	0x3e011bd8	0.12608278
59	0xbe8987c2	-0.26861387
60	0xbd1d7600	-0.03844261
61	0x3cdd93da	0.02704804
62	0x3d700c99	0.058605764
63	0x3d97280c	0.07380685
64	0xbe39a2df	-0.18128537
65	0xbec0715a	-0.3758648
66	0xbc89f511	-0.01684049
67	0xbb330aa9	-0.0027319586
68	0xbe58a2b1	-0.21155812
69	0x3e16b271	0.14716507
70	0xbda905e5	-0.082530774
71	0xbe04ad3a	-0.12956706
72	0xbbf0200c	-0.007328039
73	0xbe597db5	-0.2123936
74	0xbee1cc8f	-0.44101378
75	0x3cd022f1	0.025407286
76	0xbeb9700d	-0.362183
77	0xbe5c87cd	-0.21536179
78	0x3da9d64f	0.08292829
79	0x3c33a286	0.010964042
80	0xbd0ee27e	-0.03488397
81	0xbc83c24e	-0.016083863
82	0xbdab16af	-0.08353936
83	0xbdcec576	-0.100962564
84	0xbdd8b702	-0.10581781
85	0xbe4a379d	-0.19747777
86	0xbdd269a3	-0.10274055
87	0xbe5b6dc2	-0.21428588
88	0xbd13daca	-0.036097325
89	0xbe443fdf	-0.1916499
90	0x3c6c68d3	0.014429289
91	0xbe0165e5	-0.12636526
92	0xbdb84e5a	-0.089993194
93	0x3dfd331f	0.12363266
94	0xbe50ea08	-0.20401776
95	0xbd55206a	-0.052032866
96	0xbdfdf0d1	-0.12399448
97	0xbe845c65	-0.2585174
98	0xbe824814	-0.25445616
99	0xbe73c790	-0.23806596
100	0x3d22c336	0.03973695
101	0xbe0443d0	-0.12916493
102	0xbd3a5b3d	-0.045497168
103	0xbd814df3	-0.06313696
104	0xbe0dd28c	-0.13849849
105	0xbe2e3136	-0.1701096
106	0xbe7c468d	-0.24636288
107	0xbe1a526c	-0.15070504
108	0xbda64b60	-0.081198454
109	0x3dd6e0e1	0.10492111
110	0x3bcc32a5	0.0062316232
111	0xbe6601f0	-0.22461677
112	0xbdcd2a3b	-0.100178204
113	0xbce37862	-0.027767364
114	0xbe3dba24	-0.18528038
115	0x3df797e8	0.12089521
116	0xbd846ac0	-0.064656734
117	0xbdfc3eed	-0.1231669
118	0x3d5253d0	0.05134946
119	0xbdd1d3aa	-0.1024545
120	0xbc461d09	-0.012091883
121	0xbdb48983	-0.08815291
122	0x3ecf6ff8	0.40515113
123	0x3ec66f10	0.3875661
124	0x3cc8d55e	0.024515804
125	0x3ddb38db	0.10704204
126	0xbe107b73	-0.14109592
127	0x3e4bc7d4	0.19900447

backbone.11.weight f4 [128, 16, 3, 3]
0	0xbde5d096	-0.11221425
1	0x3c107139	0.008816057
2	0xbe1714ba	-0.14754
3	0xbde0dea6	-0.10979967
4	0x3df20b90	0.118186116
5	0x3cec3c9c	0.028837495
6	0xbd6f6dbc	-0.05845426
7	0x3a56b7ef	0.00081908604
8	0xbd1af7f6	-0.03783413
9	0x3e1cd8ea	0.15317121
10	0x3d64b3e3	0.055835616
11	0xbe9f2d90	-0.3108945
12	0x3ead94b6	0.3390252
13	0x3eaf5016	0.34240788
14	0xbdf59ef9	-0.11993212
15	0x3e49a8b6	0.19693264
16	0xbe50de3b	-0.20397274
17	0x3cca8f46	0.024726521
18	0xbd15387b	-0.036430817
19	0xbdb92241	-0.090397365
20	0x3d529109	0.051407848
21	0xbd6f97a1	-0.058494214
22	0xbdc8b924	-0.09800938
23	0x3daf5121	0.08560396
24	0x3dad2295	0.084538616
25	0xbd31a14e	-0.043366723
26	0x3e2218b0	0.1582973
27	0x3e038239	0.12842645
28	0xbe048d96	-0.12944636
29	0x3e46780e	0.19381735
30	0xbde73549	-0.1128946
31	0x3ba6069d	0.0050667063
32	0x3d7b9ccf	0.06142884
33	0xbde691fc	-0.11258313
34	0x3d518148	0.051148683
35	0x3da83f46	0.082151935
36	0x3d03f4ab	0.032215755
37	0xbdbe1441	-0.09281207
38	0xbea52192	-0.32252175
39	0xbe6e407d	-0.23266788
40	0x3e6afd30	0.22948146
41	0xbe73c244	-0.23804575
42	0x3b97dde8	0.0046346076
43	0xbcf1ec49	-0.029531615
44	0xbc6fc9b7	-0.014635495
45	0x3e6f882a	0.23391786
46	0xbeadea54	-0.3396784
47	0xbed6b2d6	-0.41933316
48	0x3e82f1be	0.2557506
49	0x3c13022c	0.008972686
50	0xbd196ad0	-0.03745538
51	0x3e079672	0.13240984
52	0x3d83d1e2	0.06436516
53	0xbd426884	-0.047462955
54	0xbd74a0f5	-0.059723813
55	0xbd343549	-0.04399613
56	0xbea9776b	-0.3309892
57	0x3e9c6e71	0.3055301
58	0x3e1cc105	0.15308006
59	0x3d796c9f	0.060894605
60	0x3d4f5b3f	0.05062413
61	0x3d9359c3	0.07194855
62	0xbdec4eb4	-0.11538449
63	0x3d8979fa	0.06712718
64	0x3e33c5ee	0.17555973
65	0xbd1b96a9	-0.037985478
66	0x3d47b565	0.048756976
67	0x3ce163ad	0.02751335
68	0x3cc4534a	0.023965497
69	0xbdabb565	-0.08384208
70	0xbe0d67b4	-0.13809091
71	0x3d2ac572	0.041692205
72	0xbe44179f	-0.19149636
73	0xbcd65070	-0.026161402
74	0x3e5c1e1b	0.2149586
75	0xbefd83a1	-0.49514487
76	0xbebf9e1f	-0.37425324
77	0x3e00c9e6	0.12577018
78	0x3d695d78	0.056973904
79	0x3d2b6754	0.04184659
80	0x3cbb131a	0.022836257
81	0xbebc24e0	-0.36746883
82	0xbe461988	-0.19345677
83	0xbd1601ab	-0.036622684
84	0xbe4b69c4	-0.19864565
85	0x3cc697c9	0.024242299
86	0xbdb52414	-0.08844772
87	0x3d58c45b	0.052921634
88	0xbe903180	-0.28162766
89	0x3ea32c20	0.31869602
90	0x3cb15dfa	0.021651257
91	0xbe228856	-0.1587232
92	0xbdfe789c	-0.12425348
93	0xbe3dabb1	-0.18522526
94	0xbe8b90a7	-0.27258798
95	0x3c3b55ed	0.0114340605
96	0xbe0fa00c	-0.14025897
97	0x3b21c544	0.002468423
98	0xbd09e2fe	-0.033663742
99	0x3d07af49	0.03312615
100	0xbea54160	-0.3227644
101	0xbe967ab6	-0.29390496
102	0x3e478a49	0.19486345
103	0xbe2124d4	-0.15736705
104	0xbe87c674	-0.26518595
105	0x3bfbf705	0.007689359
106	0x3d579b4c	0.052638337
107	0xbe8a1639	-0.2697008
108	0xbe898a30	-0.2686324
109	0x3dfc214a	0.12311037
110	0xbe285cf7	-0.16441713
111	0x3ea9ed3a	0.33188802
112	0x3e876ba4	0.2644931
113	0x3e1e57c4	0.15463167
114	0xbda68628	-0.08131057
115	0x3cdec5c1	0.027193906
116	0x3e695097	0.22784649
117	0x3e149527	0.14510022
118	0xbc2e5866	-0.010641193
119	0x3d23baac	0.039972946
120	0xbbbc8d9b	-0.0057541854
121	0x3d921ae3	0.071340345
122	0x3e3f8d31	0.18706204
123	0xbec3a197	-0.3820922
124	0xbecc9ce4	-0.39963448
125	0x3de2d82c	0.11076388
126	0xbe4712d3	-0.19440775
127	0xbcb780fd	-0.022400374
128	0xbd0215ec	-0.031759188
129	0xbd0b415c	-0.03399788
130	0x3d6c7513	0.05772884
131	0x3c3bae85	0.011455183
132	0xbe8670e2	-0.26257998
133	0x3e097578	0.13423717
134	0x3cf785d0	0.030215174
135	0x3d05a214	0.032625273
136	0xbd865937	-0.06559985
137	0x3dc542e4	0.09631899
138	0x3e4a5919	0.1976055
139	0x3e086bf4	0.13322431
140	0xbe65688a	-0.2240316
141	0x3d4b0b43	0.049571287
142	0x3e0b9890	0.13632417
143	0xbe0484e8	-0.12941325
144	0xbd70c759	-0.058783863
145	0xbcd0df97	-0.025497241
146	0xbe87b727	-0.26506922
147	0x3e2ca7b4	0.16860849
148	0xbd8e61a7	-0.069522195
149	0xbd0f5762	-0.034995444
150	0xbbdd7976	-0.006758864
151	0xbd807cd2	-0.062738076
152	0xbe61e516	-0.22060046
153	0xbcc84989	-0.024449127
154	0xbc022625	-0.007943665
155	0x3cf3bce5	0.029753158
156	0x3d139562	0.036031134
157	0x3dd44588	0.103648245
158	0x3c3c0b27	0.011477268
159	0xbe6b48a7	-0.22976933
160	0xbd696ce6	-0.05698862
161	0x3e069e6a	0.13146368
162	0x3dad99f7	0.08476632
163	0x3e1bd856	0.15219244
164	0xbd54b4d8	-0.05193028
165	0xbdaa62b3	-0.08319607
166	0xbd5714fd	-0.05251025
167	0xbbb8b925	-0.0056373053
168	0xbd0eadb6	-0.034833632
169	0x3da5a607	0.08088308
170	0xbc25f15b	-0.010128344
171	0x3de22c4c	0.11043605
172	0x3e8ac629	0.2710431
173	0x3e844c88	0.2583964
174	0xbd9bc0ba	-0.07605119
175	0x3d91015f	0.0708034
176	0x3dcc7acc	0.09984359
177	0x3e4297b7	0.19003187
178	0x3e010a4f	0.12601589
179	0x3e0bfd34	0.13670808
180	0x3d89a726	0.06721334
181	0xbe04ff5f	-0.12988041
182	0xbe955a0e	-0.2917027
183	0xbe7742fb	-0.24146645
184	0x3d9e2998	0.07722777
185	0xbf0cd384	-0.5501025
186	0xbe2f4149	-0.17114748
187	0x3ddf00a6	0.108887956
188	0xbee03a1c	-0.43794334
189	0xbda0a0f3	-0.078431986
190	0x3d15ad42	0.036542185
191	0x3db093d9	0.0862195
192	0xbd0037b2	-0.031303115
193	0x3db19901	0.08671761
194	0xbd82450e	-0.063608274
195	0xbdcbff00	-0.09960747
196	0xbdb84795	-0.08998028
197	0xbd5ed7e1	-0.054405097
198	0xbd05afd7	-0.032638397
199	0x3d9df59e	0.077128634
200	0x3d61f56b	0.05516569
201	0x3d5a5537	0.053303923
202	0x3d382ef2	0.044966646
203	0xbc206b4c	-0.009791207
204	0xbc984efa	-0.018592346
205	0xbe085772	-0.13314608
206	0xbc38cee1	-0.0112797925
207	0xbbe84e43	-0.0070894076
208	0xbe3b1297	-0.1826881
209	0xbd5616e9	-0.052267943
210	0xbd68b821	-0.056816224
211	0xbccffc45	-0.025388846
212	0xbdaa6b6f	-0.083212726
213	0xbd207b7b	-0.03918026
214	0xbe1d6891	-0.1537192
215	0xbe62ff55	-0.22167714
216	0xbe0253b6	-0.12727246
217	0x3e6ef456	0.23335394
218	0xbe02bf81	-0.12768365
219	0xbd257f32	-0.040404506
220	0xbc90f6c3	-0.01769579
221	0x3bddc4e8	0.006767858
222	0xbd2d98d3	-0.042382073
223	0x3de53f27	0.11193686
224	0x3e135941	0.14389516
225	0xbd59c1c5	-0.05316331
226	0xbdbf18ca	-0.093309
227	0x3d3d5e70	0.04623264
228	0x3d9c6d7e	0.076380715
229	0xbcac9fff	-0.021072386
230	0xbd35f5b3	-0.04442377
231	0x3bf43351	0.0074524065
232	0x3d31640e	0.04330831
233	0xbcc9274d	-0.024554873
234	0x3e7f5a8d	0.24936886
235	0x3ee112eb	0.43959746
236	0xbc5643e4	-0.01307771
237	0x3e20175f	0.15633915
238	0x3e22567e	0.15853307
239	0x3dd54edb	0.10415431
240	0xbd47a9aa	-0.04874579
241	0x3edf66a0	0.43632984
242	0x3e4159c1	0.18881895
243	0x3c0cc34e	0.008591486
244	0x3e157c1d	0.14598127
245	0xbe00b9a3	-0.12570815
246	0x3d7456a2	0.059652932
247	0x3d4a23b7	0.049350467
248	0x3c785335	0.015156557
249	0xbdc3408f	-0.09533798
250	0x3cb1f4af	0.02172312
251	0xbd7a591d	-0.06112014
252	0x3be0324f	0.0068419348
253	0xbdde4721	-0.108534105
254	0x3d322245	0.043489713
255	0xbdb1f72d	-0.08689723

backbone.15.bias f4 [256]
0	0xbc874801	-0.016513826
1	0x3c8a3093	0.016868865
2	0xbc7033a1	-0.014660747
3	0x3d1a744c	0.037708566
4	0x3e0ad93f	0.13559435
5	0xbcf16023	-0.029464787
6	0xbc8a1113	-0.016853845
7	0x3c83e4f2	0.01610038
8	0x3b1494be	0.0022671665
9	0x3e1bebf7	0.15226732
10	0x3c8e73e7	0.01738925
11	0x3e613c10	0.21995568
12	0x3e55df7f	0.20886038
13	0x3dd9680e	0.1061555
14	0x3e25af89	0.16180243
15	0x3e2342e4	0.15943485
16	0xbc43690c	-0.011926901
17	0x3e1fb85c	0.15597671
18	0xbda122d6	-0.078679726
19	0x3ebc35b7	0.3675973
20	0xbe4f8467	-0.20265351
21	0x3a62c892	0.0008651103
22	0xbe06d9a2	-0.13168958
23	0xbeb3558c	-0.35026205
24	0xbdeb18af	-0.114793174
25	0xbd157761	-0.0364908
26	0x3e429620	0.1900258
27	0x3d40eac8	0.047098905
28	0x3d58671b	0.052832704
29	0x3dcdc2dd	0.10046933
30	0xbd58255f	-0.052770015
31	0x3e0b9eb5	0.1363476
32	0x3d59ae91	0.053144995
33	0x3e0be59c	0.13661808
34	0xbeb35814	-0.35028136
35	0x3d287e9b	0.041136365
36	0x3d7575f3	0.05992694
37	0xbd9b076e	-0.075697765
38	0xbc0036fc	-0.007825609
39	0x3e7048ff	0.23465346
40	0x3dbe12f4	0.09280959
41	0x3e895f2b	0.2683042
42	0x3ca2cb0c	0.01987221
43	0x3e1910c1	0.14947797
44	0x3e3efc8b	0.18651025
45	0xbc22a003	-0.009925845
46	0x3e452f55	0.19256337
47	0x3cc8ea13	0.024525678
48	0x3e0f46fe	0.13991925
49	0xbe45468f	-0.19265197
50	0x3d9f7d87	0.07787614
51	0x3db65923	0.0890372
52	0xbcedf3b8	-0.029046878
53	0x3c39a95d	0.011331883
54	0x3e59d79d	0.21273656
55	0x3d84acc0	0.06478262
56	0x3e37bde5	0.17943533
57	0x3e7328c1	0.23746015
58	0x3dd1d673	0.10245981
59	0xbda85033	-0.08218422
60	0x3e71b9b0	0.2360599
61	0x3e83e930	0.25763845
62	0x3e6d6f26	0.23186931
63	0xba3d532e	-0.00072221726
64	0x3da405a5	0.08008889
65	0xbe936f1a	-0.287957
66	0x3ddd0d62	0.10793568
67	0xbd8a1e19	-0.06744022
68	0x3d862443	0.06549885
69	0x3d156923	0.03647722
70	0x3e162b4e	0.14664957
71	0x3e3880bc	0.18017858
72	0x3e10e03c	0.14148039
73	0x3d78eded	0.06077378
74	0xbde30d30	-0.110865
75	0xbddfacd3	-0.109216355
76	0x3de623bd	0.11237285
77	0x3e4ff1f3	0.2030714
78	0x3db4c4dc	0.088266104
79	0x3e320f35	0.17388614
80	0xbe0e4a41	-0.13895513
81	0x3e007270	0.12543654
82	0xbd7902e9	-0.06079379
83	0xbd0f9366	-0.03505268
84	0x3db5b85a	0.08873053
85	0x3e28b3d7	0.16474853
86	0x3e0e0219	0.13867988
87	0x3bea542f	0.0071511487
88	0x3cdf75c9	0.027277844
89	0x3e6fbac4	0.23411089
90	0x3e8f3659	0.2797115
91	0x3e36c65d	0.17849107
92	0x3e25ad85	0.16179474
93	0x3e486bae	0.19572327
94	0x3dc34998	0.09535521
95	0x3e0dad38	0.13835609
96	0xbdfd1042	-0.123566166
97	0x3e3db141	0.18524648
98	0x3e9396bd	0.28825942
99	0x3e5166db	0.20449392
100	0x3e976933	0.29572448
101	0xbd73f049	-0.059555326
102	0x3d999c02	0.07500459
103	0x3ca51b1b	0.020154526
104	0x3de9f1b9	0.11423058
105	0xbf00459b	-0.5010621
106	0x3da47987	0.08030992
107	0x3e7267ad	0.23672362
108	0x3ddd4070	0.10803306
109	0x3d82ff1b	0.06396314
110	0x3dce7a35	0.10081903
111	0x3e8b2e1a	0.2718361
112	0x3e2927a7	0.16519032
113	0xbd805edb	-0.06268092
114	0x3db386e4	0.08765963
115	0x3e129f95	0.14318688
116	0xbe8ac1d0	-0.27100992
117	0x3dd4a7f9	0.10383601
118	0xbea243d5	-0.31692377
119	0x3e871a00	0.26387024
120	0x3e2bb211	0.16767146
121	0xbadc5a31	-0.0016811547
122	0xbd55e03b	-0.052215796
123	0xbdec783c	-0.115463704
124	0x3d57c478	0.0526776
125	0x3db43938	0.08799976
126	0x3e2ceea4	0.16887909
127	0x3e45a651	0.19301726
128	0x3d5b5f9b	0.053557973
129	0xbc8560ac	-0.016281448
130	0xbdb8fc21	-0.09032465
131	0xbea0866e	-0.31352562
132	0x3e5505dc	0.20803016
133	0xbea6d6f9	-0.32585886
134	0x3df7cb24	0.12099293
135	0x3e073a9a	0.13205948
136	0xbdcea4bc	-0.10090014
137	0x3e3090f9	0.17242803
138	0x3e4a529b	0.19758074
139	0x3e637b02	0.22214893
140	0x3d25762d	0.040395904
141	0x3e6a2643	0.22866158
142	0x3da2e6c3	0.079541706
143	0x3e24285c	0.16031021
144	0x3e5412a8	0.20710242
145	0x3ded044a	0.11573084
146	0x3d8a188a	0.06742962
147	0x3e6232bc	0.22089666
148	0x3e0732aa	0.1320292
149	0xbeed6a40	-0.46370125
150	0xbe03c1e1	-0.12866928
151	0x3e112d93	0.14177541
152	0xbd3c60f5	-0.045990903
153	0x3e4197d5	0.18905576
154	0x3e0bcf44	0.13653284
155	0x3c10bf62	0.008834692
156	0x3e2da54a	0.16957584
157	0x3e36c452	0.17848328
158	0x3db3f891	0.08787645
159	0x3e214444	0.15748698
160	0x3e53631b	0.20643274
161	0x3db83c95	0.0899593
162	0x3db63636	0.08897059
163	0x3df064a0	0.11737943
164	0xbe93c825	-0.28863636
165	0xbcd3bd6a	-0.025847156
166	0x3e943334	0.28945315
167	0xbcced853	-0.025249636
168	0x3eff39e0	0.49848843
169	0x3e178fa7	0.14800893
170	0x3e1be4df	0.15224026
171	0x3e775fb7	0.24157606
172	0x3e1b0240	0.15137577
173	0x3df81480	0.12113285
174	0x3e646006	0.22302255
175	0x3e6ceff6	0.23138413
176	0xbb7fae14	-0.003901367
177	0x3d936560	0.0719707
178	0x3dd16326	0.10223989
179	0xbde23923	-0.11046054
180	0x3dafee87	0.08590417
181	0xbe0cbd18	-0.13744009
182	0x3e98b8d7	0.29828522
183	0x3e6f5d93	0.2337554
184	0xbc871e99	-0.016494082
185	0xbe983f11	-0.29735616
186	0x3e32aecd	0.17449494
187	0xbd3adde8	-0.045621783
188	0x3e474150	0.19458508
189	0x3d64ae46	0.055830263
190	0x3e3dd16e	0.18536922
191	0x3d87b870	0.066269755
192	0x3e14f48c	0.14546412
193	0x3cba8225	0.022767136
194	0x3e92d0d3	0.28674945
195	0x3e23a76d	0.15981837
196	0x3df02d0d	0.11727343
197	0x3ec3ff06	0.38280505
198	0x3dc0e2b2	0.09418239
199	0xbdc24bb4	-0.094870955
200	0x3e80d1b2	0.25159985
201	0x3d59610b	0.053071063
202	0xba97fbad	-0.0011595391
203	0x3e773b5e	0.2414374
204	0x3e701812	0.23446682
205	0x3c454750	0.012040928
206	0x3e30399c	0.17209476
207	0x3d65030e	0.055911116
208	0x3d828067	0.06372147
209	0x3d5bb5ac	0.053640053
210	0x3dbcd51a	0.092203334
211	0x3dd407b4	0.10353032
212	0x3dd27e30	0.102779746
213	0x3ddb9653	0.107220314
214	0xbcf32475	-0.02968047
215	0xbd24229f	-0.04007208
216	0x3d889c1f	0.06670403
217	0x3e0c3615	0.13692506
218	0x3db10686	0.08643822
219	0xbd4cd920	-0.050011754
220	0x3e024595	0.12721856
221	0xbd01adb6	-0.031659804
222	0x3add1dd7	0.0016869855
223	0x3d962750	0.07331717
224	0xbd9e2455	-0.077217735
225	0x3c95523c	0.018227689
226	0x3e829af6	0.2550885
227	0x3de6c6eb	0.11268409
228	0x3e5f5b31	0.2181213
229	0xbd800a88	-0.06252009
230	0x3e0b5725	0.13607462
231	0x3db66d22	0.08907534
232	0xbe423f55	-0.18969472
233	0x3e4b56e4	0.19857365
234	0xbc2cc0a0	-0.010543972
235	0x3d5f933a	0.054583766
236	0x3ded2492	0.11579241
237	0xbe916a96	-0.2840163
238	0x3e37a6e1	0.17934753
239	0x3dced7c3	0.10099747
240	0xbcdea6dc	-0.027179174
241	0xbc1b7802	-0.009489061
242	0x3e8556b6	0.26042718
243	0x3db7d6c0	0.08976507
244	0x3da2906d	0.07937703
245	0xbe0c54d5	-0.13704236
246	0xbd4ac821	-0.049507264
247	0x3e4b5ff0	0.19860816
248	0x3e7d7d80	0.24754906
249	0x3dd93cf4	0.10607329
250	0x3d292f58	0.041304916
251	0x3d48c5df	0.04901683
252	0x3e3ea6a2	0.18618253
253	0xbd03a1f8	-0.032136887
254	0x3cd3b9d7	0.025845451
255	0xbd1b4a1e	-0.03791248

backbone.15.weight f4 [256, 128]
0	0xbd9b2398	-0.07575148
1	0xbd607aa3	-0.054804455
2	0xbc9297a6	-0.017894577
3	0xbcaf27e6	-0.02138133
4	0xbe3ad4ad	-0.18245192
5	0xbd816a07	-0.06319051
6	0xbe8ed52e	-0.27897018
7	0xbd4bd2d5	-0.049761612
8	0xbd807c0e	-0.062736616
9	0x3dabffd5	0.083984055
10	0xbdab8c48	-0.08376366
11	0xbcc9b223	-0.024621075
12	0x3dde9928	0.10869056
13	0xbd55a6d5	-0.052161057
14	0xbd8eb2cc	-0.069676965
15	0xbc4598b4	-0.012060333
16	0xbd82e0ed	-0.063905574
17	0xbdc30e0c	-0.095241636
18	0xbe3721c4	-0.17883974
19	0xbe6bcba0	-0.23026896
20	0xbeabd247	-0.33558866
21	0xbe2cb67e	-0.1686649
22	0xbbc3dbd5	-0.0059771338
23	0x3cc46ec2	0.023978595
24	0x3c70254e	0.014657332
25	0x3d8657ab	0.0655969
26	0xbe66eeb4	-0.22551996
27	0x3dbee5e1	0.0932119
28	0xbc6c041a	-0.014405275
29	0xbc89a2be	-0.016801234
30	0xbe8a4389	-0.2700465
31	0xbe8b4374	-0.271999
32	0x3a8a5d11	0.00105563
33	0xbe0f53f0	-0.13996863
34	0x3e7010b0	0.23443866
35	0x3e372ecf	0.1788895
36	0x3eb0e4e7	0.3454964
37	0x3ebdce7b	0.37071595
38	0x3e829b05	0.25508896
39	0xbde84056	-0.11340396
40	0x3dd37469	0.10324938
41	0x3e250cdb	0.16118185
42	0x3de1e3ad	0.11029754
43	0xbe58e2f8	-0.21180332
44	0x3e1f0ae5	0.155315
45	0x3e713cb0	0.23558307
46	0xbd85a0ec	-0.06524834
47	0x3e448f4e	0.19195291
48	0xbdac0c14	-0.08400741
49	0xbdfb1c96	-0.12261312
50	0xbdeb91b2	-0.115023986
51	0x3b386758	0.002813777
52	0x3bfc4522	0.007698671
53	0xbdce5d71	-0.10076416
54	0xbce687c9	-0.02814092
55	0x3d38ee2d	0.045149017
56	0xbd46e73c	-0.048560366
57	0xbab9700c	-0.0014147772
58	0xbe2299db	-0.15879004
59	0x3ca1280e	0.01967242
60	0x3dd39862	0.10331799
61	0x3ddf0b43	0.1089082
62	0x3cb16fcb	0.021659752
63	0xbe012b74	-0.12614232
64	0xbd45d6ff	-0.04830074
65	0x3e9ba290	0.30397463
66	0xbc7b531c	-0.015339639
67	0x3e56541d	0.20930524
68	0x3ce059d1	0.027386578
69	0x3d81169f	0.06303143
70	0x3ca08fa0	0.019599736
71	0x3c894494	0.016756333
72	0xbebf4e0a	-0.37364227
73	0x3ee4deff	0.44701383
74	0x3f0973d0	0.5369234
75	0xbdd16a52	-0.10225357
76	0x3e44337e	0.19160268
77	0x3dc77b6a	0.09740336
78	0x3dd02138	0.10162586
79	0x3d1a193d	0.037621725
80	0xbd8934cd	-0.06699524
81	0x3d8eab8d	0.069663145
82	0xbdeeb730	-0.11656034
83	0x3c3ff9f5	0.011717309
84	0x3b5503a5	0.0032503393
85	0xbcbbde73	-0.02293322
86	0x3d6a0c81	0.05714083
87	0x3dd67414	0.10471359
88	0xbdeb43de	-0.11487554
89	0x3bb7a530	0.0056044087
90	0x3b6c5e9d	0.0036067136
91	0xbda5b0d3	-0.08090367
92	0xbb84587c	-0.0040388685
93	0x3d44170e	0.04787355
94	0x3dbd9f13	0.092588566
95	0x3b4120c5	0.0029468995
96	0xbbeb770a	-0.0071858214
97	0xbde6d37b	-0.112708054
98	0xbeacad5a	-0.33726007
99	0x3db6e166	0.0892971
100	0xbc9bcf7b	-0.019019833
101	0xbea9340f	-0.3304753
102	0xbd0af014	-0.033920363
103	0xbe102bb6	-0.14079174
104	0xbe83f408	-0.2577212
105	0xbe540404	-0.20704657
106	0xbe1e0f06	-0.15435418
107	0xbdb23a6f	-0.087025516
108	0xbe838bec	-0.2569269
109	0xbe9ba9ef	-0.30403087
110	0xbe266c2a	-0.16252199
111	0x3cd623bd	0.026140088
112	0x3d5a173c	0.053244814
113	0xbdc1c8c3	-0.094621204
114	0x3eb68107	0.35645315
115	0x3c0316dd	0.0080010565
116	0x3bbe6f5f	0.0058116163
117	0x3dfeb812	0.124374524
118	0x3d4ff8ba	0.050774314
119	0xbbbb8ce2	-0.0057235816
120	0x3cbd271a	0.023089934
121	0xbdaf92b3	-0.085729025
122	0xbcddfb2f	-0.027097313
123	0xbcdfc237	-0.027314289
124	0xbe1af66f	-0.1513307
125	0xbdb1fb4d	-0.0869051
126	0x3e12f5b5	0.14351542
127	0xbc1677d8	-0.009183846
128	0xbdbe7afc	-0.09300801
129	0x3e47aa90	0.19498658
130	0xbd0414c9	-0.032246385
131	0xbe034d9d	-0.12822576
132	0xbe160d97	-0.14653622
133	0x3e42ca36	0.1902245
134	0xbe551664	-0.20809323
135	0x3c6d806b	0.014495949
136	0x3e4fec1a	0.2030491
137	0xbe7abf82	-0.24487117
138	0x3db6268c	0.08894071
139	0xbe19e97b	-0.15030472
140	0x3ea541e0	0.3227682
141	0xbeae3eb1	-0.34032205
142	0xbe2d9d61	-0.16954567
143	0xbd75c193	-0.05999906
144	0xbcd3e549	-0.025866168
145	0x3e16987c	0.14706606
146	0x3e5387ee	0.20657322
147	0x3e3a1c32	0.18174818
148	0x3da062f0	0.07831371
149	0x3dba5644	0.09098485
150	0x3ddab63b	0.10679289
151	0xbd2e265f	-0.042517062
152	0x3e5c3988	0.21506321
153	0x3c1bd809	0.009511956
154	0x3e8a6b35	0.27034917
155	0xbe584ecd	-0.2112381
156	0x3d88a005	0.06671146
157	0x3d36a87e	0.04459428
158	0x3e3bbbe3	0.18333392
159	0x3e1657ca	0.14681926
160	0x3e69fed4	0.22851115
161	0xbe5d87c8	-0.21633828
162	0xbd9492b9	-0.072545476
163	0x3d747c95	0.059689123
164	0x3d635f93	0.05551107
165	0xbe533f95	-0.20629723
166	0x3e5bba64	0.21457821
167	0xbd9eec28	-0.07759887
168	0xbdec31ba	-0.11532922
169	0xbe9e8473	-0.30960426
170	0xbce4f39c	-0.027948193
171	0x3ead12b6	0.33803338
172	0x3e8db3f6	0.27676362
173	0xbd94c029	-0.07263214
174	0x3daa34d7	0.0831086
175	0x3e475a13	0.19467954
176	0x3c04ca2f	0.008104845
177	0xbd8d4477	-0.06897824
178	0x3d734ff2	0.059402414
179	0xbdc1fb15	-0.09471718
180	0xbdb07628	-0.086162865
181	0x3e278601	0.16359712
182	0x3d1ed0ed	0.038773466
183	0x3d9a077d	0.075209595
184	0x3c2c7030	0.010524794
185	0x3c9644ae	0.018343296
186	0xbdd99ae5	-0.10625247
187	0xbdef23ea	-0.11676772
188	0x3e7ce5ac	0.24696988
189	0xbe752f34	-0.23943788
190	0x3d86fcd6	0.065911934
191	0xbcc25b67	-0.023725225
192	0x3dfdf6b9	0.12400574
193	0x3c317818	0.010831855
194	0xbd0ea165	-0.034821887
195	0xbd7c9c31	-0.061672393
196	0xbd517c6b	-0.051144045
197	0x3d911f13	0.07086005
198	0xbdb5c3be	-0.088752255
199	0xbddc949a	-0.10770531
200	0x3dbcd616	0.09220521
201	0xbd94ef54	-0.07272211
202	0xbe391b56	-0.18076834
203	0xbe72c509	-0.23707975
204	0x3b596675	0.0033172641
205	0xbe3d4165	-0.18481977
206	0x3e874563	0.26420125
207	0xbde886e6	-0.11353855
208	0xbcf51e1a	-0.02992158
209	0xbca1455f	-0.019686399
210	0x3db93116	0.090425655
211	0xba3b8d2c	-0.000715452
212	0xbdfaba8e	-0.12242614
213	0xbdc74d00	-0.097314835
214	0xbdd423bd	-0.10358379
215	0x3eb4a129	0.35279205
216	0xbe00e98b	-0.1258909
217	0x3dbcc813	0.09217849
218	0x3df265a2	0.11835791
219	0xbd8a319e	-0.06747745
220	0x3d8d1fbd	0.06890819
221	0xbe48a4fc	-0.19594187
222	0x3e2f25fd	0.17104335
223	0xbd7878b5	-0.06066199
224	0x3e2dbdf1	0.16966988
225	0xbdaba7c4	-0.08381608
226	0xbc9e909f	-0.01935607
227	0xbe998592	-0.2998472
228	0x3e07a0e8	0.13244975
229	0xbcb2434b	-0.021760603
230	0xbd07eb4a	-0.033183374
231	0x3df89e8b	0.12139615
232	0x3d0d4e96	0.034498774
233	0x3e1c9c57	0.15294014
234	0x3db0b09f	0.08627438
235	0x3db8ac9f	0.090173
236	0x3e3eff88	0.18652165
237	0x3e52e878	0.20596492
238	0x3daa8996	0.08327024
239	0x3e83ad72	0.25718266
240	0xbdc39848	-0.0955053
241	0xbdff75cd	-0.124736406
242	0xbebb9003	-0.3663331
243	0xbe12b7c3	-0.14327912
244	0xbd6db3e9	-0.058032904
245	0xbe710f6c	-0.23541039
246	0x3c881c2a	0.016614992
247	0x3e8ff1e2	0.2811423
248	0xbd99127b	-0.07474228
249	0xbddd9b1c	-0.108206004
250	0xbd9d4971	-0.076800235
251	0xbdd2b911	-0.10289205
252	0xbdc377d8	-0.09544343
253	0xbdfd761c	-0.12376043
254	0xbe1f549d	-0.15559621
255	0xbbc3b04d	-0.0059719444

backbone.2.bias f4 [32]
0	0xbddb3846	-0.10704093
1	0xbe8198e3	-0.25311956
2	0x3daf1310	0.08548558
3	0xbe9c6222	-0.3054362
4	0xbe16a987	-0.14713107
5	0x3b0e4f32	0.0021714685
6	0x3dfb046b	0.12256702
7	0xbdfcc994	-0.123431355
8	0x3cf05d12	0.029341254
9	0xbce4aa23	-0.027913159
10	0xbd5fd4b9	-0.054646228
11	0xbe84abf6	-0.25912446
12	0x3cffef65	0.031242082
13	0x3d0d58eb	0.034508627
14	0xbee34d66	-0.44394988
15	0xbdefbbb8	-0.117057264
16	0xbcddef8c	-0.027091764
17	0x3d79bc16	0.06097039
18	0xbe4edfec	-0.20202607
19	0xbd82678c	-0.06367406
20	0xbe420e28	-0.18950713
21	0x3df9ba9c	0.12193796
22	0xbca77564	-0.020441718
23	0x3df8716f	0.12131011
24	0x3b111ef8	0.0022143703
25	0x3c3667ea	0.0111331735
26	0x3cd67b12	0.026181731
27	0x3d623c17	0.055233087
28	0xbe08691f	-0.1332135
29	0xbd764d15	-0.060132105
30	0x3e209da7	0.1568514
31	0xbd693ae0	-0.056940913

backbone.2.weight f4 [32, 16, 3, 3]
0	0x3dc0db73	0.094168566
1	0x3d682cba	0.05668328
2	0x3d70c1f5	0.05877872
3	0x3ddf094d	0.10890446
4	0xbc57f64c	-0.01318128
5	0x3d1b1da9	0.037870083
6	0x3e695ed1	0.22790076
7	0x3e4aec70	0.19816756
8	0xbd31b437	-0.043384757
9	0x3dfd2381	0.123602875
10	0x3e09738e	0.13422987
11	0xbea86e39	-0.32896593
12	0x3dd7d5c6	0.10538821
13	0x3e81735e	0.2528333
14	0x3e0a159b	0.13484804
15	0x3d1c8a65	0.03821792
16	0x3db17f74	0.08666888
17	0xbd859d4e	-0.06524144
18	0x3e94cf76	0.2906453
19	0x3dafc386	0.08582215
20	0x3e3c9ff9	0.184204
21	0x3e51bcb9	0.20482148
22	0x3db85847	0.090012126
23	0xbcdf6c57	-0.02727334
24	0x3e83fde1	0.25779632
25	0x3d59d6dd	0.053183425
26	0xbe7c6d49	-0.24651064
27	0xbe88e36b	-0.26736006
28	0x3a1f56be	0.0006078294
29	0xbdc50308	-0.09619719
30	0x3d826636	0.063671514
31	0x3d9314a9	0.07181675
32	0x3bd63628	0.0065372176
33	0x3ba2f45e	0.0049729785
34	0xbd9b0be7	-0.075706296
35	0xbdb370df	-0.08761763
36	0x3e00ecc0	0.12590313
37	0xbd9b6eb9	-0.07589478
38	0xbe09f66a	-0.13472906
39	0xbc6c4b7f	-0.014422297
40	0x3dde18ab	0.10844549
41	0x3cf0b2cf	0.029382138
42	0xbe120751	-0.14260603
43	0x3ce66273	0.028123116
44	0xbdd5bab9	-0.10436005
45	0xbe2dd31a	-0.1697506
46	0xbd6ac1ac	-0.057313606
47	0xbcb496b7	-0.022044523
48	0x3d4cf3a8	0.050037056
49	0xbdd7189b	-0.1050274
50	0xbe259269	-0.16169132
51	0xbe59d103	-0.21271138
52	0xbe003f62	-0.12524179
53	0xbd43fd9d	-0.047849286
54	0xbebbf415	-0.36709657
55	0xbefe2ec3	-0.4964505
56	0xbd9b85ce	-0.075938806
57	0x3cab85ce	0.020937826
58	0xbdc6510e	-0.09683429
59	0xbd998fc6	-0.07498126
60	0xbe83260f	-0.25614974
61	0x3c3f4b70	0.011675701
62	0xbd060ce7	-0.03272715
63	0xbbf6d07f	-0.007532179
64	0x3cd03794	0.025417127
65	0x3e974df4	0.2955166
66	0xbcfd0095	-0.030884067
67	0x3d571a30	0.05251521
68	0x3da612e5	0.081090726
69	0x3ddef977	0.108874254
70	0x3c179d05	0.009253745
71	0x3e789d95	0.24278863
72	0xbe2d5019	-0.16925086
73	0x3dd9f865	0.106430806
74	0xba9ed33a	-0.0012117394
75	0x3ca50a54	0.020146526
76	0x3de5a74a	0.112135485
77	0xbc9844e8	-0.018587545
78	0xbde29790	-0.110640645
79	0x3df13dc1	0.11779357
80	0x3d575547	0.05257156
81	0xbdc5e653	-0.096630715
82	0x3cf20d0c	0.029547237
83	0xbe0f06e3	-0.13967471
84	0xbdfe4b28	-0.12416679
85	0xbd6ca519	-0.057774637
86	0xbde073b2	-0.10959567
87	0x3df40843	0.11915638
88	0xbdd2dd95	-0.1029617
89	0xbc50f53e	-0.012753783
90	0x3d0d66a0	0.0345217
91	0x3d361da5	0.044461865
92	0x3e8339b2	0.25629956
93	0x3d9d92be	0.076940045
94	0x3e097be4	0.13426167
95	0x3df2b550	0.11850989
96	0xbd4aa361	-0.049472217
97	0x3c4210c2	0.011844816
98	0x3d7185f2	0.05896563
99	0x3d187bc2	0.0372274
100	0x3d0d5c3d	0.034511793
101	0xbd6bcace	-0.057566456
102	0xbc9d577e	-0.019206759
103	0xbcab49cb	-0.02090921
104	0xbe9a98e9	-0.30194786
105	0x3cb06e31	0.021536918
106	0x3e22e4a0	0.15907526
107	0xbe9b20f6	-0.30298585
108	0x3d218d0d	0.039441157
109	0x3d91811b	0.07104703
110	0x3e85fe88	0.26170754
111	0xbe471f65	-0.1944557
112	0x3bf60f81	0.0075091724
113	0x3db03bf1	0.08605183
114	0xbe099420	-0.13435411
115	0xbcee9b91	-0.029126914
116	0xbe4b8461	-0.19874717
117	0xbda2f988	-0.079577506
118	0x3b976688	0.004620377
119	0xbd835abb	-0.0641379
120	0x3d95e064	0.0731819
121	0x3cb301cf	0.021851448
122	0xbd7cc3d6	-0.0617102
123	0x3dc20074	0.09472743
124	0xbcbc03ed	-0.02295109
125	0xbc79ea0c	-0.015253555
126	0xbd966d67	-0.073450856
127	0xbdc6e74f	-0.09712087
128	0xbb6c869e	-0.003609098
129	0x3d047db8	0.032346457
130	0x3d682d65	0.056683917
131	0x3ca12522	0.019671027
132	0x3d5ab225	0.053392548
133	0x3dab3327	0.08359366
134	0x3e3aee7d	0.18255039
135	0xbe85dead	-0.2614645
136	0xbd416df1	-0.04722399
137	0x3dbf2e16	0.09334962
138	0xbda1a1b8	-0.078921735
139	0xbe3f539e	-0.18684241
140	0xbe47ccdb	-0.1951174
141	0xbe926527	-0.28592798
142	0xbe74d28a	-0.2390844
143	0xbeb0e91e	-0.34552854
144	0xbd43d158	-0.047807068
145	0xbdf0a5b6	-0.11750357
146	0x3d003290	0.03129822
147	0x3e2f1fc7	0.17101966
148	0xbe8eadc2	-0.27866942
149	0xbda4b2b2	-0.08041896
150	0x3e0adc0d	0.13560505
151	0xbe9fc4f7	-0.3120496
152	0x3decdf59	0.11566038
153	0xbdc7c239	-0.09753842
154	0xbcbb94ff	-0.022898195
155	0xbe2235b8	-0.15840805
156	0xbd5f59a3	-0.054528844
157	0xbc40cabc	-0.011767086
158	0xbdae2e93	-0.08504977
159	0x3eb81c69	0.35959175
160	0x3e32f39a	0.17475739
161	0xbca5becd	-0.020232582
162	0x3e71308b	0.23553674
163	0xbdee7e89	-0.116452284
164	0xbd588c56	-0.05286821
165	0xbd50dc59	-0.05099139
166	0xbe0e305f	-0.1388564
167	0xbdb5d2ac	-0.08878073
168	0x3ea7b24e	0.32753223
169	0xbe255aa1	-0.16147853
170	0xbe958285	-0.2920114
171	0x3d9842c6	0.07434611
172	0x3e32822e	0.17432472
173	0x3e9311d9	0.28724554
174	0x3d7cda7a	0.061731793
175	0xbdd3f1a2	-0.10348822
176	0x3eab96d0	0.33513498
177	0xbe8e41eb	-0.27784666
178	0xbeb3f235	-0.35145727
179	0x3e81af12	0.2532888
180	0xbe82e904	-0.25568402
181	0xbddb149a	-0.10697289
182	0xbdc55fe2	-0.09637429
183	0x3d22fe69	0.039793406
184	0x3d85b47e	0.06528567
185	0xbdbdf539	-0.09275288
186	0x3dc1b01a	0.09457417
187	0x3dad0a9f	0.084492914
188	0xbe200975	-0.15628608
189	0xbc80b94a	-0.015713353
190	0x3d3803cd	0.0449255
191	0x3d37b91d	0.044854272
192	0xbdc3fbd4	-0.09569517
193	0xbceb4b6a	-0.028722484
194	0x3df299a4	0.11845711
195	0xbe264c3e	-0.16240022
196	0xbea2e02e	-0.3181166
197	0x3db9ce16	0.09072511
198	0xbd2b9b86	-0.041896366
199	0x3cdb03c9	0.026735203
200	0xbd9e404f	-0.0772711
201	0x3e30a63d	0.17250915
202	0x3d87cd36	0.06630938
203	0xbd02c340	-0.031924486
204	0x3e1f087a	0.15530577
205	0xbbb5a48e	-0.005543298
206	0xbd9e63b5	-0.07733861
207	0xbd469522	-0.048482068
208	0xbdbedac9	-0.09319074
209	0xbe5fa44b	-0.21840017
210	0x3d8b4b72	0.068014994
211	0xbe035665	-0.12825926
212	0xbe5d9ae6	-0.2164112
213	0x3d9eca86	0.07753472
214	0xbe0d8f32	-0.13824156
215	0xbe07240b	-0.13197343
216	0x3dc10a6b	0.09425815
217	0x3cbd31df	0.02309507
218	0xbda496a2	-0.080365434
219	0x3de00faf	0.109404914
220	0xbd4c8ae5	-0.049937148
221	0x3d8f9b9c	0.07012102
222	0x3e009cb1	0.12559773
223	0x3e1bd986	0.15219697
224	0xbc231b9d	-0.009955314
225	0xbc91ba82	-0.01778913
226	0x3e2301c9	0.1591865
227	0xbe945ced	-0.28977147
228	0x3e957a4b	0.29194865
229	0x3e9b130b	0.30287966
230	0x3dc51a09	0.096241064
231	0xbe93d43e	-0.28872865
232	0xbe91cd53	-0.28476962
233	0xbdd317cc	-0.10307273
234	0xbd3f0fca	-0.046645917
235	0xbc609eb7	-0.013709716
236	0x3da00a6c	0.07814488
237	0xbe5a98d4	-0.21347362
238	0xba33faa2	-0.00068656553
239	0x3e903d4b	0.28171763
240	0x3e11d064	0.14239651
241	0x3e70bf21	0.2351041
242	0x3dfff1f2	0.12497319
243	0xbbb4466a	-0.005501558
244	0xbe28f1d0	-0.16498494
245	0xbdd36f27	-0.10323935
246	0xbe7bbfed	-0.24584933
247	0xbcb9189f	-0.022594748
248	0xbeb67d6d	-0.35642567
249	0x3e18178e	0.14852735
250	0x3e436c30	0.19084239
251	0x3d9aad71	0.075526126
252	0xbda404f9	-0.08008761
253	0x3bb65405	0.005564215
254	0xbc17b422	-0.009259256
255	0x3e22cc02	0.15898135

backbone.5.bias f4 [64]
0	0xbe04f57d	-0.12984271
1	0xbdc95cc0	-0.09832144
2	0xbcd87ff2	-0.026428197
3	0xbdfe640b	-0.124214254
4	0xbc40e657	-0.011773667
5	0xbe617cd9	-0.22020282
6	0xbe33623a	-0.17517939
7	0xbd639fae	-0.055572204
8	0x3e202159	0.15637721
9	0xbe67e30b	-0.22645204
10	0x3b1921c4	0.0023366073
11	0xbd99f429	-0.07517273
12	0x3d53f2ca	0.051745214
13	0xbdd1b952	-0.10240425
14	0x3e1a965d	0.15096422
15	0xbe37eeaa	-0.17962137
16	0xbcc06541	-0.023485782
17	0xbd8f2a7d	-0.06990526
18	0xbda53ac5	-0.0806785
19	0xbb2f3e6e	-0.0026740092
20	0xbe4a4ec4	-0.19756609
21	0xbdbafa08	-0.09129721
22	0xbd5d57fc	-0.054038987
23	0x3cdf61bc	0.027268283
24	0x3d0a2bdb	0.03373323
25	0xbd96dec6	-0.073667094
26	0xbeaadccd	-0.33371583
27	0x3b874a32	0.004128718
28	0xbe2bca1a	-0.16776314
29	0xbde05981	-0.109545715
30	0xbdc28fd1	-0.09500087
31	0xbdce6c01	-0.10079194
32	0xbe103468	-0.14082491
33	0xbd9e9ff3	-0.07745352
34	0xbe449ff6	-0.19201645
35	0xbe7eeac3	-0.24894242
36	0x3dda8b4b	0.10671099
37	0xbd7c7f08	-0.061644584
38	0xbda44445	-0.08020834
39	0xbe62de5a	-0.22155133
40	0x3cee5dc9	0.029097455
41	0xbb9e2590	-0.004826255
42	0xbddbbc13	-0.10729232
43	0xbd1503ad	-0.03638046
44	0xbcc9830f	-0.024598626
45	0xbe8d6f02	-0.27623755
46	0xbe09e479	-0.13466062
47	0x3cf8f508	0.030390278
48	0xbd3f3b48	-0.046687394
49	0xbe13eee7	-0.14446603
50	0xbd9263ec	-0.07147965
51	0xbcfd4322	-0.0309158
52	0x3e332272	0.17493609
53	0x3c3d9545	0.011571233
54	0xbd6e2abf	-0.058146235
55	0xbe03b84c	-0.12863272
56	0xbed02382	-0.4065209
57	0x3e42c37e	0.19019887
58	0xbd0707e6	-0.032966517
59	0xbdeed093	-0.11660876
60	0xbd1715e4	-0.03688611
61	0xbc3b68d3	-0.011438566
62	0xbdb29100	-0.08719063
63	0xbd88641a	-0.06659718
