checkpoints/endgame.safetensors (safetensors, 629056 bytes, 15 tensors)

advantage_head.0.bias f4 [5]
00000000: 0842 2dbe 0138 ad3d 43de 29bd 3f2c 143d
00000010: b47a 1d3c
-0.1691972 0.084579475 -0.04147173 0.03617501 0.009611774

advantage_head.0.weight f4 [5, 256]
00000000: 01a0 6c3c 1d24 853d dc1b d33d ad2e 6b3d
00000010: 7692 5d3d a38d e93c 09e6 5dbe aa70 ecbc
00000020: 75f7 0a3c 0124 bfbd 9abc 84bd c0e4 ba3d
00000030: 4d70 4e3d ea91 0dbe 023e 853e 5624 763d
00000040: 8fe7 89bd 1817 333c 8b69 f4bd 3f0f af3c
00000050: 1670 2e3d 0eca 713b b25c 1d3d 2af3 b439
00000060: 2a07 393d 2121 743c 9723 693d e64e ee3c
00000070: cc64 783d 23fe f53b de5e 933c 5a98 e1bd
00000080: 9a4c 5b3e 242b fc3c da8e ac3d 39ec de3d
00000090: b743 083d 881e 5c3d 8994 b23d 4b86 af3b
000000a0: af4f 563c 339d 36bc 6c3b a63c e365 2a3d
000000b0: 4642 e03c 80f2 02bc ce98 7abb fab5 be3d
000000c0: a6ec 953d d7c0 40be 5b45 b1bd cf49 c83b
000000d0: 7be0 d0bd d7d1 0abb d539 653d 6ab7 5b3c
000000e0: 05ea de3b 3460 003c 5479 c33c 3288 5d3d
000000f0: 515f 4c3d 0264 2dbd 87ec 1b3c c1b9 003c
00000100: ae0a a33d b0f3 bf3c 8d5b 503b 9b12 e6bd
00000110: c056 bb3d 960d f93d 0837 923d c1d0 553d
00000120: 7d24 92bb 0600 adbc 4c8c 3f3c f803 a3bd
00000130: 7499 163d 54e7 5b3d a03d 393d cfd2 c7bc
00000140: 34f7 f13b a910 ae3d 689a 243d c328 a83c
00000150: 4279 5a3d 1fd3 063c 9aa5 f9bc 5ce8 3c3c
00000160: 1d90 823d fa82 303c 005d 9ebb 5ad5 16bc
00000170: 46d1 1a3e 5f9f 96bc 8e7d 0e3c 4ace 0f3d
00000180: a61f 5dbd 4eb5 babe 4df0 893e 9760 e03c
00000190: 0975 8d3b 7a6d 363d 3858 3f3d 1a6f 8dbd
000001a0: 5a32 993c 6abe 243e 992d 903d 99c8 7cbc
000001b0: caa1 a33d 1d4c 2b3d cd86 263d 56a4 873b
000001c0: c357 e23c e608 413d e09a 7abe 9926 353d
000001d0: 0ef7 7d3d 973b 863e a9c2 febb bd5b d33c
000001e0: 3a49 523e 4ffb 8ebc b175 d2bd a61d 923d
000001f0: 9321 393c 2f09 40bc bd48 b0bc 376b 4b3d
00000200: 4268 d53c e962 4c3e f643 b0be 0352 d33d
00000210: 8494 743c f506 203d 7c41 3bbe 7bee 2cbe
00000220: f2e5 29bc 9681 99bc 5791 4f3c 6193 e13b
00000230: 7a28 35bc 8265 61bd 46c4 783e ff1f 8d3b
00000240: 0981 69bd e4ab 683c 9da4 a03d 9bf8 26bd
00000250: 6df6 a2ba 0a50 a03d 3b20 573d 0619 51be
00000260: b437 953d 072c 2c3d 1ef3 213d d005 ec3d
00000270: ca95 0d3d fdfc b5bb 00cc 5b3d 918d b2be
00000280: 0434 d53b 8250 6b3d 3fa1 b53d f6d8 bbbe
00000290: c604 ca3d 6d1b b83d 259c cc3c 887b 183c
000002a0: 211b 3dbc d2af a1bc a099 a73c 7121 0e3d
000002b0: 0fd0 1bbd 994d 563c b6d0 a93c 1265 843c
000002c0: e6ae 1cbf bdc4 883d e710 193b 26da 8ebd
000002d0: 7b9f 883d 5716 453d 9a2f 163d ccc2 bd3d
000002e0: ed48 05be bcad b93a 09a5 153c 6276 57bc
000002f0: 35f0 283d b95f 9e3d 8af0 f33c 438d 503e
00000300: 227b 643d 13d1 d43b 59b9 163d b89f 62bb
00000310: 1e24 ac3c 96d4 9f3d 5d52 7b3c 402f fe3d
00000320: 3694 4c3c bb6a 7d3d 13c2 173e 309a 373d
00000330: 9f7a ac3e 1071 d73d 48f7 8bbd d7bf 923d
00000340: 2b2d 3dbc aa93 3f3d 463c 35be d636 403d
00000350: ee61 603d 3b4f 5bbd c1f6 4a3d 058f 97bd
00000360: 337b 4cbd f8ed 883d 7212 9a3c 8315 fc3c
00000370: c85f 35bd f84a d13d 1321 9a3c 41fb d23c
00000380: 7fad c6bb 89f3 9e3a 6818 9a3c ca01 463e
00000390: cedb fa3c af24 d53d 6d77 a43c c8e9 dcbe
000003a0: a633 373c 1ca9 36be f70d a53b f556 09bd
000003b0: cba1 a83c b013 3a3d 5c97 b93c 2794 bb3c
000003c0: ee7f c7bd c4d5 f33c 1aaa db3c d68e d7bb
000003d0: 9eec 4cbe 91a3 1b3e 89aa 9b3d 570d a43c
000003e0: 8204 b43c 3c8e f0bc 5924 3e3d d912 9d3d
000003f0: 14b8 2e3e 285c 1ebe 51e1 013e 9f01 d33c
0.014442445 0.06501029 0.10308048 0.05741756 0.054094754 0.02850992 -0.21669783 -0.028862316
0.00848185 -0.09333039 -0.064812854 0.09125662 0.050400067 -0.13825193 0.2602387 0.060093246
-0.067336194 0.010930799 -0.11934193 0.021369575 0.042587362 0.0036894116 0.03841848 0.00034513447
0.045172848 0.014900477 0.056918707 0.029090356 0.060643002 0.007507102 0.017989572 -0.11015387
0.2141594 0.03078229 0.08425684 0.108849 0.033267703 0.053740054 0.08719737 0.005356585
0.0130805215 -0.011145878 0.020292006 0.041601073 0.027375352 -0.007992387 -0.0038238051 0.09312053
0.07320528 -0.18823563 -0.08655807 0.0061123143 -0.10199066 -0.0021182203 0.055963356 0.013410429
0.0068027996 0.007835437 0.023861565 0.054084964 0.04989559 -0.042331703 0.009516842 0.007856787
0.07961021 0.023431629 0.003179285 -0.112340175 0.091474056 0.121607944 0.07139403 0.052201036
-0.004459916 -0.021118175 0.011691164 -0.07959741 0.036767438 0.05368741 0.045224786 -0.024392514
0.0073842052 0.084992714 0.040186316 0.02052725 0.053338297 0.008229046 -0.030474473 0.011530008
0.06375144 0.010773415 -0.004832864 -0.00920614 0.15118894 -0.018386541 0.008696927 0.035108842
-0.05398526 -0.3646645 0.26941147 0.027389808 0.00431693 0.044538 0.04671499 -0.069059566
0.018700767 0.16088262 0.07039947 -0.015428686 0.07989843 0.041820634 0.0406559 0.0041394634
0.027629739 0.047127627 -0.24473143 0.044226263 0.062003188 0.26217338 -0.00777467 0.02580058
0.20535746 -0.017453818 -0.10276354 0.07134561 0.011299509 -0.01172094 -0.02151906 0.049662795
0.02605069 0.19959606 -0.3442685 0.10318377 0.014927987 0.039069135 -0.18286699 -0.16887848
-0.010369765 -0.01873855 0.012668929 0.006884024 -0.011057014 -0.055028446 0.24293622 0.0043067927
-0.057007823 0.014201138 0.078438975 -0.040764432 -0.001243306 0.07827766 0.05252097 -0.20419702
0.07286015 0.042034175 0.039538495 0.11524546 0.034566678 -0.00555384 0.053661346 -0.34873632
0.006506445 0.057449825 0.08868646 -0.36688966 0.09864192 0.08989606 0.0249768 0.009306796
-0.011542113 -0.019737158 0.020458996 0.03469986 -0.038040217 0.013080024 0.020729404 0.016161475
-0.61204374 0.0667815 0.0023356022 -0.06975202 0.066710435 0.048117008 0.03666649 0.0926567
-0.130161 0.0014166157 0.009133586 -0.013150783 0.041244704 0.077331014 0.029777784 0.20366387
0.05578149 0.00649465 0.036797855 -0.0034580063 0.021013316 0.078042194 0.015339461 0.12411356
0.012486508 0.061869364 0.14820127 0.04482478 0.33687302 0.10519612 -0.068342745 0.07165497
-0.011546413 0.046771683 -0.17698774 0.046927296 0.054780893 -0.053542357 0.04955173 -0.07400326
-0.04992218 0.06686014 0.018807624 0.030771976 -0.044280797 0.10219377 0.0188146 0.025754573
-0.006063163 0.0012127022 0.018810466 0.1933662 0.03062239 0.104073875 0.020076478 -0.4314711
0.011181748 -0.17837948 0.005037065 -0.033530194 0.020584961 0.04542893 0.022655182 0.022897793
-0.097411975 0.029765017 0.02681451 -0.0065783067 -0.20012137 0.15199114 0.076008864 0.020025892
0.021974806 -0.029364698 0.046421383 0.076696105 0.17062408 -0.15464842 0.12683608 0.025757609

backbone.0.bias f4 [16]
00000000: de46 39bb 4df6 29bd ed27 f63c b941 7e3c
00000010: 48bc 663d a479 843c 23a2 cb3c fd0b 903d
00000020: 686b 943c d1b3 98bd 6284 a6bd 46a2 41bc
00000030: 19f4 78bd c52d 79bc 4c92 403b 8f7e fe3c
-0.0028271 -0.041494656 0.030048335 0.015518599 0.056331903 0.016171284 0.024857586 0.070335366
0.018117622 -0.07456172 -0.08130719 -0.011818474 -0.060779665 -0.015208666 0.0029384075 0.031066207

backbone.0.weight f4 [16, 17, 5, 5]
00000000: 77ee 113d 4153 c43d 4a38 ad39 20e8 13bd
00000010: 036e 4e3d fbea 6cbb d32c 15bc 51a8 b3bc
00000020: cf14 dcbd 813a c7bc e3a6 a8bc 2155 46be
00000030: d257 d6bd fbf9 07be 19be 0abd e7be 7e3c
00000040: 708c e8bb 2bd0 4cbc 6ff3 d4bd c7b9 a13b
00000050: 51dc b63c 9325 07be aae7 bb3d 8b66 9e3d
00000060: 40e0 5d3d 9911 bdbf d33b d8bf cd71 7fbf
00000070: 6613 70be f4ce 47bf 9977 dfbf 21ec a8bf
00000080: 7ba8 95bf 90a0 5ebe efc5 1e3d d2b9 b43d
00000090: 081f 59bf e0ee 0bbf e0e8 88bb 4644 c1bd
000000a0: f1b7 b9bf e734 56bf 84c9 70bf 83c6 4a3d
000000b0: cf27 64bf 0175 99bf cd43 57bf 1e35 6fbf
000000c0: 5000 a73c 7b4e 17be 3ffd 55bd 85fc 453c
000000d0: b946 23bd ebdc 803c 56d1 6e3d cb20 0a3d
000000e0: df69 38be fadf 1abe a486 c0bd fbd4 b7bd
000000f0: 5cbc 88bd 4a37 25bd 97f9 01be a08a f9bc
00000100: e634 78bd a850 4cbd 9d10 143a 4dc2 aa3b
00000110: f643 15be 4df1 d73c 7ddf 533d a301 853d
00000120: fc0f 04be 279c 0fbd 3734 cabd 6bbc 193e
00000130: 7c9a 503f 188b 5c3e 0f27 b03e 5fe0 133d
00000140: 1750 0e3f 2b97 f03e 89cc 843e 99f8 573e
00000150: ffb3 b33d a869 c43e 3d54 c43e 4696 763e
00000160: 4e6c c23e 5034 803e 7b8f 853e da1a d93d
00000170: 88ef 34bc ee6f 4abd b501 053f a9ba 0fbe
00000180: aa7b 2ebe 317a 3abc b80c 913e 32de 843a
00000190: c129 15be 80c5 1dbe 3ef1 f73c 16fc f9bd
000001a0: 063c 16bd 961a 183e da58 fbbc 07a0 fbbb
000001b0: 2b6f fe3c 9a13 0a39 aebe 903d f1db 943e
000001c0: 823a 223e 3795 a43d 8c20 6b3d 544f 85be
000001d0: 68f8 31be ca1d 6cbd 3d7d 0cbe 4ad5 e0bd
000001e0: 4281 20bc 3330 673d a95f 11bd 3e3a 00bd
000001f0: 7f5b 66bd df2f d1bd de40 853d 6a45 f43d
00000200: 8be5 e53c 760e c23d 2d4c 943e 6ac0 163d
00000210: f113 d7bd 0a12 9f3b 17c4 083e a5db ab3e
00000220: 2d97 a13e 6c5c 9e3d c373 a73d c4cf 3d3e
00000230: 0e4a e03c 0173 6ebe 9851 59be f9a7 3dbe
00000240: d847 4bbc 5732 f33d b2d6 6bbd 8f96 8cbe
00000250: b592 d5bd 1f9e f83c 91aa b6bd 3b8c 9b3d
00000260: 9fbf 153e 51b8 3c3d ee94 0d3e a6c4 943e
00000270: 493d a53c 55bd 56bd 0fb2 11be 5c1b b73d
00000280: f5be 913e 29d8 583e 1f6a b03d 1417 4bbd
00000290: fa7c 0a3d 6ac1 653d 13bc 43be bc52 13be
000002a0: 2757 43be 6034 1dbd cbf1 f5bb de30 8dbd
000002b0: 349a 35be 6666 16be 5bc2 d4bd da16 13bd
000002c0: cd57 503e f720 f73d dacb 1a3e 7036 783d
000002d0: 0bff 6f3e 0f5e 6e3e b774 403e cb38 71be
000002e0: 542e 143e 5228 3d3e 4638 a63d f13f 2dbd
000002f0: 4868 3fbe e6ae 063e 3ab6 713d 3d24 833d
00000300: cb25 adbe a1c8 7abe 0791 4a3d bdc4 453d
00000310: ee7c 083e 5f96 0dbe 1af6 283c bd96 2dbc
00000320: d9cc 803e 961a 1f3e 0c1e 893c b24b 33bd
00000330: 879f b03d b3cb 44bc 4910 033e f58f 233e
00000340: ca14 a5bd 574d 09be 3b2b 4dbd 995b 8e3c
00000350: 48a9 2c39 7879 20be 167c a0bd f028 e5bc
00000360: be44 043e 2974 8c3d 0019 02be a835 3dbe
00000370: 3aed cbbb 38a6 fb3d e596 db3d c91c 023e
00000380: 4a04 823d 7d35 7d3e 0f3b ce3d 7b99 b9bb
00000390: 4080 76bd 8976 cd3d 80dd 72be e4f4 ac3d
000003a0: ecf3 d13d 15e1 38be dda6 45bc d1cd 6abd
000003b0: 31ec 25be d844 38bc ecae d3bd 09bf 0dbc
000003c0: 9590 9b3d f4b9 713d c764 a23c e459 03be
000003d0: f883 80bd 2a3b 3f3d 2f25 003e 8dbb 883d
000003e0: 3049 633d b67e c5ba c3d1 6f3e 0792 133d
000003f0: d207 983d 6c6d 48bd dd73 ef3d 2e89 f4bd
0.03562781 0.09586192 0.0003303907 -0.036110044 0.050397884 -0.0036150801 -0.009104925 -0.021930845
-0.107461564 -0.024319889 -0.02058739 -0.19368412 -0.10465969 -0.13278954 -0.033872698 0.015548444
-0.0070968196 -0.012500803 -0.10397994 0.0049354765 0.022321852 -0.13197927 0.09175046 0.07734402
0.05416894 -1.4770995 -1.6893257 -0.9978302 -0.234449 -0.7805016 -1.7458373 -1.3197061
-1.1692041 -0.21740937 0.038762983 0.08824505 -0.84812975 -0.5466137 -0.0041781515 -0.0943685
-1.450926 -0.8367447 -0.9405749 0.04950572 -0.89123243 -1.1988832 -0.8408783 -0.93440425
0.020385891 -0.14776032 -0.052243467 0.012084131 -0.03986237 0.015730342 0.058305107 0.03372268
-0.18009137 -0.15124503 -0.09400681 -0.0897617 -0.06676552 -0.04033593 -0.12692867 -0.03046161
-0.060597323 -0.049881607 0.00056482275 0.0052111507 -0.14576706 0.026360178 0.051726807 0.06494453
-0.12896723 -0.035061028 -0.098732404 0.15013282 0.81485724 0.21537435 0.344048 0.03610265
0.5559096 0.46990332 0.25937298 0.21090926 0.08774566 0.3836186 0.3834552 0.24080762
0.37973255 0.2503991 0.2608603 0.10600825 -0.011043437 -0.04942315 0.5195573 -0.14036049
-0.17039362 -0.011381672 0.28330016 0.001013702 -0.14566709 -0.15407372 0.0302664 -0.12206285
-0.036678337 0.14853892 -0.030682016 -0.007678989 0.031058868 0.00013168008 0.07067619 0.29074052
0.15842631 0.08036273 0.057404086 -0.26037085 -0.17379916 -0.057645597 -0.1371965 -0.10978182
-0.009796442 0.05644245 -0.03549162 -0.031305544 -0.0562396 -0.10214209 0.06506513 0.11927302
0.028063556 0.094754145 0.28964368 0.036804594 -0.105018504 0.0048544453 0.13356052 0.33566013
0.3156065 0.07732472 0.08176377 0.18536288 0.027379062 -0.23286058 -0.21222532 -0.18521108
-0.012407266 0.11874836 -0.057577796 -0.27458617 -0.10428373 0.030348836 -0.08919252 0.07595106
0.14623879 0.046074215 0.13826343 0.2905628 0.020170825 -0.052426655 -0.1422808 0.08940765
0.28466 0.21176209 0.08613991 -0.049582556 0.033810593 0.056092657 -0.19114713 -0.1438703
-0.19076215 -0.038380027 -0.0075056306 -0.06894086 -0.17734605 -0.146875 -0.10388633 -0.035910465
0.20345993 0.120668344 0.15116826 0.06059879 0.23437135 0.23278068 0.18794523 -0.23556821
0.14470798 0.18472412 0.08116202 -0.042297307 -0.18692124 0.13152656 0.059011675 0.06403396
-0.33817896 -0.24490596 0.049454715 0.048283327 0.13328907 -0.13826893 0.010312581 -0.010595021
0.25156286 0.15537485 0.01673796 -0.04377336 0.086241774 -0.012011456 0.12799181 0.15972884
-0.08060606 -0.13408409 -0.050090056 0.017377662 0.0001646626 -0.15671337 -0.078361675 -0.027973622
0.12916848 0.06858093 -0.12704849 -0.184775 -0.006223348 0.12287563 0.1072214 0.12706293
0.06348474 0.24727435 0.10069858 -0.0056640483 -0.060180902 0.100323744 -0.23717308 0.08445147
0.102516025 -0.18054612 -0.012063709 -0.057325188 -0.16203381 -0.011246882 -0.10336098 -0.008651503
0.07595936 0.05901523 0.019823445 -0.1282726 -0.06275171 0.046687283 0.12514184 0.066763975
0.05548972 -0.001506767 0.23419861 0.036027934 0.074233666 -0.048932478 0.11692021 -0.119402274

backbone.11.bias f4 [128]
00000000: 36ed 1ebd a8aa 96bb e7db b1bd a4f4 a9bc
00000010: f2da 353d 4508 1ebe cd1d 6dbd 1191 313d
00000020: 39c0 efbd 3df0 1bbd 6e18 16be 4e27 043e
00000030: aa52 ccbc b733 47be 2afb 60bd eb72 02bd
00000040: f7d6 87bd 9234 f73d 8713 c93d 725e 773d
00000050: 970f 343d 3328 023e be37 563d 7ed0 82bd
00000060: 120c d23d 0413 8fbb b93a 4a3c 5dfe 7dbd
00000070: 7cae bc3b 9c58 46bd e564 c6bd a9bf edbc
00000080: e962 a3bd 78d4 23bd 933e 1fbe b2ce 0ebe
00000090: 20dd 51be c938 bdbd a8ce 4fbe dd62 c6bd
000000a0: 81a0 3ebd 633f 8dbd 6b23 8bbd 9e49 a3bd
000000b0: 19cd 09be 4259 17be e58c 4dbe 5c16 82bd
000000c0: 48f6 8bbd 4378 553d a9ac cc3d 75a1 eabd
000000d0: da6b 30bd e932 d2bd 7112 733d c390 0b3c
000000e0: 9d21 583d f6d3 4cbd 68de 083d fc34 f6bd
000000f0: a06a 24bd 3242 48bd 8f9c 6d3d 742a 853c
00000100: ec14 80bd f136 b3bd f3c5 553d b053 973d
00000110: 2394 77bd 6da8 fbbd 633f b63c 23f3 0d3b
00000120: 21f3 703d 432f 9abd a912 51be 952b 283c
00000130: 676c 07be c4ea 1dbe 6dfa 67bb 0c71 f2bc
00000140: 1f72 3d3c c600 f23b 6dc0 2c3b d01f 243c
00000150: 5f73 abbc 8fbc fdbd 785b cdbd 70e4 9abd
00000160: 94eb e3bd 70af 5bbd 4b0f 213d 4bb1 cf3b
00000170: 9d95 27bd 6dc5 e53d ba30 a4bd d2c7 9e3d
00000180: 3ed5 98bb 5ee3 30be 611b b2bd e45e abbd
00000190: 076e de3c 2e58 5fbd 535a 5bbd 1f74 64bd
000001a0: d051 8fbd ecbc 61be 5d54 0abe 8c1c 90bd
000001b0: ab8b dfbd 962c ef3d 2bda 703c e49f cdbd
000001c0: 35ac 46bd 4eb7 b4bd caa2 29be a2ef d23c
000001d0: abbd c6bd 4393 b6bd 9924 27bd aca4 3dbd
000001e0: 818a 9ebd ecb5 c8bc 764e 2a3e daab 293d
000001f0: 71aa f13c 25a1 b43d 8f69 f4bc f2e5 d23c
-0.03880044 -0.0045979805 -0.08684521 -0.020746537 0.044398256 -0.15432842 -0.05788975 0.043351237
-0.117065854 -0.038070906 -0.14657757 0.12905619 -0.024941761 -0.19453321 -0.05492703 -0.031847876
-0.06632798 0.12070574 0.09818178 0.060392804 0.04396018 0.12710647 0.052299254 -0.06387423
0.102562085 -0.0043662805 0.012343102 -0.062010158 0.005758105 -0.04842435 -0.09687213 -0.029022055
-0.0797785 -0.039997548 -0.15551214 -0.13946036 -0.20494509 -0.092393465 -0.20293677 -0.096868254
-0.046539787 -0.06896856 -0.06793865 -0.07973026 -0.13457145 -0.14780143 -0.20073278 -0.06351921
-0.06834084 0.052116644 0.0999387 -0.11456577 -0.043071605 -0.102636166 0.05934376 0.008518401
0.05276643 -0.05000683 0.033415228 -0.12021825 -0.040140748 -0.048891254 0.058010634 0.016255595
-0.062539905 -0.087507136 0.052190732 0.07389009 -0.06044401 -0.12287984 0.022247022 0.0021659813
0.058825616 -0.07528546 -0.20417275 0.010264297 -0.13224946 -0.15421587 -0.0035397068 -0.02959492
0.011562853 0.007385346 0.0026359812 0.01001735 -0.020929037 -0.1238948 -0.10027212 -0.07563102
-0.11128917 -0.053634107 0.039321225 0.0063382736 -0.040914167 0.112192966 -0.08017106 0.077529564
-0.0046640923 -0.17274234 -0.08696628 -0.08367708 0.027152075 -0.054527454 -0.053552937 -0.055774804
-0.06998026 -0.22044724 -0.13508745 -0.07036695 -0.109153114 0.11678426 0.014700453 -0.10040262
-0.048504073 -0.08824025 -0.16566005 0.025749031 -0.09704145 -0.08914807 -0.040806387 -0.04629962
-0.07741261 -0.02450081 0.16631493 0.041423656 0.029500218 0.088197984 -0.02983549 0.025744412

backbone.11.weight f4 [128, 16, 3, 3]
00000000: 3bdd 2dbd e697 d8bc df11 2fbe f2c0 473a
00000010: 24ad 133e c47a 89bc fa27 59bd 30b5 703c
00000020: c70c 5fbd 6b0b 143e 6efb 22bd a579 b0be
00000030: 86c5 573e 81ac bc3e 1c1a 40bd 2c5c 8d3d
00000040: 71f9 12be 7dc5 6a3d 0dc6 6abd 49e6 03bd
00000050: ca69 c33d 24b3 04be 6d82 0bbe e368 c43c
00000060: 2070 bc3d 7425 0cbc 7d8b 0d3e 4022 043e
00000070: 7a37 24bd 3eac bf3e b6b7 50be e0a6 2b3d
00000080: 04d7 02bd f424 3fbe 4f66 cf3d 8dc8 843d
00000090: 7ead 793e fd33 42bd 6e89 39bc 5e46 8bbc
000000a0: 5e35 8b3e af63 9fbd 11d4 783e 0268 21bd
000000b0: f5fb 7cbc bd43 093e 007c f9bd 98f1 83be
000000c0: 3d7f 143e 8fc1 253e fd4b 723d 179b 293e
000000d0: 92eb 313e aa78 1cbe caf8 f3bd 79bd 21bd
000000e0: 1c60 a6bd c623 053e 315c 843d 1c8d 2c3c
000000f0: a772 e93d 9af0 a83d 9b79 e0bd 594a 173e
00000100: c2e6 653e 96b1 aebc 0c2a c43d 3570 8abd
00000110: 5655 8a3d 7dbb 8bbd 01d8 38be ec60 093d
00000120: edf0 363c ff5d 41bc e241 ae3d 67f0 edbe
00000130: f424 a3be e8f8 b73d d084 7fbd 7e16 9f3d
00000140: 5dcc 0abd f6b6 8dbe a508 e6bc 49cd 36be
00000150: 335e 6dbe c836 13be 9536 8abc 8a24 14bd
00000160: 9f69 a0be 0593 b33e 0ace 85bd 4f96 b3bc
00000170: 5cb9 2f3d 4359 3bbe 70a1 923b 90f9 d63c
00000180: 1b33 1fbe c36a a9bc d66a 303d e5e5 ff3d
00000190: 9afd 843d 1017 2cbe 594b 1e3e d85a f6bc
000001a0: abba 3bbe d2f0 1cbb 2400 cb3d b051 82be
000001b0: ef98 0ebd 4e3d c53d 6f3c aabd 664b 8c3e
000001c0: c106 7e3e dd38 073e abf1 953d 7a0b 083e
000001d0: bbe9 ab3e 6ea8 5d3e 1553 183e 72d9 003d
000001e0: 1bf1 38be 96f7 39be 1f8a be3d 8bc1 e9be
000001f0: 8b24 f7bd df52 a93d 88c9 4cbd d14c e3bd
00000200: f50c 383b dda4 2ebd 0352 103d 156a 25be
00000210: 248d 6ebe 9521 383e 6248 d93d 04c7 ddbd
00000220: 8231 35bb 23f1 adbc 153b a03e 554f 2f3e
00000230: cc38 8ebd 7fd9 d73d 2550 243e 7c80 a3bc
00000240: 47d6 4cbc a326 86bd e459 3dbe de23 583e
00000250: 9ae0 fbbd ed4e 81bc 5a69 693c 0e3a 1cbd
00000260: 868c 2abe ed42 093e e7b0 03bd ab0e 0cbd
00000270: c8c6 62bd 7fbc c73d 85a0 d43d 76b9 3fbe
00000280: 3494 053c 01e3 3fbd e5a8 5b3d 0a76 373e
00000290: 7e2a 92bd ca11 44bd 9ff8 3abd 1bb7 903d
000002a0: 2070 acbd 7b1b 773d 5018 c23a e7f9 f33d
000002b0: 4545 453e a991 0a3e c3b3 f1bc 43aa afbd
000002c0: b745 e83c a4fd 553e 60ac 5c3e 8fe9 113e
000002d0: ed3b 2fbd 3403 bebd 0d95 8cbe 6110 82bd
000002e0: 736f 9a3d c04e 91be 73df 303d bf2e c7bd
000002f0: a89d a7be 8760 a43c ec00 a1bc 1caf e23d
00000300: 2388 f3bc bb64 1b3e df0e b83d 8e6a ebbd
00000310: 3fbd 4bbd 3df2 7abd cfbc 3abd 99e7 063e
00000320: c030 60bd ac24 2f3e ce3a dd3c d8f8 193a
00000330: 9c14 60bd ae84 c9bd ba4a e83c ce3b 343d
00000340: cc89 75be bfd8 14bd 9b45 bebd 273c acbd
00000350: 4a82 0d3c db2f 39bd 2625 f0bd 9aad 3abe
00000360: 9edd 9bbe 322e 923e 7df1 87bd 1560 c2bd
00000370: d9cb 47bd 6fc9 8a3d da58 68be 08dc 173e
00000380: a00a de3d b25e d4bd c5a4 bbbc 588e d33d
00000390: caf1 bb3d 79a2 763c 6a93 0cbe 18d9 3b3c
000003a0: c44b 61bc f197 083c 545d 863e 0417 cb3e
000003b0: 0ac3 e13d 0527 2d3e ea24 c73e f671 df3d
000003c0: f5ab 933c c28c ea3e c99c 253e e995 253c
000003d0: a957 1b3e 1647 23bd e810 b43c fbaf e43d
000003e0: bd43 b43d 84d4 f0bd e827 283e 852e 67bd
000003f0: e4f0 293d 8e3c 85bd a146 0e3e d8ef 98bd
-0.04244731 -0.026439618 -0.17096661 0.00076199987 0.14421517 -0.016782172 -0.05301664 0.014691636
-0.054455545 0.1445748 -0.039790563 -0.34467807 0.21071443 0.3685036 -0.0468999 0.06902346
-0.14352967 0.057317246 -0.057317782 -0.03220204 0.09541662 -0.12958962 -0.13623972 0.023975795
0.09201074 -0.008553851 0.13822742 0.1290369 -0.04009197 0.37436098 -0.2038258 0.04190719
-0.031943336 -0.1866644 0.10126936 0.064835645 0.24382588 -0.04741286 -0.01132427 -0.017001327
0.27189153 -0.07782685 0.24299647 -0.03940583 -0.015440931 0.13404746 -0.12181854 -0.2577026
0.14501663 0.16187118 0.0591545 0.16563068 0.17375019 -0.15280405 -0.11912687 -0.039487336
-0.081238 0.13001928 0.064628966 0.01053169 0.11398821 0.08249016 -0.109606944 0.14774455
0.22451308 -0.021324914 0.09578332 -0.06759683 0.06754558 -0.0682287 -0.18051149 0.033539698
0.01116584 -0.011802196 0.0850866 -0.46472475 -0.3186413 0.08983022 -0.06238252 0.07767962
-0.033886302 -0.2767865 -0.028080294 -0.17851748 -0.23180465 -0.14376366 -0.01687173 -0.03616766
-0.31330582 0.35073105 -0.065334395 -0.021922259 0.04290138 -0.1829577 0.0044748113 0.026242048
-0.15546839 -0.02068079 0.043070637 0.12495021 0.06493683 -0.16805673 0.1545843 -0.030072615
-0.18332927 -0.002394725 0.09912136 -0.25452948 -0.034813818 0.096308336 -0.08312308 0.27401274
0.24807264 0.13205285 0.07321485 0.13285628 0.3357676 0.21646282 0.14875443 0.031457372
-0.18060724 -0.18160853 0.09303688 -0.45655474 -0.12067517 0.082677595 -0.049996883 -0.11098636
0.0028083895 -0.042637695 0.035234462 -0.16153748 -0.23296028 0.1798156 0.10609509 -0.10828975
-0.0027647917 -0.021233147 0.31295076 0.17120107 -0.06944427 0.10539531 0.16046198 -0.019958727
-0.01250226 -0.06550338 -0.18491322 0.21107432 -0.12298699 -0.015784705 0.014246309 -0.038141303
-0.16655168 0.13404436 -0.03215113 -0.034193676 -0.055365354 0.0975275 0.10382179 -0.18723091
0.00815301 -0.046847347 0.053627867 0.17916122 -0.07137011 -0.047868527 -0.04564726 0.070661746
-0.08419824 0.06032894 0.0014808271 0.119128995 0.19264705 0.13532127 -0.029504662 -0.08577397
0.028353555 0.20897537 0.21550131 0.14249252 -0.04278176 -0.09277955 -0.27457467 -0.0635078
0.075407885 -0.28380394 0.043181848 -0.09725713 -0.3273747 0.02006556 -0.01965376 0.11068556
-0.029728001 0.15175144 0.089872114 -0.11494933 -0.049741026 -0.061266173 -0.04559022 0.13174285
-0.05473399 0.17103833 0.02700558 0.00058735674 -0.054707155 -0.0983976 0.028355945 0.044002347
-0.23978347 -0.036339518 -0.0929062 -0.08409911 0.00863702 -0.045211654 -0.117258355 -0.18230286
-0.30442518 0.2855087 -0.06637857 -0.094909824 -0.04877839 0.06776702 -0.22690144 0.14830029
0.1084187 -0.10369624 -0.022905717 0.10329884 0.09176977 0.015053385 -0.13728109 0.011465333
-0.013750974 0.008337007 0.2624308 0.39665997 0.11023529 0.16909416 0.3889535 0.10910408
0.018026331 0.45810515 0.1617309 0.010106542 0.15170158 -0.039862715 0.021980718 0.11166378
0.088019826 -0.11759284 0.16421473 -0.05644085 0.041489497 -0.065056905 0.1389413 -0.074676216

backbone.15.bias f4 [256]
00000000: feb9 d53c cb35 65bb c110 98bd 7061 46bd
00000010: 8b62 d63d 2323 cabc 60d8 43bb cb73 99bb
00000020: fa72 04bd 2aae 053e 8eb8 873d cfc4 023d
00000030: 7add 113d 1dc3 d03d 313c 2c3d 5ee1 373d
00000040: e096 413d 2d76 593d d1a2 c8bd def0 6a3e
00000050: 86ce 13bd 4228 f1bd 67bc 76bd 91cc 19be
00000060: 5744 30bd 9ef3 5abc b771 c53d 855f c33c
00000070: bba9 04bc 5156 82bc 267b 19bc a84c ef3d
00000080: ab60 05bc a1a7 b23c 6282 99be ee10 95bb
00000090: 15c7 113d be2f 4dbd 5164 583c 393b a93d
000000a0: 190c 303d bf4c 223e 0fbf 453c a063 653d
000000b0: 2594 e83c 5baa 753d bf1f 793d 4714 d93c
000000c0: b98a f7bc 70e5 02be f8bb 943d 51f0 403d
000000d0: e029 5fbc 3aea 0fbd 4147 163c 2d3d 45bd
000000e0: 1a38 9f3d 3882 113e 99c6 833d 900a 90bd
000000f0: bf1e 3e3d 25fd e23d a743 003e d386 56bd
00000100: a269 8abb c682 7fbe 6778 6f3d 2ea8 a8bb
00000110: 8f13 883d ee25 8a3b 5dd4 0f3d 977b c53d
00000120: 829d ff3d 4778 ec3c 8e3f e5bd 8856 dabd
00000130: a890 373d 3c5b de3d fb99 473d 4973 44bb
00000140: 2976 8c3c dfc1 543d 99fe c3bd c532 bd3c
00000150: 3a1a b7bc f3be a43d c140 74ba 470a febc
00000160: 7e54 03bd 67f2 bd3d 7e74 1f3e 104a 673d
00000170: 70aa 203d 55c1 e73d 94bc ed3d acea 8f3c
00000180: 726d aabd a842 17bd ca63 2b3e 95c6 543d
00000190: 80cc 0b3e f26c 59bd b8d6 19bd 1db3 3cbd
000001a0: 650d 923c c2af 87be a7cc 22bc c0ac 983d
000001b0: 3e1b b73c ce32 923c c0be ab3d fab5 303e
000001c0: d574 c13d a197 12be ded7 413d 3d43 1a3d
000001d0: 1ee1 73be 991e a5bc 3716 0abe c01c cf3d
000001e0: e9ff 023e 530d f4bc eb7b b9bd 0157 afbd
000001f0: 0be4 97bd 907a 7a3d fe78 8c3d 64f0 583d
00000200: 522a 2e3d 0229 9ebc 94bf 15be f1dc 2abe
00000210: b3d7 bd3d ebd5 efbd 0f4b 7f3c 9fdb 433c
00000220: f26c 91bd 711e d53d fe97 4f3d 8178 ae3d
00000230: dfd6 fb3d fbb7 a13d c0e5 a43c 4a00 cd3d
00000240: b45f e73d 72ed 32bc a184 923c dcb1 1a3e
00000250: d035 2a3d 9524 d8be df2a 20be ac1c 843c
00000260: edde 20be 4325 073d b3a1 5b3c 29a0 35bd
00000270: 364e e13d 6df0 ad3d 1dba 2e3d 998d 833d
00000280: 7032 8b3d 5ffe f0bc c54a 08bd b2ba db3c
00000290: f7eb bfbd e0ce 2abe a7dd 043e 0441 5bbd
000002a0: eb35 ad3e 6ec6 053e d8dd 4b3e 2a53 e03d
000002b0: 6b5c a63d 3b26 883d 69bc d43d 6325 1d3e
000002c0: a07d 863b c6a4 e73c 6c3e d23d 0086 0fbe
000002d0: ede1 7a3d c786 acbc 49a1 1b3e d3da 123e
000002e0: 17f2 c5bc 4190 aa3c 1e7e 673b e0af a7bc
000002f0: cdbd 823d 73b7 d83c b1c8 ab3d 66e0 2bbd
00000300: 1266 2e3d ab08 bd3c 0bb7 093e 5710 f33d
00000310: 9cd2 0d3d 3924 1f3e b247 66bc 5628 813d
00000320: 31b7 c93d a339 b63c 7530 383d b515 083e
00000330: 7550 2c3e 58fc d7bd 1023 da3d 4c37 debb
00000340: 7130 5e3d 8f79 d9bc b955 333d 8fec 593d
00000350: 049d 81bc 3606 0bbd 01d3 b4bb 68a3 9cbc
00000360: f3e6 153d 7431 3c3d 3e40 89bc 5cc0 b0bd
00000370: 8fb3 d73d 693b a9bd af2a 96bd 9bbd 513b
00000380: 7f4c 8fbd 1d5b a8bd be13 193e 388b 903c
00000390: 7515 883d e1d9 18be 19e3 e43c 18ec 5bbd
000003a0: e432 d9bd 7795 c33c c6ae abbd 0b96 b1bc
000003b0: d76d d23d e956 70be e277 c83d 85d5 b43d
000003c0: 2fcb a9bd 75e1 c7bd 161f ef3d 8d60 9dbc
000003d0: 4948 0ebd bf51 12bd 6fa5 aebc b8d0 f93d
000003e0: 8c41 f03d b0e2 a53d b027 e2bc 34fe ad3d
000003f0: d9c7 313e fc00 07bd 4a1d d9bc 1fe7 1fbd
0.026089665 -0.003497469 -0.074250706 -0.048432767 0.10468014 -0.024674958 -0.0029883608 -0.004682993
-0.032336213 0.1305472 0.06626998 0.031925973 0.035611607 0.10193465 0.04204959 0.04489266
0.047263026 0.053091217 -0.0979668 0.22943446 -0.036085628 -0.11775257 -0.06023827 -0.15019442
-0.043033924 -0.013363747 0.0964083 0.023849258 -0.0080971075 -0.0159103 -0.00936774 0.11684543
-0.008140723 0.021808447 -0.29982287 -0.0045491373 0.03559025 -0.05009436 0.013207511 0.08263249
0.042980287 0.15849589 0.012069478 0.056003213 0.028390953 0.059976917 0.06082129 0.026498927
-0.030217515 -0.12782836 0.07262415 0.047104184 -0.013620824 -0.035135485 0.009172262 -0.048154045
0.077743724 0.14209831 0.06434364 -0.07033265 0.04641604 0.1108344 0.12525807 -0.052374672
-0.004224018 -0.2495223 0.058464434 -0.0051470017 0.066443555 0.0042159474 0.035114635 0.096427135
0.12481214 0.028865946 -0.11193763 -0.10661036 0.04481569 0.10857245 0.04873083 -0.0029975942
0.017146187 0.051942702 -0.09570045 0.023095498 -0.022351373 0.08044233 -0.00093175104 -0.03101076
-0.032063 0.0927475 0.15571782 0.056467116 0.039225042 0.11316172 0.11608234 0.017567955
-0.08321656 -0.036928803 0.16737285 0.051947195 0.1365223 -0.053082414 -0.037558287 -0.046069253
0.017828653 -0.2650128 -0.009936488 0.074548244 0.022351857 0.017846491 0.08385992 0.17256919
0.09446112 -0.14315654 0.047325008 0.03766178 -0.23816344 -0.020156192 -0.13485037 0.101129055
0.12792934 -0.02979151 -0.090568386 -0.085615166 -0.074165426 0.06115204 0.06859015 0.05296363
0.04252083 -0.019306663 -0.14623863 -0.16685845 0.09269657 -0.117107235 0.01558186 0.011954217
-0.07100858 0.10406197 0.05068206 0.08519078 0.12296843 0.078964196 0.020129085 0.10009821
0.11297551 -0.010920869 0.017885508 0.1510691 0.041555226 -0.4221541 -0.15641354 0.016126953
-0.1571004 0.03299452 0.013405251 -0.044342194 0.11001246 0.08493123 0.04265796 0.06423492
0.067967296 -0.029418169 -0.03327443 0.026822422 -0.093711786 -0.16680479 0.12975179 -0.0535288
0.338302 0.13063976 0.19908845 0.10953362 0.08123096 0.06647917 0.10387499 0.15346293
0.004104331 0.028276812 0.10265812 -0.1401596 0.061250616 -0.02106036 0.15198244 0.14341287
-0.024163289 0.020820739 0.0035322974 -0.020469606 0.06383858 0.026454663 0.08387888 -0.04196205
0.04257781 0.023075422 0.13448732 0.11868351 0.03462468 0.15541162 -0.014055179 0.063065216
0.09849394 0.02224428 0.044968087 0.1328953 0.16827567 -0.105461776 0.10651219 -0.0067814942
0.054245416 -0.026547221 0.043782923 0.053204115 -0.015821941 -0.03394147 -0.0055183177 -0.019120887
0.036597203 0.0459456 -0.016754266 -0.0863044 0.10532295 -0.08263285 -0.0733236 0.0032003883
-0.06997012 -0.082205035 0.14948937 0.01764451 0.066447176 -0.14926864 0.02794032 -0.053691953
-0.1060541 0.023874981 -0.08382945 -0.021677991 0.102748565 -0.23470654 0.09788491 0.08829788
-0.08290707 -0.097597994 0.11675851 -0.019211078 -0.034736905 -0.03572249 -0.02131912 0.12198013
0.11731252 0.08099878 -0.027606815 0.08495751 0.17361392 -0.032959923 -0.026503224 -0.039038774

backbone.15.weight f4 [256, 128]
00000000: b625 9bbd 7bc1 aa3d 7e79 d33b c7b8 b5ba
00000010: c139 e0bc e37e da3d 9222 5fbe c1e2 0d3c
00000020: cb2e a5bc 6a5d 05be 1af1 05bd bd04 81bd
00000030: 0be8 453e 8ef5 b9bc c738 83bc 9cd3 44bd
00000040: e1fe a3bd 68ac 853c ecaf 60be 1d4a 6dbe
00000050: ec71 afbe bedb 82be 64ac 98bd f790 cf3d
00000060: 8769 dcbc 8b43 9c3b 7311 893d 9c58 ca3c
00000070: c104 53bd 7244 58bd f6f5 0abe 6364 88bc
00000080: 0bbd 023e a5b8 ef3c e929 b6bd 5091 543d
00000090: 381e bc3d 242f 293e 1016 f5bc 82c3 8b3d
000000a0: 6ac9 e9bc c6cb 8cbe 3375 e03d 2d0b 80be
000000b0: 41cb 523d cf05 7c3d dce6 3bbb ebb1 52bd
000000c0: ca75 d8bc 83a6 693d 33c5 58bd 625f 543d
000000d0: 0131 7c3d 00a2 813d 8cd8 773d 2d67 ac3d
000000e0: fc96 d63d d95e 163e ccff 61bc 3d28 cabc
000000f0: 8843 56be 2130 9b3d 01da 253d b84a 66bd
00000100: c9f6 3a3c c06b 043d 0a88 48be 8eb0 4e3e
00000110: 124f 353d 7b4b ac3d 437f 4a3d cc32 b33d
00000120: df76 99bd 4b72 1e3e e832 413e 8d15 97bd
00000130: e4fc 473d c98e 703c 26c0 7dbd afdd 463d
00000140: c125 1ebe 95b0 633c d3da a9bd 8581 1bbd
00000150: 8dcb a23b 3a83 923d 7ebd f6bc 38ab 3c3d
00000160: 312f a5bd 98cf 52bd efaa e43c 2a1f b9bc
00000170: 4dbd 57bd d03f 7c3d f6fd b73d 4c00 ab3c
00000180: 37df 4a3d 0fd5 80be 39fb 00be fc40 26be
00000190: 9aba bcbd 9982 3cbe f56a e8bd be06 74be
000001a0: 5470 73bd 6779 86be fd33 9fbe 2989 83bd
000001b0: 71d3 4bbe 92c5 13be a735 e0bd d08c f33d
000001c0: aeb0 623d 38a1 49bd 2ebf 99bd 2afe 2fbc
000001d0: 2658 943c a52b 6bbd 06dd c73d ca9e 4a3e
000001e0: c0e9 a43d 0686 863d e4e1 353b 831f 00bd
000001f0: d479 d3bc 597a a73d 23b7 6d3d cbd9 fd3d
00000200: 3534 073d 92c6 273e 6d15 a8bd b0fc 4cbe
00000210: e741 27be a8ec 653d 07a4 18be 2992 853d
00000220: 8f1b 6f3d 459d b0be f147 f43d 6d72 63be
00000230: 0197 2a3e bedb 02be 8ac4 9bbe 6083 36bd
00000240: 445b cabd b8ef c43d ddcc bc3d da90 033e
00000250: 6553 873d fef7 b03d a8d6 593e d1bc 2abd
00000260: 2b28 943d 386e ebbc 6967 5f3e 65f2 02be
00000270: b114 663c 5985 e73b b608 353e e1cf 213e
00000280: 8481 1b3e 1e63 08bd 2509 413d edc2 42be
00000290: 13ce 513d d57d a3be 94a9 dbbd 4d0c 51bd
000002a0: b7f1 e6bd ccfb 9d3b e068 6dbc d0c1 483e
000002b0: c00b 5a3e b39c 2cbd 2ebc 283d 4632 8a3d
000002c0: a29a 8a3d 6a4e 0ebd d123 e03b 9cb9 bfbd
000002d0: 1472 40bd 439e 443c a009 cf3c 503c 143e
000002e0: 06eb 413d 84fa 6b3d aef1 bdbd 6ca4 acbd
000002f0: 1212 483d 9ae9 38be 3103 28be d213 a8bd
00000300: cb62 7a3c 1b99 ec3d cf0a 9d3d e0d0 0abe
00000310: 04cb 1e3e 723c 893d 2a88 d6bd 7115 fdbd
00000320: 13db 953c 41e4 b2bd 84ee fdbd 23a0 3ebe
00000330: 4c17 06be e868 39be 37cd 803e 34c5 9cbd
00000340: 95a4 4fbd abe8 9cbc dee9 8bbc ec67 9e3d
00000350: 2918 51bd 35de 93bd 210a 26be e899 933e
00000360: d498 40be cabe 2f3d a3ee 023d a091 eb3c
00000370: d8d4 573e 9c92 debd 9f3c 9f3d ebd2 24be
00000380: 70e4 efbc dd75 6f3d 7eab af3b c96d 3bbe
00000390: 802a 023d c29f ad3d 0088 6cbd e1a0 023e
000003a0: cfe3 bd3d 92e1 173e f89f 8f3d 0d04 923c
000003b0: 2003 383e 34c4 453e a17e ae3c 6823 0e3d
000003c0: 8f93 49bd 2a81 60be 8a45 a4bd 9e0a 2dbe
000003d0: 0fed 8ebd 3456 4dbe 78d9 413d 92f2 5c3e
000003e0: 758a b13d 2d1d 13bd 1a0f 8cbd 60a8 debd
000003f0: 7cfd 4abe 5574 b4bd 4269 d0bc 1064 15bc
-0.07575552 0.08337685 0.006453692 -0.0013864272 -0.02737129 0.10668733 -0.21790531 0.008660019
-0.020163914 -0.13023916 -0.032700635 -0.06299732 0.19326799 -0.022700097 -0.016018284 -0.04805337
-0.08007599 0.016317561 -0.21942109 -0.23172803 -0.34266603 -0.25558275 -0.07454756 0.10135072
-0.026905788 0.004768794 0.06692781 0.024700455 -0.051518206 -0.05279965 -0.13570389 -0.01664943
0.12767427 0.02926285 -0.088947125 0.051896393 0.09185451 0.16521889 -0.029917747 0.068243995
-0.028538425 -0.27499217 0.10959854 -0.25008526 0.05146337 0.061528977 -0.0028671538 -0.051439207
-0.026423354 0.057043564 -0.05292244 0.051848777 0.06157017 0.06329727 0.06050925 0.08418117
0.10478017 0.14684619 -0.013793897 -0.02467739 -0.20924199 0.07577539 0.040491108 -0.0562236
0.011411377 0.03232932 -0.19583145 0.20184538 0.04426486 0.08412834 0.049437772 0.08749923
-0.07493376 0.15473287 0.18867075 -0.07377157 0.04882516 0.01468248 -0.061950825 0.048551258
-0.1544409 0.013897081 -0.082936905 -0.037965316 0.004968113 0.07153936 -0.030119654 0.046061724
-0.08065642 -0.051467508 0.027913539 -0.022597868 -0.052670766 0.061584294 0.08983986 0.020874165
0.04952928 -0.2516255 -0.12595834 -0.16235727 -0.09215279 -0.18409194 -0.113485254 -0.23830697
-0.059433296 -0.26264498 -0.3109435 -0.064226456 -0.19904877 -0.14430836 -0.10947733 0.11892092
0.055344276 -0.049226016 -0.07507168 -0.01074175 0.018108439 -0.05741467 0.09758954 0.19787136
0.08052397 0.06568532 0.002775305 -0.031280052 -0.025814928 0.08177633 0.05803598 0.12395056
0.033008773 0.16384342 -0.08207212 -0.20018268 -0.16333733 0.056133896 -0.14906321 0.065220185
0.05837589 -0.34494987 0.11927784 -0.22211619 0.16659166 -0.12779137 -0.30423385 -0.044558883
-0.09880689 0.09616035 0.09218762 0.12848225 0.06607703 0.08641051 0.21273291 -0.041683976
0.07234224 -0.02873908 0.21816792 -0.12787779 0.014043019 0.007065457 0.17679104 0.15801956
0.15186125 -0.03329765 0.04712786 -0.19019671 0.05122192 -0.3193194 -0.10725704 -0.05103712
-0.11276572 0.0048212763 -0.014490336 0.19605184 0.21293545 -0.042141628 0.041195087 0.0674787
0.06767775 -0.03474275 0.006840207 -0.09361574 -0.046983793 0.012000623 0.025273144 0.14476132
0.047343276 0.057611957 -0.09274612 -0.084297985 0.04884536 -0.18057862 -0.16407467 -0.082069054
0.015282343 0.1155264 0.07668077 -0.13556242 0.15507132 0.06700982 -0.1047519 -0.12357605
0.01829294 -0.08734942 -0.12399009 -0.18615775 -0.13094825 -0.18106425 0.25156567 -0.07654801
-0.050694067 -0.019153913 -0.01707929 0.07734665 -0.05104843 -0.07220117 -0.16214801 0.2882836
-0.188083 0.04290656 0.031965863 0.028755963 0.21077287 -0.10867807 0.077752344 -0.16096084
-0.029283732 0.058462013 0.0053610196 -0.18303598 0.031778812 0.08477737 -0.057746887 0.12756683
0.09271967 0.14832142 0.070129335 0.017824197 0.17969942 0.19313127 0.021300616 0.034701735
-0.04921299 -0.21924272 -0.08021076 -0.16898581 -0.06978809 -0.20052415 0.047326535 0.21576908
0.08668987 -0.035916496 -0.06838818 -0.10871959 -0.19823259 -0.08811251 -0.025440816 -0.009118095

backbone.2.bias f4 [32]
00000000: 7caa aabd 32a7 07be 945b 7d3d 1b8a 04be
00000010: 5456 aabd d842 873a 7cfd 1d3e 1ea3 48bd
00000020: ab28 bf3c 688c ad3c 60ed 3b3c 8a1c 1fbe
00000030: 417c 663d 3a3c ae3d 1b5d 1cbe e0f2 96bd
00000040: 0fb5 7c3c 3809 f03d 5fc9 febd 5c04 093d
00000050: 1b67 a9bd 188f 223e 9345 0abd 515c 153e
00000060: 7697 7b3c c4a6 c739 2618 193d 0072 813d
00000070: 710b 26bd 9184 70bd 39ea 423e d64a 6dbd
-0.083332986 -0.13247374 0.061854914 -0.12943308 -0.08317247 0.0010319604 0.15428728 -0.048983686
0.023334822 0.021185115 0.011470169 -0.1553823 0.05627084 0.08507581 -0.15269892 -0.073705435
0.015424027 0.11720508 -0.12440752 0.033451423 -0.08271619 0.15874898 -0.033757757 0.14585997
0.015355935 0.00038080488 0.037376545 0.06320572 -0.040538255 -0.058720175 0.19034661 -0.057932697

backbone.2.weight f4 [32, 16, 3, 3]
00000000: 6fca 953d 54e9 6d3d 588f 4e3d 7e43 313e
00000010: 9033 763d 29ca 573e 162b 283e 7dc8 983e
00000020: b4d4 bd3d 491c d23d 83b8 f03d 5c69 51be
00000030: 8c8e d33d 4e6b 6a3e 876b 673e d2fe 2c3d
00000040: fb5c 8c3d 5443 ecbb 566f 623e 3a8a cb3d
00000050: b486 103e e6a7 1b3e f20c d53d d41c 4b3d
00000060: 3cc2 e33d 59a0 d43d 1b30 aabc 2c95 b7bd
00000070: d1f5 453c 9322 18be e581 ad3b 4915 ff3d
00000080: 9a85 843d c279 cfbd ffff bebd 675f 7ebd
00000090: fedc 7c3d 1016 1fbe 4001 b4bd 3d5b 093e
000000a0: 95ff 853d 69bb cbbd 0f14 11bb cd13 1f3d
000000b0: 2b47 8ebd 94d7 8dbe 6362 91bd bc36 27bd
000000c0: 321a 353d 921c e4bd 96b9 88bd 135f 41be
000000d0: 5cc2 3ebd 4a57 0cbe 5fe8 40be 022f e3be
000000e0: efc3 1abd 3f78 e93c 0840 05be e43f 9cbd
000000f0: 2ed3 80be 7486 a3bb bf3c e5bd 1c5e 89bc
00000100: a94e 1a3d 74d2 b13e 79e2 023d 072a 6a3d
00000110: 234b 173e c618 eb3d a530 22bd 3887 5f3e
00000120: bcc3 51be 6c20 4e3d 6591 23bd 5dfe a7bc
00000130: c7f9 aebd 84b9 d1bd 7eef ecbd e9de 2b3d
00000140: 94d2 0c3d ad0d c5bd 9c27 853d 2604 d1bd
00000150: 5fcd 20be 32be d6bc 708b afbd 39c2 e93d
00000160: dc60 d4bc 3b6a adbd 3dc7 5e3d b326 eebb
00000170: 2bb9 a43e 7aa5 bbbc 9dc0 843e c086 6b3e
00000180: 7d76 1cbe bda6 353d f5f7 37bd e3ce a2ba
00000190: 4456 393c 99cc 07be 5edf 4f3d ccd1 5fbc
000001a0: 372a 81be 3f94 e83b a29c 7a3d f7fe 58be
000001b0: 3f9d 8e3d 9d19 143d 908f 283e d174 1cbe
000001c0: 5621 a73d 7d3f f83d 7a51 1fbe ac20 503c
000001d0: ee44 1ebe 6c30 afbd 5221 383d a7ce b8bb
000001e0: e6bd e73d 2b2f 723d 0d06 6abd dbcf 803d
000001f0: 8de5 f43c d614 e63b 2c89 59bc 17ed 95bd
00000200: dfa4 8dbc 6455 07bd 2478 d43d 2f3b 64bd
00000210: f45b 553d b73b 993d 5ff4 f63d 6f1a 5fbe
00000220: b025 b6bd 5783 aa3c 40ce 41bd 878f 30be
00000230: c3d1 b8bd dc76 88be 2ed4 86be 3dc7 38be
00000240: 0723 d83d bfc0 fbbd 22d9 8e3d d26d 473d
00000250: 35c6 aebd d8dc f6bd 7fa0 0c3e 836c 6cbe
00000260: cd41 733e 2675 9fbd 5f50 1a3d ca3a 48be
00000270: c68a bdbc 1c8c 583d 6e4c bd3c 7404 bc3e
00000280: e7ad be3d 75a9 4dbc 0316 993e 3d9e 2dbd
00000290: bad7 8fbd 3ee0 4a3e 2440 b03c 82d5 acbc
000002a0: 657f 973e af4f 7abe 4f6f 2cbe 4e45 eb3c
000002b0: 7154 593e f5f9 783e 15bc 7f3d 2b15 da3d
000002c0: 8a03 c23e ee27 02be a2a6 66be dbbc 843e
000002d0: a688 38be f55f 17be e2ac d23b 6f7b edba
000002e0: 5fbf 233d 9118 77bd c02d fa3c a9cc cf3d
000002f0: e23b 1ebe cf32 b7bc e71c a83d 7f73 2dbd
00000300: 44e2 e4bd cc71 0dbd 380c 6a3d 395c 0cbd
00000310: 5306 b3be 345b 003e 7d5a 2abd 6c0c 4b3e
00000320: 790f 1abb 873f dc3d 977c be3d 703b a23c
00000330: 169d 3f3e ae66 94bd ec0f 2abe c09e a9bd
00000340: 0aff 9bbd d2d6 eabd 4e7d 943d adf4 e5bd
00000350: 7c6a 5dbe e298 ae3a 7361 39be 0cd0 25be
00000360: 8442 933d 0f07 723a 74ec f9bc 2097 9a3c
00000370: 7ccb adbd 56a8 e23c f54d b73d 434f d63c
00000380: 2f46 bebd 1638 11be ae18 363e 4670 e3bd
00000390: d7bb 403e aba0 783e a735 873d 9c1d 64be
000003a0: de33 c6bd 2b9d 96bd c86e e5bb 0456 153e
000003b0: 9bfb 723e cefb 7fbd c0e7 29bd c373 8f3e
000003c0: 4770 693e d214 403e 93ac 503e 4ded b2bc
000003d0: f5b3 2fbe fd12 04be c8a3 5abe e9d6 62bd
000003e0: d7a4 50be 5954 9c3d 36e9 173d 9ab8 4e3d
000003f0: 20d0 0bbd cdc3 da3d 6429 ec3c 904b 323e
0.07314002 0.058083847 0.050429672 0.17310902 0.060107768 0.21073212 0.16422686 0.2984046
0.092690855 0.10259301 0.11753943 -0.20450348 0.10329923 0.22892496 0.22599612 0.042235203
0.06853672 -0.0072101746 0.22112784 0.09938474 0.14113885 0.15200767 0.1040286 0.04958804
0.11121032 0.103821464 -0.020774892 -0.08963999 0.012082533 -0.14856939 0.0052950257 0.12455232
0.06470795 -0.10130645 -0.09326171 -0.0621027 0.061734192 -0.1553576 -0.08789301 0.13413711
0.06542889 -0.09947855 -0.00221372 0.038837243 -0.06947168 -0.27703536 -0.07098844 -0.040823683
0.044214435 -0.11138262 -0.06676023 -0.18883924 -0.046572074 -0.13705173 -0.18838643 -0.44371802
-0.037784513 0.02849972 -0.13012707 -0.07629374 -0.25161117 -0.0049903933 -0.11193227 -0.016768508
0.037672672 0.34730875 0.031954262 0.057168987 0.14774756 0.114793345 -0.039597172 0.21828926
-0.20484823 0.05032389 -0.03993358 -0.020507032 -0.08543735 -0.102404624 -0.11569117 0.04196063
0.03438051 -0.09621749 0.065016955 -0.102058694 -0.15703343 -0.026213739 -0.085715175 0.11413998
-0.025925092 -0.084675275 0.054389227 -0.007267797 0.32172522 -0.022906054 0.25928202 0.23000622
-0.15279575 0.044348467 -0.044914205 -0.0012421276 0.011312071 -0.13261642 0.05075013 -0.013660859
-0.2522752 0.0070977504 0.061184533 -0.21191011 0.06963586 0.03615724 0.16461015 -0.15278937
0.08160655 0.121214844 -0.15558425 0.012703102 -0.15455982 -0.085541576 0.04495365 -0.0056398693
0.11315517 0.059127014 -0.057134677 0.06289645 0.029894615 0.007021527 -0.013277333 -0.07320612
-0.01729053 -0.03304042 0.103744775 -0.055720504 0.052089646 0.07482093 0.12058329 -0.21787427
-0.08893907 0.02081458 -0.047315836 -0.17242251 -0.09024384 -0.26653183 -0.26333755 -0.18044753
0.10553556 -0.12292623 0.069750085 0.048688717 -0.08533899 -0.12053841 0.137331 -0.23088269
0.2375557 -0.07786016 0.037674304 -0.19553676 -0.023137461 0.052867994 0.023107734 0.36722147
0.09310513 -0.012552609 0.29899606 -0.042387236 -0.070235685 0.19812104 0.02151496 -0.021097902
0.29589382 -0.2444446 -0.16839336 0.02871957 0.21223618 0.24314101 0.06243523 0.10648569
0.37893325 -0.12710544 -0.22524503 0.25925335 -0.18020877 -0.14782698 0.0064293006 -0.0018118451
0.039977428 -0.060326163 0.030539393 0.10146458 -0.15452531 -0.022363095 0.08208638 -0.042346474
-0.11175969 -0.034532353 0.05714056 -0.034267638 -0.34965762 0.12534791 -0.041590203 0.19828957
-0.0023507758 0.107543044 0.093011074 0.019803733 0.18712267 -0.07246147 -0.16607636 -0.08282232
-0.07617004 -0.11466755 0.072504625 -0.11228309 -0.21622652 0.0013320709 -0.1810358 -0.16192645
0.07190421 0.0009232619 -0.030508257 0.01887089 -0.08486077 0.02766816 0.08950416 0.026160842
-0.0929073 -0.14181551 0.17782852 -0.11105399 0.18821655 0.2428004 0.0660203 -0.2227692
-0.09677862 -0.07354196 -0.0070017315 0.14583594 0.23728792 -0.062496 -0.04148078 0.28018007
0.22796737 0.18757942 0.20378332 -0.02184167 -0.17158492 -0.12897868 -0.2135154 -0.055380736
-0.20375381 0.076332755 0.03708764 0.05046902 -0.03413403 0.10681877 0.02882833 0.17411637

backbone.5.bias f4 [64]
00000000: 5ebc e2bd 4b30 08bd 76e6 c1b9 7c8f bbbd
00000010: f588 933d 2f81 53be c029 8bbd 2fdf 1bbc
00000020: 2aaf 1d3e e351 01bd 0d0a 95bb fc9d 91bd
00000030: a64c ec3c ffab e4bc 8698 393e 6366 0abe
00000040: 7322 943d ed66 36bd 6668 21bc 37ba dc3d
00000050: b1c7 08be 4e9a 7ebd c4d6 0ebd e67b 363d
00000060: 03b5 373d 90f0 78bd 8183 3abe 87a9 953c
00000070: 3349 debd fc78 25bd 9c18 18bd 3a08 36b9
00000080: dc27 9fbd 10ce a1bc 5b61 6ebd 2460 04be
00000090: 67d6 8d3d 2718 74bd 4902 7bbd d2c7 c5bd
000000a0: 9b9f 973d be4e 223d 9bc3 9ebd 9f3f 08bc
000000b0: f1d7 ac3c e4b8 fdbd ffc2 a6bd d009 a13d
000000c0: a2bd 34bc 112a f1bd f1f3 d0bc 927b e23c
000000d0: eee6 283e 2c3c b03c 9ad8 7abd c90d 05be
000000e0: 5d15 92be 1c87 563e d632 c0ba 0f07 edbc
000000f0: c539 f7bc a368 943d 0f6d 46bc f5dd 90bd
-0.110710844 -0.03324918 -0.00036983535 -0.09158227 0.07203857 -0.20654748 -0.067950726 -0.00951366
0.15398851 -0.031572234 -0.0045483173 -0.07110211 0.028845143 -0.027914045 0.1812459 -0.1351562
0.07233133 -0.04453175 -0.009851551 0.10777705 -0.13357426 -0.062158875 -0.034872785 0.044551753
0.04485036 -0.060776293 -0.18214227 0.018269313 -0.108538054 -0.040398583 -0.037132844 -0.00017359937
-0.077712744 -0.019751579 -0.058198314 -0.129273 0.069256596 -0.059593346 -0.061281476 -0.09657253
0.07403489 0.039625876 -0.077521525 -0.00831595 0.021099063 -0.12388781 -0.08142661 0.078632
-0.01103154 -0.11775602 -0.025506945 0.027646814 0.16494343 0.021513067 -0.061241724 -0.1299354
-0.28531924 0.20949978 -0.0014663588 -0.02893403 -0.030178914 0.0724652 -0.0121109625 -0.07073585

backbone.5.weight f4 [64, 32, 3, 3]
00000000: e763 0ebe 2ee1 a03d 7d92 683e 546e 16be
00000010: d834 3a3c b412 06be 52dc 71be bb4b 3cbe
00000020: b74d 30be 2d14 14be c291 143e b0b2 3bbd
00000030: 3c48 8abe aa3b ce3c 35b2 bbbd cefb 47be
00000040: ca99 ae3d 666f d53c c2d2 fabc 6f48 6fbd
00000050: 6848 ba3b aba2 08be 1f38 a6bd b520 22be
00000060: 0138 bb3d 1cd8 38bd 98aa a6bd 5123 aabd
00000070: 6108 40bd 77ef b5bd a7af 803d 659c e73e
00000080: b455 303e bf03 143f a7b5 a33e e130 9cbd
00000090: 3515 94bc ad6a 87bd 381e 823d 48c9 c43d
000000a0: 5371 da3d ce47 62bd 7bb0 06bd 7209 323d
000000b0: ac4a 9b3d 2dfb ff3d 2cc3 9bbd e281 163d
000000c0: f787 d43d cca6 59ba dab3 01be fe7f e4bc
000000d0: 744e a2bc 3c58 c8bd 89d2 463d 712c 073e
000000e0: 70b6 23be 9373 673e ac9d 9f3d 8065 aa3d
000000f0: 96ab adbd fea0 863e 0610 65bc 48ba 6cbd
00000100: ccd9 e7bc 9c70 b9bd b8ee 7a3d 160a 133d
00000110: 94de 72bd ccee 113e 0c9c 8e3d 6ec6 133c
00000120: 9a15 e6bd 906e efbd 74ac 0a3e ee86 1fbe
00000130: 25fe 06be 31d8 183c b664 423d 0378 65be
00000140: 15d0 48bd d3ef 0e3d bdc7 073c e98d 5ebd
00000150: 7730 9fbb b48f 02bc 820c 9d3d 4cf6 a5bc
00000160: 2cda 0cbe 14ea 20bd 19c2 913d 0d69 6bbe
00000170: feb5 bebc 4883 d23d 9276 8abd 1fc9 a9be
00000180: 4ea0 923e 1241 0c3e ba5e c93c ef64 ee38
00000190: 0015 b63d 3ff3 073e f5dc 1a3e 0e73 133e
000001a0: 6f75 2a3e 089a 483e d9ad f73d c121 5d3e
000001b0: 64ea 91bc ee8b 993e cef0 f5bc 82b2 8c3b
000001c0: 4486 843d 0496 d9bd 47fc 12be f0f8 90bc
000001d0: f56a 3e3d 656a 643d 4b92 2f3e 641d 823c
000001e0: d83f 4cbb 053e 013e 3911 923d 4fa2 c33d
000001f0: b890 323e d989 1ebe 1563 15bd 9d3f 543c
00000200: 3378 023e dc5e 023e d36e a13e 78a1 133f
00000210: cac8 aa3e bce0 b23e c559 d93e 97fe 1f3d
00000220: 11e6 fbbc 5475 fc3d 7fe7 2d3e aa8f d93d
00000230: 2d9a dcbd c7b0 653e 1e11 6f3d cf9f 79be
00000240: 79d7 0c3d fb43 f53c c398 fc3c 604a c43e
00000250: 29e5 723b 56b8 183d d01e e03d 865c 08bd
00000260: 5095 6d3d 0b0e f33c 4f22 aa3c ac0e 16be
00000270: e464 823b 2f5a f93d a058 ecbd 34be cabb
00000280: 1e9e 4cbd c523 cebc dc5b 103e 74af 583a
00000290: 2a8a 353d fa07 713d 1511 36be 09ac e3bd
000002a0: 6bf7 f73a 58b0 29be 50ea 84be d682 b83d
000002b0: 9fde be3b 26d2 f6bd 5820 84bc 455f 3f3d
000002c0: d648 06bd 579c 7f3e 070e ffbd b9c3 a23d
000002d0: 7deb 903c 3cd0 aebe b194 86bd 2883 203e
000002e0: fec2 bbbc 7455 97bd 5df8 4e3e b466 c43e
000002f0: 0916 b23d b5a7 96bc f61d 623e 5d22 ccbd
00000300: 6a7c e43d b609 513d cb6a 0dbe 00b0 42bb
00000310: 7e72 5cbe 4129 04bd f0f8 873e ae3a 14ba
00000320: a654 f83d 2cc0 003e 0a4a f93d 4c52 793d
00000330: bcad b63e b8b4 b53c e6e8 c9bd 07b5 4bbe
00000340: da46 05be 6c87 11be 9381 fe3c 080e 613d
00000350: 168b e9bd 4d55 afbd b79c 0bbe 6664 e1be
00000360: 4517 0abe 51c8 6ebe 2d87 2ebe 98dc b93c
00000370: eadd 363e 2fd3 2cbe 06cd 9f3e 711e 953e
00000380: 52ac 813d 2100 073d fa05 8e3d 6435 52bd
00000390: 59d2 8f3e cc3a 2c3e af89 a3ba 67d9 083e
000003a0: 2288 123e d097 ea3c 29bc 373e d6a3 703e
000003b0: 3c7b b03e df23 ac3e e0cb bd3d 1b58 e7bd
000003c0: 4cb2 3d3e 4660 a33d 5306 eb3b 3f21 39be
000003d0: 32d1 dbbc 67a6 4bbe 25d8 19be 7835 2ebd
000003e0: 9d3b 34be cb13 5cbd 3e14 833d 0740 1bbe
000003f0: b17a 8e3d 89c7 103e 0ab7 8e3e e678 4f3e
-0.13905297 0.078554496 0.22712131 -0.14690524 0.011365138 -0.13093072 -0.23619202 -0.18388264
-0.17217146 -0.14460821 0.14508727 -0.045824707 -0.27008235 0.025174934 -0.0916485 -0.1952965
0.08525427 0.026054095 -0.030618075 -0.058418687 0.005684901 -0.13343303 -0.08116173 -0.15832789
0.09141541 -0.045127973 -0.08138007 -0.08307517 -0.04688299 -0.08883565 0.06283503 0.45236507
0.17220193 0.57818216 0.31974527 -0.076265104 -0.018076519 -0.06612144 0.0635342 0.09608704
0.10666146 -0.05524426 -0.03288315 0.04346604 0.07582602 0.1249908 -0.076055855 0.03674496
0.10377496 -0.0008302748 -0.12666264 -0.027893063 -0.0198128 -0.09782454 0.048540626 0.13200547
-0.15987563 0.22602682 0.077937454 0.08320141 -0.08479993 0.26294702 -0.013980871 -0.05779484
-0.028302096 -0.09054682 0.061262816 0.03589829 -0.0592943 0.1425125 0.06963357 0.009019477
-0.11234589 -0.1169101 0.13542348 -0.15578815 -0.13182886 0.009328888 0.047459327 -0.22409062
-0.049026567 0.034896683 0.008287367 -0.054334555 -0.0048580724 -0.007968832 0.07668401 -0.020259045
-0.13755101 -0.039285734 0.07117099 -0.22989292 -0.02328014 0.10278946 -0.06760897 -0.33161256
0.28637928 0.13696697 0.024581302 0.00011367525 0.08890724 0.13276385 0.15123351 0.14399359
0.1664636 0.19590008 0.12093706 0.21594907 -0.017811961 0.2998957 -0.030022051 0.0042937407
0.06470922 -0.10624316 -0.14354049 -0.017696828 0.04648872 0.05576553 0.1714565 0.015883155
-0.0031165984 0.12621315 0.07132191 0.09552442 0.17438018 -0.15482272 -0.036471445 0.01295462
0.12741165 0.12731498 0.31529865 0.57668257 0.33356315 0.34937084 0.424513 0.039061155
-0.030749353 0.12327066 0.1698284 0.10623105 -0.10771594 0.22430716 0.058365934 -0.24377368
0.03438518 0.029939642 0.030834561 0.38337994 0.003706286 0.03728517 0.10943377 -0.033291362
0.058003724 0.029669782 0.020768313 -0.14654034 0.0039793123 0.12175404 -0.115403414 -0.0061872248
-0.04995548 -0.02516354 0.14097542 0.00082658906 0.044321217 0.058845498 -0.17779954 -0.111167975
0.0018918341 -0.16571176 -0.25960016 0.0900933 0.0058248783 -0.120518014 -0.016128704 0.046721715
-0.032784306 0.24961983 -0.124538474 0.079474874 0.017690415 -0.34143245 -0.065713294 0.15675032
-0.022920128 -0.07389346 0.2021193 0.38359606 0.08695609 -0.018390516 0.22081742 -0.09967492
0.111565426 0.05103465 -0.1381027 -0.0029706955 -0.2152805 -0.032265905 0.26557112 -0.0005654496
0.121255204 0.12573308 0.12172325 0.0608695 0.35679424 0.0221809 -0.09858875 -0.19893275
-0.13015309 -0.14211816 0.031067645 0.054945022 -0.11403482 -0.08561192 -0.13634 -0.4402191
-0.13485439 -0.23318602 -0.17043753 0.022688195 0.17858091 -0.16877435 0.31211108 0.29124787
0.063316956 0.032959107 0.06934734 -0.05132045 0.2809017 0.16819304 -0.0012476946 0.13364182
0.14309743 0.028636843 0.17942871 0.23499998 0.3446902 0.33621117 0.09267402 -0.11296102
0.18525046 0.07977347 0.0071723848 -0.18079089 -0.02683315 -0.19887696 -0.15023859 -0.04253146
-0.17600866 -0.053729814 0.06400345 -0.15161143 0.06956995 0.14138617 0.27874023 0.20260963
