checkpoints/likely-wave-61-policy_net-latest.pt (torch, 634144 bytes, 14 tensors)

weight f4 [16, 15, 5, 5]
000000 45 0d 6b bd ca 33 76 3d 23 75 aa bd 40 b1 4b 3d
       -0.0573857 0.060107984 -0.08323123 0.049729586
000010 2d 06 51 3d 2e 31 21 3d fc 48 d1 3c f6 fc f3 b9
       0.05103128 0.039353542 0.025547497 -0.00046537042
000020 40 03 6c 3c 3f cc 11 bd 4d b8 24 3d f4 7d ed 3c
       0.014405072 -0.035595175 0.040214825 0.028990723
000030 cf df 4c 3d a4 1d 5c bb d6 59 86 3d a8 c9 ba 3d
       0.050018128 -0.0033587003 0.065601036 0.09120494
000040 04 4a e0 3c 64 02 cf 3c a8 39 0a bd af 3f aa 3d
       0.027379043 0.025269695 -0.03374639 0.08312928
000050 4e 3d 0b bd ba fc 00 bc e7 8c b4 3d 1f f7 cd bd
       -0.03399401 -0.007872755 0.088159375 -0.100569
000060 c8 fd dd bd 55 1f 45 3e 2b ac bb 3d af 4c 34 3d
       -0.108394206 0.19250233 0.09163698 0.044018444
000070 0a f6 23 be 63 8a 95 3d 9c 6c 8f bd 3e 4d 8a be
       -0.16011825 0.07301786 -0.070031375 -0.27012056
000080 64 8d 0f 3e 45 72 07 3e 4b bb 8c bd 78 be 15 3e
       0.1401878 0.13227184 -0.06871661 0.1462344
000090 3d ab bd bd f6 c8 00 be 1a f9 bd 3e 01 c1 5c 3e
       -0.09261177 -0.1257666 0.37104112 0.21558
0000a0 97 3d 24 be 02 b8 92 be c8 4a 0e be 77 3d 19 3d
       -0.1603912 -0.28656012 -0.13895714 0.037412133
0000b0 14 8d 20 3e a8 94 9c 3e 40 4e 23 3e 68 3b d6 3d
       0.15678817 0.30582166 0.15947819 0.104605496
0000c0 b3 8a d8 3d dc d6 19 3d 4a 91 3b 3e 91 60 76 bc
       0.1057333 0.03755842 0.18317142 -0.015037672
0000d0 76 27 82 3d d6 62 2e bb 83 ee ee 3d 91 19 7e 3e
       0.06355183 -0.0026609204 0.11666586 0.2481444
0000e0 19 9d 21 3e b7 da c3 3d e5 29 36 3e 64 0c 02 3d
       0.15782584 0.09563201 0.17789419 0.031750098
0000f0 10 c6 6d 3d 53 0d 0c be 7d d3 09 3e b9 9a fc bd
       0.058050215 -0.13676958 0.13459583 -0.123341985
000100 f1 31 81 3d 40 b5 3c bd 39 12 9c be 4a 1d 69 bc
       0.06308354 -0.04607129 -0.30482653 -0.014228174
000110 fd ac 45 3d d7 d8 bc bd 01 e9 c4 3d b4 a7 ed 3d
       0.048260678 -0.092210464 0.096147545 0.116042525
000120 d5 c6 30 3d fb 7d a0 3d ce 1b 37 3e 4c 19 ab 3c
       0.04315837 0.07836529 0.178817 0.020886086
000130 c7 eb 66 3d 47 e8 32 be ad ed 45 3e 0d 0d ee 3d
       0.0563772 -0.1747142 0.19328947 0.11623583
000140 ba b2 26 3d 96 e8 94 3e 36 4c 94 3e a1 7d 8f bc
       0.04069779 0.290837 0.28964394 -0.01751596
000150 76 89 45 3e 46 3d fd bb 40 30 25 3c 93 a0 6d 3e
       0.19290718 -0.0077282516 0.0100823045 0.23205785
000160 e7 9d 4b 3e 1d e9 86 be 80 45 4f 3e 0c 07 7d 3e
       0.19884454 -0.26349726 0.20241356 0.2470972
000170 82 fb 1c 3e 04 a7 96 3e 49 e2 07 3e 53 de 32 bd
       0.15330318 0.29424298 0.13269915 -0.043669056
000180 5f d0 97 3e c0 15 87 3e eb 33 83 3e 36 34 2c bc
       0.29651162 0.2638378 0.25625548 -0.010510495
000190 e9 b7 a6 bb f9 a8 70 3d c8 92 88 3d cd 1d 3a be
       -0.005087842 0.058754895 0.06668621 -0.1817543
0001a0 67 4f ab 3d 56 48 14 bd 27 13 94 bb 5d 15 4a 3d
       0.08364754 -0.036201797 -0.0045188847 0.04933678
0001b0 98 8b c7 bd 80 66 ad bd 22 51 d8 3b 41 26 11 be
       -0.09743422 -0.08466816 0.0066014687 -0.14174749
0001c0 f3 f6 31 be c9 79 c1 bd cc 73 a0 3d 46 bb 73 bd
       -0.1737936 -0.09447057 0.078345865 -0.05950477
0001d0 fe 32 0d be 21 40 2f be d0 37 f0 bd 46 b9 5f bc
       -0.13788983 -0.17114307 -0.117293954 -0.0136550125
0001e0 b6 f8 70 3d af 77 dd bd 98 22 04 3c 7f 09 01 b9
       0.05883094 -0.108138435 0.008064888 -0.00012305936
0001f0 c6 e6 aa bb bd f7 a3 bd c1 3d 4e 3d e0 28 19 3d
       -0.0052154986 -0.08006237 0.050351862 0.037392497
000200 4d 7d 05 3d ac 9b d2 3d 02 a6 45 3d 5b bd 8e 3d
       0.0325902 0.10283598 0.04825402 0.069697104
000210 e6 4a 33 3d b4 80 a0 bd 7b f9 33 be a0 0b f5 bd
       0.0437726 -0.07837048 -0.17575638 -0.11965108
000220 79 64 ad bd 61 f6 32 3d 1f db a5 bd 85 3c a6 3d
       -0.08466429 0.043691996 -0.08098435 0.08117012
000230 5b 06 33 bb 2d de cc bd d9 ac 3b bd 4e 31 21 be
       -0.002731702 -0.10003314 -0.045819137 -0.15741464
000240 34 a3 0b 3d 1a 3c 41 bd 56 45 f2 3d 37 97 26 bc
       0.03409119 -0.047176458 0.11829631 -0.010167888
000250 7f e8 7a bc 33 bf aa bc 11 22 08 bd 13 d1 f3 3d
       -0.01531422 -0.020843124 -0.033235613 0.11905112
000260 e7 f4 d1 3b 52 e1 c4 bc 36 06 ca 3d 52 ae 02 3d
       0.0064073685 -0.024033222 0.09864466 0.031904526
000270 8e e8 89 3d 7d 67 d7 bc 62 67 4a bd fe 14 8b 3b
       0.067338094 -0.026294464 -0.049415 0.004244446
000280 88 20 92 bd e2 99 91 bd 17 8e d1 bd fc 4a d4 bb
       -0.07135111 -0.07109429 -0.102321796 -0.0064786654
000290 49 6a fa 3c 18 33 b1 bd 0a 0d 29 bc 3d 30 0e be
       0.030568259 -0.086523235 -0.01031805 -0.13885589
0002a0 2b a4 31 be 34 85 27 3d b6 e4 20 bd 90 50 d1 3d
       -0.17347781 0.040898517 -0.039280616 0.10220444
0002b0 77 68 5e bd 9f 6b 9d 3b c2 a1 e4 3a 49 a4 e1 3d
       -0.054298844 0.004804089 0.0017443227 0.11017663
0002c0 8c cf e4 3d 79 a6 9e bc 81 1d fb bd e1 ea 91 3d
       0.11172399 -0.01936649 -0.12261487 0.07124878
0002d0 4f 4c 98 3d 3f f8 6d bd 70 f3 2e 3b 85 b2 7c bd
       0.0743643 -0.058098074 0.0026695393 -0.061693687
0002e0 1b d1 09 3d b1 10 1e 3c 82 37 fc 3c 1b 0d 25 be
       0.033646684 0.009647534 0.030788187 -0.1611828
0002f0 b0 8a 0a bd 18 9e b4 bb 29 0f 6e 3d eb 64 66 3d
       -0.03382367 -0.0055120103 0.058119927 0.056248587
000300 66 57 0d bd c9 b5 76 bd 3c 11 94 3c 79 0c 4f bd
       -0.034507178 -0.060231958 0.018074624 -0.050549004
000310 80 f3 48 3d 61 6f 4c bc 30 62 1e 3b 46 ac 3b 3d
       0.049060345 -0.012477727 0.002416741 0.04581859
000320 c2 c4 83 bd bf 35 93 3d 14 ff f1 bb 32 d2 d2 bd
       -0.06434013 0.07187986 -0.007385144 -0.10293998
000330 bf 2c 57 3d dc bb ab 3c 69 f7 e8 3d bb 0e 24 bd
       0.052532908 0.020963602 0.11375315 -0.04005311
000340 04 b0 0c be 0c f7 6d 3d 98 c9 f6 bd 5f 3d fe bc
       -0.1373902 0.05809693 -0.1205017 -0.031035123
000350 2c ec 6a bd 16 45 67 3d cb 03 99 bc 15 06 31 3c
       -0.057354137 0.05646237 -0.018678566 0.010804673
000360 c4 ae 12 be 34 f9 cb bc f8 ea 39 bd 22 39 db 3d
       -0.1432448 -0.024899103 -0.0453901 0.107042566
000370 45 38 48 bd 76 12 51 3d 82 5c f4 bc 2b 05 9f 3d
       -0.048881788 0.051042996 -0.029829267 0.077646576
000380 af 18 04 3e c0 3d 16 be ec 42 2e 3e 7f 82 52 bd
       0.12900041 -0.14671993 0.17017716 -0.051393982
000390 69 f4 85 3d a6 3a 8a 3d 86 02 03 3d 72 3d 93 3d
       0.06540758 0.067494676 0.03198483 0.07189454
0003a0 bd f6 b7 bc 0c 4f 04 be 14 17 f3 bd 93 a3 79 bd
       -0.022456521 -0.12920779 -0.11869636 -0.060947012
0003b0 ff c6 af bc 40 26 66 3d 5c 1e 30 3d 0b 2b 2b bd
       -0.021457193 0.05618882 0.042997703 -0.041789096
0003c0 ef 42 ba 3d 23 ab 27 bd 4f ff 1b 3d 4d ec 17 3d
       0.09094798 -0.040934693 0.038085278 0.03709059
0003d0 7a cf e4 3d b9 af 8a bd 69 79 81 bd 69 1e bb 3b
       0.111723855 -0.06771798 -0.06321985 0.0057104123
0003e0 9e 89 41 bd 8d 6e fe 3d 77 9e 17 bd 9e 9f 67 3c
       -0.047250383 0.1242343 -0.03701636 0.014137177
0003f0 35 e4 25 3d 48 dc 8c 3d 6d 83 30 3d cf 10 20 3c
       0.04050084 0.06877953 0.043094087 0.0097696325

bias f4 [16]
000000 98 f0 47 bb 7d 09 17 3e a4 cd 93 3d 66 54 80 bc
       -0.0030508395 0.14749713 0.07216957 -0.015665244
000010 5f 8b 13 3d 16 d6 6b 3d cd 19 b0 3c df 03 7d 3b
       0.036021587 0.057577215 0.021496678 0.0038607044
000020 d0 49 88 3d 37 8b ca 3c 54 ec 7f 3c 1a 5a 67 3d
       0.066547036 0.024724586 0.01562031 0.056482412
000030 d0 c7 cf bc 70 c8 74 3d ea f9 59 3d 1f 20 df 3c
       -0.025363833 0.059761465 0.053216852 0.027236996

weight f4 [32, 16, 3, 3]
000000 79 aa 3d bd 8d 36 19 bd 86 01 24 3e e5 eb 0d be
       -0.046305154 -0.03740554 0.16016206 -0.13859518
000010 d6 7e 05 3e e0 29 51 3e fb 9c ec 3c 29 f1 b0 be
       0.13036665 0.2042613 0.028883448 -0.3455899
000020 76 74 bf bd a1 9b 19 bd 57 8f 45 3e dc 82 86 bd
       -0.09348385 -0.037501935 0.19292961 -0.06567928
000030 54 9c ef 3d 5a 95 b9 3d 86 9f a3 3d 86 b2 0b 3d
       0.11699739 0.0906169 0.07989411 0.0341058
000040 9d ca 07 3e 1f 68 e8 bc 51 f2 02 3d 8f 77 81 bd
       0.13260885 -0.028369961 0.031969372 -0.06321632
000050 39 2d d3 bc 6a 97 54 3e c0 c3 9a 3d 49 28 20 bd
       -0.0257784 0.20760885 0.075568676 -0.03910092
000060 e7 67 60 3e e4 e4 db bc 95 eb 16 bd a6 30 90 3d
       0.21914636 -0.026842542 -0.036845762 0.07040529
000070 e1 04 1c 3e 4b 00 12 3e 52 a0 31 be 83 1b 2a be
       0.15236236 0.14257924 -0.17346314 -0.16612057
000080 cd 5b 43 3e 0b dc e3 3d dd 4f 54 bd ca 9c e1 bc
       0.19077988 0.11125954 -0.051833976 -0.027540583
000090 ec 21 70 3c b4 8d 5a be 59 b9 d1 3d e6 60 ec bb
       0.014656525 -0.21343118 0.102404304 -0.0072136996
0000a0 1d 04 56 3d 60 83 ac bd 0d 02 9a 3d 13 cb 10 be
       0.052250016 -0.08423495 0.075199224 -0.14139967
0000b0 27 da 58 3e 61 27 55 3e 33 d2 3e bd b7 94 5f bd
       0.21176969 0.20815803 -0.04658718 -0.054585185
0000c0 2f 6a cb bd 43 e5 2f 3e 07 bb 88 3c 3d 0a c1 bd
       -0.09932362 0.171773 0.016690744 -0.09425781
0000d0 ff 37 18 bd 5e 57 12 3e 1e e7 44 3c bf 86 08 bc
       -0.037162777 0.1429114 0.012017993 -0.008332907
0000e0 fb 7b a8 3d 61 b8 b9 3b d0 c3 75 bc 19 aa a4 bd
       0.082267724 0.0056677316 -0.015000299 -0.08040256
0000f0 7a 07 80 bc 67 fd ef 3c 26 bb a1 bd 41 fa 96 bd
       -0.015628565 0.029295636 -0.07897024 -0.07371951
000100 52 3e 51 bd 04 8f 27 be fc 72 b9 ba 86 71 2d be
       -0.051084824 -0.1636315 -0.0014148648 -0.16937837
000110 b1 20 76 bd 29 32 e4 3d 45 5a 37 be bb 4f 32 bd
       -0.06008977 0.1114238 -0.17905529 -0.04353307
000120 af 8d d8 3c ee f1 de 3c 98 04 e7 3d e2 0e 92 3e
       0.026434748 0.02721497 0.11280173 0.2852698
000130 6e e7 51 3e 86 74 20 3e 8c c5 e4 3d 2a 0e 99 3d
       0.2049844 0.1566945 0.111704916 0.07473405
000140 7e 3c d7 bb db 47 78 bd f9 32 20 3e 41 76 24 be
       -0.0065684905 -0.0606154 0.15644445 -0.16060735
000150 fd 69 52 bd db f2 96 bd ec a2 b0 bd 9c 7c 26 be
       -0.05137061 -0.0737054 -0.08624825 -0.16258472
000160 64 ec bb bd ed e2 cd bd ef 8b 92 3d c3 05 6e 3d
       -0.09175947 -0.10053048 0.071555965 0.058110964
000170 5c f7 44 3e 07 f5 6b bd a8 15 c4 3c 64 ac 08 be
       0.19234985 -0.057606723 0.023936108 -0.13347012
000180 d5 33 f0 3d b6 5e a3 bd e3 65 89 bd 48 28 02 3e
       0.11728636 -0.07977049 -0.067088865 0.12710679
000190 0d 9f df bd 4f 51 d4 3a 06 dc 2b 3d 5c b7 a6 3d
       -0.109190084 0.0016198548 0.041957878 0.08140442
0001a0 d1 90 96 3d 48 a6 19 bc ea e2 ab bc 2a 00 2e 3c
       0.0735184 -0.009378023 -0.020982224 0.010620156
0001b0 40 b1 cf bd 71 2e 08 be f5 e1 80 bd c8 68 92 3d
       -0.1014123 -0.13298966 -0.06293098 0.07148892
0001c0 7e 2f 01 3d b8 84 1b 3d 12 cb 02 be 0a fb 5b be
       0.031539433 0.037968367 -0.12772778 -0.21482483
0001d0 54 b0 ff bc be 12 5d 3d 73 be 23 3e 1d 6a 45 3e
       -0.03121201 0.053972952 0.1599062 0.1927876
0001e0 39 c3 b0 3d b9 92 52 3e f0 16 f7 3d ff 92 99 3e
       0.08630986 0.20563783 0.12064922 0.29994962
0001f0 45 32 4c 3e 5b 86 4f 3d 12 b8 bb bd c0 b9 03 3d
       0.19941051 0.05066524 -0.09165968 0.032159567
000200 8a 27 93 bd d9 2c 8a be 0e 8a 51 3a 38 0e 57 be
       -0.07185276 -0.2698734 0.0007993289 -0.21001518
000210 46 b4 52 be 76 eb 92 bd 8b 87 dd bd e6 2d 3f 3e
       -0.20576581 -0.07173817 -0.108168684 0.18669853
000220 ad f0 a4 3d 87 de 13 bd 4b 95 48 3e e4 19 1d 3e
       0.08053718 -0.03610089 0.19588201 0.15341908
000230 69 9e 4f bd d6 8b c0 3d 8b bc 9e 3d a4 74 58 bd
       -0.05068818 0.094016716 0.077508055 -0.052845612
000240 f4 f4 04 3d 41 1c 07 3e 22 3f 01 3e e7 a4 ae 3d
       0.032460168 0.13194372 0.1262174 0.085275464
000250 35 c9 c8 3d 59 ed 2f 3d 4c c2 54 3d c9 51 21 bd
       0.09804002 0.04295096 0.05194311 -0.039384637
000260 1d b9 18 3e 1b 55 b8 3c 70 3e 84 be 26 8c 2d be
       0.14914365 0.022501519 -0.25828886 -0.16947994
000270 31 a5 0d bd 2f e8 25 be f1 dd af 3d 65 98 3f be
       -0.034581367 -0.16201852 0.08587254 -0.18710478
000280 b9 d4 8e bd 6c 6e c5 3c f3 82 f5 bd e2 5d 7d bc
       -0.069741674 0.024100505 -0.11987867 -0.015464278
000290 70 f1 c4 bd 3e cd 37 be 15 33 db bc 6d 4f 5d bd
       -0.09616363 -0.17949387 -0.026757756 -0.054030824
0002a0 12 1e 74 3d bc dd 9a 3d 6a 16 91 bd 64 03 88 3e
       0.05959899 0.07561824 -0.07084353 0.26565087
0002b0 85 99 41 3e f7 2a da 3c 7c e6 24 3e e6 c2 c3 3d
       0.1890622 0.026631815 0.16103548 0.09558658
0002c0 96 e4 41 3d 97 8c 91 3d 56 5d 54 3c 43 7c a7 bd
       0.047337137 0.071068935 0.012961706 -0.08177998
0002d0 e8 8e dc bd c4 2b 2a 3d b6 ac 21 3d 83 e6 c7 3d
       -0.10769445 0.041545644 0.03947135 0.097607635
0002e0 d2 a1 56 3e 40 75 90 3e 77 e3 49 bb 5a 88 ed 3d
       0.20960167 0.28214455 -0.0030805746 0.115982726
0002f0 6f 91 b9 3d 3e fb 44 3e 5e 68 0a be 3c 17 0b 3d
       0.090609424 0.19236466 -0.13516375 0.033957705
000300 ad 1e dc 3d 89 82 45 3e 2f d6 bb bd 81 48 2e be
       0.107480384 0.19288076 -0.09171712 -0.17019846
000310 89 af 7e 3d 24 ba 13 3e be 3f 70 3d dc 3b 1c be
       0.062179122 0.14426476 0.05865454 -0.1525721
000320 e1 c7 8d bd 2f 62 04 bd 3a dd ae ba 9c 5e 45 be
       -0.069228895 -0.032320198 -0.0013341077 -0.19274372
000330 a2 e5 ec bd 6d de e8 3d a3 a5 6c be 35 4a 54 3d
       -0.115672365 0.11370549 -0.2311006 0.05182858
000340 f7 d9 93 bd 25 90 ec 3c 1c d6 3d 3e f3 f4 79 bd
       -0.07219308 0.028877327 0.18538707 -0.061024617
000350 88 66 69 be 94 ec 43 3e 3e 5b 3b bc 85 e6 ed bd
       -0.22793019 0.19133216 -0.011435328 -0.11616234
000360 d8 b0 d7 3d 8b 9f c9 bd bf 49 13 bd 96 20 b8 3c
       0.10531777 -0.098448835 -0.035959 0.022476476
000370 6a 93 34 3c c4 0c e8 3d 84 94 4b 3d 7b 2d c7 3d
       0.011021474 0.1133056 0.049702182 0.097254716
000380 65 5d 34 bc ce 97 3f 3c 1d e6 bc bd d9 bc 6e 3d
       -0.011008595 0.011693908 -0.09223578 0.058285568
000390 51 1a ba bd 45 69 0c 3c 1b 90 09 3d d1 08 c0 bd
       -0.09087051 0.00857002 0.033584695 -0.093766816
0003a0 5c b2 69 be ce 02 59 be 6b b8 3b 3c 9c 87 5d 3e
       -0.22821945 -0.21192476 0.011457543 0.21633762
0003b0 d2 66 ad 3d 3b 66 ab bd 56 8a 00 3e 9d 22 2c 3e
       0.08466877 -0.08369108 0.12552771 0.16810079
0003c0 32 ad 45 3d e7 53 93 3d f0 2a 1c 3e 76 a1 12 3e
       0.048260875 0.071937375 0.15250754 0.14319405
0003d0 1b a0 7d 3e 1c 9d 13 3e 84 b1 27 be 19 3e 28 3e
       0.24768107 0.14415401 -0.1637631 0.16429938
0003e0 92 56 2d 3e b4 55 b3 bd 97 ca c6 3d 3f d8 4a 3e
       0.16927555 -0.08756581 0.0970661 0.19809054
0003f0 06 b4 25 bd c2 14 62 bd 82 5e 11 be ba 05 b7 bc
       -0.040454887 -0.055195577 -0.14196208 -0.022341598

bias f4 [32]
000000 7f 02 9d bc 3b 6b 76 3d bd a9 4d bd 8e 86 ee 3c
       -0.01916623 0.060160857 -0.050210703 0.029116895
000010 2a 66 2c 3e c5 61 52 3d 10 8e d7 bc 9e 59 d5 3c
       0.16835847 0.05136277 -0.026312858 0.02604371
000020 21 44 01 3d 36 68 02 3d 35 94 0f bd 15 10 66 bd
       0.031559113 0.031837665 -0.03505345 -0.05616768
000030 5c 2c d2 bc 89 17 7f 3d 59 e3 65 bd db c0 95 3d
       -0.025655918 0.062278304 -0.05612502 0.07312175
000040 1d 29 76 3d 04 49 51 b9 33 66 a2 bc 21 4e 49 bd
       0.060097802 -0.00019958994 -0.019824123 -0.049146775
000050 3c 7f f4 bc 79 ea 8a 3d 3a 2f bd 3d 29 53 61 3d
       -0.029845826 0.06783003 0.092375234 0.05501095
000060 76 76 48 bd 27 7b 8c 3d cf 3d 93 3d 97 6b 41 3d
       -0.0489411 0.06859427 0.071895234 0.047221746
000070 fb 87 b3 3c 48 b8 4c bc 66 5e 46 bd 2b 96 1a 3d
       0.021915426 -0.012495108 -0.04842987 0.037740868

weight f4 [64, 32, 3, 3]
000000 76 a9 26 bc c2 27 30 3c c4 26 ad bd 22 ad ee 3d
       -0.010172239 0.0107516665 -0.084546596 0.11654116
000010 08 ba 35 3d cb ad 70 bd f0 29 c5 3d 7c e9 a7 bb
       0.044366866 -0.058759492 0.096271396 -0.005124269
000020 df ce 7c bd b0 91 3d 3e 90 96 2a bd a1 df 6e bd
       -0.061720725 0.18512607 -0.041647494 -0.058318738
000030 bf e3 1e 3e 0e e8 ac 3d 44 c9 31 be 45 48 0d 3e
       0.15516566 0.084426984 -0.17361933 0.137971
000040 50 73 9f 3d f3 1b cf bd 7c 94 df 3d ce 87 4f 3d
       0.07785666 -0.10112753 0.10916993 0.050666623
000050 de a6 17 3d 67 52 d0 3d 2a f7 50 bd 8c e9 d7 bc
       0.03702437 0.10171967 -0.051016964 -0.026356481
000060 d6 ca 60 3c 17 8d a0 bd ea 57 ac bd 45 2c e8 bd
       0.013720235 -0.07839411 -0.08415206 -0.11336569
000070 27 bc 62 bb 70 25 b9 3d b1 43 0a 3e 13 f3 47 bd
       -0.003459701 0.09040344 0.13502385 -0.048815798
000080 98 06 38 3c 9c 65 f7 3d 49 db c8 3a e6 e1 43 bd
       0.011232041 0.12079927 0.0015324141 -0.047822855
000090 1d 56 21 be b8 b6 e0 bd 09 db fe bd 39 c1 b8 3d
       -0.15755506 -0.10972351 -0.124441214 0.09021229
0000a0 5e 6c 1f 3d 0c 23 40 3c 8a c5 0c bc 88 cb c7 3d
       0.038921706 0.011727106 -0.008592019 0.097556174
0000b0 fb e1 a3 bd b7 af 57 bd 29 dc 50 bd b2 08 7b bd
       -0.08002087 -0.05265781 -0.05099121 -0.06128759
0000c0 18 45 35 3e 1a 6b 04 3b 0e b1 df 3d 80 0d 09 3d
       0.17702138 0.002020544 0.109224424 0.03346014
0000d0 01 d1 a5 bb 0f 78 6b 3c 06 03 c0 3d 12 ec 78 bd
       -0.0050603156 0.014371886 0.09375577 -0.06077201
0000e0 fe 98 da bd 93 98 cf 3c 8c e4 92 3d 79 16 d1 bd
       -0.10673712 0.025341308 0.07172498 -0.102093644
0000f0 9b 8e de 3c 4a a8 a8 bd 97 d9 b3 bd 9a bc 01 bd
       0.027167609 -0.082352236 -0.08781736 -0.031674005
000100 94 bb 10 bd 1d 9d 7b 3d 5f c9 0a bd 21 49 ac bc
       -0.03533514 0.06142913 -0.03388345 -0.021030964
000110 b2 d8 1e be c6 c9 14 3d 42 fa eb 3d 90 ff a9 3b
       -0.1551235 0.03632524 0.11522342 0.005187936
000120 ee f2 8d 3d d2 08 b3 bc 99 7e 95 3d 64 ee 39 3d
       0.06931101 -0.021854792 0.07299537 0.045393363
000130 25 74 4e 3d 90 b1 be bd b4 e0 97 bc 86 ab 12 bd
       0.050403733 -0.09311211 -0.018539764 -0.03580811
000140 61 45 e3 bc 22 b4 02 3d d5 d3 ef 3c ae c1 50 bc
       -0.027743043 0.03191007 0.029275814 -0.012741489
000150 64 94 83 3d ae f9 43 3d af 4e 23 be 72 26 cd 3d
       0.06424788 0.047845535 -0.15947984 0.100170985
000160 5c e5 d8 3d 39 b9 13 3c 97 0f 08 3d fb e1 ad 3d
       0.10590622 0.0090163285 0.033217993 0.08490368
000170 d1 09 b7 3d af ca 26 bd da 7f 1f bd 94 98 83 3d
       0.08937419 -0.040720638 -0.038940288 0.06425586
000180 d1 a2 73 bd 7e 81 c5 3c 31 5f 18 3d e0 b3 db 3d
       -0.059481446 0.024109598 0.037200157 0.10727668
000190 21 35 16 be 9d e2 9c 3c 3a 45 9d 3d 35 75 5d 3d
       -0.14668705 0.019151026 0.076792195 0.054066855
0001a0 b9 66 a4 bd ba 0e 05 3e 5c 79 fd bd 63 87 cd bc
       -0.08027405 0.12993899 -0.12376663 -0.025088971
0001b0 2f c0 93 bb 4a 46 5c bc 0c 2c 74 bc 0e 91 f9 3c
       -0.004508994 -0.013444493 -0.01490308 0.030464675
0001c0 b7 07 18 bd f9 70 80 3b a9 0c 46 3b c8 7e 32 bb
       -0.037116732 0.0039197174 0.0030219948 -0.0027236212
0001d0 1c 9b 08 be e0 ea eb 3c 5c 11 7b ba e7 48 b8 bd
       -0.1334042 0.02879852 -0.0009577477 -0.0899828
0001e0 62 d2 fb 3c a3 48 73 bd 98 b4 e9 bd 76 75 d3 bd
       0.030739967 -0.059395444 -0.11411399 -0.10325138
0001f0 09 c7 45 bb 00 1e 66 bd 65 7f e5 3d 8a c4 bc bc
       -0.0030178449 -0.056180954 0.11205939 -0.023042936
000200 5d c2 d9 bd 7f 2f 71 3b 3a 05 22 3a fa 6a 51 be
       -0.10632775 0.0036801992 0.00061805884 -0.20450965
000210 02 9b 65 bd 3b 51 07 3d 09 fb ce bd 8e 98 5a bd
       -0.05605603 0.03303645 -0.10106475 -0.053368144
000220 cf 51 e5 bc 79 de 72 3d 11 1e 73 bd ff 2f c0 3b
       -0.027993111 0.059294198 -0.059354845 0.0058650966
000230 32 16 0e be d3 61 1e ba bc 8d 69 bc 44 14 d0 3c
       -0.13875654 -0.00060417986 -0.0142549835 0.025400288
000240 b0 47 1d 3d 83 d6 f0 bc d1 45 d5 bc 53 6d 64 bc
       0.038398445 -0.029399162 -0.026034268 -0.013942081
000250 e9 a6 d9 3c 2a e8 be bd d0 99 38 bd 42 d0 66 bd
       0.026568847 -0.093216255 -0.045068562 -0.056350954
000260 08 76 a5 bc 70 cf e1 bc 72 d5 00 be d2 c2 f9 bc
       -0.020197883 -0.027564734 -0.12581423 -0.030488405
000270 1b 4a ff bc e1 f2 c8 3d 72 93 e7 bb 9e f9 fb 3c
       -0.031163266 0.098119505 -0.0070671374 0.030758675
000280 aa 2c 74 3d 19 67 e9 bc 8d 19 b6 3d 0b a0 d7 3d
       0.059612907 -0.028491544 0.08891592 0.10528573
000290 be 34 0f 3e de 82 2f 3e 8c a5 0d 3e b7 f9 90 bd
       0.13984963 0.17139766 0.13832682 -0.07078879
0002a0 1a b9 71 bd d7 5f e6 3c 59 37 9a bd 50 56 71 3d
       -0.059014417 0.028121872 -0.07530088 0.058920205
0002b0 96 32 21 3d 5d 80 cd bd d8 af ab 3d ec d6 0c 3e
       0.039354883 -0.10034249 0.08383149 0.13753861
0002c0 a5 5d 82 3d 64 a2 8d bd e6 a0 16 3d a0 ce 11 3e
       0.063655175 -0.06915739 0.03677454 0.14238977
0002d0 8e 9b 1d 3e 92 08 93 3c 59 33 aa b9 ab 4d 48 3e
       0.1539137 0.017948423 -0.00032463184 0.19560878
0002e0 2d 59 21 3e 7c c5 99 3c cb 3c 7f 3c b1 ca 4f 3d
       0.15756674 0.018770926 0.015578459 0.05073041
0002f0 e7 86 d7 bc 98 7d 4b 3e a4 b4 09 bb 16 72 d9 3b
       -0.026309444 0.19872129 -0.0021012211 0.0066359146
000300 1b 32 77 3e 9d b5 66 3d 1b 14 de bd eb 10 81 3d
       0.24140207 0.056325544 -0.108436786 0.06302055
000310 ab 7e 20 bd 83 03 a7 bd df b4 53 bd b7 c5 23 3b
       -0.0391833 -0.08154967 -0.051686164 0.0024989673
000320 fb 42 8c 3d ae 52 1e 3b 58 28 3b 3c bd 6f d3 3d
       0.06848713 0.0024158168 0.011423193 0.10324047
000330 ea 3c 90 3c 97 ee 1c be 1a 80 b5 3c 81 d8 09 be
       0.017607171 -0.1532539 0.02215581 -0.13461496
000340 53 fb 93 bd 86 a3 df bd ab 02 6e 3d 03 d5 3d 3d
       -0.07225671 -0.109198615 0.058108013 0.046345722
000350 69 8d 2c bd 51 53 5f bd 3b 3b 3e 3a 29 74 2b bd
       -0.042127047 -0.054522816 0.0007256751 -0.041858826
000360 50 70 fa 3b 87 a3 d9 3b f2 56 65 be 61 4a 2c 3e
       0.007642783 0.0066418084 -0.22396448 0.16825248
000370 19 ef 48 3d bf 29 24 be 13 2c a3 3d a0 69 20 bd
       0.049056146 -0.1603155 0.07967391 -0.03916323
000380 81 19 90 bd a0 e0 d3 3d 49 b3 2b bc 02 4e 22 bd
       -0.070361145 0.10345578 -0.010479757 -0.039625175
000390 95 f4 f8 3d c3 63 97 3d 73 50 ba bc cb 25 c5 3d
       0.12156025 0.07392075 -0.02274344 0.09626349
0003a0 d7 f6 90 3c 40 52 01 be 2e 50 02 be 36 f3 35 3d
       0.017695827 -0.12629032 -0.12725899 0.044421397
0003b0 d8 73 51 bc b9 cc de 3c bd 1d 2a 3e 0b de c0 bc
       -0.012783967 0.027197229 0.16612907 -0.023543378
0003c0 03 8b 07 3d 75 6f e3 3d 23 82 8d bd 35 97 cb bc
       0.033091556 0.11105243 -0.06909587 -0.024852375
0003d0 33 92 3e 3d cd 6f d1 bd 17 78 04 3e e9 c6 8b bd
       0.046526145 -0.102264024 0.12936436 -0.068250485
0003e0 a6 5d 0d be c3 8e 1a 3d f0 d4 10 3b 57 86 5c be
       -0.13805255 0.037733804 0.0022099577 -0.21535622
0003f0 2c a3 7c bc 54 e2 93 bd a9 ef 97 3d 1c 59 91 3d
       -0.015419763 -0.07220903 0.074187584 0.070970744

bias f4 [64]
000000 b5 fd b5 3d 54 1b 93 3d 41 4a d9 bc 55 0a 49 3d
       0.088862814 0.07182947 -0.026524665 0.04908212
000010 66 55 ed 3c 67 97 50 3d f4 64 a0 3d 10 53 5a bd
       0.028971385 0.05092564 0.07831755 -0.05330187
000020 3e f3 4e 3d 8c c7 0d 3c 6f 49 05 3d 09 38 fd bc
       0.050524943 0.008653533 0.032540735 -0.030910509
000030 88 f8 8c 3d 25 03 a1 3d e2 8e 7a 3d a7 36 ad bc
       0.06883341 0.07861928 0.06117142 -0.021144224
000040 17 fb b7 3c b8 db d7 3c 7f ab 86 bc d0 be ee bb
       0.022458596 0.026349887 -0.016439198 -0.00728593
000050 7e 11 d5 3b 87 61 be bc ea 09 b3 bd 08 13 ee bc
       0.0065023294 -0.023239864 -0.08742125 -0.02906181
000060 de 89 8f 3d 37 1d 6b 3d f5 26 b2 3c 40 47 06 3d
       0.07008718 0.05740091 0.021747092 0.032782793
000070 6f 00 62 3d 33 96 29 3d 16 62 8c bc da 26 7e 3d
       0.055176195 0.041403007 -0.017136615 0.06204877
000080 df 91 20 3d df 6a 62 bd 3e 67 25 ba 53 a7 27 3d
       0.039201614 -0.0552777 -0.0006309635 0.040931057
000090 d1 7d 72 3d 8c 42 b1 3c 1b ad ae 3d 3a 34 2a 3d
       0.05920202 0.021638177 0.08529111 0.041553713
0000a0 c5 5d 4d 3d 8e 2e 86 3d 9c 6a b2 3b 6e 61 a3 bc
       0.050138254 0.06551848 0.0054448377 -0.019943919
0000b0 af 00 83 bc d0 07 0d bb 79 a9 5c 3d 1c 04 a3 bc
       -0.015991537 -0.002151955 0.05387256 -0.01989942
0000c0 aa 88 b8 bc 7e d9 10 bd c7 a5 ba bb aa c6 6c 3c
       -0.022526104 -0.035363667 -0.0056960317 0.014451662
0000d0 8e 0d 36 bd e4 2a 07 bd bd 47 bb bd 41 dd 3b 3d
       -0.04444652 -0.032999888 -0.09144542 0.0458653
0000e0 84 95 21 3c 2b 2b 51 3d 3c a3 87 bb a6 ef 94 bb
       0.009862307 0.05106656 -0.004139332 -0.00454517
0000f0 b3 b8 4f 3d 24 6c 15 3d 19 8f 84 3c a1 cf 0b 3d
       0.050713252 0.036480084 0.016181516 0.034133557

weight f4 [128, 64, 3, 3]
000000 0f 4b ff ba 26 d7 82 bc a1 3c 1d bd b2 a2 33 3d
       -0.0019477325 -0.015971731 -0.0383879 0.04385633
000010 f1 dd af 3c b0 22 e1 3b 2a f4 a3 bd 06 00 59 bc
       0.021468135 0.00687059 -0.08005555 -0.0132446345
000020 ae ba b5 bc ee a3 55 bc ac b7 71 3d ac 73 67 bd
       -0.022183742 -0.013039572 0.059013054 -0.056506798
000030 b6 bd e1 bc 07 9c a7 3d 4e 47 36 bd 86 a3 79 bd
       -0.027556282 0.08184057 -0.044501595 -0.060946964
000040 9a 08 d0 bd 1a e5 03 be ec 76 f5 3c 9b a0 48 3d
       -0.101578906 -0.12880364 0.029963933 0.04898129
000050 8a 92 b2 bd fc 2a d7 bc 65 5b 06 3d ad 15 a3 3b
       -0.08719356 -0.026265614 0.032802004 0.004976949
000060 7f 4c 22 bd d4 a1 dd 3c f7 84 17 bd 78 a2 b8 3b
       -0.039623734 0.027054705 -0.03699204 0.005634602
000070 55 3d 42 3d d6 70 da bc 47 76 85 3d 0c ee 8d 3c
       0.047421772 -0.026665132 0.065167 0.017325424
000080 78 11 b0 bc 24 72 ad bb 7b 0c f8 3d 03 7b de 3c
       -0.021492705 -0.0052931476 0.121117555 0.027158266
000090 28 2c ca bd d7 40 0c 3d 20 1d 7c 3d d2 8e 9b bc
       -0.098717034 0.034241524 0.061551213 -0.018989
0000a0 b8 9e 72 bd 09 37 6a 3d 28 a0 20 bd a9 dd 08 bd
       -0.059233397 0.057181392 -0.039215237 -0.033414517
0000b0 f1 41 06 be ab 17 da bd 57 e6 2d be 79 7e 3c bd
       -0.13111092 -0.106490456 -0.16982399 -0.04601905
0000c0 d7 a4 9e bd 89 a8 3c 3d f8 0a 1f bd 71 55 f9 bc
       -0.077462845 0.046059165 -0.03882882 -0.03043625
0000d0 7b e2 60 bc 38 5a ba bb 82 65 34 3d b2 b0 e4 3d
       -0.013725872 -0.0056870244 0.044042118 0.111665145
0000e0 36 a9 0c be 23 38 9f 3c 07 ea 66 3d 03 3e 56 3c
       -0.13736424 0.019435948 0.05637553 0.013076308
0000f0 93 48 e4 bd 90 cb e1 3c 9c 6b 0d 3e 0d bf 61 3d
       -0.11146655 0.027562886 0.13810581 0.05511384
000100 4a 6e 0f 3c ca e3 6a bd de 29 85 bc 62 e0 e9 bc
       0.008754322 -0.057346143 -0.016255315 -0.028549377
000110 fc 92 ec bc 69 a7 8d 3d 3d 83 ed 3c 45 75 93 bd
       -0.028878681 0.069166966 0.028993243 -0.07200102
000120 c2 05 03 bd 0a 22 74 3d 30 18 2a bd 61 a8 1a bc
       -0.031987913 0.059602775 -0.041526973 -0.009439559
000130 6d dd cd 3d 0a 89 e9 3c 06 bb d0 bd c7 25 00 bd
       0.10051999 0.028507728 -0.10191922 -0.031286027
000140 28 c3 aa bd 73 7b 08 bd fe 4d b3 ba 13 d4 e1 bd
       -0.08338004 -0.033320855 -0.001367986 -0.11026778
000150 62 52 24 bd c0 d9 4a bc 56 ba 9d 3d 41 f4 48 bd
       -0.04011763 -0.012381017 0.077015564 -0.049061064
000160 a9 1d 3e bd a9 ff b6 bc d3 e8 1e bd 9b 7a b9 bd
       -0.046415005 -0.022338705 -0.038796257 -0.09056588
000170 9d 4d 18 bd dc 42 62 bd 66 ba 0a bd 88 33 a0 3b
       -0.037183393 -0.055239543 -0.03386917 0.0048889555
000180 34 53 2f bb c8 04 f6 3c a9 3e dc bd c2 43 ee 3b
       -0.0026752474 0.030031577 -0.10754139 0.007271261
000190 d3 04 41 3d e8 3e 37 3d 59 e3 77 3d 71 3a d1 3d
       0.04712374 0.044737726 0.06051955 0.10216225
0001a0 1d 15 37 bd 1a 0f 9d 3d ee e0 e4 3d fd 9e 96 3d
       -0.04469787 0.07668896 0.111757144 0.07354543
0001b0 f6 1d a7 bb c3 ce 9a 3d 35 be 6e bc 8a c8 18 bb
       -0.005100007 0.07558968 -0.014571716 -0.002331289
0001c0 25 18 80 3d a6 bf 26 3d 5b dc be 3d ab aa 02 3d
       0.06254605 0.040710114 0.09319373 0.031901043
0001d0 db 75 24 bd c1 8f db bc 70 be d9 3d fe 73 fb bd
       -0.04015146 -0.026801946 0.10632026 -0.12277983
0001e0 eb 30 17 be bc 32 c8 3c b6 41 de b9 70 9a 5a be
       -0.14764754 0.024438255 -0.00042392098 -0.21347976
0001f0 62 65 84 bc 78 a2 b4 bd d5 18 25 3d da 52 92 bb
       -0.016161624 -0.08820051 0.040306885 -0.004465443
000200 29 66 38 3d fb 66 dd 3b 2b 05 e1 3d 46 01 e2 bc
       0.045019303 0.006756661 0.10987314 -0.027588498
000210 71 b8 f0 bd 45 df 7f bc e4 ed bc bd a3 86 1d bc
       -0.117539294 -0.015617196 -0.092250615 -0.009614619
000220 10 1c 56 bd 9b 47 cd bd 4a dd 1b 3d 64 f8 e5 3d
       -0.052272856 -0.10023423 0.038052835 0.112290174
000230 ff 5e d9 bc ac c2 05 3d 7b 47 29 bd 68 98 36 be
       -0.026534555 0.032656357 -0.041327935 -0.17831576
000240 a9 56 aa 3d f2 22 8d bc f5 c3 9a bd 7b 5c cb bc
       0.0831731 -0.017228577 -0.07556907 -0.024824372
000250 cf 97 86 3c fe f2 2a bd b7 9d fc bc 32 00 04 bc
       0.01642981 -0.04173564 -0.030836923 -0.008056687
000260 b3 3f 0b 3d c5 fc 27 3e 53 cb 35 3d 0f 22 17 bd
       0.033996295 0.16405018 0.04438336 -0.036897715
000270 66 5c b2 bd 0e 9f ec 3c 2d 03 5f 3d 78 bb 9d bd
       -0.0870903 0.028884437 0.054446388 -0.077017725
000280 bb 64 a4 bd f6 2a b6 bd 5c ea 6d bd 5f cb 6b 3d
       -0.08027025 -0.08894913 -0.05808483 0.057566997
000290 ef ac 9a bc af 38 45 3c 85 47 3f 3d c3 e9 11 3d
       -0.01888129 0.01203744 0.046699066 0.035623323
0002a0 a8 be 68 bc 88 f9 e7 bc f4 e8 93 3d 46 44 81 bd
       -0.014205612 -0.028317228 0.07222167 -0.0631185
0002b0 f1 31 1e 3d 9a 2e ae bd 05 6a 9e bd 8c 3f a7 bb
       0.038621847 -0.08504982 -0.07735065 -0.005104011
0002c0 fa 0c 36 bb b0 40 6b bd e8 a5 5e bd fc d7 e1 bd
       -0.002777873 -0.057434738 -0.05435744 -0.11027524
0002d0 03 02 40 bc d2 df c6 3d 67 d7 30 bd 22 5f bc bd
       -0.01171923 0.09710659 -0.043174174 -0.09197833
0002e0 8e 78 d0 3a 13 6e 2e 3c 87 48 39 bc d7 93 ec bd
       0.0015905069 0.010646361 -0.011308796 -0.11551636
0002f0 38 ae 59 bc 06 06 54 3d c2 6d f9 3d 8f 33 af 3d
       -0.013286166 0.051763557 0.12179138 0.08554756
000300 43 81 80 3d 90 75 2f 3d 81 95 df 3c f4 a0 16 bc
       0.06274655 0.042836726 0.027292969 -0.009193648
000310 b4 f4 99 3c fc 70 60 bd 01 41 dc 3d 85 b7 00 3e
       0.018793441 -0.05479525 0.10754586 0.12570007
000320 2b 9c f8 3c 3f 06 b9 bd fe 2d 94 3d ea d2 71 3c
       0.030347904 -0.090343945 0.07235335 0.0147597585
000330 4e 23 3c 3c b8 59 04 3e 12 e1 40 3d 75 5c 32 bd
       0.011483027 0.1292485 0.047089644 -0.043545205
000340 67 9a 89 bd c6 f9 20 bd ba 0b 8e bc 47 90 5d 3d
       -0.06718903 -0.039300703 -0.017339576 0.05409267
000350 e8 2c 9d 3c d1 db f8 bd 6a 14 01 3d 15 d2 5e bd
       0.019186452 -0.12151302 0.03151361 -0.05439957
000360 3f 34 9c 3d 2d 9f 3c bd 5e a1 2c bd 85 ba 85 3a
       0.07627153 -0.04605024 -0.04214608 0.0010202682
000370 d3 d6 a3 3b 9f 0b 7b bd 8f 36 94 bd b6 1a ce bd
       0.0049999743 -0.06129038 -0.07236969 -0.100636885
000380 a1 8e 47 3d 7b 79 ec bc 4f c2 08 3e d1 18 30 3d
       0.048720006 -0.02886652 0.13355373 0.042992417
000390 e6 57 fb bd 8c f0 f8 39 d5 89 c3 bc 04 bc 76 bd
       -0.12272625 0.00047481467 -0.023869434 -0.0602379
0003a0 6f a8 9f bd fa fb 05 be cd e7 ff 3c d6 ef ef 3c
       -0.07795798 -0.13084403 0.03123846 0.029289167
0003b0 9e f1 42 bd e9 02 ee bd c9 c3 ee 3a ac e4 84 3c
       -0.047593705 -0.11621649 0.0018216308 0.01622232
0003c0 1e 1a 88 bd fe 22 e6 bc 93 29 27 3b 87 f8 d1 3c
       -0.066456065 -0.028092857 0.0025506958 0.025631202
0003d0 62 c5 eb 3c c1 05 12 3d 04 c1 af bd 45 d5 ff bc
       0.028780643 0.03565002 -0.08581737 -0.031229625
0003e0 95 93 04 3d 09 25 d8 bd 76 85 04 be 53 be 71 be
       0.032367308 -0.10553939 -0.12941536 -0.23607759
0003f0 44 e7 29 3d 18 66 85 3d 82 44 88 bd d8 38 1b bd
       0.041480318 0.065136135 -0.06653692 -0.037896007

bias f4 [128]
000000 82 83 61 bd c0 b7 7c 3d 18 50 33 3d af 3c 7f bd
       -0.055057056 0.061698675 0.043777555 -0.06231373
000010 c9 4c 59 bc ba 3f 14 3d de d1 8c bd ce fd ef bc
       -0.013262936 0.036193587 -0.068759665 -0.029295828
000020 be 05 74 bb 12 58 07 3c 1c a2 91 3d fd 43 e8 3c
       -0.0037234868 0.008260744 0.07110998 0.028352732
000030 97 5a 8f bd 38 b7 83 3d cd 05 77 3b 14 13 95 3c
       -0.069997005 0.064314306 0.0037692667 0.018197574
000040 bf 50 83 bd 01 91 4a 3d 7c 62 12 bd 45 3c 86 bd
       -0.064118855 0.049454693 -0.035738453 -0.06554464
000050 8d f2 b6 bc 0e 71 18 3d 4e 52 82 3b e0 11 8f bd
       -0.022332454 0.037217192 0.0039770966 -0.06985831
000060 70 4f be 3b 1b 74 49 3d ce be 93 bc 2f 22 d6 bd
       0.0058078095 0.049182992 -0.018035319 -0.10455739
000070 1f b4 a2 bc 99 48 46 3d 7d 62 66 bd ff 93 48 bc
       -0.019861279 0.04840908 -0.05624627 -0.012242316
000080 e5 c9 87 3c 84 c6 13 3d cb 5c 24 3d 48 7d 5b 3d
       0.016575763 0.03607799 0.040127557 0.053586274
000090 cc 2a 71 bd c6 51 92 bd 2a 54 b7 3d a4 a7 c9 bd
       -0.058878705 -0.07144503 0.089516 -0.09846428
0000a0 c8 8d fd 3c 35 4f 4a 3d b5 de 0e bd 2d a0 03 bb
       0.030951396 0.049391944 -0.03488036 -0.0020084486
0000b0 79 ef d2 3a 66 4c 27 3d c6 2a 4b 3d 86 b7 11 ba
       0.0016093097 0.040844344 0.04960134 -0.0005558658
0000c0 fb f8 dc 3d a4 86 8a 3c 77 a4 3e 3c 7e d4 bd ba
       0.10789677 0.016909905 0.011635891 -0.0014482883
0000d0 27 b6 05 bd 0d 47 7a 3c 9c 0b 83 bc f9 c4 8b bd
       -0.032644417 0.015275729 -0.015996747 -0.06824679
0000e0 75 4d 6d bd ba c9 8b 3c b9 a7 90 bc 0c 4d 23 3d
       -0.057935197 0.017063964 -0.017658101 0.0398684
0000f0 a9 97 79 bd f0 0c ec 3b 29 50 79 bc 0c af f2 3b
       -0.06093565 0.0072036907 -0.015216866 0.007406121
000100 17 32 65 3b 96 c3 4c bd 43 36 11 bb e3 73 ee bb
       0.0034972483 -0.049991213 -0.0022157587 -0.0072769984
000110 78 17 6c bc da 1f 9d bc 2b 45 32 bd 2d f6 b0 bc
       -0.014409892 -0.019180227 -0.043522995 -0.02160176
000120 80 ca 62 bc 98 37 87 3b 49 98 21 3d c1 90 7f bd
       -0.013842225 0.0041265003 0.03945187 -0.062393907
000130 41 c5 b1 3b 2b 78 28 bd 3e 57 1e 3d 1e 27 a9 3d
       0.005425126 -0.041130226 0.03865742 0.08259414
000140 da b8 ab bc 0d 91 b9 bb c4 61 2d 3c e4 8a 81 3c
       -0.020962168 -0.0056630434 0.010582391 0.015813299
000150 10 bb 5e bd f3 f0 5a 3d a5 3f 82 bc d1 ba 9d 3b
       -0.054377615 0.053452443 -0.015899489 0.00481353
000160 87 e6 df 3b c4 c3 8a bd e4 8d 3d bd d7 38 a2 bd
       0.006832901 -0.067756206 -0.046277896 -0.079209976
000170 68 09 a3 39 48 0b 48 3c 33 ab 19 3d 22 62 8c 3d
       0.0003109679 0.012209721 0.037516784 0.06854655
000180 91 45 81 3d 90 c5 25 bc c1 fd 18 3b c1 0a ca 3c
       0.06312097 -0.010117903 0.0023344608 0.024663331
000190 50 18 8a bc 12 14 31 bc 0f 96 1c 3c 75 06 8a bd
       -0.016857296 -0.010808008 0.009557261 -0.06739513
0001a0 e6 cf d5 bb df b9 8f 3d de b3 61 bc dd 48 b3 bc
       -0.0065250276 0.07017874 -0.013775794 -0.02188533
0001b0 f5 ae 9c bc 7e ae b5 bc 35 71 29 3d 52 22 80 bd
       -0.019126395 -0.02217793 0.04136773 -0.06256546
0001c0 92 cc cd bb 43 97 f7 3c 37 78 dd bc e0 ab c2 bd
       -0.00628049 0.030223494 -0.027034862 -0.09505439
0001d0 46 0d 2b 3d 20 47 82 bc 9c 06 dd bc cd 7b d9 3c
       0.041760705 -0.015903056 -0.02698069 0.02654829
0001e0 ca f4 74 3c 5d 46 94 3d ff c4 2e bd 7e 46 4c bc
       0.01495094 0.07239983 -0.04266834 -0.0124679785
0001f0 25 21 a0 bc d8 74 86 bd 2c 40 eb 3c c4 43 15 3c
       -0.019547055 -0.06565255 0.028717123 0.009110395

weight f4 [128, 16, 3, 3]
000000 2e ef 70 bc 63 f7 42 bd f5 83 ba 3c 60 1a e1 bd
       -0.014705462 -0.047599208 0.022768 -0.10991359
000010 0d 86 51 3d 31 57 0f bd 8a 0e 41 bb ab c3 59 bd
       0.05115323 -0.03499526 -0.002945813 -0.05316512
000020 97 7f ce 3d 69 a3 5e bd 6a ce b4 3c e3 3b 16 bd
       0.100829296 -0.05435506 0.022071082 -0.036678206
000030 9d 73 a2 bd 0f 21 17 3e 45 76 00 3e 8e 31 6e be
       -0.07932208 0.14758705 0.12545116 -0.23261091
000040 74 21 8a 3a 92 19 1f 3d a8 99 ad 3d eb a4 e8 3d
       0.0010538534 0.038842745 0.08476573 0.113595806
000050 67 12 45 bd 10 56 42 bd bf 21 61 3d c2 28 8b bd
       -0.048113253 -0.047445357 0.054963823 -0.06794883
000060 27 a8 26 3e cf 09 38 3d 7c 48 88 3c b1 9b 03 3e
       0.16275083 0.04493123 0.016636126 0.1285236
000070 f4 f1 12 3e 38 1c 4c 3d b9 75 78 3c 10 ce 34 3e
       0.1435011 0.0498316 0.015164786 0.17656732
000080 7c 67 80 bd 5c 04 91 3d f1 3d b9 bb 0b 62 7c 3c
       -0.06269738 0.070809096 -0.005653136 0.015404235
000090 5d a4 ec bd a8 5f 40 be 4b d8 6e bd 23 fa 71 3d
       -0.11554787 -0.1878649 -0.05831174 0.05907644
0000a0 40 76 e4 bd b8 39 94 bd 48 95 5b 3d ac c0 b6 3d
       -0.11155367 -0.072375715 0.053609163 0.08923468
0000b0 a0 64 d1 bd f3 7a c8 3d 00 98 25 3e 6d 44 e8 3c
       -0.10224271 0.09789076 0.16171265 0.02835294
0000c0 0d d2 11 be 18 b2 c8 bc 71 39 2d be ad 76 52 3d
       -0.14240284 -0.024498984 -0.16916443 0.05138271
0000d0 7c de a2 3d 06 09 61 bd da 37 32 bd 6e 65 96 3e
       0.07952592 -0.054940246 -0.043510295 0.2937426
0000e0 57 d5 a0 3d 88 90 4d bd b3 00 21 bd 00 29 ff 3c
       0.07853191 -0.050186664 -0.039307307 0.03114748
0000f0 2b db 0d 3d 4d fb 52 bc 59 21 92 bd a3 ba 18 be
       0.034632843 -0.012877298 -0.07135267 -0.14914946
000100 20 8e 3d be 22 bc af bc 9e 78 8e bd 08 d7 e3 bb
       -0.18511248 -0.021452013 -0.069566 -0.006953124
000110 59 28 e7 3d 62 ba 59 bd c0 a5 e4 3d db 4c 5a bb
       0.112869926 -0.053156264 0.11164427 -0.003330997
000120 f2 97 47 bd ab c2 bb bd f2 c5 82 3d 24 56 e7 bc
       -0.04872889 -0.09167989 0.06385411 -0.028239317
000130 95 17 9c bd 62 98 8a bd a1 d6 d4 3d 60 f8 64 bd
       -0.076216854 -0.06767346 0.103925 -0.05590093
000140 cb cf 10 3a f4 2b 8d 3c 5a 41 ad bc 1a 0e 1a 3d
       0.00055241276 0.017232873 -0.021149326 0.037611105
000150 2e 5f 14 3d b5 a5 85 3d 10 31 03 be de af 1c be
       0.036223583 0.06525747 -0.12811685 -0.15301463
000160 18 32 df bd db 8c 00 bd 06 ce 1e be 30 b6 a4 3c
       -0.108982265 -0.03138433 -0.15508279 0.020106405
000170 e7 2a bb 3a 36 ad e2 3c 64 41 c1 bd 44 30 1f 3d
       0.0014279754 0.027670484 -0.094363004 0.03886439
000180 73 84 33 3e b4 05 e6 3d 52 d0 47 bd 27 5f 2b be
       0.17530994 0.112315565 -0.048782654 -0.16735516
000190 92 24 7d bd 01 e7 62 bd 77 45 11 3e bd 7b c8 3d
       -0.061802454 -0.055396084 0.14186655 0.09789226
0001a0 63 fb 6c bd 1b 6c ce bc f0 0e 7d 3c c3 cd b1 3d
       -0.05785693 -0.025198033 0.015445456 0.08681824
0001b0 ce d0 e8 3c 7a 68 4b be d7 93 f8 3c 44 23 77 be
       0.028419878 -0.19864073 0.030343933 -0.24134547
0001c0 26 0d c8 bc 45 b3 18 3e d1 7c 82 3d 57 08 ad bc
       -0.024420332 0.14912136 0.06371463 -0.02112214
0001d0 6b 04 26 3d b7 ac a5 bc 69 15 57 bd 5c 5f 8b bd
       0.040531557 -0.020223958 -0.052510653 -0.06805298
0001e0 c1 9d 02 3e d6 f1 51 bc 82 df 02 be 3d 92 a9 3d
       0.12755491 -0.012814006 -0.12780574 0.08279846
0001f0 99 0e 86 bd 71 0f ce bb d3 1f 1c 3d 69 18 b5 bd
       -0.06545753 -0.006288462 0.038116287 -0.088425465
000200 ca d1 31 3e 49 d8 17 bd 1f e3 27 be 26 05 5e 3d
       0.17365184 -0.0370715 -0.16395234 0.05420413
000210 a1 d7 d2 3d 21 b8 a3 3d 8a 7d e2 3d 37 03 00 3e
       0.10295034 0.07994104 0.11059101 0.12501226
000220 7e 68 24 bd 38 59 f3 3c 9a 50 e7 3d cc 91 45 3e
       -0.040138714 0.029705629 0.112946704 0.19293898
000230 d7 61 cd bd 1a 6d 28 bc c3 83 66 bd 54 79 0b be
       -0.10028427 -0.010279918 -0.056278 -0.13620502
000240 f9 76 5c be 23 08 99 3c 96 fe 86 bd 1e c3 0b 3d
       -0.2152976 0.018680638 -0.06591527 0.034121625
000250 d8 d6 fa 3d 62 1d 01 be f5 ab 33 be 31 67 63 bd
       0.122480094 -0.12608865 -0.17546065 -0.055518333
000260 8a 10 40 3d ec 03 96 bd ad 30 2e 3d 92 42 81 be
       0.046890773 -0.07324967 0.04252689 -0.25246102
000270 fe 45 b1 3d 31 8d 1c 3e 58 dc 95 3d 49 a3 9c be
       0.08655928 0.15288235 0.07317418 -0.30593327
000280 98 53 00 be 02 3e a6 3c 62 2b b3 3d 97 84 2b be
       -0.12531888 0.02029324 0.08748509 -0.16749798
000290 39 9b c6 bc 01 0e 71 bd 7d 28 0f be 20 ed 3d bd
       -0.024243938 -0.058851246 -0.13980289 -0.04636872
0002a0 92 a1 02 3e 60 e7 a0 bd c4 e1 df bc c7 2d 51 bd
       0.12756947 -0.07856631 -0.027329333 -0.051069047
0002b0 a7 33 79 3d 4f d8 cf bb aa 1f d4 3a 6c bc 9e 3d
       0.060840275 -0.0063429247 0.0016183753 0.07750782
0002c0 bc 90 68 3d c2 85 4f bd d6 64 4d 3d 0c eb a5 bd
       0.056778654 -0.05066467 0.050144993 -0.08101472
0002d0 27 fe 85 3d 4c 68 35 bc 4c 0d de 3d a6 2f 1d be
       0.06542616 -0.01107223 0.1084238 -0.15350208
0002e0 9e b8 25 bd 3a 4d 99 3d 9e b4 13 3e 37 ee 24 3d
       -0.040459268 0.07485433 0.14424369 0.040266242
0002f0 7b 67 3c 3d ac e8 0a bd ff 4f 3b be d8 47 27 be
       0.045997124 -0.0339133 -0.18292235 -0.16336
000300 da 49 e8 bd 21 8a bf 3b 75 87 78 3d 6e 78 3e be
       -0.11342211 0.0058453237 0.060676057 -0.18600628
000310 50 4f 6a bd a7 c9 d0 bd 28 22 5b bd ab 03 08 bd
       -0.057204545 -0.10194712 -0.05349937 -0.033206623
000320 a0 82 2d 3d 9d e7 ec 3d b2 8e 20 3d 11 82 0c be
       0.0423609 0.11567614 0.039198585 -0.13721491
000330 6c 77 25 be 9d 70 1d be c9 e8 9a 3b c4 72 06 be
       -0.16158837 -0.1537499 0.004727457 -0.13129717
000340 53 1d 9c bc 11 9c be 3d f3 92 16 3d 7d 98 29 3d
       -0.019056952 0.09307111 0.036761235 0.04140519
000350 e7 15 34 3c 6c ed d2 3d 89 84 95 3c 90 95 82 3d
       0.01099155 0.10299191 0.018251674 0.06376183
000360 bd 84 0b 3d b6 d7 c1 3d 6b 96 45 3e 7c 68 c8 bc
       0.034062136 0.09464972 0.19295661 -0.024463885
000370 10 c9 33 3d da d2 af 3c dd 9a 0f 3d b0 36 4b 3e
       0.04389292 0.021462847 0.0350598 0.1984508
000380 4d 76 2d 3d a1 ee 14 3d 17 c0 2c 3d 92 c6 83 3d
       0.04234915 0.036360387 0.04217538 0.06434359
000390 1a 71 8a bb 52 35 31 bd 57 45 da 3c 30 fb eb 3c
       -0.0042249085 -0.04326374 0.026644392 0.028806299
0003a0 a1 b2 10 be ea 37 0a 3e 48 4d 9a 3d 5e c9 d9 3c
       -0.14130642 0.13497892 0.075342715 0.026585277
0003b0 03 e3 16 bd 2f bd bd bd 3d e9 83 3d 3b 60 eb bd
       -0.03683759 -0.092645995 0.06440971 -0.11492964
0003c0 29 13 0c 3e 06 92 b1 bd da a0 df bd e8 4c cf bb
       0.13679184 -0.0867043 -0.10919352 -0.0063263066
0003d0 ce f0 c3 3d 99 d6 8a bd a1 1f ae bd a9 3c 53 be
       0.09567414 -0.067792125 -0.085021265 -0.20628609
0003e0 d4 62 76 ba cc a4 22 3d 4e 34 8e 3d 1c 1d fa bd
       -0.0009398882 0.039707944 0.0694357 -0.122125834
0003f0 e6 8c 21 be 14 46 b8 bd bc 60 fe bc af b6 18 3d
       -0.15776405 -0.08997741 -0.031051986 0.037283596

bias f4 [128]
000000 ae c2 1b bd 31 8a 7c 3d e5 8b a3 bc 80 0a a6 bd
       -0.038027458 0.061655227 -0.019964168 -0.081074715
000010 ea af 85 bb a0 bb 9a 3d b5 e9 3d 3d 93 d2 a6 3c
       -0.0040798085 0.07555318 0.04636546 0.020364081
000020 91 04 90 3c 86 d4 a4 bd 4f 3e 46 bd 52 db cc bd
       0.017580302 -0.08048348 -0.048399266 -0.100027695
000030 4f a1 80 bd 05 37 06 bd e9 0c 6e 3d 1e 64 99 bc
       -0.06280767 -0.032767314 0.05811778 -0.018724497
000040 2e e0 bb bc 3e e6 52 3c a0 30 8e bd e8 b1 1d bd
       -0.022934046 0.012872277 -0.06942868 -0.038499743
000050 32 9f f5 3c 41 5d 6b bd 58 61 2b bd 3b 23 d2 bb
       0.029983137 -0.05746198 -0.04184088 -0.006412891
000060 8b 6b 78 3a 12 b8 34 bc 53 22 4a bb de 97 31 3c
       0.00094764744 -0.011030214 -0.0030843213 0.010839431
000070 f3 60 3a 3d 15 2d bb bd 19 8c c7 bc 52 a0 bb bd
       0.045502614 -0.09139458 -0.024358796 -0.09161438
000080 5b 0b 1b bd c7 8b 9b bd a8 8e 10 3a d0 cd 5d bd
       -0.037852626 -0.0759502 0.00055144215 -0.054151356
000090 f2 c5 4c 3a 4e 31 cc 3d ee fa a9 3c 4a 1f 19 3c
       0.00078114786 0.099703416 0.020749535 0.009345839
0000a0 80 ac 37 bd 52 7a 82 3c d9 44 8a bc 37 37 b3 bd
       -0.044842243 0.015927467 -0.016878532 -0.08750766
0000b0 8b a5 5a 3d 9d de 0e 3c ab 70 b5 bc db fa 42 bd
       0.05338053 0.008720067 -0.02214845 -0.047602516
0000c0 2a ac 3d bd dd 14 d1 3c 56 58 5f bd ba db b8 3c
       -0.046306767 0.025522644 -0.054527603 0.022565711
0000d0 fb 82 09 3d 16 93 67 bc 0f be 46 bd 8e ba 56 bd
       0.03357218 -0.014134189 -0.048521098 -0.052424006
0000e0 7a 95 a5 bc 5a 37 a9 bc d3 80 dd bc 42 51 30 bd
       -0.020212878 -0.020656276 -0.027038967 -0.043046243
0000f0 2c ef 8e 3c c0 4f 85 bd 33 32 50 bd b2 7d 88 bd
       0.01744803 -0.06509352 -0.050829124 -0.066645995
000100 e8 89 8a bc cc f3 65 3d b6 f6 f1 bc cd 78 48 bc
       -0.016911462 0.056140706 -0.029536586 -0.012235832
000110 eb 19 84 3d 78 97 de 3c de 96 1d 3d 97 d6 af bd
       0.06450256 0.027171835 0.038473956 -0.08585852
000120 25 b1 a0 bd a3 6b 78 3c 81 03 50 3c 00 8c 14 3d
       -0.07846288 0.015162381 0.012696148 0.036266327
000130 1e 1b f1 bc c4 f5 a5 3b 46 78 21 bd 5d 4f df 3c
       -0.029431876 0.005064698 -0.039421342 0.027259523
000140 a7 e0 d0 3c 4a f4 67 bd 70 9e 9d bc f4 4b 39 bd
       0.025497748 -0.056629457 -0.019240588 -0.04523845
000150 24 a7 02 3d f8 6b 1e bd dc 60 22 bc 7c b8 a2 bc
       0.03189768 -0.038677186 -0.009910788 -0.01986336
000160 44 60 a0 bd 2b 8a 8b 3b 39 93 16 bb 22 63 cf 3d
       -0.07830861 0.0042584143 -0.0022975935 0.1012633
000170 6c b2 e9 3c 76 2b 99 bd 04 05 25 3d 7c 2a 73 bd
       0.028527461 -0.07478993 0.040287986 -0.059366688
000180 c9 c4 d3 bd a8 35 75 bd cd 54 05 3d 3b 3e 80 3d
       -0.10340268 -0.059865624 0.032551575 0.062618695
000190 a3 bb 06 bd 57 2e a3 bc cd 98 31 bd c9 b8 35 bc
       -0.032893788 -0.019919557 -0.043358613 -0.0110914195
0001a0 f7 fb 77 bd fb 12 11 bd 1e 1c 48 bd 2f bd 47 bc
       -0.060543027 -0.03541849 -0.04885494 -0.012191101
0001b0 e7 8f 12 3d 4a be 11 bd a2 10 67 ba 69 99 2a bd
       0.035781767 -0.035581864 -0.0008814429 -0.04165021
0001c0 b0 cb 66 3c 85 a7 2b 3a 44 62 6a bd 03 9c 4b bd
       0.014086649 0.00065480947 -0.05722262 -0.04970933
0001d0 9f 81 93 bb e8 94 83 3c 57 3c 7d 3d c8 46 7b bc
       -0.004501536 0.016062215 0.061825123 -0.0153367
0001e0 79 35 82 3c 8b 83 15 bd de fd fd bd 52 c1 bf bb
       0.015894638 -0.036502402 -0.12401937 -0.005851903
0001f0 3a 0e 2a bd 84 58 a4 bd 2b 88 d2 bc 33 b1 6d bd
       -0.041517474 -0.080246955 -0.025699696 -0.05803032
