checkpoints/likely-wave-61-value_net-latest.pt (torch, 630030 bytes, 13 tensors)

weight f4 [16, 15, 5, 5]
000000 4f cf 1b 3e f2 64 72 3c 8b 82 4c 3d 0b 08 6d bd
       0.152158 0.014794575 0.049929183 -0.057869
000010 96 9c 76 3d 89 ac 1a bd e7 0f 23 bc a5 dc 57 3d
       0.060207926 -0.0377622 -0.009952522 0.052700657
000020 47 7b a9 3c 45 b2 23 bd 54 0b d9 bd 42 6b 8c bd
       0.020688666 -0.039964933 -0.10597864 -0.06856395
000030 61 97 28 be a0 7a 0b bc 00 07 89 3d e7 60 da 3d
       -0.16463996 -0.008513123 0.06690788 0.10663014
000040 3e e0 6f 3e 06 58 b9 3e ca 75 a7 3d 9b 76 27 3c
       0.23425385 0.3619997 0.08176763 0.010221149
000050 6d 8b 06 bd a0 c1 66 3c af 21 d8 3c 75 52 0b be
       -0.03284781 0.01408425 0.02638325 -0.13605674
000060 49 39 2c be 3e c9 4a 3f d8 a2 7e 3f b0 47 7a 3f
       -0.16818728 0.7921332 0.9946723 0.97765636
000070 63 31 2a 3f 1f 6b 12 3e c4 28 b4 3f e8 89 bc 3f
       0.6648161 0.14298676 1.4074941 1.4729586
000080 b6 a5 bf 3f aa 77 82 3f 9d 70 85 3f b2 c7 7b 3f
       1.4972446 1.0192769 1.0424992 0.98351586
000090 22 be 6c 3f f7 36 9c 3f 44 12 66 3f cd 01 ca 3e
       0.9247762 1.2204274 0.8987162 0.394545
0000a0 df e1 31 3f 9a c1 8a 3f 16 15 01 3f 4a 6d f8 3e
       0.69485277 1.0840333 0.504228 0.4852088
0000b0 07 1b 01 3f 33 24 8f 3e 3c ef 18 3f 93 b3 16 3f
       0.50431865 0.27957305 0.5974004 0.5886776
0000c0 72 af ab 3e 6a 85 9a 3e d5 d6 6c 3e 19 a5 8a 3e
       0.33532292 0.30179912 0.23128827 0.27079085
0000d0 30 82 22 3f ab 03 00 3f 73 be 0d 3f 25 15 99 3d
       0.634799 0.50005597 0.5536873 0.07474736
0000e0 ab c9 67 3e 95 17 e4 3e 13 a1 ec 3d 55 31 0c 3f
       0.22635524 0.44549242 0.1155416 0.54762775
0000f0 21 45 23 3d 3b 68 0a be 28 35 c0 3e cc 1b 74 3e
       0.03986085 -0.13516323 0.37540555 0.23838729
000100 08 fd 15 3e 26 ef 94 3e f2 7d 9c 3d 8a a4 45 3e
       0.14647305 0.29088706 0.0764121 0.19301048
000110 9c fb 69 3d ce 52 21 3e bd 15 19 3d 7d 8b 4b be
       0.05712472 0.15754244 0.037374247 -0.1987743
000120 2f 67 0e 3e a7 7c 13 bc cd c8 8e 3e 45 77 01 3f
       0.13906549 -0.009001887 0.27887574 0.50572616
000130 5b a7 0a 3f 8d 9e 46 3e b6 6a dd 3e 94 c0 9a 3e
       0.54161614 0.1939642 0.43245476 0.3022505
000140 45 4b ab 3e 7f 36 a7 3e d6 3b 31 3f 09 5d 09 3f
       0.33455864 0.32658765 0.6923193 0.53657585
000150 f9 1b 2a 3f ba 95 1e 3e b1 90 23 3e 19 16 23 3f
       0.6644893 0.15486804 0.15973164 0.63705593
000160 dc c3 de 3e d1 01 01 3f e3 cf 64 3f 37 cf 0f 3e
       0.43508804 0.50393397 0.8937971 0.1404389
000170 e5 fa 10 3f 12 fd f5 3e 37 8d f1 3e 15 5b a4 3e
       0.56632835 0.4804464 0.4717805 0.3210074
000180 e5 dc d6 bc 0c cd e4 3d 7b b2 ce 3e d5 f5 00 3e
       -0.026228378 0.11171922 0.40370545 0.12593777
000190 19 83 7e bf 83 1a 7e bf 78 e4 6f bf e1 04 4a bf
       -0.9941879 -0.99259204 -0.9370799 -0.78913695
0001a0 66 73 1b bf e1 46 fe bf 6e 1d b0 bf e8 28 1c c0
       -0.6072296 -1.986538 -1.3758981 -2.4399967
0001b0 0c 62 46 bf 38 75 51 bf 6a 1d 5f bf 25 46 a0 bf
       -0.7749336 -0.81819487 -0.8715426 -1.2521406
0001c0 80 82 80 bf b1 ff 06 bf a1 7f 0f bf dd fb 38 bf
       -1.0039825 -0.52733904 -0.5605412 -0.7225931
0001d0 fc 86 fc bf f0 dd 8d be 67 e8 6e bf b3 e6 a3 be
       -1.9728694 -0.27708387 -0.9332337 -0.32011947
0001e0 1d 74 75 be 6a 38 01 bf ed 8e 02 bf 42 4d b9 be
       -0.23970075 -0.50476706 -0.5099934 -0.36191756
0001f0 e7 28 d4 be 0f cb 5e bf eb e7 4d bf 8a 22 57 bf
       -0.41437456 -0.8702859 -0.80432004 -0.8403708
000200 f5 f1 2b bf 18 95 a3 be 09 35 eb bf e7 7d cd bf
       -0.6716607 -0.31949687 -1.837556 -1.6054047
000210 4a 2b 0a c0 78 b5 30 bf 1d 03 3b bf f9 b5 99 bf
       -2.1588922 -0.690269 -0.73051625 -1.2008659
000220 14 3b 83 bf 0a ff 19 bf 4c 3d e2 be ac c2 fe be
       -1.0252404 -0.60154784 -0.4418739 -0.49757898
000230 fb e7 6b bf 72 50 eb bf 14 a7 ff 3d ec e3 56 bf
       -0.9215085 -1.8383925 0.124830395 -0.8394153
000240 20 f7 92 be e4 e1 c1 be 2f 0c f6 be b1 b8 3b bf
       -0.28704166 -0.37867653 -0.4805617 -0.7332869
000250 7d ba ec be 81 10 c3 be 90 76 ae bf bc 41 55 bf
       -0.4623603 -0.3809853 -1.3629932 -0.8330343
000260 89 96 6b bf 60 20 14 bf bb d2 c8 be 14 67 d7 bf
       -0.92026573 -0.578619 -0.39223275 -1.6828332
000270 f5 8a d0 bf 7d 8e 03 c0 d3 c5 12 bf 08 96 2c bf
       -1.6292406 -2.0555718 -0.57333106 -0.6741643
000280 6c f5 9e bf 94 8c ab bf 09 e7 44 bf ec aa 06 bf
       -1.2418647 -1.3402276 -0.7691503 -0.52604556
000290 07 4c 1b bf 6a fe 55 bf 65 cd d1 bf 25 74 81 be
       -0.60662884 -0.8359133 -1.6390806 -0.25283924
0002a0 13 1f 87 bf 8b 11 b0 be 94 ee a6 be 06 b6 00 bf
       -1.0556358 -0.34388384 -0.32603896 -0.50277746
0002b0 70 05 e6 be 5d 40 e6 be 23 99 a2 be 6c 40 6a bf
       -0.44926023 -0.4497098 -0.3175746 -0.9150455
0002c0 bc 69 45 bf d5 80 74 bf 0c f7 33 bf 90 2f 2b bf
       -0.7711446 -0.9550908 -0.7029884 -0.6686945
0002d0 9f 48 f1 bf 62 f6 b7 bf 3d 5d 14 c0 41 d6 69 bf
       -1.8850287 -1.4372065 -2.3181908 -0.9134255
0002e0 ff 41 2f bf 66 33 a6 bf 36 dc b3 bf ee 75 3b bf
       -0.6846008 -1.2984436 -1.4051578 -0.7322682
0002f0 46 ce dc be f8 33 22 bf da ca 29 bf 59 86 0d c0
       -0.43126124 -0.6336055 -0.6632515 -2.211325
000300 92 c3 b3 3d 5b fb 69 bf 3a ff b4 be 07 bb be be
       0.087775365 -0.91399163 -0.35350972 -0.37252066
000310 ce 17 1e bf 24 6a 24 bf f3 f7 13 bf 9f 10 af be
       -0.61755073 -0.6422446 -0.57800215 -0.34192368
000320 27 35 ff 3d 0f 0b f8 3d 85 46 e6 bd ed 90 46 3f
       0.1246131 0.12111484 -0.11243919 0.7756489
000330 d2 d3 8a 3e a3 27 67 be f3 31 bf 3d a4 44 10 3e
       0.2711473 -0.22573714 0.09335699 0.14088684
000340 45 bf 4c 3e b7 aa 92 3e e3 39 b3 3d 9b 79 0a 3f
       0.19994839 0.2864587 0.087512754 0.54091805
000350 f0 cd 07 3e ed 94 11 be 9c 85 44 3d 72 0e a8 bd
       0.13262153 -0.14216967 0.047978982 -0.0820588
000360 fc 00 d2 be 2b 87 99 3d 10 d9 32 3d fc bd 10 3e
       -0.41016376 0.07496484 0.04366404 0.14134973
000370 73 80 80 bc 8e ee db bd a2 c3 30 be 75 68 42 3e
       -0.01568625 -0.1073886 -0.17262128 0.1898516
000380 5e 81 a5 3d c5 3a 56 3e 5e 34 2e 3e eb 37 13 3e
       0.080813155 0.20920856 0.17012164 0.143768
000390 84 a0 0d 3f 28 98 a1 3e df 2d 0a bd f1 02 8a be
       0.5532305 0.31561399 -0.033735152 -0.2695537
0003a0 ee cb 74 3e f7 e7 1d 3f 8b 9c 1a 3e c1 6e 91 3e
       0.23905918 0.61682075 0.15098779 0.2840481
0003b0 24 9b ec 3e 0b 9c 4e 3e fe 79 30 be e4 73 a7 bd
       0.46212113 0.20176713 -0.17234036 -0.08176401
0003c0 85 11 97 be 77 9b ad be 1e f5 f3 3d 26 42 09 bd
       -0.29505554 -0.33907673 0.11911987 -0.03351035
0003d0 32 83 6e 3e 9e 99 37 3e db 9f d5 bd 71 f2 0f be
       0.23292235 0.17929694 -0.10430881 -0.14057328
0003e0 52 34 14 3e 91 b5 4e 3e 1f b0 5e 3c 08 41 f9 3b
       0.14473084 0.2018645 0.013591795 0.0076066293
0003f0 93 0a c7 3d 03 76 ec 3e 25 93 0f 3e f0 65 84 3d
       0.09718814 0.46183786 0.14020975 0.064647555

bias f4 [16]
000000 7e 97 c3 3d d0 3a e9 3d 72 66 02 3e 10 7a 84 bd
       0.09550379 0.11388171 0.12734392 -0.06468594
000010 02 29 3e 3e 19 7b 66 bd 53 1c ea 3d ce 3e 7f be
       0.1857033 -0.05626974 0.11431184 -0.24926302
000020 a1 4b 07 3e 9a 68 80 be a6 f5 7f 3d 08 a0 99 3b
       0.13212444 -0.25079805 0.062490128 0.0046882667
000030 41 90 13 bc d5 76 d8 be cb f6 9b bd e7 15 07 3e
       -0.009006561 -0.42278162 -0.076154314 0.13191949

weight f4 [32, 16, 3, 3]
000000 c7 89 c9 be 19 92 96 be ba 86 83 bf bd b1 b1 be
       -0.39362928 -0.2940834 -1.027549 -0.34705916
000010 a9 2f e8 be e9 a4 00 bf a6 5e ac bd 21 12 8e be
       -0.45348862 -0.5025163 -0.0841649 -0.27748206
000020 bc 96 05 bf 39 10 e2 3e 1f f8 88 3e f4 df 96 bd
       -0.5218313 0.44153002 0.267518 -0.073669344
000030 f0 46 99 bf 85 60 15 bf 66 5c f5 be ac b8 5a 3f
       -1.1974773 -0.583504 -0.47922057 0.85438037
000040 3c c4 25 3f 83 42 e0 3e 99 f5 25 bf c3 6d 45 3c
       0.64752555 0.43800744 -0.6482788 0.012050095
000050 f8 52 58 bf 8a a4 80 be cc 66 5c 3d d0 f5 a6 be
       -0.845016 -0.25125533 0.053808972 -0.32609415
000060 a6 c9 19 be da de 3b 3e 6b 64 15 bf 89 5d 6a be
       -0.15018329 0.1834673 -0.5835635 -0.22887243
000070 09 74 d3 3e 18 07 30 bf dd dc 8a bf 1d f2 2d 3f
       0.41299465 -0.68760824 -1.0848652 0.6794756
000080 88 f8 76 be 32 37 65 3d 7c 16 38 3f 9d ed ec be
       -0.24118245 0.05596084 0.7190931 -0.46275035
000090 b8 d5 63 bf 98 7a 5f bf c9 86 8d bf ec 6b bc bf
       -0.88997984 -0.8729644 -1.1056758 -1.4720435
0000a0 55 1a a1 bf b4 fb f1 bf 17 1e 9b bf 87 ba 6d bf
       -1.2586161 -1.8904939 -1.2118558 -0.92862743
0000b0 e2 1e b4 bf f0 84 57 bf 7d 32 62 3f 98 3c 88 3e
       -1.4071925 -0.8418722 0.8835829 0.2660873
0000c0 03 18 10 bf 14 bb c4 3e d7 f2 bb be 90 cd 48 bf
       -0.5628664 0.3842398 -0.3670871 -0.78438663
0000d0 8d 0e d7 3f d9 ad 1c 3d b9 1a aa bf 46 dc 26 be
       1.6801316 0.03825173 -1.3289405 -0.16294965
0000e0 1e ce 88 bb f4 b8 07 3f 1f 12 28 bf cc 5d e3 be
       -0.0041749617 0.5301659 -0.6565265 -0.444075
0000f0 c1 81 e8 3e 28 0b 83 be 2c 21 ce 3e 62 fb f1 3d
       0.45411494 -0.2559445 0.40259683 0.118155256
000100 8a 59 af bf 51 89 86 3e 4f 03 a0 3e 03 d3 36 bf
       -1.36992 0.2627664 0.31252524 -0.7141573
000110 89 05 26 be 10 d9 1f 3f 7f ed 32 bf a2 2b d8 bd
       -0.16213049 0.62440586 -0.6989364 -0.10555197
000120 85 1d 5e bf c5 d5 41 3c 45 f0 83 3f 63 d6 82 3f
       -0.86763793 0.011830752 1.03077 1.0221676
000130 c9 b6 8b 3f 84 2e a7 3e 58 78 13 3f 0f ec bc 3f
       1.0915157 0.32652676 0.57605505 1.4759539
000140 f0 6b 22 be 0e 61 02 be ad 59 91 bf 9b c2 66 be
       -0.15861487 -0.12732336 -1.1355492 -0.22535174
000150 e8 c8 27 3f 80 0e ca 3d 99 6d e6 be 43 ec 31 3f
       0.65540934 0.09866047 -0.4500549 0.6950113
000160 b9 fd e6 be 04 f6 8d 3f 42 56 7c be 02 81 26 bf
       -0.4511545 1.1090703 -0.2464228 -0.650406
000170 9b 83 6e bf b5 20 0b 3f ff 28 31 bf 54 6a 2b bd
       -0.93169564 0.5434678 -0.6920318 -0.04184945
000180 7a f3 90 be 0d f7 39 bf c2 4f 66 bf 68 30 2f 3f
       -0.28310758 -0.72642595 -0.8996545 0.6843324
000190 7c 1d 49 bf 42 8c 7b 3e 01 ac 5a 3f 34 0c 59 bf
       -0.78560615 0.24565223 0.8541871 -0.84784245
0001a0 2c 76 82 3d 21 08 e1 bd ad 10 23 bf c0 e2 0f be
       0.06370196 -0.109878786 -0.6369732 -0.14051342
0001b0 e3 6b 86 be 2e 60 5e 3f 4d bc 02 bf eb a2 a7 bf
       -0.26254186 0.8686551 -0.51068574 -1.3096594
0001c0 51 52 4b 3f 9e 9f 9c 3e 62 29 5d 3f cb d9 82 3f
       0.7942248 0.30590528 0.8639127 1.0222715
0001d0 6d 8f fd bd 76 b2 af be 44 22 72 3f 1d 44 c0 bd
       -0.12380872 -0.34315842 0.94583535 -0.093879916
0001e0 c8 7e 04 3f 4a 9d a1 3e 15 76 9f be d2 34 f4 be
       0.5175595 0.31565315 -0.31144777 -0.4769655
0001f0 3a fc e9 3e 48 69 b2 be 4e 9c 6c 3b 97 7d 0a 3f
       0.45700246 -0.34845948 0.0036103907 0.54097885
000200 ff f9 64 3f 62 65 46 3e 05 99 b2 3f 64 89 a1 be
       0.89443964 0.19374612 1.3952948 -0.31550133
000210 5b d9 55 bf ad 2f 39 3e 78 b7 79 3f 6d 05 db 3d
       -0.83534783 0.18084593 0.97545576 0.10694394
000220 bb a8 04 3d 33 25 9d be 3b 8e 67 bf 3f a4 fd 3d
       0.032387476 -0.30692443 -0.904514 0.12384843
000230 db e1 53 bf d3 73 96 be 93 da a1 3b be d3 0d bf
       -0.82766503 -0.29385242 0.004939386 -0.5540122
000240 4d f0 ac be 84 8d 8e bd de 74 45 bf 4a 45 e2 be
       -0.33777085 -0.06960586 -0.7713145 -0.44193488
000250 e9 84 33 bb 2d 59 e5 bc 82 09 bf bd c8 f5 02 3d
       -0.0027392453 -0.027996624 -0.09327985 0.031972677
000260 3e 49 7d be b0 f1 35 be 6e f9 0c be 47 24 45 3c
       -0.24734971 -0.17767978 -0.13767025 0.012032575
000270 14 79 c8 3d f4 69 02 3e ad 75 66 bf ce 82 af bd
       0.09788719 0.1273573 -0.9002331 -0.08569871
000280 9e 7c 98 be 08 78 13 bf 19 06 2f 3d da b4 82 be
       -0.29782575 -0.5760503 0.042730425 -0.25528604
000290 88 d8 85 be 2a 50 e3 3d 7d 34 3f 3e 0b 34 69 bd
       -0.26141763 0.110992745 0.18672366 -0.056934398
0002a0 55 b7 24 3f f1 e0 be 3e a8 76 be bc 50 4b 54 be
       0.6434224 0.37280992 -0.02324994 -0.20731854
0002b0 14 76 4d bd 50 07 ad 3e 95 8b 69 3d ce 3e 95 be
       -0.050161436 0.33794641 0.05701788 -0.2914948
0002c0 1d 7a 8e 3e 61 b0 70 bd d7 a3 ef be 1b 20 f3 be
       0.2782754 -0.058761958 -0.46804687 -0.47485432
0002d0 5a da c2 bf 9c e1 52 bf a4 db d5 be 34 75 21 bf
       -1.5222886 -0.823755 -0.41769135 -0.6306946
0002e0 dc b1 40 be 30 0d a3 3e 6d b7 38 3e 1a 3c fe bd
       -0.18817848 0.31846 0.18038721 -0.12413807
0002f0 bf cc 41 3e 4f 72 8e be bc 15 08 bf 29 44 91 ba
       0.1892576 -0.27821586 -0.53158164 -0.0011082935
000300 e4 d4 1b 3f 18 87 52 bf c0 1d 85 be d5 56 e6 3e
       0.6087172 -0.82237387 -0.2599926 0.44988123
000310 3c 8c 21 bf 0d 20 3b bf 52 ba 73 be 91 34 8c bd
       -0.63104606 -0.7309578 -0.23801544 -0.06845964
000320 1b a5 a7 3c b4 66 29 be ef 47 0d bf d8 cc 12 3e
       0.02046447 -0.16543084 -0.55187887 0.14335954
000330 39 d3 0d 3f 6c e9 b1 3e fd 63 dc be e3 46 1c 3f
       0.55400425 0.347484 -0.43045035 0.61045665
000340 2e 12 2c 3f e7 19 8f 3e c0 10 83 be 86 14 a2 3e
       0.6721524 0.2794945 -0.25598717 0.31656283
000350 fc af 0a 3d d4 55 90 3d c0 36 0a be 3a 4a 0c bf
       0.033859238 0.070476204 -0.13497448 -0.5480076
000360 b4 13 82 be 38 d9 f7 3e 5f a1 27 3f ab c3 e3 be
       -0.25405657 0.48407912 0.6548061 -0.4448522
000370 82 67 3c be 2d 17 26 bf 4f 39 40 3e 0f 92 13 3e
       -0.1839886 -0.64879113 0.18771861 0.14411186
000380 05 7e 39 bf a2 14 79 bf 01 e2 03 bf c8 05 05 3f
       -0.72457916 -0.9729711 -0.5151673 0.51961946
000390 b1 3a 49 bf 93 31 3e 3f 1e 73 ae 3e e2 cd 91 bf
       -0.7860518 0.74294394 0.34072202 -1.1390955
0003a0 a6 21 f2 bc ce a0 2e 3f c4 b5 1d 3e 41 6a b2 bf
       -0.02955706 0.6821412 0.1540137 -1.3938676
0003b0 82 2c fd bd 65 43 2f be 6a eb e0 be 24 a2 51 bd
       -0.12362005 -0.17115553 -0.43929607 -0.05118002
0003c0 3a f1 c5 3e 96 31 af bd 32 88 7d 3e a8 63 06 be
       0.38660604 -0.0855438 0.24758986 -0.13123953
0003d0 b1 5d 82 38 88 e0 5d 3e 36 16 5a 3c 6a 01 1b 3e
       6.2163344e-05 0.21667683 0.01331096 0.15137258
0003e0 47 42 85 bd d4 b5 bf be 64 2a 81 be dd 6f 86 3e
       -0.06506782 -0.3744341 -0.25227654 0.2625722
0003f0 dd 26 22 be aa d3 93 be c5 92 2a be 0c 34 d3 be
       -0.15835138 -0.28872424 -0.1665755 -0.41250646

bias f4 [32]
000000 07 29 83 3e 73 9a 73 be 33 02 d5 be db a9 38 bd
       0.2561724 -0.23789386 -0.4160324 -0.04508386
000010 bd 57 f9 3e 1f 86 12 bf d1 c7 03 be db e9 60 3d
       0.48699751 -0.572359 -0.12869193 0.054910522
000020 81 a1 88 bf 63 46 9a 3e 1e e5 75 be fc fc 36 be
       -1.0674287 0.30131826 -0.24013183 -0.17869943
000030 69 c7 3a 3f 64 20 4b be 29 cb c6 3c 6b 8b 13 be
       0.72960526 -0.19836575 0.024266796 -0.14408652
000040 c1 d2 db 3d ab 28 d9 be d6 54 68 bd 4a 39 1f bf
       0.107335575 -0.4241384 -0.05672153 -0.6219679
000050 38 94 3f bf 5d 55 90 be c9 3a 8f be 50 db 2b be
       -0.7483554 -0.28190127 -0.27974537 -0.1678288
000060 99 b3 4c 3d d8 0b a2 be d8 8e 6a be a8 6c 9b 3e
       0.049975965 -0.3164966 -0.22906053 0.30356336
000070 b7 d7 fe be b0 3c 18 bf b0 2f 42 3f fd 5c d4 3e
       -0.49773952 -0.594676 0.75854015 0.41477194

weight f4 [64, 32, 3, 3]
000000 48 0c 14 bf 11 d4 98 bf 07 f1 88 3e 21 a1 85 bd
       -0.5783124 -1.1939718 0.2674639 -0.065248735
000010 8d 9d 01 c0 54 11 34 3f 94 7d 34 3e ef f4 9f bf
       -2.0252411 0.7033894 0.17626029 -1.2496623
000020 e9 12 35 bd 9a f5 25 3f 89 38 90 3e 40 49 32 3e
       -0.044207487 0.64827883 0.28168133 0.17410755
000030 95 a8 a2 3f 24 e8 7c 3f 83 d5 7a 3f 9e 79 2c 3f
       1.2707697 0.9879172 0.97982043 0.67373073
000040 fe b6 64 3e a3 24 95 3f 67 f1 ba 3f 81 20 11 bd
       0.22335431 1.1651806 1.460492 -0.03543139
000050 4a 79 6f 3f d5 73 a5 3e 00 81 35 bf d7 47 c6 3e
       0.9354445 0.32314935 -0.70899963 0.38726684
000060 9e f3 54 3f 15 85 56 3f 4f a6 0a bf b0 fb 98 bf
       0.8318423 0.8379682 -0.54160017 -1.1951809
000070 cf a5 a6 bf c3 4d f5 be 5e 9b a9 3e 15 bf 69 bf
       -1.3019351 -0.4791089 0.33126348 -0.91307193
000080 fd 32 1d bf 53 00 39 bf 8c b3 2d bf 9f 53 6c bf
       -0.61405927 -0.7226612 -0.6785209 -0.92315096
000090 af 90 de bf 3b 26 da bf 80 81 1b bf 8d 2e 9a be
       -1.7387904 -1.7042917 -0.60744476 -0.3011364
0000a0 4f 47 64 bf 42 fa 3d 3e 82 02 6a bf e3 ab 61 bf
       -0.8917131 0.18552497 -0.91410077 -0.88152903
0000b0 0e 6b a2 bd a4 dc 6c bf 8f 93 39 3f 5f 52 af 3f
       -0.07930575 -0.9252417 0.7249078 1.3697013
0000c0 2d d7 4a bf 91 3e 53 be 5c 85 12 3e 42 0b 2a 3e
       -0.7923458 -0.20629336 0.14308685 0.16605857
0000d0 13 a3 17 bd 37 67 1e 3f e4 55 12 bf 89 0d b4 3e
       -0.037020754 0.61876243 -0.5716231 0.35166577
0000e0 e5 fd 8e be 21 39 ea 3e 8d de b7 3f b4 cb 08 3e
       -0.2792808 0.4574671 1.4364792 0.13358957
0000f0 da 8a b0 3e 42 4a 41 3e 82 ef 31 3e 46 99 a5 3d
       0.34480935 0.18875983 0.17376521 0.08085875
000100 30 d0 44 3f 0b a3 07 3e b3 d9 93 3e df 7a 35 3f
       0.7688017 0.1324579 0.2887703 0.7089061
000110 bf 2f 0e 3f 4c 64 55 3e a9 df 08 be e3 b1 ff be
       0.55541605 0.20839041 -0.1336657 -0.49940404
000120 86 01 de bf 82 4d 6a bf b1 2e 2a 3f 48 a9 46 bf
       -1.7344215 -0.9152452 0.66477495 -0.7760205
000130 a4 26 10 bf 12 89 2b 3d a3 ef 52 bf 6c d8 ff be
       -0.5630896 0.041878767 -0.82396907 -0.49969804
000140 50 ac 16 be c2 75 ac be 87 31 0b bf 6d 67 7f bf
       -0.1471417 -0.33683592 -0.5437245 -0.9976719
000150 79 ec de 3e 25 92 9f 3e 51 70 12 3e dd b2 5e 3d
       0.4353979 0.31166187 0.14300658 0.054369796
000160 4a 45 12 3f 08 fa 98 3d f2 fd 71 3d 8e 11 ae be
       0.57136977 0.07469565 0.05908007 -0.33997768
000170 6b ba 4e be 77 33 62 be 76 84 96 bd de 8a 8e 3e
       -0.201883 -0.22089945 -0.07349484 0.27840322
000180 22 8c 9a 3e ba 5d e5 3d 6b 7d 17 3f 8b d6 4d 3f
       0.30185038 0.111995175 0.5917575 0.8040549
000190 27 99 88 3e 13 e4 52 3f 24 c0 86 bf f6 64 94 bf
       0.26679346 0.82379264 -1.0527387 -1.1593311
0001a0 90 ba 5d 3e 82 09 5e 3f 1b 0f 77 3e f0 49 96 be
       0.21653199 0.8673326 0.24126856 -0.29353285
0001b0 bc d5 38 bf fe c1 20 3f a2 65 c8 bd 29 82 5d 3d
       -0.7220113 0.6279601 -0.0978501 0.05407921
0001c0 ab 13 00 bf fb 69 a2 be 9b 12 1a bf fb fb 6e bd
       -0.5003001 -0.31721482 -0.6018464 -0.058345776
0001d0 44 aa 29 be c0 cb d2 3f 3d 47 62 3f e1 41 fe 3e
       -0.16568857 1.646843 0.8838995 0.49659637
0001e0 f3 aa da 3c bf 0d 58 bf 18 98 87 bf a6 32 00 bf
       0.026692843 -0.84395975 -1.059329 -0.50077283
0001f0 49 40 86 bf 47 1d bc bf 67 3e e5 be ee af 11 bf
       -1.0488368 -1.4696435 -0.44774172 -0.5690907
000200 fa b2 85 3e 9c 60 42 3f 84 fe b2 3c c6 07 52 3f
       0.2611311 0.75928664 0.021849878 0.8204311
000210 c9 63 3d 3f f7 a1 70 3f 90 45 cb 3d f8 06 8c 3e
       0.73980385 0.9399714 0.09925377 0.27349067
000220 2d 96 12 c0 e5 e9 4e 3f 68 1c bb 3c 57 6a 55 3e
       -2.290416 0.80825645 0.022840694 0.20841347
000230 83 30 87 3e ca fa 16 bf 97 44 31 3f 17 c4 dd 3e
       0.264042 -0.58976424 0.69245285 0.43313667
000240 e0 c1 c4 3d 49 6b 16 be 49 9a 44 bf cd 08 64 3e
       0.09607291 -0.14689364 -0.7679792 0.22268982
000250 cc 38 00 3e b5 83 a7 bd d4 3e b0 3e 60 0f 91 3e
       0.12521666 -0.08179418 0.34422934 0.28332043
000260 04 e4 2a 3f 20 37 9d 3f a4 57 ae 3f 32 da bb be
       0.66754174 1.2282448 1.3620496 -0.36689907
000270 46 17 06 bf 15 f8 15 3e 93 c0 5d bc 6d d2 3f ba
       -0.5237926 0.14645417 -0.013534683 -0.00073174277
000280 d7 81 64 3f 60 ac e8 be 64 00 2f 3f 53 25 bf be
       0.8926062 -0.45444012 0.6835997 -0.37333164
000290 4c 50 cb be 72 d6 0b 3f 92 f2 9a 3e 28 4e ba 3e
       -0.397097 0.5462409 0.3026319 0.36387753
0002a0 6f dc 01 3e f6 fa 9e 3e 41 93 ec 3e b4 94 e2 be
       0.12681745 0.31050843 0.46206096 -0.44254076
0002b0 2d f3 41 bf 50 86 cd 3f c2 d0 55 bf 8e cc 36 bf
       -0.7576168 1.6056614 -0.83521664 -0.71405876
0002c0 0c 89 df 3e 94 04 ae be 49 e1 77 bd 45 0b 12 3d
       0.43659246 -0.33987868 -0.060517583 0.03565528
0002d0 46 5a 07 3e 85 94 be 3f b1 24 26 3e 4a 0f ce bc
       0.1321803 1.4889075 0.16224934 -0.025153775
0002e0 f5 7f 24 bf 2f 0b 8c bf 49 f4 94 3e 5b 00 9f 3d
       -0.64257747 -1.0940913 0.29092625 0.0776374
0002f0 62 c1 1d 3f d3 89 07 3e 68 41 45 3e 6a c4 7e bf
       0.61623204 0.1323617 0.19263232 -0.99518454
000300 8f 8f a7 be 7d 12 3d bf 55 43 89 3c 9a e3 ca 3e
       -0.32726714 -0.73856336 0.01675574 0.3962677
000310 3a e2 33 be 25 03 1a 3e ca 8d bc 3d d5 54 89 3e
       -0.17566767 0.15040262 0.092067316 0.26822534
000320 c0 dc ae 3f 8d dc 0c be a4 b9 2a 3f ea 29 8d 3e
       1.3661118 -0.13756008 0.66689515 0.2757104
000330 39 ae 5c 3f 69 b5 4c 3e aa ac 78 be 64 4d 16 bf
       0.8620334 0.19991077 -0.24284616 -0.5871184
000340 64 93 4a bf 8b b2 5c 3e c8 44 d8 bd bc 56 d3 be
       -0.7913115 0.21552484 -0.10559994 -0.4127711
000350 b8 46 1d bf 24 be f3 3e da e2 51 3d 8d 70 2b 3e
       -0.61436033 0.47606003 0.051241733 0.16742153
000360 0e 4f 2b 3f 47 6d a6 3e 7e 8a ea 3e 61 26 00 bf
       0.669175 0.32505247 0.45808786 -0.5005856
000370 90 83 4a bf e1 04 ad 3d 97 63 9e be 4b 7f 00 c0
       -0.79107 0.08448196 -0.30935356 -2.0077693
000380 a4 4b 3c bd 7c 47 d1 be 6a c8 31 3e 65 14 c1 bf
       -0.045970574 -0.4087485 0.17361608 -1.5084349
000390 bb 3f ec be ae 00 3a bc 56 ca d8 be 73 9b 32 be
       -0.46142372 -0.011352701 -0.4234187 -0.17442112
0003a0 34 b5 09 bf 98 bf 64 3f 10 cd c4 be 83 43 4b 3f
       -0.5379212 0.8935485 -0.384377 0.7939989
0003b0 18 f8 ae 3e d5 d4 b8 be aa 7b 43 be 9f a7 3b 3e
       0.34173656 -0.36099878 -0.19090143 0.18325661
0003c0 e2 98 40 3e d8 e9 3f 3f f7 16 c2 be be 8a 9a be
       0.1880832 0.7496619 -0.37908146 -0.30183977
0003d0 93 ff dd be 90 8c 77 3d 5f 4c da 3d 7a d4 59 3e
       -0.4335905 0.060436785 0.10659098 0.2127246
0003e0 d6 16 49 3c fa ce 0d bf a4 23 88 3e a4 ef ef be
       0.012273511 -0.55393946 0.26589692 -0.4686252
0003f0 53 76 61 bf aa 1e 18 bf 51 ed a1 be e3 af e1 bc
       -0.88071173 -0.5942179 -0.3162637 -0.02754969

bias f4 [64]
000000 1a 9f a0 be b1 ce ca be b8 45 20 bf ff fa 9d be
       -0.31371385 -0.39610818 -0.6260638 -0.30855557
000010 7c 72 df 3c 04 f0 ef 3d b9 fb e8 be 8f ca 99 bd
       0.02727627 0.11715701 -0.4550455 -0.07509338
000020 ee 3d d8 bd 49 3a c0 be d5 74 a1 3e ad 28 c4 bd
       -0.10558687 -0.37544468 0.31534448 -0.09578071
000030 40 bd 1b be d9 f3 b5 be 88 d8 13 3e 12 43 1a bd
       -0.15208912 -0.35537603 0.14438069 -0.03766162
000040 f2 67 b5 3e 87 e1 a4 be 6b f0 7e be c7 b9 4f 3e
       0.35430866 -0.32203314 -0.248964 0.20285712
000050 5e 5c c4 be 1f 5c 05 be 1b fa 32 be 64 3d c8 bd
       -0.3835172 -0.13023423 -0.1747822 -0.09777334
000060 ac 6e 18 bf 67 48 82 3d e4 07 70 be a8 6e 23 be
       -0.5954387 0.06361466 -0.2344051 -0.15960181
000070 c0 af b5 bd b0 d9 82 be 04 85 fd bb 8a b7 a5 be
       -0.08871412 -0.25556707 -0.007736804 -0.32366592
000080 95 77 a1 3e 41 96 94 be 86 5b 78 3e 06 7c 86 bd
       0.31536546 -0.29020885 0.24253663 -0.06566624
000090 02 92 16 bf fb bc 11 bf 37 52 72 bc 85 20 bd be
       -0.5881654 -0.56928986 -0.014790109 -0.36938873
0000a0 13 f0 ec 3d c4 99 83 be 22 2a fb be 95 ec 20 bf
       0.11569228 -0.2570325 -0.49055582 -0.62860996
0000b0 28 ec 26 bd b3 ca 44 bf 78 b6 ff be b6 0c 52 bf
       -0.04075256 -0.76871794 -0.499439 -0.82050645
0000c0 0f 00 ad bd 83 a8 17 bf 6c 35 2d bd e3 7d 0f be
       -0.08447277 -0.59241503 -0.042287275 -0.14012866
0000d0 ff c6 18 be df c2 89 be ac ba 9d 3d 45 37 43 bf
       -0.14919661 -0.26906487 0.077016205 -0.7625621
0000e0 22 f0 e3 be c5 41 cb be f5 c9 11 bf 8a 4a 90 3e
       -0.44519144 -0.39698616 -0.56948787 0.2818187
0000f0 6b 3d 75 be 80 69 cb bd 8c 3a 98 be dd 7c 91 be
       -0.2394921 -0.09932232 -0.29732168 -0.28415576

weight f4 [128, 64, 3, 3]
000000 5e 26 8a be 79 1e fd 3b a9 94 16 3f 7f 9f 98 3f
       -0.26982397 0.00772458 0.5882059 1.1923674
000010 76 1b 96 3e 8c 63 54 3f e3 bd b0 be a5 40 e1 be
       0.29317826 0.82964396 -0.34519872 -0.43994632
000020 b1 5a fd bd 5b 54 62 3f fd aa e9 3e 07 78 12 3e
       -0.12370814 0.88409966 0.45638266 0.143036
000030 26 d1 17 3f 50 98 89 3e 6b 0b 69 bf 1f 3f 21 3f
       0.5930351 0.26874018 -0.9103305 0.6298694
000040 bf ce 81 3e 8b e9 09 3f 33 5b 1e 3f b7 24 f1 be
       0.25353047 0.53871983 0.6185791 -0.47098324
000050 f1 38 ac be e3 ef 0c 3f ae 75 0f 40 c6 63 12 3f
       -0.33637193 0.5505354 2.2415576 0.5718349
000060 9c f1 e8 bc da 41 94 3e fe 96 5f bf 97 55 1c be
       -0.02843552 0.2895649 -0.8733977 -0.15267025
000070 c7 b8 ef 3f 6b c1 83 3f e5 92 fd be 92 d3 1f 3e
       1.8728265 1.0293401 -0.49526134 0.15608051
000080 c9 10 05 bf 08 9e 2d bf 9c 25 03 3f a6 f3 31 bc
       -0.5197874 -0.6781926 0.5122926 -0.010861313
000090 c4 0a 13 be 1b 58 49 3f 8e f1 93 3f 68 99 65 bf
       -0.14359576 0.78650063 1.1558092 -0.89687204
0000a0 67 96 13 3f 2c 1c 0b 3e 03 9f f1 be cf 5e 08 3e
       0.5765137 0.13584965 -0.4719163 0.13317417
0000b0 50 21 1f 3f d7 50 7e bf d1 f7 c2 be c7 7e 23 3c
       0.62160206 -0.993421 -0.38079694 0.009978957
0000c0 30 92 a5 be c0 67 da be 7d 79 3d bf 0f 68 07 40
       -0.32338095 -0.4265728 -0.740135 2.1157262
0000d0 79 50 1e bf 47 44 87 bf b1 94 e1 be 41 f4 58 bf
       -0.6184154 -1.0567712 -0.44058755 -0.847477
0000e0 05 f9 2b bf 97 c9 92 3e b9 6f e0 3e e7 90 9a 3f
       -0.6717685 0.28669426 0.43835238 1.2075471
0000f0 fc 23 06 40 be 06 fa 3e 78 b9 07 bf 0d 79 04 be
       2.0959463 0.4883327 -0.5301738 -0.12936802
000100 ae 7a db bf aa ec 29 bf 26 02 bc 3f 49 45 0b bf
       -1.7146814 -0.66376746 1.4688156 -0.54402596
000110 0b d7 96 bf 8d 5d 1e 3f 6d 35 46 3f af c5 80 bf
       -1.1784376 0.618615 0.7742527 -1.0060328
000120 14 7f b1 3f b9 1c e0 bd 4f 2a 3a bf 2b 22 6c 3e
       1.3866906 -0.109429784 -0.7272081 0.23059909
000130 87 4d 0f bf 31 97 dc bf 8c d7 83 bd f3 77 2d 3e
       -0.5597767 -1.723364 -0.06437597 0.16940288
000140 06 9a 52 3f 4c f6 76 3f 7e 82 ec 3a 2e a1 b8 be
       0.8226627 0.9646957 0.0018044261 -0.3606047
000150 0d 58 b4 3c be 55 19 bf a5 64 b5 be 6e 92 8f bf
       0.022014642 -0.5989646 -0.35428348 -1.1216562
000160 4f 35 43 bf 72 ff 79 bd 2d 84 af 3f de 40 01 3f
       -0.7625322 -0.061034627 1.3712212 0.50489604
000170 91 d7 b4 3e 1a 3f ad 3d 5e fd 92 bf 8a 61 d6 3e
       0.35320714 0.08459301 -1.1483572 0.4187129
000180 6d a7 19 3f 7a cb ac be a2 ec 8e be 77 78 a2 be
       0.60021096 -0.3374899 -0.27914912 -0.31732532
000190 ad 1d a9 be fb e0 0e bf 06 17 3e 3f 96 62 36 be
       -0.33030453 -0.5581204 0.7425388 -0.17811045
0001a0 b5 2c b6 3e a4 19 3b bf bb 81 4d 3f 12 45 84 3f
       0.35580984 -0.73086 0.8027608 1.0333579
0001b0 c3 de 1c bf 9a a3 9a 3f e2 56 8c 3e e6 4e 9a be
       -0.6127741 1.2081177 0.27410036 -0.3013832
0001c0 7f 04 10 3e 45 9f 21 3e 57 62 8f bf 61 7e 83 bf
       0.14064215 0.15783413 -1.1201886 -1.0272943
0001d0 5c cc fa bf ff 92 b7 bf 92 1f 87 3e 64 87 ef be
       -1.9593616 -1.4341735 0.26391274 -0.46782982
0001e0 df 01 c2 3e fe 9e 37 bd a7 b3 6a bf dd ac 81 bf
       0.37892053 -0.04482936 -0.9168038 -1.0130879
0001f0 4c f2 98 3f a8 dd cf be 24 bf 31 3e dc fe 16 bd
       1.1948943 -0.40598798 0.1735807 -0.036864147
000200 c8 5a 24 3f 7c 41 cf bf 16 32 d4 bf 62 54 7b 3f
       0.6420102 -1.6191859 -1.6577785 0.9817563
000210 df 51 5e bf fd e6 ef bd 22 10 a0 be 1a 82 e2 3f
       -0.86843675 -0.117139794 -0.31262308 1.7695954
000220 3c 40 bc be a4 08 ba 3e 15 5f 7d be 34 cd 92 bf
       -0.36767757 0.36334717 -0.24743302 -1.1468873
000230 9f 16 31 bf 86 75 c3 3f ae 85 0f bf 5b 48 88 3e
       -0.6917514 1.527024 -0.56063354 0.26617703
000240 21 fc 6c bf a8 37 e3 be e9 47 10 bf 79 e8 f6 bd
       -0.9257222 -0.443784 -0.56359726 -0.120560594
000250 61 58 a0 be bc 56 0f bf 76 d2 61 bf 81 8c 79 bf
       -0.31317428 -0.5599172 -0.8821176 -0.97480017
000260 a0 05 58 bf 01 1f 1d 3d 5d 1e 00 3f 8e 07 5a 3d
       -0.84383583 0.038359646 0.5004633 0.05322986
000270 82 cd 8d 3f 2f 29 8b 3f bf 02 4a 3e d8 73 cb 3f
       1.1078341 1.0871943 0.1972761 1.5894728
000280 66 28 9c 3f 4c 0f 0e 3f 2a f5 d0 3f 55 6d 8e bf
       1.2199829 0.5549209 1.6324818 -1.1127115
000290 9d 8e 37 3e d9 c3 69 bf fc bd a4 3f 72 53 a0 be
       0.17925496 -0.91314465 1.2870479 -0.31313664
0002a0 d7 32 89 be 77 fb 94 3e 70 11 72 3e 7e e7 25 bf
       -0.267966 0.29098102 0.23639464 -0.64806354
0002b0 10 2e ed be 6b a1 ae be 40 a7 38 bf bf 6e ae be
       -0.46324205 -0.34107527 -0.72130203 -0.34068868
0002c0 6c 8f 0e bd ff 37 dd be d6 9e 26 bf bf bd da bd
       -0.034804747 -0.43206784 -0.65086114 -0.106807224
0002d0 e0 86 6c be 33 1b 07 3f 3e 68 ac 3c 6d 8c 0a 3f
       -0.23098326 0.5277588 0.0210458 0.5412052
0002e0 5b 68 e3 3e 19 4c 3f 3f 87 a5 16 3f c3 ab 62 3d
       0.44415554 0.7472549 0.58846325 0.055339586
0002f0 a7 4f d3 3f 66 a6 a8 3d c0 00 0d 3f 10 9e e8 3e
       1.6508683 0.08234863 0.5507927 0.45433092
000300 69 bf 85 3f 04 0a 70 3f a8 f1 12 3f 6a 74 aa 3e
       1.0449039 0.9376528 0.5739999 0.33291942
000310 20 eb 82 be f6 e8 a7 bf 0f 35 3f bf 77 ec e7 be
       -0.2557001 -1.3117969 -0.74690336 -0.45297596
000320 8f 55 08 3d d6 f3 83 3f d9 16 5f 3d c4 8f 0d bf
       0.03328472 1.0308788 0.05446515 -0.55297494
000330 1e a0 9a 3e 90 b8 93 bf ea c9 7e 3f e4 1f a5 be
       0.30200285 -1.1540699 0.99526846 -0.32250893
000340 07 3e 46 3f 16 3d 8a bd 9b b8 19 bf e9 ec 0f 3f
       0.77438396 -0.067499325 -0.6004731 0.5622087
000350 7b a4 8b bf 7c 21 5d 3e d6 65 6e 3c e8 a4 0d 3f
       -1.090957 0.21594805 0.014550647 0.5532975
000360 81 46 1f 3e 90 57 fa bd 6b ad 20 be b3 bf 86 3f
       0.15554239 -0.122237325 -0.15691154 1.0527252
000370 c3 1c 3f be 40 18 f5 3e 45 eb 33 3e 4d 34 a3 be
       -0.18663315 0.47870064 0.17570217 -0.3187584
000380 cc 2b 2f 3f 60 b7 85 bf a6 8d be 3d ab 76 0b bf
       0.68426204 -1.0446587 0.09304361 -0.5447795
000390 30 f8 0e bf 4c 12 77 3e b7 0e 24 3f 3a 9a ce bf
       -0.55847454 0.24128073 0.64084953 -1.6140816
0003a0 0d ff 60 bf 34 66 80 be f3 e6 43 3d c6 f1 1c 3c
       -0.87889177 -0.25077975 0.047827672 0.009579128
0003b0 90 43 49 3f a7 f7 17 3f f8 e1 ab bf 8b 62 cb be
       0.7861872 0.5936226 -1.3428335 -0.3972362
0003c0 58 cf b1 3d 21 ef 0f 3f 2a da 33 bf 48 a9 8b bf
       0.08682126 0.56224257 -0.70254767 -1.0911036
0003d0 0c 5d 46 3f a7 fe 28 bf 94 79 0c c0 cc d0 45 3f
       0.7748573 -0.6601357 -2.1949205 0.77271724
0003e0 4f e3 08 3e ba 02 9f bf e9 62 41 3f d4 c8 0b 3c
       0.13367961 -1.2422707 0.7554155 0.008531768
0003f0 ad 2b 7c be 91 b8 d7 3e a6 59 6b 3f 1c 3a ee 3e
       -0.24626036 0.42133 0.9193367 0.4652871

bias f4 [128]
000000 f9 15 f8 bd 24 53 16 bf 02 46 0f bf 95 23 f1 3a
       -0.12113566 -0.5872061 -0.559662 0.0018397445
000010 c6 ea 5c be 4a 61 a0 3d d0 a9 3a bd 97 e8 b6 be
       -0.21573934 0.078310564 -0.045572102 -0.35724327
000020 b1 8d 33 bf b6 87 50 bf 3b 22 cc 3c 02 33 eb be
       -0.7013808 -0.8145708 0.024918666 -0.45937353
000030 88 02 9c be 85 c8 15 3d 25 b9 85 3f 4f 94 b7 be
       -0.3047068 0.036568183 1.0447127 -0.35855338
000040 85 1a 71 3e 16 3b b1 be c0 59 dd 3e 8f 71 27 bd
       0.23545273 -0.34615391 0.43232536 -0.040879782
000050 a6 74 7d bd 32 8d c4 bd 7a f8 51 3e 6c 90 c0 bd
       -0.061878823 -0.09597243 0.20504943 -0.09402546
000060 7f 8d a6 be 94 96 02 3e 10 d5 a3 3d 8b 58 c7 be
       -0.32529828 0.12752753 0.07999623 -0.3893474
000070 dd be 49 bd ca 72 ac bc 0c 59 de 3e 96 32 08 be
       -0.049254287 -0.02105083 0.43427312 -0.13300547
000080 65 b5 74 be 39 a5 31 be 02 6e 6a 3d 1d 81 f5 be
       -0.23897322 -0.17348184 0.057233818 -0.47950068
000090 83 88 9f bd b6 ac 87 3d 22 e0 f6 3d 85 63 af be
       -0.077897094 0.06624739 0.12054469 -0.34255615
0000a0 c7 28 11 be 51 26 1c bf d2 22 8e be 0a 9d ea 3d
       -0.14175712 -0.60995966 -0.2776094 0.11455734
0000b0 a7 a5 cb be 8a 4f e2 3e 76 50 ee 3e 2d 40 bc be
       -0.3977482 0.44201308 0.46545762 -0.36767712
0000c0 5e 80 96 3e ec b7 59 3d 72 aa 24 bf 02 27 a7 be
       0.2939481 0.053153917 -0.6432258 -0.32646948
0000d0 92 6e e3 be 7d db 97 be c5 64 1e be 34 07 00 be
       -0.44420296 -0.29659644 -0.15468128 -0.12502748
0000e0 9c a6 55 3e 48 7a 44 be 06 c9 24 3d 34 cf 89 be
       0.20864338 -0.19187272 0.040230773 -0.26915896
0000f0 e9 76 67 be 65 83 96 3c b6 4e f3 be 24 22 86 be
       -0.22603954 0.0183732 -0.4752099 -0.26197922
000100 16 8f 3b be 33 25 66 bf dc 2f ec be 6f 55 89 be
       -0.18316302 -0.8990051 -0.46130264 -0.26822993
000110 d7 61 28 bf c2 9d c4 be 74 87 37 be 4a 57 32 be
       -0.6577429 -0.3840161 -0.17922765 -0.1741611
000120 f7 e9 8e bd 7e 0e 23 bf dd c3 f6 bd 04 c3 4a 3d
       -0.06978219 -0.6369399 -0.12049077 0.049502388
000130 42 55 48 be 7a ea 46 be 7b 34 de bd 27 57 47 bd
       -0.19563773 -0.19425383 -0.108498536 -0.0486671
000140 29 d6 05 bf db ea 11 3e cf 49 f4 be 23 9e 69 be
       -0.5227991 0.14249747 -0.4771256 -0.2281423
000150 48 22 dd be 4f 78 b5 3e 2f 99 11 bf 86 e1 13 bf
       -0.43190217 0.3544335 -0.56874365 -0.57765996
000160 f6 dc 47 be b3 19 fe be 1f 62 27 bf 62 cc 8e be
       -0.19517884 -0.49628982 -0.65384096 -0.27890307
000170 d3 d1 e0 bc 47 c8 a4 be d2 b0 b9 be 44 e9 dd be
       -0.027443802 -0.3218405 -0.36267716 -0.4334203
000180 36 b8 72 3e 54 9c 19 bd a4 d9 83 3e 8c 70 9b be
       0.23703083 -0.0375026 0.25751984 -0.30359304
000190 69 9e fc bc 46 13 a4 be ce d0 97 be 8c a2 95 be
       -0.030837255 -0.32045954 -0.29651493 -0.29225576
0001a0 17 1b 05 bd fb b5 0d bf 56 f4 3d 3b 68 a8 67 3e
       -0.032496538 -0.55355805 0.0028984747 0.22622836
0001b0 0c 41 90 bd 17 6e ac be 84 6c 25 3e 2d d8 02 3f
       -0.07043657 -0.33677742 0.16154677 0.5111111
0001c0 0d e3 d1 be 4a 92 9a be fa a3 22 3f 03 e9 50 be
       -0.40993538 -0.30189735 0.6353146 -0.20401387
0001d0 0c 6c d7 be b8 2f 08 be cc d0 58 be cf 92 47 bf
       -0.4207462 -0.13299453 -0.211734 -0.7795839
0001e0 d7 3f e3 be 5d 1b c2 be 59 b0 2a bf 92 ed 40 bf
       -0.44384643 -0.37911502 -0.66675335 -0.75362504
0001f0 c8 6e 15 be f7 89 98 be 41 3b 51 bf e3 93 20 3e
       -0.14593041 -0.2979276 -0.8173104 0.15681414

weight f4 [128, 16, 3, 3]
000000 98 78 80 be 03 5e 3f be 40 78 1f 3f 9c 84 f7 be
       -0.25092006 -0.18688206 0.6229286 -0.4834336
000010 b1 2c 52 bd 25 99 77 3d 60 51 0c bf 9f 19 6a 3e
       -0.051312152 0.060448784 -0.5481167 0.22861336
000020 5f 99 ea bd b6 e3 12 bf 9c ae 00 3f 5f 6b 52 3f
       -0.114550345 -0.5737871 0.5026643 0.82195085
000030 2f 7b 05 be 7c f2 9e be da 3d 08 3f 58 2f c4 bc
       -0.13035272 -0.31044376 0.5321938 -0.023948357
000040 17 52 0e be 7c 82 2c 3f ef 1b 49 be 20 c0 e4 be
       -0.13898502 0.67386603 -0.19639562 -0.4467783
000050 2d 81 7f 3f 50 26 92 be fa 33 8e 3f a2 79 63 3f
       0.9980648 -0.28544855 1.1109612 0.8885747
000060 92 b4 87 3e 5d 66 b2 be da df 5d be 5c 7c 9f 3e
       0.26504952 -0.34843722 -0.21667424 0.31149566
000070 19 92 cb bf 0a cd 54 3f 57 0f 43 3d 2d c6 1a bf
       -1.590396 0.83125365 0.04762205 -0.6045864
000080 f8 07 87 bf 5d b7 d5 3d f1 bd 79 bf 16 82 5b bf
       -1.0549307 0.104353644 -0.9755545 -0.8574537
000090 1a 57 bc 3c 35 71 73 bf 37 3b b1 bf 1c af 67 be
       0.022990752 -0.95094615 -1.3846196 -0.22625393
0000a0 00 55 97 bf 69 4d 97 bf 97 fe 58 be b6 3d 1b bf
       -1.1822815 -1.1820499 -0.21190868 -0.6064104
0000b0 70 a7 69 bd 68 ab 41 bf b6 d8 08 be fa 70 0d 3f
       -0.057044446 -0.7565217 -0.13363919 0.55250514
0000c0 68 6b 82 bf af 7d 8c be 47 0a 31 3f 2e 6c 61 be
       -1.0189028 -0.2743964 0.69156307 -0.22013924
0000d0 54 10 81 3e a4 bf 09 3e 61 9b 9a be 0b 47 e4 be
       0.2520777 0.13452011 -0.3019667 -0.4458545
0000e0 cb 7d b7 be fb 32 a5 be 93 ca 18 bf b4 c2 a4 bd
       -0.3583816 -0.32265458 -0.59684104 -0.08044949
0000f0 ee 48 d5 be 48 b1 1e 3d ef 20 81 3e c7 a8 84 3e
       -0.41657203 0.038743287 0.2522044 0.25910017
000100 3e 7f a3 bf 6c 0b a5 bf c4 18 e6 bd b7 59 51 bf
       -1.2773206 -1.2894111 -0.112351924 -0.8177752
000110 be a3 ba be cc 4f 35 bd e6 ef fb be a3 d9 8a 3e
       -0.3645305 -0.044265553 -0.49206465 0.2711917
000120 73 91 2b be 13 a1 21 3e 1e 16 cc 3d d1 99 4d bc
       -0.16754703 0.15784101 0.09965156 -0.01254888
000130 69 c0 5a bf 56 e2 62 bf cc df 3b 3d 86 c2 82 bf
       -0.85449845 -0.8862661 0.045867726 -1.0215614
000140 ec c6 ae be ab 73 02 3f cf 68 fd be 61 0a 33 bf
       -0.3413614 0.50957745 -0.49494025 -0.6993771
000150 30 83 24 bf 6d fc 05 3e 4a 47 1e bf 37 0a 0c 3d
       -0.64262676 0.13084574 -0.6182753 0.03418943
000160 a3 55 44 3e 07 14 c7 be 45 b1 ca bc 85 f9 72 3e
       0.19173293 -0.38882467 -0.024742732 0.23727997
000170 66 3b c2 3e ad 80 4a 3f ad c3 43 bf 43 f7 9b be
       0.37935942 0.79102594 -0.7647045 -0.30462083
000180 0a cc 87 be 32 36 41 bf 41 fd 03 bf 63 d8 38 bd
       -0.26522857 -0.7547332 -0.5155831 -0.045128237
000190 06 dd 0c 3e 00 5c a5 be 9c 99 71 3d 75 11 c9 be
       0.13756189 -0.32296753 0.058984384 -0.3927113
0001a0 69 bb e9 be 0c 45 ec be bc e8 3a 3e fc b3 27 3f
       -0.45650795 -0.4614643 0.18252844 0.6550901
0001b0 c2 63 5b bd 47 ee 34 bf 62 3e 93 be 98 50 13 bf
       -0.053561933 -0.7067608 -0.28758532 -0.5754485
0001c0 9e 7b a5 3c de 62 99 be a4 04 a3 be 1a 0d c2 3e
       0.020200547 -0.29958242 -0.31839478 0.3790062
0001d0 f6 53 20 3f 7e 6c 94 be 9e 9c 56 bd a9 7b dd 3e
       0.62628114 -0.28989023 -0.052395456 0.43258408
0001e0 6d 55 dc bd 83 6d 6b be a6 4b a3 be 97 3a 90 bd
       -0.10758481 -0.22990994 -0.31893653 -0.07042425
0001f0 24 9e 1d 3f 9f 74 ce 3e c4 ea a7 bd ab f4 c8 be
       0.6156943 0.4032335 -0.08199075 -0.39249167
000200 e9 0f 90 bc b0 6a d5 be ae 88 bf 3d 8c 58 f5 be
       -0.017585712 -0.4168296 0.093522415 -0.47919118
000210 b3 23 0e bf 90 12 18 3e d6 86 12 bf 70 af 43 3e
       -0.5552322 0.14850831 -0.57236993 0.19109893
000220 eb 8e 77 bd e1 56 fe be 33 f6 02 bf 9c 6c 24 3f
       -0.06043903 -0.49675658 -0.5115692 0.64228225
000230 7b de a7 bf 42 fb 59 3e 61 33 13 3e f0 8b 49 3f
       -1.3114771 0.21287253 0.14375068 0.7872915
000240 5f 6d cb bd cd 27 24 3e ce c4 3c be 15 12 0e 3d
       -0.0993297 0.16030808 -0.1843445 0.034685213
000250 d1 63 ac be ac 12 8d be 02 58 20 be aa c1 55 be
       -0.33669904 -0.27553308 -0.15658572 -0.20874658
000260 d9 d7 24 3e e2 5e 82 3c ff 31 65 bf f6 b2 2b 3f
       0.16097964 0.015914384 -0.89529413 0.6706995
000270 8e 55 81 bd 76 01 c8 3d 71 8e 5a bf ec 86 b4 3d
       -0.063151464 0.09765904 -0.853736 0.08814797
000280 75 f1 dc bd da 7d cc be d7 f9 99 3e e6 93 95 be
       -0.10788242 -0.39939767 0.30073425 -0.292144
000290 91 d4 82 bf 6e 03 93 3e a9 a2 9b bf b5 44 05 bf
       -1.022112 0.28713554 -1.2159015 -0.52057964
0002a0 0b 88 3c be 45 bf 32 be 67 a3 ab be 18 5a da 3b
       -0.18411271 -0.17455776 -0.33523104 0.006663572
0002b0 9e c8 4c 3e 43 8b d6 3e 82 6b 18 3f ae 7b ec be
       0.19998404 0.41903123 0.59539044 -0.4618811
0002c0 49 81 b7 be 8a 67 b6 3d c7 e0 04 be 5b 10 52 bd
       -0.35840824 0.08906467 -0.12976371 -0.05128513
0002d0 a1 41 a7 be 80 f5 cd be 92 2d bf be e4 ed b4 be
       -0.32667258 -0.40226364 -0.37339455 -0.35337746
0002e0 2c c2 d6 be db db 1a bf 03 7d 52 bf 00 90 1b be
       -0.41945016 -0.6049172 -0.82222 -0.1519165
0002f0 f1 73 3d bc c0 62 80 3d ae 41 f8 be ad 50 67 3f
       -0.011563287 0.06268835 -0.4848761 0.90357476
000300 52 4b 85 bd 12 b2 78 bf 12 07 95 bf 8f aa 18 3e
       -0.06508507 -0.97146714 -1.1642783 0.14908813
000310 30 92 fc bd 3e 6e 17 bf 61 18 b6 bb 7c e4 ac be
       -0.123325706 -0.5915259 -0.0055571054 -0.3376807
000320 17 2b 2e be 5a a3 0d be fa d5 a3 be 3d 03 62 3c
       -0.17008625 -0.13831845 -0.3199919 0.013794717
000330 90 cb 27 bd 82 5f 0e be d8 1d 8a bd 74 3b c1 3e
       -0.040965617 -0.13903621 -0.067439735 0.37740672
000340 84 00 60 bf fa 0c 5e bf 62 4a 12 bf f7 25 12 bf
       -0.87500787 -0.8673855 -0.5714475 -0.5708918
000350 6c bd ad be 50 d4 07 bf 5e 22 1f bf a1 8e c9 be
       -0.3393358 -0.5305834 -0.62161815 -0.3936663
000360 39 33 67 be fd 3b 36 3e 57 84 b0 be e3 fc 86 be
       -0.22578134 0.17796321 -0.34475967 -0.26364812
000370 b6 06 8b bd 4d 51 5b be 43 5b 49 3c 8b 8d 31 bf
       -0.067883894 -0.21417733 0.012289825 -0.693566
000380 ca ea 34 3d dd a8 ae 3c 19 50 b9 be ff c7 c5 3e
       0.044169225 0.021320755 -0.36193922 0.38629147
000390 d1 90 6c be 4c df 0f bf d2 01 ac 3d 5d 11 80 be
       -0.23102118 -0.562001 0.08398785 -0.25013247
0003a0 f9 d1 bc be fd 64 ab ba be de 3b be 1b 09 9a bb
       -0.36878946 -0.0013076362 -0.18346688 -0.0047007925
0003b0 6a d5 c2 be ba 82 90 bd 3d 34 d4 bd 9f e2 fe 3e
       -0.38053447 -0.07056184 -0.10361526 0.49782273
0003c0 cb ec 8f be 00 a4 a0 bd 29 5a 82 be 20 63 98 be
       -0.28110346 -0.078437805 -0.25459412 -0.29763126
0003d0 da b5 2d 3e 57 e6 46 3f 57 3e 55 3f 81 f9 69 be
       0.16963902 0.7769522 0.8329825 -0.22849084
0003e0 07 ed ad 3e e1 c5 6c 3e fc 68 28 be ed 69 45 be
       0.339699 0.2312236 -0.16446298 -0.19278689
0003f0 8e f2 09 3f 5c 5e ae 3e 94 b1 10 bf a4 03 25 3e
       0.53885734 0.34056365 -0.5652096 0.1611467

bias f4 [128]
000000 ff 95 06 bf 4b 01 60 be 27 4b 4f bd b2 76 b2 be
       -0.52572626 -0.21875493 -0.05060878 -0.34856182
000010 eb a2 b5 be 0f df bf be 3a 32 dd be f5 39 9e bd
       -0.3547586 -0.37474868 -0.43202382 -0.07725898
000020 bf c9 91 bd af 35 34 be 18 3b 6b 3e 27 8b 22 bf
       -0.07118558 -0.17598604 0.22971761 -0.6349358
000030 76 52 0f bf c3 4b c0 be ed 31 b3 3d 58 f5 ef be
       -0.559852 -0.37557802 0.08749757 -0.4686687
000040 69 03 6e be 76 88 30 be 34 35 3c be 37 fc 6d be
       -0.23243488 -0.17239556 -0.1837967 -0.23240744
000050 62 59 fc be ab d9 6d be 33 f6 2a be 55 a5 5e bd
       -0.49286944 -0.23227565 -0.1669548 -0.05435689
000060 dc 5a 94 be 4d a3 19 be bf 98 fe be 83 d7 5c be
       -0.2897557 -0.150037 -0.4972591 -0.21566586
000070 22 8f 88 be 31 f0 b0 bd c1 db 88 be 04 aa c9 be
       -0.26671702 -0.08639563 -0.2673016 -0.39387524
000080 96 1a 2a bf de d6 2d 3e 56 03 1d be 8b c5 89 be
       -0.66446817 0.16976497 -0.15333304 -0.26908526
000090 06 2f b6 be 1b 96 ad be bd b2 20 bf de 95 9e be
       -0.3558275 -0.33903584 -0.6277273 -0.30973715
0000a0 01 d5 3f bf ef 0b 20 bf c5 ac a9 be c0 b4 0c be
       -0.74934393 -0.6251821 -0.33139625 -0.13740826
0000b0 b1 4b b1 3c 8d 93 97 be e9 8d 53 be 53 d9 31 be
       0.021642538 -0.2960476 -0.20659603 -0.17368059
0000c0 37 cc f0 be e3 24 05 bf 3f 38 15 be ad e3 90 be
       -0.47030804 -0.5200941 -0.14572237 -0.28298703
0000d0 00 15 1d bf d5 6f 88 be 55 b6 c7 be 80 a5 88 be
       -0.6136017 -0.2664782 -0.39006296 -0.26688766
0000e0 05 96 70 be f3 7e 93 be cf 37 02 bf 71 ce 24 bf
       -0.23494728 -0.28807792 -0.5086641 -0.64377505
0000f0 47 7e 68 be 81 a3 98 be f0 7e 54 bc db 87 10 be
       -0.22704421 -0.29812244 -0.012969717 -0.14114325
000100 a1 88 c1 bd fd cd 09 3e 2e cd 78 be 91 3e 0a bf
       -0.09449888 0.13457485 -0.2429702 -0.5400172
000110 ae ae d0 be 09 13 cd be 83 57 12 be 79 a7 3e be
       -0.4075827 -0.40053585 -0.14291196 -0.18618573
000120 d5 43 55 be 74 09 90 be 24 9e 01 3e bf 86 25 be
       -0.20826657 -0.28132212 0.12657982 -0.16164683
000130 d7 1b 81 be fb fb 6e bc bc 3e 0b be 09 e8 aa bf
       -0.25216553 -0.014586444 -0.1359815 -1.3352062
000140 8c f1 27 bf b7 1d 72 be aa 6e 13 bf 93 56 de bd
       -0.65602946 -0.23644148 -0.57590735 -0.108563565
000150 a8 a3 10 3d 23 55 b6 bd d8 8a 5f be 6e b8 ce 3d
       0.035312325 -0.08902957 -0.21830308 0.10093771
000160 0f 64 de be f5 64 5f 3e 47 a4 e5 be 96 cf 82 be
       -0.43435714 0.21815856 -0.44851896 -0.25549
000170 99 10 0d bf 41 3a be be 02 30 dc bd 9b 0b c1 be
       -0.5510345 -0.3715382 -0.10751344 -0.37704167
000180 fb 09 1c 3e 8b 2f 32 3e f1 d6 91 be ed b3 a6 bf
       0.15238182 0.17400949 -0.284843 -1.3023659
000190 24 8b eb bf 16 f2 26 be 9e 66 72 bf 23 a7 0d be
       -1.8401837 -0.16303286 -0.9468783 -0.13833289
0001a0 f6 e3 00 3e 46 f5 df be f5 44 19 bf 49 0c 5f bf
       0.1258696 -0.43741816 -0.59870845 -0.8712812
0001b0 1f b0 0b bf fa 34 a3 bd 5f bd 18 3e 66 f0 9c bf
       -0.54565614 -0.07969089 0.1491599 -1.2260864
0001c0 14 06 51 bf e8 9a da be 09 f3 a8 3c 39 7f c1 be
       -0.816499 -0.4269631 0.0206237 -0.37792376
0001d0 ea 96 d5 be 2d a5 d4 bd 69 e0 30 be 1d e9 1a bf
       -0.417167 -0.10383067 -0.17273106 -0.6051195
0001e0 34 e7 3a be 04 b6 02 bf 34 65 e9 be 88 65 ce 3d
       -0.1825226 -0.51058984 -0.45585024 0.10077959
0001f0 e7 47 52 bf 9d af d9 be 56 8b a4 3e 54 2f 11 bf
       -0.82140964 -0.42516795 0.32137555 -0.5671284
