checkpoints/lilac-field-47-q_net.safetensors (safetensors, 625856 bytes, 15 tensors)

advantage_head.0.bias f4 [5]
0	0xbdfdccde	-0.12392591
1	0x3c9c1d20	0.019056857
2	0x3d51b2b1	0.051195804
3	0x3d2b7785	0.04186203
4	0x3c7eb06a	0.01554499

advantage_head.0.weight f4 [5, 256]
0	0x3cc8285f	0.024433313
1	0xbdbf6898	-0.093461215
2	0x3ccec5df	0.025240837
3	0xbc86099e	-0.016362008
4	0x3de28635	0.11060754
5	0x3c5e3b7a	0.013563985
6	0x3ccf3a3a	0.02529632
7	0x3ce6d998	0.028179929
8	0xbcaa769a	-0.020808507
9	0xbbcfe1c6	-0.006344053
10	0xbe192933	-0.14957123
11	0xba52baf1	-0.00080387207
12	0x3d0f3335	0.034960944
13	0xbc2d4159	-0.010574662
14	0xbb6183e8	-0.0034410898
15	0x3cd3379b	0.02578335
16	0xbd9bb4c7	-0.0760284
17	0x3c66dffb	0.014091487
18	0xbd35add9	-0.044355247
19	0x3e026c88	0.12736714
20	0x3c3ee6ee	0.011651738
21	0x3cbf2076	0.023330908
22	0x3dbe1111	0.09280599
23	0xba285f73	-0.00064229144
24	0x3ce7c386	0.028291475
25	0xbec1eaf7	-0.37874576
26	0x3c842d2c	0.01613482
27	0x3d609c7c	0.054836735
28	0x3d1d8d41	0.03846479
29	0x3c8e1f0d	0.01734879
30	0xbbb454f4	-0.0055032913
31	0x3d11de80	0.035612583
32	0x3c7e58a5	0.015524064
33	0x3ddda87b	0.10823151
34	0xbd8db533	-0.06919327
35	0x3d008480	0.03137636
36	0x3dc96796	0.098342106
37	0x3dd86a21	0.105671175
38	0x3dc3371c	0.09531996
39	0xba23f103	-0.000625387
40	0x3d6a2105	0.057160396
41	0x3ccbb502	0.024866585
42	0xbd8f3934	-0.069933325
43	0x3c40a98b	0.011759172
44	0x3c1638f0	0.009168848
45	0xbb4ff8c5	-0.0031733972
46	0x3cb7a70d	0.022418523
47	0xbce3b20d	-0.027794862
48	0x3db8a94d	0.090166666
49	0x3bcbf8c9	0.006224726
50	0x3d3fa80a	0.046791114
51	0x3d2291dc	0.039689884
52	0xbcb2a6c5	-0.021808038
53	0x3dbfafd4	0.093597084
54	0xbea10065	-0.31445614
55	0xbda22b4a	-0.07918413
56	0x3d14cdfa	0.036329247
57	0x3e910519	0.28324202
58	0xbd02e590	-0.03195721
59	0x3c4a9442	0.012364449
60	0x3c58e084	0.013237122
61	0x3d65e1d9	0.05612359
62	0x3dbb9fb6	0.09161322
63	0xbd42a658	-0.04752192
64	0x3c8eb3c9	0.017419713
65	0xbc8cfc4d	-0.01721015
66	0x3a054721	0.00050841464
67	0x3c2acee0	0.010425299
68	0x3c8d80cc	0.01727333
69	0x3ca39786	0.019969713
70	0xbdf4d5a9	-0.11954815
71	0x3e04a469	0.12953342
72	0xbe210946	-0.15726194
73	0x3d398461	0.045292262
74	0x3ce6064b	0.028079173
75	0xbcbf6454	-0.02336327
76	0x3e0f0338	0.13966072
77	0x3c8a1837	0.01685725
78	0xbd8b75aa	-0.06809552
79	0x3d599949	0.0531247
80	0x3c06b7e7	0.008222557
81	0xbe3b0d20	-0.18266726
82	0xb9cd6c76	-0.00039181457
83	0x3d44fbf1	0.048091833
84	0x3ddbe4e2	0.10737015
85	0x3bfdc6e4	0.007744657
86	0x3e421fb6	0.1895741
87	0x3dd6206d	0.104554035
88	0xbcbccbfb	-0.023046484
89	0xbdadb574	-0.08481875
90	0xbc1a395b	-0.009413089
91	0xbb968c42	-0.0045943568
92	0xbc8e3bca	-0.017362494
93	0xbd02d2e0	-0.031939387
94	0xbd15b3ff	-0.03654861
95	0xbcb20ca0	-0.021734536
96	0x3d04eec1	0.032454256
97	0x3d2d559a	0.042317964
98	0x3d2818bd	0.041039217
99	0x3e45c39d	0.19312902
100	0xbcc8a0f3	-0.024490809
101	0x3bd0632f	0.00635948
102	0xbde6332c	-0.11240229
103	0xbd092ba1	-0.033488873
104	0xbd53e76d	-0.051734377
105	0x3d6cbfab	0.057799976
106	0x3b675f51	0.0035304616
107	0x3c9d6058	0.01921098
108	0x3eb58a23	0.35456952
109	0x3b98113d	0.004640727
110	0xbd9442eb	-0.07239326
111	0x3d9c5084	0.07632545
112	0x3c96c054	0.018402256
113	0x3c56d156	0.013111433
114	0x3ce35fd6	0.02775566
115	0xbbf6d72a	-0.007532974
116	0xbea68283	-0.32521448
117	0x3e1ac303	0.15113454
118	0xbccff7d7	-0.025386734
119	0x3cae1cba	0.021253932
120	0x3c56d4ba	0.013112241
121	0x3d9271c5	0.07150606
122	0xbd9ad8eb	-0.07560905
123	0x3e2a014a	0.16602054
124	0xbbe62d48	-0.007024441
125	0x3d2078e3	0.039177787
126	0x3ca4315b	0.020043066
127	0x3d6d4497	0.05792674
128	0x3bd5f2e4	0.006529199
129	0x3d338caf	0.04383534
130	0xbc80c4bc	-0.01571881
131	0xbeeb98f9	-0.46015146
132	0x3bf68cfd	0.0075241313
133	0xbb138779	-0.0022511168
134	0x3d1c3f4e	0.03814631
135	0xbdec394e	-0.115343675
136	0x3d0e6441	0.03476358
137	0x3bff2e9a	0.0077875378
138	0x3d85bf64	0.065306455
139	0x3d1433b8	0.036182135
140	0x3d82c96a	0.06386073
141	0xbb9ef640	-0.0048511326
142	0xbda8b916	-0.08238427
143	0xbd21ab7d	-0.039470185
144	0xbb9b8b66	-0.004746842
145	0xbdc4adb1	-0.096034415
146	0xbc1c9b1c	-0.009558465
147	0xbdc965e1	-0.09833885
148	0x388a8863	6.605757e-05
149	0xbca6103d	-0.020271415
150	0xbd1dd9fb	-0.03853796
151	0x3d764c34	0.060131267
152	0xbc648138	-0.013946824
153	0x3d3191e6	0.04335203
154	0xbc61f6f0	-0.013791785
155	0x3e18dee5	0.14928778
156	0xbc559437	-0.013035825
157	0x3cdb7c11	0.026792558
158	0xbe463f2d	-0.19360037
159	0x3d3c3a20	0.04595387
160	0xbcd5b711	-0.02608827
161	0x3d0b5420	0.034015775
162	0x3da7c34d	0.081915475
163	0x3d8c7b79	0.06859488
164	0x3e0a1ed9	0.1348833
165	0xbcf46ff2	-0.029838536
166	0xbda164af	-0.07880532
167	0xbd94626c	-0.07245335
168	0x3d4bc464	0.04974784
169	0xbe6298e0	-0.2212863
170	0xb9cedba8	-0.00039455038
171	0xbe95b4d4	-0.29239523
172	0xbcc94ed9	-0.02457373
173	0x3f22c05a	0.63574755
174	0x3d85efb2	0.06539859
175	0x3d39a540	0.04532361
176	0x3b0eb55b	0.0021775577
177	0x3e0545bb	0.13014881
178	0x3ce282cf	0.027650265
179	0x3e009c0f	0.12559532
180	0x3d88a2df	0.0667169
181	0x3ba3812b	0.0049897633
182	0x3f3c501f	0.73559755
183	0x3bb6fbed	0.005584231
184	0x3ea2aadf	0.3177099
185	0x3e61d516	0.22053942
186	0xbb9cc289	-0.0047839326
187	0x3c9214c6	0.017832171
188	0x3db39ef2	0.08770551
189	0x3eff4489	0.49856976
190	0x3c528ded	0.012851221
191	0xbc264fd2	-0.010150867
192	0x3e98f9f4	0.298782
193	0xbd0da7fe	-0.034584038
194	0xbb1a01ff	-0.0023499725
195	0xbce8a8c6	-0.02840079
196	0xb9078499	-0.00012924
197	0xbbd6e3a5	-0.006557899
198	0xbd5b39a4	-0.053521767
199	0x3d49987f	0.049217697
200	0xbd6568fe	-0.05600833
201	0x3ca621b2	0.020279739
202	0x3bc463b2	0.00599333
203	0x3f105b31	0.5638915
204	0xbb9d1f61	-0.0047950004
205	0x3d0c0ed2	0.03419382
206	0xbcd10b55	-0.025518099
207	0x3cf302fa	0.029664505
208	0xbc07e1e3	-0.008293602
209	0x3d496c27	0.049175408
210	0x3dc25ed8	0.09490746
211	0xbc94df6a	-0.018172938
212	0xbd4bd4ce	-0.049763493
213	0xbbd8ef1a	-0.0066203
214	0x3a58a659	0.0008264534
215	0x3ccbb851	0.024868162
216	0xbd1e30e3	-0.03862084
217	0xbd00fa6f	-0.031488832
218	0xbaa06ad1	-0.0012238865
219	0xbeab80eb	-0.33496794
220	0x3d20e0da	0.039276935
221	0xbcc0365e	-0.023463424
222	0x3c1c4b8a	0.009539494
223	0x3d098d0d	0.033581782
224	0x3e3eecd4	0.1864503
225	0xbcb1dfcc	-0.02171316
226	0xbd117e61	-0.035520915
227	0xbc7c7e09	-0.0154109085
228	0xbd89837c	-0.06714532
229	0xbcd8b4a9	-0.026453333
230	0x3bdc149f	0.0067163254
231	0x3cec7b43	0.02886737
232	0xbbfeddd4	-0.007777909
233	0xbc03db5b	-0.008047904
234	0x3cac2584	0.021013983
235	0x3c77104f	0.015079572
236	0xbd8dcff2	-0.06924428
237	0xbcc560c6	-0.024093997
238	0x3e23efbe	0.16009423
239	0xbdb8e1b4	-0.090274245
240	0x3afa66a4	0.0019104076
241	0x3d240374	0.040042356
242	0x3d176c36	0.036968432
243	0x3d4e9f48	0.05044487
244	0xbbd60e47	-0.0065324637
245	0xbaf559f2	-0.0018718822
246	0x3de6e0f6	0.11273377
247	0x3bacd96e	0.005274943
248	0x3e242d38	0.16032875
249	0x3a35698c	0.000692033
250	0xbcc3910f	-0.02387288
251	0x3cf830eb	0.030296763
252	0xbd16abc3	-0.0367849
253	0x3d4e9312	0.050433226
254	0x3b516508	0.0031951088
255	0x3bd7b923	0.0065833493

backbone.0.bias f4 [16]
0	0xbc800365	-0.015626619
1	0x3d002458	0.03128466
2	0x3cd01fd2	0.025405798
3	0xbdd5d16c	-0.10440335
4	0xbc667a81	-0.014067293
5	0xbd0e7f8b	-0.034789603
6	0xbd559233	-0.05214138
7	0xbc85fdc6	-0.01635636
8	0x3cae7eda	0.021300722
9	0xbda162b6	-0.07880156
10	0x3da009af	0.07814347
11	0x3d117f44	0.03552176
12	0xbdb42478	-0.08796018
13	0x3bb3d76a	0.005488326
14	0xbd72ace0	-0.059246898
15	0x3c9c7f86	0.019103777

backbone.0.weight f4 [16, 15, 5, 5]
0	0x3c737f47	0.014861888
1	0x3d6d5926	0.057946347
2	0xbc06e644	-0.008233611
3	0x3d0a42fc	0.033755288
4	0xbd352c54	-0.044231728
5	0x3d8ab223	0.06772258
6	0xbd82b7fe	-0.0638275
7	0xbe154f16	-0.1458095
8	0xbe087b4d	-0.13328286
9	0x3ddd23f5	0.10797874
10	0x3d3f25b5	0.04666682
11	0x3b11ca27	0.0022245736
12	0xbdb7ab96	-0.08968274
13	0x3dd3720c	0.10324487
14	0xbc556361	-0.013024182
15	0xbc85bc66	-0.016325187
16	0x3d44f5c3	0.04808594
17	0x3e127408	0.14302075
18	0x3d719779	0.058982346
19	0xbc5ae534	-0.01336031
20	0xbd568462	-0.052372344
21	0xbdf2f2ca	-0.118627146
22	0x3d5eb4db	0.054371696
23	0xbd961e0d	-0.073299505
24	0xbd12a00a	-0.035797156
25	0x3dfd10b3	0.12356701
26	0x3e60a285	0.21936996
27	0x3e67a1dc	0.22620338
28	0x3ddef8f4	0.10887328
29	0x3d2e114b	0.04249696
30	0xbd4cde7b	-0.05001686
31	0x3ced5e7b	0.028975716
32	0x3de323c1	0.11090804
33	0x3d96fde3	0.07372644
34	0xbdf88970	-0.12135589
35	0x3e9874ff	0.2977676
36	0x3eb88077	0.3603551
37	0x3eb9798d	0.36225548
38	0x3e115aeb	0.14194839
39	0x3e6d6e4a	0.23186603
40	0x3ec8b3d0	0.39199686
41	0x3f32a1fd	0.69778425
42	0xbdf2c2a2	-0.118535295
43	0x3eba817c	0.36426914
44	0xbd2c00fc	-0.041993126
45	0x3dc0dcb1	0.094170935
46	0x3e987614	0.29777586
47	0x3e4da8b0	0.2008388
48	0x3e4f9dea	0.20275083
49	0x3c7d958b	0.015477548
50	0x3c0ff169	0.008785584
51	0x3d4d7fae	0.050170593
52	0xbb89ce3a	-0.0042054923
53	0xbd69d6a1	-0.05708945
54	0xbde1c60f	-0.11024105
55	0x3c3a1490	0.011357442
56	0x3d767640	0.060171366
57	0x3dd20ae8	0.102559865
58	0xbd3a1f4d	-0.045440007
59	0xbced97f4	-0.029003121
60	0x3d866b99	0.065634914
61	0x3a55bdef	0.00081536075
62	0xbca2379f	-0.019801913
63	0xbdc4767b	-0.09592911
64	0xbcac9336	-0.02106629
65	0x3bfb88c2	0.007676215
66	0xbd17cfdd	-0.03706347
67	0xbd10f003	-0.035385143
68	0x3ce15370	0.027505606
69	0x3cf0d7a9	0.02939971
70	0x3e2ede1a	0.17076913
71	0x3ccbdf0b	0.024886629
72	0x3e526413	0.20545988
73	0x3d9db736	0.0770096
74	0x3dd132f5	0.102147974
75	0x3e3d331f	0.18476532
76	0x3e68c01a	0.22729531
77	0x3e19078b	0.14944284
78	0x3de0ebef	0.10982501
79	0xbde2ac44	-0.11068013
80	0x3efc071b	0.4922417
81	0x3f03fe58	0.5155997
82	0x3ea0c98e	0.31403774
83	0x3ed05dcb	0.40696558
84	0x3e8e3bc7	0.27779981
85	0x3ee2b60c	0.44279516
86	0x3e84ef69	0.25963905
87	0x3f1769ab	0.5914561
88	0x3e3b5a38	0.18296134
89	0x3e5c1e59	0.21495952
90	0x3e8f04c3	0.2793332
91	0x3eb6c72c	0.3569883
92	0x3f304901	0.68861395
93	0x3ede0551	0.4336343
94	0x3d0a54aa	0.03377215
95	0x3e848a9a	0.25886995
96	0x3e274551	0.16335036
97	0x3edc4fd6	0.4302966
98	0xbd8efeb7	-0.06982177
99	0xbb2d44db	-0.0026438746
100	0xbe710ca8	-0.23539984
101	0xbea6f487	-0.32608435
102	0xbd62380e	-0.05522924
103	0xbe5d3180	-0.21600914
104	0xbe496cad	-0.19670363
105	0xbda34ae1	-0.079732664
106	0xbe8229fe	-0.25422662
107	0xbdd2d1f8	-0.102939546
108	0xbe43e2f4	-0.19129544
109	0xbda1aeaf	-0.078946464
110	0xbe70ee8d	-0.235285
111	0xbdf2b326	-0.11850576
112	0xbd2ba6ac	-0.041906998
113	0xbe2020ca	-0.15637508
114	0xbdc7fd95	-0.09765164
115	0xbe41c482	-0.18922618
116	0xbe2caf59	-0.16863765
117	0xbdc7a2f5	-0.097478785
118	0x3b5ef435	0.003402007
119	0xbdb14f07	-0.086576514
120	0xbe120b41	-0.14262106
121	0xbdc7c7b8	-0.0975489
122	0x3dc74d50	0.09731543
123	0xbcc892a9	-0.024483996
124	0xbca2bf65	-0.019866655
125	0xbe17623a	-0.14783564
126	0xbea929a5	-0.33039585
127	0xbd3d0290	-0.046145022
128	0xbe3d1e35	-0.18468554
129	0xbe257f61	-0.16161872
130	0xbc55e8cf	-0.013055994
131	0xbe77ff1a	-0.24218407
132	0xbdd16f97	-0.10226362
133	0xbe129cb4	-0.1431759
134	0xbde9a5c9	-0.11408574
135	0xbe7e8ac9	-0.2485763
136	0xbdb9aa0e	-0.090656385
137	0xbcfa797c	-0.030575506
138	0xbd8bb0da	-0.06820841
139	0xbd8a263d	-0.067455746
140	0xbe62f5bd	-0.22164054
141	0xbe2ddee6	-0.1697956
142	0xbceb89ad	-0.028752172
143	0x3d8b52f5	0.06802932
144	0xbb83a1d6	-0.004017095
145	0xbdbc8c3e	-0.092064366
146	0xbde9d92c	-0.114183754
147	0xbb81eb23	-0.003964798
148	0xbd050cfc	-0.032483086
149	0xbc67e5b4	-0.014153887
150	0xbe86490c	-0.26227605
151	0xbecd6fa9	-0.40124252
152	0x3cdb77ca	0.026790518
153	0xbe2612a6	-0.16218051
154	0xbe82273d	-0.2542056
155	0xbe00c9c4	-0.12576967
156	0xbe92b21b	-0.2865151
157	0xbe126cbc	-0.14299291
158	0xbdd83a90	-0.10558045
159	0xbd4b0b0f	-0.049571093
160	0xbe4a1e0c	-0.19738024
161	0xbddf53bd	-0.10904644
162	0xbd31b3a6	-0.043384217
163	0xbd9cc28e	-0.07654296
164	0xbe103d02	-0.14085773
165	0xbe912df0	-0.2835536
166	0xbe2738da	-0.16330281
167	0xbd4ed2d0	-0.050494015
168	0x3afaa09f	0.0019121355
169	0xbda9b3e6	-0.08286266
170	0xbdba7351	-0.09104026
171	0xbdb44b22	-0.08803393
172	0x3cae931b	0.02131038
173	0xbc934479	-0.017976986
174	0xbe0310b0	-0.12799335
175	0xbe517b53	-0.204572
176	0xbed2be3f	-0.4116077
177	0xbdf5a3db	-0.119941436
178	0xbe5e7ebe	-0.21728036
179	0xbe679ce9	-0.2261845
180	0xbdcf0be7	-0.10109692
181	0xbea26643	-0.31718644
182	0xbdf48eba	-0.119412854
183	0xbe2eb022	-0.17059377
184	0xbd80a9ea	-0.062824085
185	0xbe330232	-0.17481306
186	0xbe02df3e	-0.12780473
187	0xbd7c16d1	-0.061545197
188	0xbe2ae978	-0.16690624
189	0xbe14a194	-0.14514762
190	0xbe53e937	-0.20694433
191	0xbe1250df	-0.14288662
192	0xbe114f25	-0.14190347
193	0xbcb0fc64	-0.021604724
194	0xbddc6a32	-0.10762443
195	0xbdc6c294	-0.097050816
196	0xbe1c9bca	-0.15293804
197	0x3da6d80c	0.081466764
198	0xbc269266	-0.01016674
199	0xbded9fc3	-0.11602738
200	0xbd885598	-0.06656951
201	0x3de5e31e	0.1122496
202	0x3dd3d063	0.10342481
203	0x3dc10a8a	0.09425838
204	0x3d09597b	0.0335326
205	0x3d9ab888	0.07554728
206	0x3e3df1c3	0.18549256
207	0xb834d2f6	-4.3111817e-05
208	0x3e16d85a	0.14730969
209	0x3d948498	0.07251853
210	0x3e730fef	0.23736547
211	0x3e8426a8	0.25810742
212	0x3db187c6	0.08668475
213	0x3dfab6c3	0.1224189
214	0x3d9dc92d	0.07704387
215	0xbdf15b48	-0.11784989
216	0x3e9c850a	0.3057025
217	0x3d5c84ec	0.0538377
218	0x3d5476db	0.051871162
219	0xbe30ba5f	-0.17258595
220	0x3c6017d8	0.01367756
221	0x3c9c3856	0.019069832
222	0x3d7ad304	0.061236396
223	0xbddd6f89	-0.10812289
224	0x3bcbaae8	0.006215442
225	0xbcdbf84d	-0.026851797
226	0x3e14fd4f	0.14549755
227	0x3e1716b2	0.14754751
228	0x3dd849d6	0.10560958
229	0xbacbe475	-0.0015555756
230	0x3da1aac2	0.078938976
231	0x3e384236	0.17994007
232	0xbd0a96ec	-0.033835337
233	0x3ddc31a6	0.10751657
234	0x3cfb0a05	0.030644426
235	0x3e84365f	0.25822732
236	0x3e4ecbbe	0.20194909
237	0x3ddbcde1	0.10732628
238	0x3dd4a82f	0.10383641
239	0x3bd9287a	0.0066271396
240	0xbdfc1e50	-0.12310469
241	0x3e6ebdd2	0.23314598
242	0x3d1aaef8	0.03776452
243	0x3db7c8e7	0.08973866
244	0xbe461661	-0.19344474
245	0x3dad7d53	0.08471169
246	0x3d00960b	0.031393092
247	0x3da166d0	0.07880938
248	0xbd804875	-0.0626382
249	0xbce3df14	-0.027816333
250	0xbd697e22	-0.057005055
251	0x3e25ad44	0.16179377
252	0x3e0f9157	0.14020287
253	0x3deea5b3	0.11652698
254	0xbc0e0cfa	-0.008670086
255	0x3dafc1c3	0.08581879

backbone.11.bias f4 [128]
0	0xbcb7fce2	-0.022459451
1	0xbe1c8560	-0.15285254
2	0x3d5f1deb	0.05447189
3	0xbe08aecf	-0.13347934
4	0xbd2c846d	-0.04211848
5	0xbd4b093b	-0.04956935
6	0xbd98a501	-0.07453347
7	0xbcbdf9b0	-0.02319035
8	0xbd2eeaa9	-0.042704258
9	0xbc9d03eb	-0.019166907
10	0x3d1f54a1	0.038899068
11	0xbe146156	-0.14490256
12	0x3de8e813	0.1137239
13	0xbe245711	-0.16048838
14	0xbdd795c3	-0.10526612
15	0x3d198f7f	0.037490364
16	0xbe1b2fbd	-0.1515493
17	0xbdc16f53	-0.094450615
18	0xbdaadcbf	-0.08342885
19	0xbcdb01e1	-0.026734294
20	0xbd6b96b9	-0.057516787
21	0xbe0d1db6	-0.13780865
22	0xbbf4d17f	-0.007471263
23	0x3bf969ee	0.0076115048
24	0xba1c0690	-0.00059519056
25	0xbd30a015	-0.043121416
26	0xbd9805d6	-0.07422988
27	0xbd93a614	-0.07209411
28	0x3bb4d48f	0.005518503
29	0xbdf90983	-0.12160017
30	0x3cadc182	0.021210436
31	0xbdd0b8c9	-0.10191495
32	0xbe0cff70	-0.13769317
33	0xbdbca3b2	-0.0921091
34	0xbccc6dbd	-0.024954671
35	0xbe438f66	-0.19097671
36	0xbd60040a	-0.054691352
37	0xbde0a3e2	-0.10968758
38	0x3d16b1e6	0.03679075
39	0xbdc3a7a8	-0.09553462
40	0xbde5b026	-0.11215238
41	0x3c90e807	0.017688764
42	0xbd323202	-0.043504722
43	0x3d9a7af7	0.07542985
44	0xbde18b79	-0.110129304
45	0xbdd0fe9d	-0.10204814
46	0x3d931b75	0.071829714
47	0xbdfe160c	-0.12406549
48	0x3d0ad089	0.03389028
49	0xbd10be85	-0.035337944
50	0xbc3b28a5	-0.011423265
51	0xbd90c091	-0.07067979
52	0xbd11e307	-0.0356169
53	0xbe169f77	-0.14709269
54	0xbe015a9f	-0.12632225
55	0xbe3edf12	-0.18639782
56	0x3da2dfbe	0.07952832
57	0xbe0668ac	-0.13125867
58	0xbdb4904f	-0.08816587
59	0x3a98b022	0.0011649171
60	0xbd84ecd2	-0.064904824
61	0xbd885617	-0.06657045
62	0xbd2d075d	-0.04224335
63	0xbdb0dc6a	-0.08635791
64	0xbdbe2c94	-0.09285846
65	0xbd5f47cd	-0.054511834
66	0x3dd70423	0.10498836
67	0xbd49c36f	-0.049258646
68	0xbda8baca	-0.08238752
69	0xbdf58576	-0.11988346
70	0x3d507fd1	0.050903145
71	0xbd0b273c	-0.033972964
72	0xbe1cb854	-0.1530469
73	0xbdba8b25	-0.09108571
74	0x3d887775	0.066634096
75	0xbe091e40	-0.13390446
76	0x3c10716c	0.008816104
77	0x3bab8ac8	0.00523505
78	0x3dfd7942	0.12376644
79	0xbd963582	-0.073344246
80	0xbe1981c9	-0.14990915
81	0x3d8caa8f	0.06868469
82	0xbc9daaa0	-0.0192464
83	0x3e76cf7f	0.24102591
84	0x3d73d1dc	0.05952631
85	0xbc792378	-0.01520621
86	0x3df2c9fc	0.11854932
87	0x3e0bfec8	0.1367141
88	0xbce2b6e4	-0.0276751
89	0x3d2d337a	0.04228542
90	0xbd87fa2d	-0.06639514
91	0x3c165eb1	0.00917785
92	0xbdcb65ab	-0.09931501
93	0xbd2902c7	-0.041262414
94	0xbd2cee7e	-0.04221963
95	0xbd765ec6	-0.060148977
96	0x3def80fd	0.116945244
97	0xbde4f5a7	-0.11179667
98	0x3d84d219	0.064853854
99	0xbdbdb815	-0.092636265
100	0xbd948702	-0.07252313
101	0xbdc31dbc	-0.09527156
102	0xbc1b8db1	-0.009494231
103	0xbe1021ad	-0.14075346
104	0x3be00037	0.006835963
105	0x3a7db83e	0.00096786383
106	0xbe287eca	-0.16454616
107	0xbc97ee6e	-0.01854631
108	0xbe1fb6f9	-0.15597142
109	0x3d186e54	0.037214592
110	0xbe1500ab	-0.14551036
111	0xbc8e6581	-0.017382385
112	0x3bb33eed	0.005470148
113	0xbd18fef8	-0.037352532
114	0xbd93a6bb	-0.07209536
115	0x3e035610	0.12825799
116	0x3d2c415f	0.04205453
117	0xbe6276ef	-0.22115682
118	0xbd4b5f63	-0.049651515
119	0x3dc1a733	0.09455719
120	0xbdb90f52	-0.09036125
121	0xbde3e91b	-0.11128446
122	0xbd12ad18	-0.035809606
123	0x3bdc4540	0.0067221224
124	0xbd617ce8	-0.05505076
125	0xbdfa488f	-0.12220871
126	0xbd2c85a0	-0.042119622
127	0x3d4ac51a	0.049504377

backbone.11.weight f4 [128, 16, 3, 3]
0	0xbc9e6cb9	-0.019338952
1	0x3e83ad2c	0.25718057
2	0xbe09fac3	-0.13474564
3	0x3d243281	0.040087227
4	0xbd1708e1	-0.036873702
5	0xbe662679	-0.22475614
6	0xbe10e22d	-0.14148779
7	0xbdb71e18	-0.08941287
8	0xbe21c758	-0.157987
9	0x3d7eded9	0.062224243
10	0xbe63a4ac	-0.22230786
11	0x3e567801	0.20944215
12	0x3d5effac	0.054443046
13	0xbc186c7b	-0.0093032075
14	0x3da9922e	0.08279835
15	0xbd701f9b	-0.05862389
16	0x3d883b88	0.0665198
17	0xbd9cc680	-0.07655048
18	0xbc3b5695	-0.011434217
19	0xbd392534	-0.045201495
20	0xbe060b6e	-0.13090298
21	0xbd803f9b	-0.06262132
22	0x3da4bb6b	0.0804356
23	0x3d3fcfa5	0.046828885
24	0xbc58b908	-0.013227709
25	0xbe130918	-0.14358938
26	0xbdb22359	-0.08698148
27	0x3da59deb	0.08086761
28	0xbcd796d4	-0.026317038
29	0xbe0285b2	-0.12746313
30	0x3dfa413e	0.12219475
31	0x3c075053	0.008258897
32	0x3d7decb0	0.0619933
33	0x3e137d94	0.14403373
34	0xbbb53811	-0.0055303653
35	0x3e1898fb	0.14902107
36	0xbe1a4a17	-0.15067326
37	0xbe731e0b	-0.23741929
38	0xbdc05473	-0.093911074
39	0x3c8fc202	0.017548565
40	0xbe1f8fb9	-0.1558217
41	0x3d9e5078	0.07730192
42	0x3e01e147	0.12683593
43	0xbdd26b2c	-0.10274348
44	0x3d9d5be3	0.076835416
45	0xbe008737	-0.1255158
46	0xbe05f0b0	-0.13080096
47	0xbd109fa4	-0.035308495
48	0x3c37fb3a	0.011229331
49	0xbe70a80f	-0.2350161
50	0xbbde04a1	-0.006775454
51	0xbd4e6f9a	-0.0503994
52	0x3cac3723	0.021022385
53	0xbbcb500a	-0.0062046098
54	0x3b969558	0.00459544
55	0xbda36e17	-0.07979982
56	0xbc7f5fa3	-0.015586766
57	0xbe37a29a	-0.17933121
58	0xbdbc34b4	-0.0918974
59	0x3cc2a19c	0.023758702
60	0xbe568265	-0.20948179
61	0xbd28e27d	-0.04123162
62	0x3d8f3130	0.06991804
63	0x3dc76b28	0.09737235
64	0x3d1390ba	0.036026694
65	0xbdad1a25	-0.08452252
66	0x3d6824f4	0.056675866
67	0xbd5f2b05	-0.054484386
68	0x3ca924c8	0.020647421
69	0x3c99bea5	0.018767664
70	0xbd439950	-0.047753632
71	0x3da873c3	0.08225205
72	0x3e464895	0.19363625
73	0xbd3c3c58	-0.045955986
74	0x3c981501	0.018564703
75	0x3d6748fd	0.05646609
76	0x3d3edda5	0.046598095
77	0x3de41edb	0.11138698
78	0x3c8ac67e	0.016940352
79	0xbcf12a77	-0.029439194
80	0xbcffd985	-0.031231651
81	0x3d9e0769	0.07716257
82	0xbe2c56cb	-0.16829984
83	0x3e0ee9c6	0.13956365
84	0xbd15ae5b	-0.03654323
85	0xbd87a8d2	-0.06623997
86	0xbdba16b9	-0.09086365
87	0x3da97bf3	0.082755946
88	0xbe583a4a	-0.21115986
89	0xbbc090f4	-0.0058766548
90	0xbd88cb33	-0.06679382
91	0x3d705bf0	0.05868143
92	0xbe6ad576	-0.22932991
93	0x3d4f9a92	0.05068452
94	0x3e4180d8	0.18896806
95	0xbdaaff8e	-0.083495244
96	0xbdad0d39	-0.08449788
97	0xbd70e516	-0.058812223
98	0xbd8754ab	-0.06607946
99	0xbbc9976d	-0.0061520846
100	0xbe086a5e	-0.13321826
101	0xbd4e2b26	-0.05033412
102	0xbd408b82	-0.047008045
103	0x3d52c6ed	0.05145924
104	0x3e0068ba	0.1253995
105	0x3bb0e2d4	0.005398134
106	0xbdb51e07	-0.08843618
107	0x3cfbdb53	0.03074423
108	0x3e373940	0.17892933
109	0x3db04c00	0.08608246
110	0xbe738ea4	-0.23784882
111	0x3e0c1f1d	0.13683744
112	0x3df44b7d	0.11928461
113	0xbdc6d110	-0.09707844
114	0x3e0ef969	0.1396233
115	0xbec0a276	-0.37623948
116	0x3ce6435b	0.02810829
117	0xbd69101f	-0.05690014
118	0x3dbb3dfd	0.09142683
119	0xbd98cb17	-0.07460611
120	0xbe0b3841	-0.13595678
121	0xbaed1554	-0.0018088021
122	0x3cb3102e	0.021858301
123	0xbe83d3c2	-0.25747496
124	0xbe19a8ef	-0.1500585
125	0x3dab00a7	0.08349734
126	0x3d120ed8	0.035658687
127	0x3e549313	0.2075923
128	0xbe3cd361	-0.1844001
129	0xbdde1063	-0.10842969
130	0xbcf2e2dd	-0.029649192
131	0xbe8ac974	-0.27106822
132	0xbe322e8f	-0.17400573
133	0x3aaee2ca	0.0013342735
134	0xbd99dd32	-0.07512893
135	0x3c18fac2	0.009337129
136	0xbd83e62e	-0.06440388
137	0x3dbe5796	0.092940494
138	0xbe034ead	-0.12822981
139	0xbd81be50	-0.06335127
140	0x3dc374bd	0.095437504
141	0x3cb68bc9	0.022283452
142	0xbd24b807	-0.040214565
143	0xbda1b329	-0.078955
144	0x3dc441b4	0.095828444
145	0x3e181e86	0.14855394
146	0xbc8e0fc6	-0.017341506
147	0xbd9da279	-0.07697005
148	0xbd316337	-0.04330751
149	0x3dc0d441	0.09415484
150	0xbd35281a	-0.044227697
151	0xbdb2c196	-0.0872833
152	0xbc1e1c50	-0.009650305
153	0xbde18e1e	-0.11013435
154	0xbe050846	-0.12991437
155	0xbc5c93dd	-0.013462988
156	0xbd0c8156	-0.03430303
157	0xbe07f5c8	-0.13277352
158	0x3dab7ea7	0.083737664
159	0x3d89bc36	0.067253515
160	0xbdc0028d	-0.093754865
161	0xbe571200	-0.2100296
162	0x3d9a7ef2	0.07543744
163	0x3e9500ca	0.29102165
164	0xbdfc1ed4	-0.123105675
165	0x3d5c47a6	0.053779267
166	0xbbc2492d	-0.0059291334
167	0x3e03a040	0.128541
168	0x3e997e98	0.29979396
169	0x3e00edf9	0.1259078
170	0x3d940471	0.0722741
171	0xbed84e0d	-0.42247048
172	0xbd996caa	-0.07491429
173	0xbe3d9001	-0.18511964
174	0xbddb2872	-0.10701074
175	0xbdf7a8b2	-0.12092723
176	0xbe2f455d	-0.17116304
177	0xbb16bab7	-0.0022999474
178	0x3db0866b	0.08619388
179	0x3d33e496	0.04391917
180	0xbe6adcdd	-0.22935815
181	0xbec37f42	-0.38183028
182	0xbea39627	-0.31950495
183	0xbc9bc13e	-0.019013043
184	0xbdb7ec6d	-0.089806415
185	0xbd340800	-0.043952942
186	0xbd8388aa	-0.06422551
187	0x3e4489fd	0.19193263
188	0xbde939e7	-0.11387997
189	0x3dbc27a9	0.09187252
190	0x3dff367c	0.12461564
191	0xbda49a6e	-0.080372676
192	0x3d8b1af2	0.06792249
193	0xbd1a70ef	-0.037705358
194	0xbe160068	-0.14648592
195	0x3d134f2e	0.035964184
196	0x3d2eb738	0.0426552
197	0x3e02fea9	0.12792458
198	0x3e2da9d6	0.16959319
199	0xbefe1011	-0.49621633
200	0xbe68dbbc	-0.22740072
201	0x3e4e0297	0.20118175
202	0xbd241bd2	-0.040065594
203	0x3d3596af	0.044333156
204	0xbe0b88e4	-0.13626438
205	0x3cbf916c	0.023384772
206	0xbd5e1c8d	-0.054226447
207	0xbdb58aef	-0.0886439
208	0xbd9f7447	-0.0778585
209	0x3d34bddd	0.04412638
210	0xbce62650	-0.02809444
211	0xbec5d3b5	-0.38638082
212	0x3d379771	0.04482216
213	0x3dbd3dad	0.09240279
214	0xbd89acbd	-0.067224
215	0xbed229ff	-0.41047665
216	0x3d232d0d	0.039837886
217	0x3b5c07a5	0.0033573892
218	0x3d99bc99	0.07506675
219	0x3d7ae1d8	0.061250538
220	0xbc925d27	-0.017866684
221	0xbe02018f	-0.12695907
222	0x3dc95595	0.098307766
223	0xbdda0af0	-0.106466174
224	0xbd21fa07	-0.039545085
225	0xbde2f1dd	-0.11081288
226	0xbe2986a5	-0.16555269
227	0xbecf0577	-0.40433857
228	0x3d95af46	0.073088214
229	0x3e0c9934	0.13730317
230	0x3ea006df	0.31255242
231	0x3e03c8cc	0.12869567
232	0x3e3564e3	0.17714266
233	0xbdd14e4a	-0.102200106
234	0xbd5667d6	-0.05234512
235	0x3bf90f67	0.007600713
236	0x3c434617	0.011918566
237	0x3da86c20	0.08223748
238	0x3e8b915f	0.27259347
239	0xbe50c96a	-0.20389333
240	0x3d1905f2	0.037359186
241	0x3d9354f9	0.071939416
242	0xbd8f74cd	-0.070047
243	0x3dcd8405	0.10034946
244	0xbdd02c2e	-0.101646766
245	0xbcb9d742	-0.02268565
246	0xbdc2398c	-0.094836324
247	0xbe0ff2fb	-0.14057533
248	0xbd2c7912	-0.04210765
249	0x3cff45d1	0.03116122
250	0x3cee8ec7	0.029120816
251	0x3c4cc056	0.012497028
252	0x3e532e39	0.20623101
253	0xbd89eec5	-0.06734995
254	0xbe1b7869	-0.15182652
255	0xbd342f35	-0.043990333

backbone.15.bias f4 [256]
0	0xbde68ae5	-0.11256961
1	0xbd00b4a3	-0.03142227
2	0x3e3a8e38	0.18218315
3	0x3d8a30c4	0.067475826
4	0x3c29ec3a	0.010371262
5	0x3d693e33	0.056944083
6	0x3ce027f1	0.027362796
7	0xbe7de2b4	-0.24793512
8	0x3d4c5224	0.049883023
9	0x3c8c0cae	0.01709589
10	0x3d223839	0.0396044
11	0xbc9d9651	-0.019236716
12	0x3cff8518	0.031191394
13	0x3dd4823d	0.103764035
14	0xbcf27b79	-0.029599892
15	0xbdd0d40d	-0.101966955
16	0x3d3b292e	0.04569357
17	0x3d3665f6	0.04453083
18	0x3d36cefd	0.044630993
19	0xbd00f3b6	-0.03148242
20	0x3df442ca	0.119268015
21	0xbda7db4d	-0.08196125
22	0x3c855dec	0.016280137
23	0x3cfb09b0	0.030644268
24	0x3c9290cd	0.017891312
25	0xbd9dbd19	-0.07702083
26	0xbdca83da	-0.0988843
27	0x3d820c91	0.06350053
28	0x3c3c5dab	0.011496942
29	0x3d72f857	0.059318867
30	0x3e41264f	0.1886227
31	0xbd914f87	-0.07095247
32	0x3d229f0f	0.03970247
33	0x3cad473d	0.021152133
34	0x3d9bf227	0.07614546
35	0xbd2f422a	-0.04278771
36	0x3dd63a1e	0.10460304
37	0x3b80ea17	0.0039341557
38	0x3c6f641f	0.014611273
39	0x3dc752ec	0.09732613
40	0xbd7586aa	-0.05994288
41	0x3c5d9c81	0.013526083
42	0x3db1dca5	0.08684663
43	0x3d51e3b3	0.05124254
44	0xbd5ea520	-0.054356694
45	0x3dd570f4	0.10421935
46	0xbd57633a	-0.052584864
47	0xbd55bff8	-0.05218503
48	0xbd916ba8	-0.07100612
49	0x3d834a20	0.064106226
50	0x3c5804a9	0.013184705
51	0x3d7bf7c5	0.06151559
52	0x3b28fd48	0.0025785733
53	0xbd9c5ae4	-0.076345235
54	0xbca96cf4	-0.020681836
55	0xbba6b991	-0.005088039
56	0x3e066020	0.13122606
57	0xbdc98c17	-0.09841173
58	0x3d0284d0	0.03186494
59	0xbc38ef1d	-0.011287478
60	0x3d89e730	0.06733549
61	0x3d9bb6b5	0.07603208
62	0x3d6a2749	0.05716637
63	0x3c42919f	0.011875539
64	0x3d8473eb	0.06467422
65	0xbac810a8	-0.0015263753
66	0xbc89c75f	-0.0168187
67	0x3e40c23d	0.18824096
68	0x3d1919fa	0.03737829
69	0x3b97abee	0.00462865
70	0xbde522aa	-0.11188252
71	0x3d11feea	0.035643496
72	0x3d8516dc	0.06498501
73	0x3bd6c1be	0.0065538576
74	0x3dad1bcd	0.08452568
75	0x3d7b6b91	0.06138188
76	0x3dfde168	0.123965085
77	0x3dd5dcea	0.10442527
78	0x3d0b8c36	0.034069262
79	0x3cdb70e3	0.026787227
80	0x3d74e64d	0.059789944
81	0xbd63ddbf	-0.055631395
82	0xbd1f6249	-0.03891209
83	0x3d86aeb0	0.06576288
84	0xbc58da2e	-0.013235612
85	0x3c3da35e	0.011574594
86	0x3daaf1ae	0.08346878
87	0x3c6d0f06	0.014468914
88	0xbd90335a	-0.070410445
89	0x3c867cc7	0.01641692
90	0x3e1834f1	0.14863946
91	0x3e2c634c	0.16834754
92	0x3e15eed0	0.14641881
93	0x3df73e3e	0.12072419
94	0x3c9da0cf	0.019241719
95	0xbda73555	-0.08164469
96	0xbbc76332	-0.006084823
97	0xbd79ea37	-0.06101438
98	0x3c047057	0.0080834245
99	0x3da22665	0.079174794
100	0x3e02cd2d	0.12773581
101	0x3db60ac3	0.088887714
102	0x3d9a3bc3	0.0753093
103	0x3ca36ca7	0.01994927
104	0xbd8af8e8	-0.06785756
105	0xbdbfda88	-0.093678534
106	0xbd1a4ae2	-0.03766907
107	0x3dd74476	0.10511105
108	0x3dbeefac	0.093230575
109	0x3c7ac953	0.0153067885
110	0x3cc3ee84	0.023917444
111	0xbdd1a965	-0.102373876
112	0x3e242a9f	0.16031884
113	0x3df03a00	0.117298126
114	0xbd0fe2ca	-0.035128392
115	0xbe340931	-0.17581631
116	0xbd173bbd	-0.036922205
117	0xbd57504c	-0.05256681
118	0xbd6ecd24	-0.058301106
119	0xbca44736	-0.020053487
120	0x3d98e1f9	0.07464976
121	0x3c826a38	0.01591979
122	0x3c98f93e	0.018673535
123	0x3c70ccb9	0.014697247
124	0x3d5e1d77	0.05422732
125	0xbd26e774	-0.040748075
126	0x3e0dcec3	0.13848405
127	0x3ddd1514	0.10795036
128	0xbdddecdb	-0.10836192
129	0x3e0c8edf	0.13726376
130	0xbd0adf55	-0.033904392
131	0xbe5d62d8	-0.21619737
132	0x3e238af4	0.15970975
133	0x3de4877a	0.111586526
134	0xbd2f6b8d	-0.042827178
135	0xbd8e9a27	-0.06962996
136	0x3dc57566	0.096415326
137	0xbcbb8d76	-0.022894602
138	0xbd9454af	-0.072427146
139	0xbcb46702	-0.022021774
140	0x3c8a578a	0.016887445
141	0xbcfe3d6a	-0.031035144
142	0x3d5289ac	0.051400825
143	0x3da2c591	0.07947839
144	0xbca9ccba	-0.020727504
145	0xbb6e4544	-0.0036357203
146	0x3e0245fa	0.12722006
147	0xbe015769	-0.12631
148	0x3e54fe4c	0.20800132
149	0x3d6d760e	0.057973914
150	0xbda8dfe7	-0.08245831
151	0x3debf219	0.11520786
152	0x3dfeaa2f	0.12434804
153	0x3dcd610a	0.10028274
154	0x3c6f4e45	0.014606063
155	0xbd50f1a1	-0.051011685
156	0x3ddd335f	0.10800814
157	0xbdd60ccd	-0.1045166
158	0x3df18466	0.11792831
159	0x3d04484f	0.03229552
160	0x3de40ffa	0.1113586
161	0x3bd519ff	0.006503343
162	0x3bcee1c3	0.006313534
163	0x3d9fee20	0.078090906
164	0x3e08024e	0.13282129
165	0x3d09e46f	0.033665117
166	0xbe296a81	-0.16544534
167	0xbc84b045	-0.016197333
168	0x3d7ea298	0.06216678
169	0x3bc3c853	0.0059748082
170	0x3e1318df	0.14364956
171	0xbd4bea86	-0.049784206
172	0x3e1b8e1c	0.15190929
173	0x3d19749a	0.037464716
174	0x3da531d6	0.08066146
175	0x3d768264	0.060182944
176	0x3e2d4f4c	0.1692478
177	0x3d4095a9	0.047017727
178	0xbe7ba123	-0.24573188
179	0xbdaf7d6a	-0.08568843
180	0xbc426033	-0.011863756
181	0x3e0693a9	0.13142265
182	0xbdfbf844	-0.12303212
183	0xbc5a46ab	-0.013322513
184	0xbe068802	-0.1313782
185	0x3d81bc50	0.06334746
186	0x3d8faeee	0.07015787
187	0x3e0aa11b	0.1353802
188	0x3d4e8f7e	0.050429814
189	0x3d943e08	0.07238394
190	0x3d28dc10	0.041225493
191	0xbe123753	-0.14278917
192	0x3d70798b	0.058709662
193	0x3e1affab	0.15136592
194	0xbd4feed1	-0.050764862
195	0x3dd6a672	0.10480966
196	0x3d0f69ff	0.035013195
197	0x3e2e83e1	0.17042495
198	0x3d671704	0.056418434
199	0xbc93af7e	-0.018028017
200	0x3c9daca5	0.019247362
201	0x3e101a29	0.1407248
202	0xbddac0dd	-0.10681317
203	0x3c4d6adb	0.012537683
204	0x3d041b77	0.032252755
205	0x3e0609a5	0.13089617
206	0xbcdcafe5	-0.026939342
207	0x3d57e155	0.052705128
208	0x3ce04e16	0.027380984
209	0x3da49596	0.08036344
210	0xbd4fe7d7	-0.05075821
211	0x3d812477	0.06305783
212	0x3d08fe6c	0.03344576
213	0x3e187e21	0.14891864
214	0x3d1b0dea	0.037855066
215	0x3e116845	0.14199932
216	0xbde668a0	-0.112504244
217	0x3c98c267	0.018647386
218	0xbde4f6fd	-0.11179922
219	0xbb09c79a	-0.0021023513
220	0xbd4acf2e	-0.04951399
221	0x3d96dfac	0.07366881
222	0x3e0f535f	0.13996647
223	0xbe081c9b	-0.13292162
224	0x3d5ffe10	0.054685652
225	0x3cd4f6c2	0.02599657
226	0x3ddd2a83	0.10799124
227	0x3dbe5d8b	0.09295186
228	0x3e1be3fa	0.15223685
229	0x3ca2740d	0.019830728
230	0xbe07d21e	-0.13263747
231	0xbd7b4a91	-0.06135041
232	0xbdbd96cb	-0.09257277
233	0x3d9dba8f	0.07701599
234	0x3cc780f8	0.02435349
235	0x3c0a742c	0.008450549
236	0x3d34aed4	0.04411204
237	0x3d282038	0.04104635
238	0x3d75e1a8	0.060029656
239	0xbd5e5bd2	-0.054286785
240	0x3d7ce342	0.061740167
241	0x3d0af15b	0.03392158
242	0x3d80cd4d	0.06289158
243	0x3ba6575d	0.0050763325
244	0x3dab7597	0.08372038
245	0x3d9fea19	0.078083225
246	0x3b9eadb7	0.0048424858
247	0x3b105e69	0.002202893
248	0xbd4141eb	-0.047182005
249	0x3dd1872d	0.10230861
250	0x3d8051a9	0.062655754
251	0xbdedfedc	-0.11620876
252	0x3cbda8eb	0.023151835
253	0xbe2f51a7	-0.17120992
254	0x3e17c0f9	0.14819707
255	0x3db0780b	0.086166464

backbone.15.weight f4 [256, 128]
0	0x3e24c9df	0.16092633
1	0xbe7bf569	-0.24605335
2	0x3d453983	0.04815055
3	0xbe306e13	-0.1722949
4	0x3dd38c74	0.10329524
5	0x3d8e156e	0.06937681
6	0x3cbc3bd1	0.022977741
7	0x3e37a61d	0.17934461
8	0xbe4a7d6c	-0.19774407
9	0x3d620901	0.055184368
10	0x3e2866c6	0.16445455
11	0xbecc356c	-0.39884508
12	0xbd7927c7	-0.06082895
13	0xbe24484c	-0.16043204
14	0xbd439095	-0.047745306
15	0xbd7547c6	-0.0598829
16	0x3e1a04b1	0.15040852
17	0xbe0958fd	-0.13412853
18	0xbed1e579	-0.40995386
19	0x3f1f3b56	0.62199914
20	0x3e76cd85	0.24101837
21	0x3d6debd6	0.05808624
22	0x3db2b6b1	0.08726252
23	0x3e1af8b0	0.15133929
24	0xbcf7b5e9	-0.030238109
25	0x3eb163f5	0.34646574
26	0xbe5c8af8	-0.21537387
27	0x3d78eb19	0.06077108
28	0x3da77b0c	0.08177766
29	0xbdfb6f8b	-0.122771345
30	0xbdc9b231	-0.098484404
31	0xbeb5b4c0	-0.35489464
32	0xbce6c24b	-0.028168818
33	0x3eda24e0	0.42606258
34	0xbdeab6cd	-0.11460648
35	0x3d7efebf	0.062254664
36	0xbeda27bd	-0.42608443
37	0x3e3ddfe8	0.18542445
38	0x3ccd2d19	0.025045918
39	0xbee1566f	-0.44011256
40	0x3dce20b5	0.10064832
41	0x3bb09a3c	0.00538948
42	0x3c84bf75	0.016204575
43	0x3dab9555	0.08378092
44	0xbdc29738	-0.09501499
45	0x3cfa85a5	0.030581305
46	0xbd07283d	-0.03299736
47	0xbdc156c5	-0.09440378
48	0xbd538719	-0.05164251
49	0xbe3a14c8	-0.1817199
50	0xbe5dc14a	-0.21655765
51	0xbe1dedb5	-0.1542271
52	0xbad5be3c	-0.0016307305
53	0xbdd197a0	-0.10233998
54	0xbe2f3962	-0.17111734
55	0xbda1ffab	-0.07910093
56	0x3e062b53	0.13102464
57	0x3db2ed28	0.0873664
58	0xbdfaafd6	-0.12240569
59	0x3e41fd3d	0.18944259
60	0xbdc818bd	-0.097703435
61	0x3c15d200	0.009144306
62	0x3c5ea43b	0.01358896
63	0xbcf64ca3	-0.03006584
64	0x3d734b51	0.059398
65	0x3e64b9a1	0.22336437
66	0xbcafed1c	-0.021475367
67	0xbe25535a	-0.16145077
68	0x3d85e388	0.06537539
69	0xbea7e443	-0.32791337
70	0x3e362916	0.1778911
71	0x3e1c8466	0.15284881
72	0xbe066ddb	-0.13127844
73	0x3d4f7a54	0.05065377
74	0xbd9bc8b2	-0.07606639
75	0x3d159c4c	0.03652601
76	0x3dbdfc82	0.09276678
77	0xbdadf77b	-0.08494469
78	0xbdd312dd	-0.10306332
79	0x3dc0a614	0.09406677
80	0x3ded58a1	0.1158917
81	0xbed19403	-0.40933236
82	0xbd4459ea	-0.04793731
83	0xbd99a4f7	-0.07502168
84	0xbddfc5c7	-0.10926395
85	0x3e2d150f	0.16902564
86	0x3e022d55	0.12712605
87	0x3d1b3d04	0.037899986
88	0xbebc657b	-0.36796173
89	0x3d702170	0.05862564
90	0x3d993ab7	0.07481902
91	0xbe6ee60c	-0.23329943
92	0x3d0938c7	0.033501413
93	0xbe1bb39c	-0.15205234
94	0xbe9fc4b8	-0.31204772
95	0xbe5b4d7f	-0.21416281
96	0xbda035b5	-0.07822744
97	0xbdaa9749	-0.083296366
98	0x3d6feb1a	0.05857382
99	0xbc34892b	-0.0110190315
100	0xbe0ebbe3	-0.1393886
101	0x3bc6a3c3	0.0060620024
102	0x3b634ace	0.0034682038
103	0x3cd25ffa	0.02568053
104	0xbe794a6e	-0.24344799
105	0xbd855c43	-0.06511738
106	0x3dd17617	0.10227602
107	0xbce2e601	-0.027697565
108	0x3d66845e	0.05627858
109	0x3d8a08cb	0.067399584
110	0xbc1034d6	-0.00880166
111	0x3cac7c78	0.021055445
112	0x3e10f29d	0.1415505
113	0xbd1310ca	-0.035904683
114	0xbd310b5e	-0.04322373
115	0xbd9a85bd	-0.0754504
116	0x3c2b869a	0.010469103
117	0xbc8871c2	-0.016655806
118	0xbec830b7	-0.39099666
119	0xbcb5dedf	-0.022201
120	0x3e0279f5	0.12741835
121	0xbdc85047	-0.09780937
122	0x3e342fd0	0.17596364
123	0x3e20a3c3	0.1568747
124	0x3e026929	0.12735428
125	0x3c70a153	0.0146869
126	0x3e9b9d79	0.3039358
127	0xbc009d42	-0.007849993
128	0xbd0b2b23	-0.033976685
129	0x3ea218aa	0.31659442
130	0xbceed5bb	-0.029154649
131	0xbd96be2f	-0.073604934
132	0xbd15f663	-0.036611926
133	0xbd05ddd9	-0.032682274
134	0x3d1b1c7c	0.03786896
135	0xbd01ec32	-0.031719394
136	0x3da399de	0.07988332
137	0xbe498c37	-0.19682394
138	0xbd93de44	-0.07220128
139	0x3e2e4a28	0.17020476
140	0xbe55fc24	-0.20896965
141	0xbdf927c9	-0.121657915
142	0x3c642409	0.013924607
143	0xbde19ac5	-0.11015848
144	0x3ea5b6c3	0.32366
145	0x3ed7c08e	0.42139095
146	0x3e414c21	0.18876697
147	0x3de5de87	0.11224084
148	0x3e803842	0.2504292
149	0x3d462648	0.04837635
150	0x3c882c4c	0.016622685
151	0x3d7d5eb4	0.061857894
152	0x3d3a321a	0.045457937
153	0x3d832f34	0.06405488
154	0x3d6edaba	0.058314063
155	0x3e000a7e	0.12504002
156	0xbd296e14	-0.041364744
157	0x3c7f2228	0.015572108
158	0xbe0ff67f	-0.14058875
159	0x3e7f7a3a	0.2494897
160	0x3cf6fc00	0.03014946
161	0xbcb10851	-0.02161041
162	0x3d44c136	0.048035823
163	0xbcb25b72	-0.02177212
164	0xbcd5c004	-0.026092537
165	0xbe26ee91	-0.16301943
166	0x3d489b19	0.048976038
167	0x3e464de5	0.19365652
168	0x3e4e8e5a	0.2017149
169	0xbd2dd417	-0.042438593
170	0x3e5cd70b	0.21566407
171	0xbb920ecd	-0.004457331
172	0xbc6dfa72	-0.014525043
173	0x3dda0684	0.10645774
174	0x3d998c21	0.074974306
175	0xbd37534a	-0.044757165
176	0xbd5864a5	-0.052830357
177	0xbd87bc9e	-0.06627773
178	0xbd7eb4bc	-0.06218408
179	0x3ac4002b	0.0014953663
180	0xbda4952e	-0.08036266
181	0x3da9ec26	0.08296995
182	0x3d8bcfa4	0.06826714
183	0xbdaf1161	-0.08548237
184	0xbdd0e720	-0.102003336
185	0x3d5fd827	0.0546495
186	0xbdbee3ce	-0.09320794
187	0x3d003ba7	0.03130689
188	0x3dae838c	0.08521184
189	0x3db5eec5	0.08883432
190	0x3de1e689	0.11030299
191	0x3ca8d992	0.020611558
192	0xbda48318	-0.08032817
193	0xbe85b7f1	-0.261169
194	0xbda1e0a7	-0.07904177
195	0xbd2bd4da	-0.041951038
196	0xbdf77e87	-0.1208468
197	0x3df18c02	0.117942825
198	0x3db58048	0.08862358
199	0x3e2d1043	0.16900735
200	0x3e39baf0	0.18137717
201	0xbc34bc72	-0.011031257
202	0xbde8760b	-0.1135064
203	0xbe125f3d	-0.14294143
204	0x3e3f154a	0.18660465
205	0xbd8dd43f	-0.06925248
206	0xbc6bef80	-0.014400363
207	0x3e0218d9	0.12704791
208	0xbe1a0260	-0.15039968
209	0xbbf740d0	-0.007545568
210	0xbed2ae0e	-0.41148418
211	0x3d89bd4c	0.06725559
212	0xbe6a8a61	-0.2290435
213	0x3dc9a1ef	0.098453395
214	0x3cdad762	0.02671403
215	0x3d8b5ee7	0.068052106
216	0xbc450588	-0.0120252445
217	0xbd378fb3	-0.044814777
218	0xbe352986	-0.17691621
219	0xbe20da82	-0.15708354
220	0xbea0eb0f	-0.31429335
221	0xbe4ffc72	-0.20311144
222	0xbe42d20e	-0.19025442
223	0xbdb9bb3b	-0.090689145
224	0x3d140e82	0.03614665
225	0x3a8a7090	0.0010562111
226	0xbe11f65d	-0.14254136
227	0xbd6ce3ad	-0.057834316
228	0x3c17fdbc	0.009276804
229	0xbcffa8fb	-0.031208506
230	0xbe6a0284	-0.22852522
231	0xbe039c90	-0.12852693
232	0x3e09dbd5	0.13462766
233	0x3d47839d	0.0487095
234	0x3ddc4e69	0.10757143
235	0xbb56d680	-0.003278166
236	0x3e1f8ea4	0.15581757
237	0xbe1754e2	-0.14778474
238	0xbd42b670	-0.047537267
239	0xbdce4997	-0.1007263
240	0x3e3cc0c7	0.18432914
241	0xbe016603	-0.1263657
242	0x3e65a600	0.22426605
243	0x3d12ad07	0.035809543
244	0x3d02962c	0.031881496
245	0x3e6f83e9	0.23390163
246	0x3e1a74dc	0.15083641
247	0xbd07642a	-0.03305451
248	0x3e68e2da	0.22742787
249	0xbd1a7140	-0.03770566
250	0x3e61cc3f	0.2205057
251	0x3e5ac25f	0.21363209
252	0x3e0fff57	0.14062248
253	0x3e6b21e8	0.22962153
254	0x3e8cbc5b	0.27487454
255	0x3d29836e	0.041385107

backbone.2.bias f4 [32]
0	0x3ba5620b	0.005047088
1	0xbc454dbf	-0.012042462
2	0x3daf0462	0.08545758
3	0xbd21bf0b	-0.039488833
4	0xbdb5e6b6	-0.08881895
5	0xbc502afa	-0.012705559
6	0xbd51d17b	-0.051225167
7	0xbb9725f4	-0.0046126787
8	0xbdbd65bd	-0.09247921
9	0x3d829e3f	0.06377839
10	0x3d7d970c	0.061911628
11	0x3d1314ea	0.035908617
12	0x3d2cdcf3	0.0422029
13	0xbde79694	-0.113080174
14	0xbe02ceb1	-0.12774159
15	0xbba2f83d	-0.00497344
16	0xbdeed95f	-0.11662554
17	0xbd2637fa	-0.040580727
18	0x3c96bdd6	0.018401068
19	0xbd268ba8	-0.04066053
20	0xbd3c5af7	-0.04598519
21	0x3da1986b	0.078903995
22	0xbe2c0fc4	-0.16802889
23	0x3c9024d4	0.017595686
24	0xbcc40a46	-0.02393068
25	0xbdf6042a	-0.12012513
26	0xbd21f84f	-0.039543446
27	0xbdef2ccd	-0.11678467
28	0xbd49dbcb	-0.049281877
29	0xbd1f150c	-0.03883843
30	0xbcbc30a5	-0.022972414
31	0x3c978050	0.018493801

backbone.2.weight f4 [32, 16, 3, 3]
0	0x3d8666bc	0.06562564
1	0x3e3a36d3	0.18184976
2	0xbdbc5771	-0.091963656
3	0x3dfb6769	0.12275583
4	0x3df2ab6f	0.118491046
5	0xbe4c823a	-0.19971552
6	0x3ea7ae76	0.3275029
7	0xba98d80a	-0.0011661064
8	0x3cfe8445	0.03106893
9	0x3e0b9149	0.1362964
10	0x3e057f1e	0.13036773
11	0x3d56e3d2	0.05246336
12	0x3e415efa	0.18883887
13	0x3da809e0	0.082050085
14	0x3d009164	0.031388655
15	0xbb7416c3	-0.0037245012
16	0x3e86539d	0.26235667
17	0x3d977dab	0.07397016
18	0x3e99e660	0.30058575
19	0x3e094f15	0.13409074
20	0x3e4c46fe	0.19948956
21	0xbc0d9cae	-0.008643312
22	0x3dcc3771	0.09971512
23	0x3e3a0444	0.1816569
24	0x3e7070ba	0.23480502
25	0x3e2973dd	0.16548105
26	0x3da0a6e6	0.07844333
27	0x3e72a2eb	0.23694961
28	0x3e8eddf3	0.2790371
29	0xbc11e2b4	-0.008904148
30	0x3cf3d5cd	0.029765034
31	0x3ef8f791	0.48626378
32	0x3ed93eb3	0.42430648
33	0x3e33efd6	0.17571959
34	0x3ea0c28e	0.31398433
35	0x3e56f194	0.20990592
36	0x3ce5629e	0.028001126
37	0xbe4bc7b4	-0.199004
38	0xbe82e770	-0.25567198
39	0xbdd0e685	-0.10200218
40	0xbdb384a4	-0.087655336
41	0xbea026f3	-0.31279716
42	0x3e46debd	0.19420905
43	0x3e34bbf3	0.17649822
44	0xbd002df9	-0.031293843
45	0x3e30dca3	0.17271666
46	0x3e0ce9b9	0.13761033
47	0x3c9657fe	0.018352505
48	0x3e594cff	0.21220778
49	0x3e7aa7ed	0.24478121
50	0x3d4bcc10	0.049755156
51	0x3cf2909d	0.029609973
52	0x3c8fb0d9	0.017540382
53	0x3dc86e2f	0.09786641
54	0x3c9343a4	0.01797659
55	0x3e354528	0.17702162
56	0x3e811508	0.25211358
57	0x3d3f2dae	0.046674423
58	0xbe3c0380	-0.1836071
59	0x3e2d88ae	0.1694667
60	0xbc99eda2	-0.01879007
61	0xbe0e3c1a	-0.13890114
62	0x3e2a885c	0.1665358
63	0xbe2b9844	-0.16757303
64	0xbeb12dd1	-0.34605268
65	0x3d8b9303	0.0681515
66	0xbe17936f	-0.14802335
67	0xbda9b7c3	-0.08287003
68	0xbdd27347	-0.10275894
69	0x3cbec3a5	0.02328665
70	0x3cc949f8	0.024571404
71	0xbd6898bd	-0.056786288
72	0x3e7768ea	0.24161115
73	0x3e20e4e6	0.15712318
74	0xbbe45f34	-0.006969357
75	0x3d4c92de	0.04994475
76	0xbdb127e8	-0.0865019
77	0xbc7b9703	-0.015355828
78	0x3d0f9c69	0.035061274
79	0x3d1cdb1d	0.0382949
80	0xbd90e111	-0.07074178
81	0x3e86f7ee	0.2636103
82	0x3e511de3	0.20421557
83	0xbe1ee0b9	-0.15515412
84	0x3d9b5b31	0.07585753
85	0x3e3a8c28	0.18217528
86	0xbe360aa7	-0.17777501
87	0xbdef90d4	-0.11697546
88	0xbd884ca5	-0.06655244
89	0xbd8702cb	-0.065923296
90	0xbe16c839	-0.14724816
91	0x3ce6365c	0.028102092
92	0xbcafd023	-0.021461552
93	0xb9d03dd9	-0.00039718932
94	0xbd66f729	-0.056388054
95	0xbe522135	-0.2052048
96	0xbe431749	-0.19051851
97	0xbdc00c55	-0.09377352
98	0xbe0ccfd4	-0.13751155
99	0x3e0b3f1d	0.13598295
100	0xbd87216c	-0.065981716
101	0x3dfe7db2	0.12426318
102	0xbe111a67	-0.14170228
103	0xbe047f98	-0.12939298
104	0xbbd7493a	-0.0065700086
105	0xbd27a75b	-0.040931087
106	0xbe64dd6c	-0.2235009
107	0xbd4216e2	-0.047385104
108	0xbc3358b2	-0.01094644
109	0x3dede459	0.116158195
110	0x3d924628	0.071422875
111	0xbde93865	-0.113877095
112	0xbd3a09ff	-0.04541969
113	0x3e024621	0.12722065
114	0x3cf2f6e2	0.029658739
115	0xbda38bbb	-0.07985636
116	0x3ea1ea6a	0.31624156
117	0x3df4a286	0.119450614
118	0x3d51d0c0	0.05122447
119	0xbc557b9d	-0.01302996
120	0xbd601107	-0.05470374
121	0x3c494149	0.012283632
122	0xbd8e6fa9	-0.06954891
123	0xbe5d5490	-0.2161429
124	0x3d6ed1e7	0.058305647
125	0xbbf82e2a	-0.0075738626
126	0x3e82ea65	0.25569454
127	0x3e31fcad	0.17381544
128	0xbdb7ec95	-0.08980671
129	0x3df05706	0.117353484
130	0x3e309e8b	0.1724798
131	0xbdccbbf9	-0.099967904
132	0x3d7e14a3	0.0620314
133	0x3e35c45c	0.17750686
134	0xbc8838df	-0.01662868
135	0x3e3c556e	0.18391964
136	0x3df82ab7	0.12117522
137	0x3e5d3eb0	0.21605945
138	0xbe0c8e14	-0.13726074
139	0x3e368cd0	0.17827153
140	0xbd939428	-0.07205993
141	0x3e1e5eec	0.15465897
142	0x3e29f4e6	0.16597328
143	0x3dda5856	0.1066138
144	0x3dbdac75	0.09261409
145	0x3e74ec9a	0.23918381
146	0x3e7578e0	0.23971891
147	0x3d4599e3	0.04824246
148	0x3e718c57	0.23588692
149	0x3e21db23	0.1580625
150	0xbe18b6ba	-0.14913455
151	0xbda6799d	-0.08128665
152	0xbccfa93e	-0.025349256
153	0xbe07c592	-0.13258961
154	0xbe643dae	-0.22289154
155	0xbdd0b9f9	-0.101917215
156	0xbd8aa2cb	-0.067693315
157	0xbe33c539	-0.17555703
158	0xbda467bb	-0.080275975
159	0x3e3fb0c9	0.18719782
160	0xbd26f497	-0.040760603
161	0x3c94cfee	0.018165555
162	0x3e62d09c	0.2214989
163	0x3e05c81d	0.13064618
164	0xbdcf7e53	-0.10131516
165	0xbb324329	-0.0027200675
166	0xbdf50afa	-0.11964984
167	0x3d9486b4	0.07252255
168	0x3e612f86	0.21990785
169	0x3cd3dd1c	0.02586227
170	0xbec9bb64	-0.3940078
171	0xba8a88ba	-0.0010569312
172	0xbdf29098	-0.11843985
173	0xbc391365	-0.011296128
174	0xbe0ab082	-0.13543895
175	0x3d32351d	0.043507684
176	0x3e82549a	0.2545517
177	0xbeceb7e6	-0.40374678
178	0xbe40f81e	-0.18844649
179	0xbdeb5947	-0.11491638
180	0xbe6297ae	-0.22128174
181	0xbdab310f	-0.083589666
182	0xbd7a8b77	-0.06116816
183	0xbec77aff	-0.38961026
184	0xbe960da4	-0.29307282
185	0xbeb5f6d1	-0.35539868
186	0xbb868ff1	-0.0041065146
187	0xbe9bb8b3	-0.30414352
188	0xbee28aaf	-0.44246432
189	0x3ce6832d	0.028138721
190	0x3d74d650	0.059774697
191	0xbd1be3b2	-0.038058944
192	0xbd91a2ed	-0.07111154
193	0x3d1afb74	0.03783746
194	0xbdb26a68	-0.08711702
195	0xbe3e78ff	-0.18600844
196	0x3db96b36	0.09053652
197	0x3e01aac5	0.126628
198	0xbd86263d	-0.06550262
199	0xbdc8e0cb	-0.09808501
200	0xbe822b2d	-0.25423566
201	0xba9b5628	-0.0011851238
202	0xbe863892	-0.26215035
203	0xbe1faf90	-0.15594316
204	0xbc86a364	-0.016435333
205	0xbe27d560	-0.1638999
206	0xbe677dab	-0.22606532
207	0xbe38d0c7	-0.18048392
208	0xbeab99f5	-0.33515897
209	0xbdf14cd0	-0.11782229
210	0xbf1ad3fd	-0.6047972
211	0xbe8309c0	-0.25593376
212	0xbe80b5d0	-0.25138712
213	0xbe85bae1	-0.2611914
214	0xbead2500	-0.3381729
215	0xbe7753bf	-0.2415304
216	0x3e9a750f	0.30167434
217	0x3e5580b4	0.20849878
218	0x3d883dd4	0.06652418
219	0x3c12ed5f	0.0089677265
220	0x3e615ca7	0.22008
221	0xbdc46084	-0.095887214
222	0x3e4d6bf7	0.20060717
223	0x3da33713	0.07969489
224	0xbda645af	-0.0811876
225	0x3d9b485e	0.07582162
226	0x3d9ccae8	0.07655889
227	0x3ca4f6e8	0.020137265
228	0xbe3db10f	-0.18524574
229	0xbe3d9811	-0.1851504
230	0xbd8248db	-0.06361552
231	0xbd0395d5	-0.032125313
232	0xbc0de00b	-0.008659373
233	0xbde76055	-0.11297671
234	0x3e77c723	0.24197058
235	0x3d1ee3b4	0.038791373
236	0x3cb07d96	0.021544259
237	0x3d2956ee	0.04134267
238	0x3c9f0b29	0.019414501
239	0x3e119233	0.14215927
240	0x3b64fe72	0.00349417
241	0x3d8232f4	0.06357375
242	0x3c8c5257	0.017129106
243	0x3e06f03b	0.13177578
244	0x3cc81be1	0.024427356
245	0x3dc4ef06	0.096159026
246	0x3eaeb522	0.34122568
247	0x3e190166	0.1494194
248	0x3e1a6747	0.1507846
249	0x3e836dcd	0.2566971
250	0x3de2cea6	0.11074571
251	0x3de79005	0.113067664
252	0xbbbc1dd4	-0.0057408605
253	0xbc6201d8	-0.013794385
254	0x3bce9d9b	0.006305409
255	0xbd0e907c	-0.03480576

backbone.5.bias f4 [64]
0	0xbcbe53ee	-0.02323338
1	0x3d37adc9	0.04484347
2	0xbd1d1b9e	-0.038356416
3	0x3a8d94ca	0.0010801789
4	0x3d6796f4	0.056540444
5	0x3db0afb8	0.08627266
6	0xbcae1315	-0.021249333
7	0x3d6fad4e	0.058514886
8	0xbd1032c9	-0.035204682
9	0xbe34a8a2	-0.17642453
10	0xbc5e824d	-0.013580871
11	0xbdc3db52	-0.095633164
12	0xbcafdb65	-0.02146692
13	0x3cf94bd7	0.030431671
14	0xbd903326	-0.07041006
15	0xbca9b978	-0.020718321
16	0x3d4b92bf	0.049700495
17	0xbc80cf0f	-0.015723733
18	0x3d917fd4	0.071044594
19	0xbc3f314e	-0.01166947
20	0xbcf22375	-0.029557923
21	0xbe044803	-0.12918095
22	0xbcc4f6c3	-0.024043446
23	0x3d4118f1	0.047142927
24	0xbdc9ada7	-0.09847575
25	0x3d8280ab	0.06372198
26	0xbcf92b19	-0.030416058
27	0x3cf87db2	0.030333374
28	0x3cc4744b	0.023981234
29	0xbdc17f76	-0.09448139
30	0x3d92a8ab	0.07161077
31	0xbdec19fc	-0.115283936
32	0x3d822352	0.06354393
33	0xbd846066	-0.06463699
34	0xbdd31d2f	-0.10308301
35	0xbcd536a7	-0.026027037
36	0x3c77a8f4	0.015115965
37	0xbd944778	-0.07240194
38	0xbbcfab3a	-0.0063375505
39	0xbd35015f	-0.04419076
40	0xbd4042c2	-0.046938665
41	0x3dee3d23	0.11632755
42	0xbd5bd4e9	-0.053669844
43	0xbd8b7d22	-0.068109766
44	0x3c072ddf	0.008250683
45	0xbdf60e9a	-0.12014504
46	0x3d067a51	0.032831494
47	0xbcb21d70	-0.021742553
48	0xbbfd536d	-0.0077308924
49	0x3cfe50b2	0.031044338
50	0x3b7f0817	0.0038914734
51	0x3d337626	0.043813847
52	0xbdc06955	-0.093950905
53	0xbd208ad1	-0.039194886
54	0xbdd976f8	-0.106183946
55	0xbd0b2735	-0.033972938
56	0x3d6d31df	0.05790889
57	0xbde77599	-0.11301727
58	0x3b6ae1dc	0.003584019
59	0xbd335789	-0.043784652
60	0x3d7a9065	0.06117286
61	0x3e42d38a	0.19026008
62	0x3de458e9	0.11149771
63	0xb99cf980	-0.0002994053
