checkpoints/lilac-field-47-q_net.pt (torch, 636362 bytes, 15 tensors)

weight f4 [16, 15, 5, 5]
00000000: 477f 733c 2659 6d3d 44e6 06bc fc42 0a3d
00000010: 542c 35bd 23b2 8a3d feb7 82bd 164f 15be
00000020: 4d7b 08be f523 dd3d b525 3f3d 27ca 113b
00000030: 96ab b7bd 0c72 d33d 6163 55bc 66bc 85bc
00000040: c3f5 443d 0874 123e 7997 713d 34e5 5abc
00000050: 6284 56bd caf2 f2bd dbb4 5e3d 0d1e 96bd
00000060: 0aa0 12bd b310 fd3d 85a2 603e dca1 673e
00000070: f4f8 de3d 4b11 2e3d 7bde 4cbd 7b5e ed3c
00000080: c123 e33d e3fd 963d 7089 f8bd ff74 983e
00000090: 7780 b83e 8d79 b93e eb5a 113e 4a6e 6d3e
000000a0: d0b3 c83e fda1 323f a2c2 f2bd 7c81 ba3e
000000b0: fc00 2cbd b1dc c03d 1476 983e b0a8 4d3e
000000c0: ea9d 4f3e 8b95 7d3c 69f1 0f3c ae7f 4d3d
000000d0: 3ace 89bb a1d6 69bd 0fc6 e1bd 9014 3a3c
000000e0: 4076 763d e80a d23d 4d1f 3abd f497 edbc
000000f0: 996b 863d efbd 553a 9f37 a2bc 7b76 c4bd
00000100: 3693 acbc c288 fb3b ddcf 17bd 03f0 10bd
00000110: 7053 e13c a9d7 f03c 1ade 2e3e 0bdf cb3c
00000120: 1364 523e 36b7 9d3d f532 d13d 1f33 3d3e
00000130: 1ac0 683e 8b07 193e efeb e03d 44ac e2bd
00000140: 1b07 fc3e 58fe 033f 8ec9 a03e cb5d d03e
00000150: c73b 8e3e 0cb6 e23e 69ef 843e ab69 173f
00000160: 385a 3b3e 591e 5c3e c304 8f3e 2cc7 b63e
00000170: 0149 303f 5105 de3e aa54 0a3d 9a8a 843e
00000180: 5145 273e d64f dc3e b7fe 8ebd db44 2dbb
00000190: a80c 71be 87f4 a6be 0e38 62bd 8031 5dbe
000001a0: ad6c 49be e14a a3bd fe29 82be f8d1 d2bd
000001b0: f4e2 43be afae a1bd 8dee 70be 26b3 f2bd
000001c0: aca6 2bbd ca20 20be 95fd c7bd 82c4 41be
000001d0: 59af 2cbe f5a2 c7bd 35f4 5e3b 074f b1bd
000001e0: 410b 12be b8c7 c7bd 504d c73d a992 c8bc
000001f0: 65bf a2bc 3a62 17be a529 a9be 9002 3dbd
00000200: 351e 3dbe 617f 25be cfe8 55bc 1aff 77be
00000210: 976f d1bd b49c 12be c9a5 e9bd c98a 7ebe
00000220: 0eaa b9bd 7c79 fabc dab0 8bbd 3d26 8abd
00000230: bdf5 62be e6de 2dbe ad89 ebbc f552 8b3d
00000240: d6a1 83bb 3e8c bcbd 2cd9 e9bd 23eb 81bb
00000250: fc0c 05bd b4e5 67bc 0c49 86be a96f cdbe
00000260: ca77 db3c a612 26be 3d27 82be c4c9 00be
00000270: 1bb2 92be bc6c 12be 903a d8bd 0f0b 4bbd
00000280: 0c1e 4abe bd53 dfbd a6b3 31bd 8ec2 9cbd
00000290: 023d 10be f02d 91be da38 27be d0d2 4ebd
000002a0: 9fa0 fa3a e6b3 a9bd 5173 babd 224b b4bd
000002b0: 1b93 ae3c 7944 93bc b010 03be 537b 51be
000002c0: 3fbe d2be dba3 f5bd be7e 5ebe e99c 67be
000002d0: e70b cfbd 4366 a2be ba8e f4bd 22b0 2ebe
000002e0: eaa9 80bd 3202 33be 3edf 02be d116 7cbd
000002f0: 78e9 2abe 94a1 14be 37e9 53be df50 12be
00000300: 254f 11be 64fc b0bc 326a dcbd 94c2 c6bd
00000310: ca9b 1cbe 0cd8 a63d 6692 26bc c39f edbd
00000320: 9855 88bd 1ee3 e53d 63d0 d33d 8a0a c13d
00000330: 7b59 093d 88b8 9a3d c3f1 3d3e f6d2 34b8
00000340: 5ad8 163e 9884 943d ef0f 733e a826 843e
00000350: c687 b13d c3b6 fa3d 2dc9 9d3d 485b f1bd
00000360: 0a85 9c3e ec84 5c3d db76 543d 5fba 30be
00000370: d817 603c 5638 9c3c 04d3 7a3d 896f ddbd
00000380: e8aa cb3b 4df8 dbbc 4ffd 143e b216 173e
00000390: d649 d83d 75e4 cbba c2aa a13d 3642 383e
000003a0: ec96 0abd a631 dc3d 050a fb3c 5f36 843e
000003b0: becb 4e3e e1cd db3d 2fa8 d43d 7a28 d93b
000003c0: 501e fcbd d2bd 6e3e f8ae 1a3d e7c8 b73d
000003d0: 6116 46be 537d ad3d 0b96 003d d066 a13d
000003e0: 7548 80bd 14df e3bc 227e 69bd 44ad 253e
000003f0: 5791 0f3e b3a5 ee3d fa0c 0ebc c3c1 af3d
0.014861888 0.057946347 -0.008233611 0.033755288 -0.044231728 0.06772258 -0.0638275 -0.1458095
-0.13328286 0.10797874 0.04666682 0.0022245736 -0.08968274 0.10324487 -0.013024182 -0.016325187
0.04808594 0.14302075 0.058982346 -0.01336031 -0.052372344 -0.118627146 0.054371696 -0.073299505
-0.035797156 0.12356701 0.21936996 0.22620338 0.10887328 0.04249696 -0.05001686 0.028975716
0.11090804 0.07372644 -0.12135589 0.2977676 0.3603551 0.36225548 0.14194839 0.23186603
0.39199686 0.69778425 -0.118535295 0.36426914 -0.041993126 0.094170935 0.29777586 0.2008388
0.20275083 0.015477548 0.008785584 0.050170593 -0.0042054923 -0.05708945 -0.11024105 0.011357442
0.060171366 0.102559865 -0.045440007 -0.029003121 0.065634914 0.00081536075 -0.019801913 -0.09592911
-0.02106629 0.007676215 -0.03706347 -0.035385143 0.027505606 0.02939971 0.17076913 0.024886629
0.20545988 0.0770096 0.102147974 0.18476532 0.22729531 0.14944284 0.10982501 -0.11068013
0.4922417 0.5155997 0.31403774 0.40696558 0.27779981 0.44279516 0.25963905 0.5914561
0.18296134 0.21495952 0.2793332 0.3569883 0.68861395 0.4336343 0.03377215 0.25886995
0.16335036 0.4302966 -0.06982177 -0.0026438746 -0.23539984 -0.32608435 -0.05522924 -0.21600914
-0.19670363 -0.079732664 -0.25422662 -0.102939546 -0.19129544 -0.078946464 -0.235285 -0.11850576
-0.041906998 -0.15637508 -0.09765164 -0.18922618 -0.16863765 -0.097478785 0.003402007 -0.086576514
-0.14262106 -0.0975489 0.09731543 -0.024483996 -0.019866655 -0.14783564 -0.33039585 -0.046145022
-0.18468554 -0.16161872 -0.013055994 -0.24218407 -0.10226362 -0.1431759 -0.11408574 -0.2485763
-0.090656385 -0.030575506 -0.06820841 -0.067455746 -0.22164054 -0.1697956 -0.028752172 0.06802932
-0.004017095 -0.092064366 -0.114183754 -0.003964798 -0.032483086 -0.014153887 -0.26227605 -0.40124252
0.026790518 -0.16218051 -0.2542056 -0.12576967 -0.2865151 -0.14299291 -0.10558045 -0.049571093
-0.19738024 -0.10904644 -0.043384217 -0.07654296 -0.14085773 -0.2835536 -0.16330281 -0.050494015
0.0019121355 -0.08286266 -0.09104026 -0.08803393 0.02131038 -0.017976986 -0.12799335 -0.204572
-0.4116077 -0.119941436 -0.21728036 -0.2261845 -0.10109692 -0.31718644 -0.119412854 -0.17059377
-0.062824085 -0.17481306 -0.12780473 -0.061545197 -0.16690624 -0.14514762 -0.20694433 -0.14288662
-0.14190347 -0.021604724 -0.10762443 -0.097050816 -0.15293804 0.081466764 -0.01016674 -0.11602738
-0.06656951 0.1122496 0.10342481 0.09425838 0.0335326 0.07554728 0.18549256 -4.3111817e-05
0.14730969 0.07251853 0.23736547 0.25810742 0.08668475 0.1224189 0.07704387 -0.11784989
0.3057025 0.0538377 0.051871162 -0.17258595 0.01367756 0.019069832 0.061236396 -0.10812289
0.006215442 -0.026851797 0.14549755 0.14754751 0.10560958 -0.0015555756 0.078938976 0.17994007
-0.033835337 0.10751657 0.030644426 0.25822732 0.20194909 0.10732628 0.10383641 0.0066271396
-0.12310469 0.23314598 0.03776452 0.08973866 -0.19344474 0.08471169 0.031393092 0.07880938
-0.0626382 -0.027816333 -0.057005055 0.16179377 0.14020287 0.11652698 -0.008670086 0.08581879

bias f4 [16]
00000000: 6503 80bc 5824 003d d21f d03c 6cd1 d5bd
00000010: 817a 66bc 8b7f 0ebd 3392 55bd c6fd 85bc
00000020: da7e ae3c b662 a1bd af09 a03d 447f 113d
00000030: 7824 b4bd 6ad7 b33b e0ac 72bd 867f 9c3c
-0.015626619 0.03128466 0.025405798 -0.10440335 -0.014067293 -0.034789603 -0.05214138 -0.01635636
0.021300722 -0.07880156 0.07814347 0.03552176 -0.08796018 0.005488326 -0.059246898 0.019103777

weight f4 [32, 16, 3, 3]
00000000: bc66 863d d336 3a3e 7157 bcbd 6967 fb3d
00000010: 6fab f23d 3a82 4cbe 76ae a73e 0ad8 98ba
00000020: 4584 fe3c 4991 0b3e 1e7f 053e d2e3 563d
00000030: fa5e 413e e009 a83d 6491 003d c316 74bb
00000040: 9d53 863e ab7d 973d 60e6 993e 154f 093e
00000050: fe46 4c3e ae9c 0dbc 7137 cc3d 4404 3a3e
00000060: ba70 703e dd73 293e e6a6 a03d eba2 723e
00000070: f3dd 8e3e b4e2 11bc cdd5 f33c 91f7 f83e
00000080: b33e d93e d6ef 333e 8ec2 a03e 94f1 563e
00000090: 9e62 e53c b4c7 4bbe 70e7 82be 85e6 d0bd
000000a0: a484 b3bd f326 a0be bdde 463e f3bb 343e
000000b0: f92d 00bd a3dc 303e b9e9 0c3e fe57 963c
000000c0: ff4c 593e eda7 7a3e 10cc 4b3d 9d90 f23c
000000d0: d9b0 8f3c 2f6e c83d a443 933c 2845 353e
000000e0: 0815 813e ae2d 3f3d 8003 3cbe ae88 2d3e
000000f0: a2ed 99bc 1a3c 0ebe 5c88 2a3e 4498 2bbe
00000100: d12d b1be 0393 8b3d 6f93 17be c3b7 a9bd
00000110: 4773 d2bd a5c3 be3c f849 c93c bd98 68bd
00000120: ea68 773e e6e4 203e 345f e4bb de92 4c3d
00000130: e827 b1bd 0397 7bbc 699c 0f3d 1ddb 1c3d
00000140: 11e1 90bd eef7 863e e31d 513e b9e0 1ebe
00000150: 315b 9b3d 288c 3a3e a70a 36be d490 efbd
00000160: a54c 88bd cb02 87bd 39c8 16be 5c36 e63c
00000170: 23d0 afbc d93d d0b9 29f7 66bd 3521 52be
00000180: 4917 43be 550c c0bd d4cf 0cbe 1d3f 0b3e
00000190: 6c21 87bd b27d fe3d 671a 11be 987f 04be
000001a0: 3a49 d7bb 5ba7 27bd 6cdd 64be e216 42bd
000001b0: b258 33bc 59e4 ed3d 2846 923d 6538 e9bd
000001c0: ff09 3abd 2146 023e e2f6 f23c bb8b a3bd
000001d0: 6aea a13e 86a2 f43d c0d0 513d 9d7b 55bc
000001e0: 0711 60bd 4941 493c a96f 8ebd 9054 5dbe
000001f0: e7d1 6e3d 2a2e f8bb 65ea 823e adfc 313e
00000200: 95ec b7bd 0657 f03d 8b9e 303e f9bb ccbd
00000210: a314 7e3d 5cc4 353e df38 88bc 6e55 3c3e
00000220: b72a f83d b03e 5d3e 148e 0cbe d08c 363e
00000230: 2894 93bd ec5e 1e3e e6f4 293e 5658 da3d
00000240: 75ac bd3d 9aec 743e e078 753e e399 453d
00000250: 578c 713e 23db 213e bab6 18be 9d79 a6bd
00000260: 3ea9 cfbc 92c5 07be ae3d 64be f9b9 d0bd
00000270: cba2 8abd 39c5 33be bb67 a4bd c9b0 3f3e
00000280: 97f4 26bd eecf 943c 9cd0 623e 1dc8 053e
00000290: 537e cfbd 2943 32bb fa0a f5bd b486 943d
000002a0: 862f 613e 1cdd d33c 64bb c9be ba88 8aba
000002b0: 9890 f2bd 6513 39bc 82b0 0abe 1d35 323d
000002c0: 9a54 823e e6b7 cebe 1ef8 40be 4759 ebbd
000002d0: ae97 62be 0f31 abbd 778b 7abd ff7a c7be
000002e0: a40d 96be d1f6 b5be f18f 86bb b3b8 9bbe
000002f0: af8a e2be 2d83 e63c 50d6 743d b2e3 1bbd
00000300: eda2 91bd 74fb 1a3d 686a b2bd ff78 3ebe
00000310: 366b b93d c5aa 013e 3d26 86bd cbe0 c8bd
00000320: 2d2b 82be 2856 9bba 9238 86be 90af 1fbe
00000330: 64a3 86bc 60d5 27be ab7d 67be c7d0 38be
00000340: f599 abbe d04c f1bd fdd3 1abf c009 83be
00000350: d0b5 80be e1ba 85be 0025 adbe bf53 77be
00000360: 0f75 9a3e b480 553e d43d 883d 5fed 123c
00000370: a75c 613e 8460 c4bd f76b 4d3e 1337 a33d
00000380: af45 a6bd 5e48 9b3d e8ca 9c3d e8f6 a43c
00000390: 0fb1 3dbe 1198 3dbe db48 82bd d595 03bd
000003a0: 0be0 0dbc 5560 e7bd 23c7 773e b4e3 1e3d
000003b0: 967d b03c ee56 293d 290b 9f3c 3392 113e
000003c0: 72fe 643b f432 823d 5752 8c3c 3bf0 063e
000003d0: e11b c83c 06ef c43d 22b5 ae3e 6601 193e
000003e0: 4767 1a3e cd6d 833e a6ce e23d 0590 e73d
000003f0: d41d bcbb d801 62bc 9b9d ce3b 7c90 0ebd
0.06562564 0.18184976 -0.091963656 0.12275583 0.118491046 -0.19971552 0.3275029 -0.0011661064
0.03106893 0.1362964 0.13036773 0.05246336 0.18883887 0.082050085 0.031388655 -0.0037245012
0.26235667 0.07397016 0.30058575 0.13409074 0.19948956 -0.008643312 0.09971512 0.1816569
0.23480502 0.16548105 0.07844333 0.23694961 0.2790371 -0.008904148 0.029765034 0.48626378
0.42430648 0.17571959 0.31398433 0.20990592 0.028001126 -0.199004 -0.25567198 -0.10200218
-0.087655336 -0.31279716 0.19420905 0.17649822 -0.031293843 0.17271666 0.13761033 0.018352505
0.21220778 0.24478121 0.049755156 0.029609973 0.017540382 0.09786641 0.01797659 0.17702162
0.25211358 0.046674423 -0.1836071 0.1694667 -0.01879007 -0.13890114 0.1665358 -0.16757303
-0.34605268 0.0681515 -0.14802335 -0.08287003 -0.10275894 0.02328665 0.024571404 -0.056786288
0.24161115 0.15712318 -0.006969357 0.04994475 -0.0865019 -0.015355828 0.035061274 0.0382949
-0.07074178 0.2636103 0.20421557 -0.15515412 0.07585753 0.18217528 -0.17777501 -0.11697546
-0.06655244 -0.065923296 -0.14724816 0.028102092 -0.021461552 -0.00039718932 -0.056388054 -0.2052048
-0.19051851 -0.09377352 -0.13751155 0.13598295 -0.065981716 0.12426318 -0.14170228 -0.12939298
-0.0065700086 -0.040931087 -0.2235009 -0.047385104 -0.01094644 0.116158195 0.071422875 -0.113877095
-0.04541969 0.12722065 0.029658739 -0.07985636 0.31624156 0.119450614 0.05122447 -0.01302996
-0.05470374 0.012283632 -0.06954891 -0.2161429 0.058305647 -0.0075738626 0.25569454 0.17381544
-0.08980671 0.117353484 0.1724798 -0.099967904 0.0620314 0.17750686 -0.01662868 0.18391964
0.12117522 0.21605945 -0.13726074 0.17827153 -0.07205993 0.15465897 0.16597328 0.1066138
0.09261409 0.23918381 0.23971891 0.04824246 0.23588692 0.1580625 -0.14913455 -0.08128665
-0.025349256 -0.13258961 -0.22289154 -0.101917215 -0.067693315 -0.17555703 -0.080275975 0.18719782
-0.040760603 0.018165555 0.2214989 0.13064618 -0.10131516 -0.0027200675 -0.11964984 0.07252255
0.21990785 0.02586227 -0.3940078 -0.0010569312 -0.11843985 -0.011296128 -0.13543895 0.043507684
0.2545517 -0.40374678 -0.18844649 -0.11491638 -0.22128174 -0.083589666 -0.06116816 -0.38961026
-0.29307282 -0.35539868 -0.0041065146 -0.30414352 -0.44246432 0.028138721 0.059774697 -0.038058944
-0.07111154 0.03783746 -0.08711702 -0.18600844 0.09053652 0.126628 -0.06550262 -0.09808501
-0.25423566 -0.0011851238 -0.26215035 -0.15594316 -0.016435333 -0.1638999 -0.22606532 -0.18048392
-0.33515897 -0.11782229 -0.6047972 -0.25593376 -0.25138712 -0.2611914 -0.3381729 -0.2415304
0.30167434 0.20849878 0.06652418 0.0089677265 0.22008 -0.095887214 0.20060717 0.07969489
-0.0811876 0.07582162 0.07655889 0.020137265 -0.18524574 -0.1851504 -0.06361552 -0.032125313
-0.008659373 -0.11297671 0.24197058 0.038791373 0.021544259 0.04134267 0.019414501 0.14215927
0.00349417 0.06357375 0.017129106 0.13177578 0.024427356 0.096159026 0.34122568 0.1494194
0.1507846 0.2566971 0.11074571 0.113067664 -0.0057408605 -0.013794385 0.006305409 -0.03480576

bias f4 [32]
00000000: 0b62 a53b bf4d 45bc 6204 af3d 0bbf 21bd
00000010: b6e6 b5bd fa2a 50bc 7bd1 51bd f425 97bb
00000020: bd65 bdbd 3f9e 823d 0c97 7d3d ea14 133d
00000030: f3dc 2c3d 9496 e7bd b1ce 02be 3df8 a2bb
00000040: 5fd9 eebd fa37 26bd d6bd 963c a88b 26bd
00000050: f75a 3cbd 6b98 a13d c40f 2cbe d424 903c
00000060: 460a c4bc 2a04 f6bd 4ff8 21bd cd2c efbd
00000070: cbdb 49bd 0c15 1fbd a530 bcbc 5080 973c
0.005047088 -0.012042462 0.08545758 -0.039488833 -0.08881895 -0.012705559 -0.051225167 -0.0046126787
-0.09247921 0.06377839 0.061911628 0.035908617 0.0422029 -0.113080174 -0.12774159 -0.00497344
-0.11662554 -0.040580727 0.018401068 -0.04066053 -0.04598519 0.078903995 -0.16802889 0.017595686
-0.02393068 -0.12012513 -0.039543446 -0.11678467 -0.049281877 -0.03883843 -0.022972414 0.018493801

weight f4 [64, 32, 3, 3]
00000000: 7f08 983d 0bd6 f33c 120c c6bc 74b3 ab3d
00000010: 460f 503e ba05 913d 0101 0cbd 9d68 8fbc
00000020: 9126 48bd 41bd 863c f527 c0bd a3c2 02bd
00000030: 3b1d dd3c f287 773d ffec 883d 15bf d73d
00000040: 4934 c6bc d12a 813c 89f1 ec3c 8b5f a23c
00000050: 5a1d 923d 9e18 a53d 7b21 333d 3953 af3d
00000060: 172b 6b3d 4819 20bd 9832 943b 886b 53be
00000070: 40f0 053d 34d0 11be 89e8 1bbc 795f 5abd
00000080: 46f2 fc3c 19aa ddbc c4e1 0fbe 13c8 8bbe
00000090: 7551 893d 311d 823c ccd2 793c 4b3c 46bd
000000a0: 1838 d43c 75fc d13d aaaa 0a3d ad4f 38bc
000000b0: c1c7 b0bd 8340 303c e66d dbbe e33e b2be
000000c0: fcc8 0d3e e0ff 8fbe ad41 a3be b753 ccbc
000000d0: 1ae3 353e 5c37 da3d 2d78 c83d ff9a 59bd
000000e0: 6e5a 30bd a238 aa3d 3048 7abe bf9d a9be
000000f0: a684 183e fc70 b23d a4df bfbd 968d 693d
00000100: 95bb 48be 279a 683d c76e 7a3c e5e5 fbbc
00000110: 6192 16be bfa8 3e3d 951c c2bd 113d 0fbe
00000120: 6234 b6bd f413 dabd bb6a 1abd bce3 193d
00000130: 553b 633e 1279 193e 8d78 7ebd 9d5c 1e3d
00000140: de98 6bbb 1a9a 00be 2c62 47be 9ae6 6e3e
00000150: 03b8 50bc 7f74 0bbd 831a 35bd 6f9c 5bbd
00000160: a59d 99be 611d 0bbe 1e3d 6f3d 7c5e 0d3e
00000170: f01e 103e aa41 af3d 5387 b53c 3cab 7dbd
00000180: 9c79 e23b 837c 7dbc d164 bcbd 3707 de3d
00000190: 1bdf 2fbe a48f 2ebe 94c8 2e3d 246c 6ebe
000001a0: 5107 bd3b 20e5 343e 2431 6ebd 4d8c 513e
000001b0: 9c0e 11be 2667 87be 4ff2 b53c 4929 6cbe
000001c0: fa08 a8bd 6936 143e 0de9 42bd e40c 4e3d
000001d0: 23fb 64bd 43b3 dcbc a29e de3d bdce 693d
000001e0: 3b2a bfbd e877 af3d 95d1 933d b6ed edbd
000001f0: ff80 4ebc a053 f8bd 4f27 f83d d26c 3d3e
00000200: c0ca 113e 3663 033e ae72 2d3e 7470 203c
00000210: c76d 44bd d84d 32be 00ba 02be db96 d33d
00000220: bb6e c5bd baaf e03d fc8a fbbb 155e 293d
00000230: 9c6b 953e f69f 843d ac68 fe3d bead d93d
00000240: 2321 09be c599 43be 1341 8ebd ab89 94bd
00000250: e2e4 fdbd 540f 32be 3512 b63a dcd0 8d3c
00000260: 4e42 743d 2573 69bd eddc e43d 23bc 303d
00000270: b03d e53d 7386 4e3d b0a7 403e add4 813d
00000280: 780a e03d 4843 3f3d 1709 883d 015b dbbd
00000290: 199f 78be 3e66 a7bc 59bc 32bd 67af 30bd
000002a0: 98a5 05bd 227a 353e 3364 153e dd47 5d3d
000002b0: 5f7d 373d 2a7b 6abd ce68 1b3d 0fab 11be
000002c0: 9c1d 53bc 9c14 95bd 7e86 063d abe2 993d
000002d0: 23ab a2bd 5500 d7bd 92cb 393d 7e6d 65bd
000002e0: 71a5 9abd 3265 573a 0d06 a7bd 6c9b e3bd
000002f0: d4c4 e0bd dc53 fbbb e002 553c 81b8 56be
00000300: 4d98 903c 2d54 da3c 6660 b53d c55d cc3d
00000310: b966 2cbd fd22 6ebd 8606 193e ff7d 223d
00000320: a758 713e 32b4 2ebc 0f40 a03d e12f 9e3d
00000330: 4178 323e efc2 af3d 1332 be3d 2f9b 8e3d
00000340: 5840 b63d 299a c63a 0b5d 06bd f240 203d
00000350: 3156 51bd 96e9 38bd 21d7 72bd cf62 02be
00000360: 3446 ea3d 9e5c 78bd e7db 15be d54a 183e
00000370: 8501 93bd 5395 09be a812 ca3d 6b4c d7bc
00000380: 1958 473d 6226 883d 8b44 82be 5253 e8bd
00000390: a119 ea3d faa3 43be b96b 20be 748a 073e
000003a0: 7094 ef3d 0ceb 723e 7b28 6ebe 11d2 85be
000003b0: e9cb 88bd 6895 adbd a35e 443d b7cf 0e3e
000003c0: 84fb 233e db1e 9d3d a34b af3d adf3 293d
000003d0: 814e 043e e80a 783d a1ff 8ebd 3a92 c73d
000003e0: 7467 803c d8ee 023e b7d7 403e cfd7 ab3d
000003f0: 56f2 5abd 65b9 4bbe cdcd 45be c8dd 65be
0.074234955 0.02976515 -0.024175677 0.08383837 0.20318326 0.070811704 -0.034180645 -0.017505938
-0.048864905 0.016447665 -0.09382621 -0.0319239 0.026991477 0.060432382 0.066858284 0.10534493
-0.024194853 0.015767487 0.028923767 0.019820949 0.071345046 0.08061336 0.0437331 0.08560795
0.05741414 -0.03908661 0.004522633 -0.20646489 0.032699823 -0.1423958 -0.00951589 -0.053313706
0.030877244 -0.027058648 -0.14050967 -0.27301082 0.0670499 0.01588306 0.015248012 -0.048397344
0.025905654 0.102532305 0.033854164 -0.011249465 -0.0863185 0.010757568 -0.42857283 -0.34813604
0.138462 -0.28124905 -0.31886044 -0.024942262 0.17762414 0.1065509 0.09788547 -0.05312633
-0.04305499 0.08311583 -0.244416 -0.33128163 0.14894351 0.08712956 -0.09368828 0.057019792
-0.19602807 0.056787636 0.0152852 -0.03074927 -0.14704277 0.046547648 -0.09478108 -0.13988139
-0.0889671 -0.10648337 -0.037699442 0.0375707 0.22190602 0.14987591 -0.062126685 0.03866254
-0.003594927 -0.12558785 -0.19471043 0.23330155 -0.012739184 -0.034046646 -0.044214737 -0.053615984
-0.30003086 -0.13585426 0.058407895 0.13805574 0.14074302 0.08557446 0.022159254 -0.06193088
0.0069114696 -0.01547158 -0.09198917 0.1084122 -0.17174952 -0.17046982 0.042671755 -0.2328344
0.0057686944 0.17665529 -0.058152333 0.20463677 -0.1416573 -0.26445884 0.022210268 -0.23062624
-0.08204837 0.14473881 -0.047585536 0.050305262 -0.055903565 -0.026940947 0.108701006 0.057081927
-0.09334227 0.08567792 0.07217709 -0.116176054 -0.012603997 -0.12125325 0.121168725 0.18498543
0.14237499 0.12830815 0.16938278 0.009792436 -0.047956254 -0.17412508 -0.12766266 0.10331508
-0.09640261 0.10971017 -0.0076764803 0.04134949 0.29183662 0.06475823 0.12422308 0.10628842
-0.13391547 -0.19101627 -0.06946006 -0.072528206 -0.123971716 -0.1738866 0.0013890924 0.017311506
0.059633546 -0.056994576 0.11174951 0.04314817 0.111934066 0.05042119 0.18813968 0.06339393
0.10939497 0.046695024 0.06642359 -0.10710717 -0.24279441 -0.020434495 -0.043636654 -0.043136027
-0.032628626 0.17722371 0.14589004 0.054023612 0.044797298 -0.057246365 0.037941746 -0.1422541
-0.012885477 -0.072793216 0.032843105 0.075139366 -0.07942798 -0.1049811 0.045360155 -0.056012623
-0.07551087 0.00082166784 -0.08155451 -0.11113629 -0.10975042 -0.007669909 0.013001174 -0.2096882
0.017650748 0.026651466 0.08856277 0.099788226 -0.04209015 -0.058138836 0.14943895 0.03967094
0.23568974 -0.010663079 0.07824718 0.07723976 0.17428686 0.085821025 0.09286895 0.06963193
0.08898991 0.0015152144 -0.032803576 0.039124437 -0.05110759 -0.04514464 -0.059287194 -0.12733005
0.114391714 -0.0606352 -0.14634667 0.14872296 -0.07178024 -0.13435869 0.0986684 -0.026281556
0.048668 0.06647946 -0.2544292 -0.11344017 0.114306696 -0.19105521 -0.15666093 0.1323641
0.11698234 0.23722476 -0.2325763 -0.2613683 -0.06679518 -0.084757626 0.047941815 0.13946424
0.16013914 0.07671901 0.085593484 0.041492153 0.12920572 0.060557276 -0.06982351 0.097446874
0.01567433 0.12786424 0.18832289 0.083907716 -0.053453766 -0.19894941 -0.19316788 -0.22447884

bias f4 [64]
00000000: ee53 bebc c9ad 373d 9e1b 1dbd ca94 8d3a
00000010: f496 673d b8af b03d 1513 aebc 4ead 6f3d
00000020: c932 10bd a2a8 34be 4d82 5ebc 52db c3bd
00000030: 65db afbc d74b f93c 2633 90bd 78b9 a9bc
00000040: bf92 4b3d 0fcf 80bc d47f 913d 4e31 3fbc
00000050: 7523 f2bc 0348 04be c3f6 c4bc f118 413d
00000060: a7ad c9bd ab80 823d 192b f9bc b27d f83c
00000070: 4b74 c43c 767f c1bd aba8 923d fc19 ecbd
00000080: 5223 823d 6660 84bd 2f1d d3bd a736 d5bc
00000090: f4a8 773c 7847 94bd 3aab cfbb 5f01 35bd
000000a0: c242 40bd 233d ee3d e9d4 5bbd 227d 8bbd
000000b0: df2d 073c 9a0e f6bd 517a 063d 701d b2bc
000000c0: 6d53 fdbb b250 fe3c 1708 7f3b 2676 333d
000000d0: 5569 c0bd d18a 20bd f876 d9bd 3527 0bbd
000000e0: df31 6d3d 9975 e7bd dce1 6a3b 8957 33bd
000000f0: 6590 7a3d 8ad3 423e e958 e43d 80f9 9cb9
-0.02323338 0.04484347 -0.038356416 0.0010801789 0.056540444 0.08627266 -0.021249333 0.058514886
-0.035204682 -0.17642453 -0.013580871 -0.095633164 -0.02146692 0.030431671 -0.07041006 -0.020718321
0.049700495 -0.015723733 0.071044594 -0.01166947 -0.029557923 -0.12918095 -0.024043446 0.047142927
-0.09847575 0.06372198 -0.030416058 0.030333374 0.023981234 -0.09448139 0.07161077 -0.115283936
0.06354393 -0.06463699 -0.10308301 -0.026027037 0.015115965 -0.07240194 -0.0063375505 -0.04419076
-0.046938665 0.11632755 -0.053669844 -0.068109766 0.008250683 -0.12014504 0.032831494 -0.021742553
-0.0077308924 0.031044338 0.0038914734 0.043813847 -0.093950905 -0.039194886 -0.106183946 -0.033972938
0.05790889 -0.11301727 0.003584019 -0.043784652 0.06117286 0.19026008 0.11149771 -0.0002994053

weight f4 [128, 64, 3, 3]
00000000: 1721 a93d 9d0f a53d a5cd 30bd 1ec9 cf3d
00000010: 5116 773e b53c f9bb 94db ac3d a0c5 8a3d
00000020: 1f0f f338 56b0 5cbe ff65 acbe 083e 05bf
00000030: f3f5 ccbe 020e babe f027 d9be ec9b 82be
00000040: 316d 473b 61f4 403d 6f61 f43d 1a8f 153e
00000050: ef87 c53e 8c70 87bb d864 adbc 55ab 99bc
00000060: 06f0 c6bd 5115 70bd 74c5 913d deca 85bd
00000070: 2d9c eebd 4c0b c2be c499 0ebd e8f1 13bc
00000080: ece0 6bbd 841a bb3c 0b5b 2abd b3fa 9f3d
00000090: 3208 083d bc1d 0f3e 8e9b 523e bd53 f0bd
000000a0: 88b6 053e 1e27 45bd cb15 8bbd 808f 8bbd
000000b0: bb21 3cbd 1e90 b0bd 014e fe3c 6ea7 0a3e
000000c0: ac8a ad3d 5c68 483e b366 afbd 35bc 3cbc
000000d0: cdf1 583c 6b02 223d 5e8c f8bc 2684 00bc
000000e0: 407c 2d3e 7f18 8cbd c973 1b3c cd47 a6bd
000000f0: b82d aebd 0e0e 83bd 5b0f a03d d3a5 3dbd
00000100: 04bd 4bbd 6cc2 aabe d22d b43c 29d5 303d
00000110: bb8b 97bc 8f82 dbbc 7b3c fb3c d062 43bd
00000120: 52ea a0bd 249c 38be a019 b9bd a433 0e3e
00000130: 6efb fe3d 073b da3a a3c8 fa3d ee37 6d3e
00000140: bb08 513e cf0e e5bd 8a25 76be 7af0 0a3e
00000150: 8d81 0fbd db39 6ebd b74a a7be 2d1f e1bd
00000160: 4e38 a8bd 3c23 d63a 6b87 3ebe f983 3fbe
00000170: f3a4 9fbd 57bc 1dbe 55af 75bd 4a0c a8bc
00000180: cec8 80bd a2ce 64be 9512 c1bc 94b9 86be
00000190: 1757 50be 0e7c a0be 9e18 b8bb f124 17bd
000001a0: e0cf 29be fb29 743d a81d a03d 7549 cfbc
000001b0: 6cf9 c23d 2a2a 5f3c 036d 2b3e 5b0f 8b3d
000001c0: 16da fcbd 6041 74be 3374 863d fe51 4b3c
000001d0: 1f5a 0d3e 1350 01be 281f 4d3d 7a1a 9dbc
000001e0: a0d3 85bd b4cb b13d 74f2 a83c 3783 903c
000001f0: ce83 65bd d810 6f3b 4633 e73d 678e 423e
00000200: 5ded bb3e 14a6 85bd 8a7c 5bbd f7b6 9bbc
00000210: 7df7 9d3b bdc3 1bbd 5b79 803c b7f1 47be
00000220: 7c2d 5cbe 2266 71be 23a4 243d a8d4 b3bd
00000230: 657f 15be f1d2 b6bd 0c26 1dbe 45e1 a1bd
00000240: b6f1 ffbc 0611 5abd 9428 e2be 6798 99bc
00000250: bcba 81bd c72a f8bc 31b9 8dbd 8086 88bd
00000260: 5bf8 f0bc 516f 40bd 958b 64bb f70f b8be
00000270: f44c 83bc fb06 97bd 57a3 1a3d edd6 b4bd
00000280: dcc4 e13c cac3 11bd b30c 79bd f27a 923d
00000290: ed17 a6bd d425 953b 02e5 853c ba8f 7a3d
000002a0: dc87 123d dd74 373d 1787 b6bc 0644 423a
000002b0: 7d54 11bd 87b4 363e 8384 08bd eca0 95bd
000002c0: d688 4bbc 43fc 1dbd 50e9 9cbd a7dd babb
000002d0: 1df5 55bc ba71 2ebc 1e50 94be bad9 893d
000002e0: 856f 0e3e 62de 093e e1e4 3c3d 231d bc3d
000002f0: d8b2 1abc 3493 283e 2e45 873e 9b7f 493e
00000300: e053 60bd 5a0f 0bbe 0209 943c 5a36 b5bc
00000310: 743e 083d ba50 b1bc f563 063e c2cc 443e
00000320: 188d ad3e afa4 b4bc 4643 99bc ba14 d6bc
00000330: e486 acbb c5f3 8ebc 6ee6 aa3c f3b8 bb3d
00000340: 2ff5 b23d 9c11 bb3e d6cd 75be 7274 8bbc
00000350: 26c0 b4bd 694d 18bd 2a47 afbd ee67 b33d
00000360: 47e9 1bbe edce fc3d 8380 913d 96d0 38be
00000370: 20ef 6ebd ca89 e4bc 75ad 1cbe 03ba 503d
00000380: a1c6 80be 8df2 2a3e bbbf 7c3e 74a7 8a3e
00000390: c745 2abd 63a3 e9ba a0df 47bd ff02 933c
000003a0: 3afc 38bd 35f8 6dbd a167 dbbd f387 273d
000003b0: 2175 fbbd fffe d13d 0a68 153d 13a9 0f3d
000003c0: fdb5 9c3d 4b1d b3bb 955a c43d d8a5 34be
000003d0: 3da2 35be fb89 9bbe ce03 33be 1851 32bd
000003e0: 453f a0bd 024c 10be 93a2 04be 5c8b 853d
000003f0: 6097 36be a72a 2a3c 9e7d 63be 9f6a 853d
0.082582645 0.080596186 -0.043164868 0.10145782 0.24129607 -0.007606114 0.08440319 0.06775975
0.000115899595 -0.21551642 -0.33671567 -0.5204778 -0.40031394 -0.36338812 -0.42413282 -0.25509584
0.0030430073 0.047108058 0.119326465 0.1460537 0.38580272 -0.0041332897 -0.02116625 -0.018758455
-0.097137496 -0.05861408 0.07117739 -0.065328345 -0.11650882 -0.37899244 -0.03481461 -0.009029843
-0.05758755 0.022839792 -0.04159073 0.07811489 0.03321094 0.13976187 0.20567152 -0.11734722
0.13057911 -0.04813301 -0.06791266 -0.0681448 -0.045930605 -0.08621238 0.031043055 0.13540432
0.08473715 0.1957106 -0.0856451 -0.011519481 0.013241244 0.039553087 -0.03034037 -0.007844007
0.16941929 -0.0684061 0.009488055 -0.08119164 -0.08504814 -0.06399165 0.07815429 -0.04630072
-0.049740806 -0.33351457 0.021994505 0.043172035 -0.018499246 -0.026795654 0.030668488 -0.047701657
-0.07857193 -0.18028313 -0.09038091 0.13886887 0.124503 0.0016649672 0.122453 0.23165867
0.20413487 -0.11184465 -0.24037758 0.13568297 -0.03503566 -0.058160644 -0.3267419 -0.109922744
-0.08213864 0.0016337405 -0.18606345 -0.18702687 -0.077951334 -0.15403877 -0.059981663 -0.020513672
-0.062883005 -0.22344449 -0.02356843 -0.2631346 -0.20345722 -0.31344646 -0.005618169 -0.036900464
-0.16583204 0.05961035 0.078181565 -0.025303582 0.0952023 0.013620893 0.16740803 0.06790038
-0.12346284 -0.23853064 0.06565132 0.012409685 0.1380391 -0.12628202 0.05007854 -0.019177664
-0.06534505 0.086814314 0.020623423 0.017640693 -0.056033902 0.0036478546 0.112890765 0.18999635
0.3670453 -0.065258175 -0.053585567 -0.019008143 0.0048207627 -0.038028467 0.015682867 -0.195258
-0.21501726 -0.23574117 0.040195595 -0.08780795 -0.14599378 -0.08926953 -0.15346545 -0.07904295
-0.031243186 -0.05323889 -0.44171584 -0.018749429 -0.06334445 -0.030293835 -0.06920088 -0.06666279
-0.0294153 -0.04698116 -0.0034873236 -0.3594968 -0.016027905 -0.07374378 0.03775343 -0.08830056
0.02755969 -0.03558711 -0.060803127 0.07152356 -0.08110032 0.0045516286 0.016344551 0.061172225
0.035774097 0.044789184 -0.022281213 0.0007410649 -0.035480965 0.17842303 -0.033329498 -0.07306084
-0.012422761 -0.038570654 -0.07661688 -0.0057026925 -0.013058928 -0.010647232 -0.28967375 0.06730981
0.13909729 0.13463739 0.046116713 0.09185245 -0.009442054 0.16462404 0.26419967 0.19677584
-0.05476749 -0.13580075 0.018070702 -0.022120643 0.033262685 -0.021644939 0.13124068 0.19218734
0.33896708 -0.022051184 -0.018708836 -0.02613293 -0.0052651037 -0.017450223 0.02086183 0.09166136
0.08738171 0.36536872 -0.24004301 -0.017023299 -0.08825712 -0.0371832 -0.08558495 0.087600574
-0.15225707 0.123441555 0.0710459 -0.18048319 -0.058333516 -0.027897734 -0.15300544 0.050958645
-0.25151542 0.16694088 0.24682514 0.27080882 -0.04157045 -0.0017825182 -0.04879725 0.017945765
-0.045162417 -0.058098037 -0.10713125 0.040901136 -0.122782 0.10253715 0.036476173 0.03507335
0.07651899 -0.0054661385 0.0958759 -0.1764139 -0.1773767 -0.30378708 -0.1748192 -0.04353437
-0.07824568 -0.14091495 -0.12952642 0.06520721 -0.17831182 0.010386146 -0.22215888 0.06514477

bias f4 [128]
00000000: 5c67 78bd 382c d53d e72e fdbd 2cfc 83ba
00000010: d186 ee3c 806b fb3c 3892 22be 9d31 20be
00000020: 47d4 9cbc db99 09be 3936 bfbd 9652 a43d
00000030: 732c 543d 878b 773b 2342 a23c 01b0 173e
00000040: d628 4bbc b88c 963d 3f76 b93b a24f dabb
00000050: bc9b e23c d44c a23d 2bbe c13d 8014 2cbd
00000060: 0667 103d 3f09 94bd 2b5c 90bc 674d f23c
00000070: 6969 7a3d cadb 3cbd 1490 f9bc 0151 a9bc
00000080: 5cb6 623d b49d 883d 2169 393d 6730 80bd
00000090: 7efb 593e 135c 2dbd 46d9 9c3b 056c de3d
000000a0: 08fb a4bd 2d6b 3cbd baa9 593b 4b05 e53c
000000b0: c79f 77bd ae6a debd ec12 7dbd b580 43bc
000000c0: 8cc6 02be 8196 233b c2f1 6e3d b95e b73c
000000d0: 5fbb 82bd c99f 623b 01dd 9fbd ccf6 2d3d
000000e0: 876b 55bd a1a4 073c 9e92 10bd d7ed 9ebc
000000f0: 1ef6 ccbd e8bb 243d d205 643d 5fcc 073c
00000100: 6a7b 863d f067 953d 87a8 4ebc acff df3a
00000110: 5794 933d 78a4 f43c e078 2b3d cf74 023d
00000120: e4db c43d 6e2c 02bd d9a0 a3bc 0bae 1abd
00000130: 7e38 1abe c132 4e3d d0db a1bc a34c 873d
00000140: 3e1b 483d 262a 33bc c347 c13d b0aa 26bd
00000150: 54eb 343c ab5d 8b3a d2f3 5f3d 9a96 b13d
00000160: 381b e1bd d232 383c 48af cdbd cf6c d8bd
00000170: c826 71bd 4004 433d eaad d03c d94f a33d
00000180: de3d c0bd 19b3 3e3c e6ae 053d 3220 52bd
00000190: f9ca 913d caa9 b03d 3244 0a3b 8e6f 5d3c
000001a0: ee27 d4bc 7315 dbbc c249 7e3d 6c8d 96bd
000001b0: fb68 873d 62a4 fd3b 73a8 0fbe de17 7bba
000001c0: 0609 6e3d 4f27 573c d6b5 f93d 2f4c d63c
000001d0: f098 113e 51d2 703d 86c0 34be 0202 cf3b
000001e0: b1aa 1ebd 24bc c9bd 5ed6 8cbc 147f bbbd
000001f0: 856c 2bbd 0319 f53d c3e3 63bd 22bb 1cbd
-0.060645446 0.10408825 -0.123624615 -0.001006966 0.02911702 0.030690908 -0.1587609 -0.15643926
-0.01914419 -0.13437597 -0.09336514 0.080235645 0.051800203 0.0037772374 0.019806927 0.14813234
-0.012399873 0.07351059 0.005659848 -0.006662325 0.02766215 0.0792481 0.094601 -0.042011738
0.0352545 -0.07228326 -0.017622074 0.029577924 0.061135683 -0.046108045 -0.03046421 -0.020668508
0.055349693 0.066707045 0.045266274 -0.06259232 0.21287343 -0.042324137 0.004786643 0.10860447
-0.08055693 -0.04600065 0.0033212737 0.027956625 -0.06045511 -0.10860191 -0.061785623 -0.011932542
-0.12771052 0.0024961533 0.058336027 0.022384034 -0.063833944 0.0034580103 -0.07805825 0.042471692
-0.0521045 0.008278997 -0.035296075 -0.01940052 -0.10007881 0.040218264 0.055669613 0.008288472
0.06566508 0.07295215 -0.012613422 0.0017089746 0.07206028 0.029863581 0.041863322 0.03184968
0.09612253 -0.031780653 -0.01997416 -0.037763637 -0.15060613 0.05034137 -0.019758135 0.06606414
0.048854105 -0.010935342 0.094375156 -0.040690124 0.011042435 0.0010632774 0.054675885 0.08671303
-0.1099152 0.011242585 -0.10043198 -0.105676286 -0.058874875 0.047611475 0.025473554 0.07974214
-0.093868 0.01163938 0.0326375 -0.051300235 0.07118792 0.08626135 0.0021097776 0.013515366
-0.025897946 -0.026743626 0.06208206 -0.07351193 0.0661182 0.007740543 -0.14029102 -0.00095784466
0.058114074 0.0131319305 0.121928856 0.026159374 0.14218497 0.058794323 -0.17651567 0.006317378
-0.038737003 -0.09850338 -0.017192062 -0.091550976 -0.04185154 0.11967661 -0.055637132 -0.0382644

weight f4 [128, 16, 3, 3]
00000000: b96c 9ebc 2cad 833e c3fa 09be 8132 243d
00000010: e108 17bd 7926 66be 2de2 10be 181e b7bd
00000020: 58c7 21be d9de 7e3d aca4 63be 0178 563e
00000030: acff 5e3d 7b6c 18bc 2e92 a93d 9b1f 70bd
00000040: 883b 883d 80c6 9cbd 9556 3bbc 3425 39bd
00000050: 6e0b 06be 9b3f 80bd 6bbb a43d a5cf 3f3d
00000060: 08b9 58bc 1809 13be 5923 b2bd eb9d a53d
00000070: d496 d7bc b285 02be 3e41 fa3d 5350 073c
00000080: b0ec 7d3d 947d 133e 1138 b5bb fb98 183e
00000090: 174a 1abe 0b1e 73be 7354 c0bd 02c2 8f3c
000000a0: b98f 1fbe 7850 9e3d 47e1 013e 2c6b d2bd
000000b0: e35b 9d3d 3787 00be b0f0 05be a49f 10bd
000000c0: 3afb 373c 0fa8 70be a104 debb 9a6f 4ebd
000000d0: 2337 ac3c 0a50 cbbb 5895 963b 176e a3bd
000000e0: a35f 7fbc 9aa2 37be b434 bcbd 9ca1 c23c
000000f0: 6582 56be 7de2 28bd 3031 8f3d 286b c73d
00000100: ba90 133d 251a adbd f424 683d 052b 5fbd
00000110: c824 a93c a5be 993c 5099 43bd c373 a83d
00000120: 9548 463e 583c 3cbd 0115 983c fd48 673d
00000130: a5dd 3e3d db1e e43d 7ec6 8a3c 772a f1bc
00000140: 85d9 ffbc 6907 9e3d cb56 2cbe c6e9 0e3e
00000150: 5bae 15bd d2a8 87bd b916 babd f37b a93d
00000160: 4a3a 58be f490 c0bb 33cb 88bd f05b 703d
00000170: 76d5 6abe 929a 4f3d d880 413e 8eff aabd
00000180: 390d adbd 16e5 70bd ab54 87bd 6d97 c9bb
00000190: 5e6a 08be 262b 4ebd 828b 40bd edc6 523d
000001a0: ba68 003e d4e2 b03b 071e b5bd 53db fb3c
000001b0: 4039 373e 004c b03d a48e 73be 1d1f 0c3e
000001c0: 7d4b f43d 10d1 c6bd 69f9 0e3e 76a2 c0be
000001d0: 5b43 e63c 1f10 69bd fd3d bb3d 17cb 98bd
000001e0: 4138 0bbe 5415 edba 2e10 b33c c2d3 83be
000001f0: efa8 19be a700 ab3d d80e 123d 1393 543e
00000200: 61d3 3cbe 6310 debd dde2 f2bc 74c9 8abe
00000210: 8f2e 32be cae2 ae3a 32dd 99bd c2fa 183c
00000220: 2ee6 83bd 9657 be3d ad4e 03be 50be 81bd
00000230: bd74 c33d c98b b63c 07b8 24bd 29b3 a1bd
00000240: b441 c43d 861e 183e c60f 8ebc 79a2 9dbd
00000250: 3763 31bd 41d4 c03d 1a28 35bd 96c1 b2bd
00000260: 501c 1ebc 1e8e e1bd 4608 05be dd93 5cbc
00000270: 5681 0cbd c8f5 07be a77e ab3d 36bc 893d
00000280: 8d02 c0bd 0012 57be f27e 9a3d ca00 953e
00000290: d41e fcbd a647 5c3d 2d49 c2bb 40a0 033e
000002a0: 987e 993e f9ed 003e 7104 943d 0d4e d8be
000002b0: aa6c 99bd 0190 3dbe 7228 dbbd b2a8 f7bd
000002c0: 5d45 2fbe b7ba 16bb 6b86 b03d 96e4 333d
000002d0: dddc 6abe 427f c3be 2796 a3be 3ec1 9bbc
000002e0: 6dec b7bd 0008 34bd aa88 83bd fd89 443e
000002f0: e739 e9bd a927 bc3d 7c36 ff3d 6e9a a4bd
00000300: f21a 8b3d ef70 1abd 6800 16be 2e4f 133d
00000310: 38b7 2e3d a9fe 023e d6a9 2d3e 1110 febe
00000320: bcdb 68be 9702 4e3e d21b 24bd af96 353d
00000330: e488 0bbe 6c91 bf3c 8d1c 5ebd ef8a b5bd
00000340: 4774 9fbd ddbd 343d 5026 e6bc b5d3 c5be
00000350: 7197 373d ad3d bd3d bdac 89bd ff29 d2be
00000360: 0d2d 233d a507 5c3b 99bc 993d d8e1 7a3d
00000370: 275d 92bc 8f01 02be 9555 c93d f00a dabd
00000380: 07fa 21bd ddf1 e2bd a586 29be 7705 cfbe
00000390: 46af 953d 3499 0c3e df06 a03e ccc8 033e
000003a0: e364 353e 4a4e d1bd d667 56bd 670f f93b
000003b0: 1746 433c 206c a83d 5f91 8b3e 6ac9 50be
000003c0: f205 193d f954 933d cd74 8fbd 0584 cd3d
000003d0: 2e2c d0bd 42d7 b9bc 8c39 c2bd fbf2 0fbe
000003e0: 1279 2cbd d145 ff3c c78e ee3c 56c0 4c3c
000003f0: 392e 533e c5ee 89bd 6978 1bbe 352f 34bd
-0.019338952 0.25718057 -0.13474564 0.040087227 -0.036873702 -0.22475614 -0.14148779 -0.08941287
-0.157987 0.062224243 -0.22230786 0.20944215 0.054443046 -0.0093032075 0.08279835 -0.05862389
0.0665198 -0.07655048 -0.011434217 -0.045201495 -0.13090298 -0.06262132 0.0804356 0.046828885
-0.013227709 -0.14358938 -0.08698148 0.08086761 -0.026317038 -0.12746313 0.12219475 0.008258897
0.0619933 0.14403373 -0.0055303653 0.14902107 -0.15067326 -0.23741929 -0.093911074 0.017548565
-0.1558217 0.07730192 0.12683593 -0.10274348 0.076835416 -0.1255158 -0.13080096 -0.035308495
0.011229331 -0.2350161 -0.006775454 -0.0503994 0.021022385 -0.0062046098 0.00459544 -0.07979982
-0.015586766 -0.17933121 -0.0918974 0.023758702 -0.20948179 -0.04123162 0.06991804 0.09737235
0.036026694 -0.08452252 0.056675866 -0.054484386 0.020647421 0.018767664 -0.047753632 0.08225205
0.19363625 -0.045955986 0.018564703 0.05646609 0.046598095 0.11138698 0.016940352 -0.029439194
-0.031231651 0.07716257 -0.16829984 0.13956365 -0.03654323 -0.06623997 -0.09086365 0.082755946
-0.21115986 -0.0058766548 -0.06679382 0.05868143 -0.22932991 0.05068452 0.18896806 -0.083495244
-0.08449788 -0.058812223 -0.06607946 -0.0061520846 -0.13321826 -0.05033412 -0.047008045 0.05145924
0.1253995 0.005398134 -0.08843618 0.03074423 0.17892933 0.08608246 -0.23784882 0.13683744
0.11928461 -0.09707844 0.1396233 -0.37623948 0.02810829 -0.05690014 0.09142683 -0.07460611
-0.13595678 -0.0018088021 0.021858301 -0.25747496 -0.1500585 0.08349734 0.035658687 0.2075923
-0.1844001 -0.10842969 -0.029649192 -0.27106822 -0.17400573 0.0013342735 -0.07512893 0.009337129
-0.06440388 0.092940494 -0.12822981 -0.06335127 0.095437504 0.022283452 -0.040214565 -0.078955
0.095828444 0.14855394 -0.017341506 -0.07697005 -0.04330751 0.09415484 -0.044227697 -0.0872833
-0.009650305 -0.11013435 -0.12991437 -0.013462988 -0.03430303 -0.13277352 0.083737664 0.067253515
-0.093754865 -0.2100296 0.07543744 0.29102165 -0.123105675 0.053779267 -0.0059291334 0.128541
0.29979396 0.1259078 0.0722741 -0.42247048 -0.07491429 -0.18511964 -0.10701074 -0.12092723
-0.17116304 -0.0022999474 0.08619388 0.04391917 -0.22935815 -0.38183028 -0.31950495 -0.019013043
-0.089806415 -0.043952942 -0.06422551 0.19193263 -0.11387997 0.09187252 0.12461564 -0.080372676
0.06792249 -0.037705358 -0.14648592 0.035964184 0.0426552 0.12792458 0.16959319 -0.49621633
-0.22740072 0.20118175 -0.040065594 0.044333156 -0.13626438 0.023384772 -0.054226447 -0.0886439
-0.0778585 0.04412638 -0.02809444 -0.38638082 0.04482216 0.09240279 -0.067224 -0.41047665
0.039837886 0.0033573892 0.07506675 0.061250538 -0.017866684 -0.12695907 0.098307766 -0.106466174
-0.039545085 -0.11081288 -0.16555269 -0.40433857 0.073088214 0.13730317 0.31255242 0.12869567
0.17714266 -0.102200106 -0.05234512 0.007600713 0.011918566 0.08223748 0.27259347 -0.20389333
0.037359186 0.071939416 -0.070047 0.10034946 -0.101646766 -0.02268565 -0.094836324 -0.14057533
-0.04210765 0.03116122 0.029120816 0.012497028 0.20623101 -0.06734995 -0.15182652 -0.043990333

bias f4 [128]
00000000: e2fc b7bc 6085 1cbe eb1d 5f3d cfae 08be
00000010: 6d84 2cbd 3b09 4bbd 01a5 98bd b0f9 bdbc
00000020: a9ea 2ebd eb03 9dbc a154 1f3d 5661 14be
00000030: 13e8 e83d 1157 24be c395 d7bd 7f8f 193d
00000040: bd2f 1bbe 536f c1bd bfdc aabd e101 dbbc
00000050: b996 6bbd b61d 0dbe 7fd1 f4bb ee69 f93b
00000060: 9006 1cba 15a0 30bd d605 98bd 14a6 93bd
00000070: 8fd4 b43b 8309 f9bd 82c1 ad3c c9b8 d0bd
00000080: 70ff 0cbe b2a3 bcbd bd6d ccbc 668f 43be
00000090: 0a04 60bd e2a3 e0bd e6b1 163d a8a7 c3bd
000000a0: 26b0 e5bd 07e8 903c 0232 32bd f77a 9a3d
000000b0: 798b e1bd 9dfe d0bd 751b 933d 0c16 febd
000000c0: 89d0 0a3d 85be 10bd a528 3bbc 91c0 90bd
000000d0: 07e3 11bd 779f 16be 9f5a 01be 12df 3ebe
000000e0: bedf a23d ac68 06be 4f90 b4bd 22b0 983a
000000f0: d2ec 84bd 1756 88bd 5d07 2dbd 6adc b0bd
00000100: 942c bebd cd47 5fbd 2304 d73d 6fc3 49bd
00000110: caba a8bd 7685 f5bd d17f 503d 3c27 0bbd
00000120: 54b8 1cbe 258b babd 7577 883d 401e 09be
00000130: 6c71 103c c88a ab3b 4279 fd3d 8235 96bd
00000140: c981 19be 8faa 8c3d a0aa 9dbc 7fcf 763e
00000150: dcd1 733d 7823 79bc fcc9 f23d c8fe 0b3e
00000160: e4b6 e2bc 7a33 2d3d 2dfa 87bd b15e 163c
00000170: ab65 cbbd c702 29bd 7eee 2cbd c65e 76bd
00000180: fd80 ef3d a7f5 e4bd 19d2 843d 15b8 bdbd
00000190: 0287 94bd bc1d c3bd b18d 1bbc ad21 10be
000001a0: 3700 e03b 3eb8 7d3a ca7e 28be 6eee 97bc
000001b0: f9b6 1fbe 546e 183d ab00 15be 8165 8ebc
000001c0: ed3e b33b f8fe 18bd bba6 93bd 1056 033e
000001d0: 5f41 2c3d ef76 62be 635f 4bbd 33a7 c13d
000001e0: 520f b9bd 1be9 e3bd 18ad 12bd 4045 dc3b
000001f0: e87c 61bd 8f48 fabd a085 2cbd 1ac5 4a3d
-0.022459451 -0.15285254 0.05447189 -0.13347934 -0.04211848 -0.04956935 -0.07453347 -0.02319035
-0.042704258 -0.019166907 0.038899068 -0.14490256 0.1137239 -0.16048838 -0.10526612 0.037490364
-0.1515493 -0.094450615 -0.08342885 -0.026734294 -0.057516787 -0.13780865 -0.007471263 0.0076115048
-0.00059519056 -0.043121416 -0.07422988 -0.07209411 0.005518503 -0.12160017 0.021210436 -0.10191495
-0.13769317 -0.0921091 -0.024954671 -0.19097671 -0.054691352 -0.10968758 0.03679075 -0.09553462
-0.11215238 0.017688764 -0.043504722 0.07542985 -0.110129304 -0.10204814 0.071829714 -0.12406549
0.03389028 -0.035337944 -0.011423265 -0.07067979 -0.0356169 -0.14709269 -0.12632225 -0.18639782
0.07952832 -0.13125867 -0.08816587 0.0011649171 -0.064904824 -0.06657045 -0.04224335 -0.08635791
-0.09285846 -0.054511834 0.10498836 -0.049258646 -0.08238752 -0.11988346 0.050903145 -0.033972964
-0.1530469 -0.09108571 0.066634096 -0.13390446 0.008816104 0.00523505 0.12376644 -0.073344246
-0.14990915 0.06868469 -0.0192464 0.24102591 0.05952631 -0.01520621 0.11854932 0.1367141
-0.0276751 0.04228542 -0.06639514 0.00917785 -0.09931501 -0.041262414 -0.04221963 -0.060148977
0.116945244 -0.11179667 0.064853854 -0.092636265 -0.07252313 -0.09527156 -0.009494231 -0.14075346
0.006835963 0.00096786383 -0.16454616 -0.01854631 -0.15597142 0.037214592 -0.14551036 -0.017382385
0.005470148 -0.037352532 -0.07209536 0.12825799 0.04205453 -0.22115682 -0.049651515 0.09455719
-0.09036125 -0.11128446 -0.035809606 0.0067221224 -0.05505076 -0.12220871 -0.042119622 0.049504377

weight f4 [256, 128]
00000000: dfc9 243e 69f5 7bbe 8339 453d 136e 30be
00000010: 748c d33d 6e15 8e3d d13b bc3c 1da6 373e
00000020: 6c7d 4abe 0109 623d c666 283e 6c35 ccbe
00000030: c727 79bd 4c48 24be 9590 43bd c647 75bd
00000040: b104 1a3e fd58 09be 79e5 d1be 563b 1f3f
00000050: 85cd 763e d6eb 6d3d b1b6 b23d b0f8 1a3e
00000060: e9b5 f7bc f563 b13e f88a 5cbe 19eb 783d
00000070: 0c7b a73d 8b6f fbbd 31b2 c9bd c0b4 b5be
00000080: 4bc2 e6bc e024 da3e cdb6 eabd bffe 7e3d
00000090: bd27 dabe e8df 3d3e 192d cd3c 6f56 e1be
000000a0: b520 ce3d 3c9a b03b 75bf 843c 5595 ab3d
000000b0: 3897 c2bd a585 fa3c 3d28 07bd c556 c1bd
000000c0: 1987 53bd c814 3abe 4ac1 5dbe b5ed 1dbe
000000d0: 3cbe d5ba a097 d1bd 6239 2fbe abff a1bd
000000e0: 532b 063e 28ed b23d d6af fabd 3dfd 413e
000000f0: bd18 c8bd 00d2 153c 3ba4 5e3c a34c f6bc
00000100: 514b 733d a1b9 643e 1ced afbc 5a53 25be
00000110: 88e3 853d 43e4 a7be 1629 363e 6684 1c3e
00000120: db6d 06be 547a 4f3d b2c8 9bbd 4c9c 153d
00000130: 82fc bd3d 7bf7 adbd dd12 d3bd 14a6 c03d
00000140: a158 ed3d 0394 d1be ea59 44bd f7a4 99bd
00000150: c7c5 dfbd 0f15 2d3e 552d 023e 043d 1b3d
00000160: 7b65 bcbe 7021 703d b73a 993d 0ce6 6ebe
00000170: c738 093d 9cb3 1bbe b8c4 9fbe 7f4d 5bbe
00000180: b535 a0bd 4997 aabd 1aeb 6f3d 2b89 34bc
00000190: e3bb 0ebe c3a3 c63b ce4a 633b fa5f d23c
000001a0: 6e4a 79be 435c 85bd 1776 d13d 01e6 e2bc
000001b0: 5e84 663d cb08 8a3d d634 10bc 787c ac3c
000001c0: 9df2 103e ca10 13bd 5e0b 31bd bd85 9abd
000001d0: 9a86 2b3c c271 88bc b730 c8be dfde b5bc
000001e0: f579 023e 4750 c8bd d02f 343e c3a3 203e
000001f0: 2969 023e 53a1 703c 799d 9b3e 429d 00bc
00000200: 232b 0bbd aa18 a23e bbd5 eebc 2fbe 96bd
00000210: 63f6 15bd d9dd 05bd 7c1c 1b3d 32ec 01bd
00000220: de99 a33d 378c 49be 44de 93bd 284a 2e3e
00000230: 24fc 55be c927 f9bd 0924 643c c59a e1bd
00000240: c3b6 a53e 8ec0 d73e 214c 413e 87de e53d
00000250: 4238 803e 4826 463d 4c2c 883c b45e 7d3d
00000260: 1a32 3a3d 342f 833d bada 6e3d 7e0a 003e
00000270: 146e 29bd 2822 7f3c 7ff6 0fbe 3a7a 7f3e
00000280: 00fc f63c 5108 b1bc 36c1 443d 725b b2bc
00000290: 04c0 d5bc 91ee 26be 199b 483d e54d 463e
000002a0: 5a8e 4e3e 17d4 2dbd 0bd7 5c3e cd0e 92bb
000002b0: 72fa 6dbc 8406 da3d 218c 993d 4a53 37bd
000002c0: a564 58bd 9ebc 87bd bcb4 7ebd 2b00 c43a
000002d0: 2e95 a4bd 26ec a93d a4cf 8b3d 6111 afbd
000002e0: 20e7 d0bd 27d8 5f3d cee3 bebd a73b 003d
000002f0: 8c83 ae3d c5ee b53d 89e6 e13d 92d9 a83c
00000300: 1883 a4bd f1b7 85be a7e0 a1bd dad4 2bbd
00000310: 877e f7bd 028c f13d 4880 b53d 4310 2d3e
00000320: f0ba 393e 72bc 34bc 0b76 e8bd 3d5f 12be
00000330: 4a15 3f3e 3fd4 8dbd 80ef 6bbc d918 023e
00000340: 6002 1abe d040 f7bb 0eae d2be 4cbd 893d
00000350: 618a 6abe efa1 c93d 62d7 da3c e75e 8b3d
00000360: 8805 45bc b38f 37bd 8629 35be 82da 20be
00000370: 0feb a0be 72fc 4fbe 0ed2 42be 3bbb b9bd
00000380: 820e 143d 9070 8a3a 5df6 11be ade3 6cbd
00000390: bcfd 173c fba8 ffbc 8402 6abe 909c 03be
000003a0: d5db 093e 9d83 473d 694e dc3d 80d6 56bb
000003b0: a48e 1f3e e254 17be 70b6 42bd 9749 cebd
000003c0: c7c0 3c3e 0366 01be 00a6 653e 07ad 123d
000003d0: 2c96 023d e983 6f3e dc74 1a3e 2a64 07bd
000003e0: dae2 683e 4071 1abd 3fcc 613e 5fc2 5a3e
000003f0: 57ff 0f3e e821 6b3e 5bbc 8c3e 6e83 293d
0.16092633 -0.24605335 0.04815055 -0.1722949 0.10329524 0.06937681 0.022977741 0.17934461
-0.19774407 0.055184368 0.16445455 -0.39884508 -0.06082895 -0.16043204 -0.047745306 -0.0598829
0.15040852 -0.13412853 -0.40995386 0.62199914 0.24101837 0.05808624 0.08726252 0.15133929
-0.030238109 0.34646574 -0.21537387 0.06077108 0.08177766 -0.122771345 -0.098484404 -0.35489464
-0.028168818 0.42606258 -0.11460648 0.062254664 -0.42608443 0.18542445 0.025045918 -0.44011256
0.10064832 0.00538948 0.016204575 0.08378092 -0.09501499 0.030581305 -0.03299736 -0.09440378
-0.05164251 -0.1817199 -0.21655765 -0.1542271 -0.0016307305 -0.10233998 -0.17111734 -0.07910093
0.13102464 0.0873664 -0.12240569 0.18944259 -0.097703435 0.009144306 0.01358896 -0.03006584
0.059398 0.22336437 -0.021475367 -0.16145077 0.06537539 -0.32791337 0.1778911 0.15284881
-0.13127844 0.05065377 -0.07606639 0.03652601 0.09276678 -0.08494469 -0.10306332 0.09406677
0.1158917 -0.40933236 -0.04793731 -0.07502168 -0.10926395 0.16902564 0.12712605 0.037899986
-0.36796173 0.05862564 0.07481902 -0.23329943 0.033501413 -0.15205234 -0.31204772 -0.21416281
-0.07822744 -0.083296366 0.05857382 -0.0110190315 -0.1393886 0.0060620024 0.0034682038 0.02568053
-0.24344799 -0.06511738 0.10227602 -0.027697565 0.05627858 0.067399584 -0.00880166 0.021055445
0.1415505 -0.035904683 -0.04322373 -0.0754504 0.010469103 -0.016655806 -0.39099666 -0.022201
0.12741835 -0.09780937 0.17596364 0.1568747 0.12735428 0.0146869 0.3039358 -0.007849993
-0.033976685 0.31659442 -0.029154649 -0.073604934 -0.036611926 -0.032682274 0.03786896 -0.031719394
0.07988332 -0.19682394 -0.07220128 0.17020476 -0.20896965 -0.121657915 0.013924607 -0.11015848
0.32366 0.42139095 0.18876697 0.11224084 0.2504292 0.04837635 0.016622685 0.061857894
0.045457937 0.06405488 0.058314063 0.12504002 -0.041364744 0.015572108 -0.14058875 0.2494897
0.03014946 -0.02161041 0.048035823 -0.02177212 -0.026092537 -0.16301943 0.048976038 0.19365652
0.2017149 -0.042438593 0.21566407 -0.004457331 -0.014525043 0.10645774 0.074974306 -0.044757165
-0.052830357 -0.06627773 -0.06218408 0.0014953663 -0.08036266 0.08296995 0.06826714 -0.08548237
-0.102003336 0.0546495 -0.09320794 0.03130689 0.08521184 0.08883432 0.11030299 0.020611558
-0.08032817 -0.261169 -0.07904177 -0.041951038 -0.1208468 0.117942825 0.08862358 0.16900735
0.18137717 -0.011031257 -0.1135064 -0.14294143 0.18660465 -0.06925248 -0.014400363 0.12704791
-0.15039968 -0.007545568 -0.41148418 0.06725559 -0.2290435 0.098453395 0.02671403 0.068052106
-0.0120252445 -0.044814777 -0.17691621 -0.15708354 -0.31429335 -0.20311144 -0.19025442 -0.090689145
0.03614665 0.0010562111 -0.14254136 -0.057834316 0.009276804 -0.031208506 -0.22852522 -0.12852693
0.13462766 0.0487095 0.10757143 -0.003278166 0.15581757 -0.14778474 -0.047537267 -0.1007263
0.18432914 -0.1263657 0.22426605 0.035809543 0.031881496 0.23390163 0.15083641 -0.03305451
0.22742787 -0.03770566 0.2205057 0.21363209 0.14062248 0.22962153 0.27487454 0.041385107
