checkpoints/proud-yogurt-76-model-latest.pt (torch, 635078 bytes, 14 tensors)

weight f4 [16, 15, 5, 5]
000000 c4 36 28 bd c5 8a c1 3d 40 95 8c 3d c4 69 03 3d
       -0.041067854 0.09450296 0.06864405 0.032083288
000010 8b 9c d4 3c 4d 22 ba 3c e0 8a 4e 3c 72 ae aa bd
       0.025953552 0.022721434 0.012606353 -0.08334054
000020 20 75 c0 bd d5 5a 07 bd ed 08 a6 bc 24 db 57 3d
       -0.0939734 -0.03304561 -0.020267928 0.052699223
000030 23 e7 a4 bc 0d 4e 5e bd 03 4a 24 bd 29 e1 87 bd
       -0.020129746 -0.054273654 -0.040109646 -0.06634743
000040 da b6 de 3c f7 08 03 3d 7e 14 3f 3d 39 35 9e 3d
       0.0271868 0.03199097 0.046650402 0.07724995
000050 15 1d 82 bd ce 06 40 3e 6b 3d cc bb 73 e0 f9 3c
       -0.06353203 0.18752596 -0.0062329075 0.030502534
000060 8a e1 b7 bd e7 e0 b1 3d f9 d4 f6 3d a2 12 ab 3d
       -0.08978565 0.08685475 0.1205234 0.08353163
000070 ec a4 2f 3e b4 48 0e 3e bc 70 4a 3e d7 74 7d 3e
       0.17152756 0.13894922 0.19769567 0.24751602
000080 d8 21 94 3e 3c ef 28 3e 70 34 8a 3d 63 d0 4e 3e
       0.2893207 0.1649751 0.06748283 0.2019668
000090 35 8c bc 3e 42 a1 c3 3e 0c 63 b3 3e cb b2 0b 3e
       0.3682572 0.38208967 0.35036504 0.13642423
0000a0 98 47 39 3e 82 42 75 3e 82 de ad 3e c4 4f 93 3e
       0.18093717 0.23951152 0.33958822 0.28771794
0000b0 fe 3d 13 3d e1 2d f3 3d ae 0c 6d 3e 96 61 2a 3e
       0.035947792 0.11873985 0.23149368 0.16638789
0000c0 d7 82 66 3e 63 28 71 3c ab e2 ee 3c 23 2b 74 bd
       0.22510849 0.014719102 0.029160818 -0.05961145
0000d0 6c 92 b5 bd 18 08 39 bd 44 79 49 3e e7 10 f5 3c
       -0.088658184 -0.045173734 0.19675165 0.029915286
0000e0 b7 5d 75 be 2f 69 b8 3d 94 f5 d0 3c 4e a2 88 3c
       -0.2396153 0.09004437 0.025507726 0.016678955
0000f0 0c e0 bb bd 83 d6 6e be 30 63 d0 bd f2 4c e2 bd
       -0.09173593 -0.23324017 -0.101751685 -0.110498324
000100 a8 67 5e 3c 7d 4f 4b bd 30 5d 22 be 85 d7 03 be
       0.013574518 -0.049636353 -0.1585586 -0.12875183
000110 1b 83 83 be 62 23 45 3e f5 ed c8 bd 36 0d 39 3e
       -0.25685963 0.19251779 -0.09811012 0.18071446
000120 84 d5 6f 3e a4 97 a7 3d 7f 8e 84 bc 68 7e 7c 3d
       0.23421293 0.0818322 -0.016181229 0.061643988
000130 31 b6 a7 be c4 bf 14 be 08 ef dc bd 2f 97 06 3d
       -0.3275619 -0.14526278 -0.10787779 0.032859024
000140 05 55 55 bc 11 a3 61 3e 5e 1a 0e bb 95 d9 66 3d
       -0.0130207585 0.22034861 -0.0021683197 0.056359846
000150 40 5e 71 3e ce 57 96 3e f2 f7 5b 3e 32 45 07 3e
       0.2357111 0.29363865 0.21481302 0.1320999
000160 0c 89 ae bd 50 e1 6b 3d dd 40 bc be 44 bf 95 3d
       -0.08522233 0.05758792 -0.36768237 0.07311872
000170 2e 7b d5 bd 0f 7f ab 3d 3c 17 8b be f5 96 72 be
       -0.10423885 0.08373844 -0.27166164 -0.23690398
000180 e6 7c 50 3e ff 9d 14 3d 3c 33 5f be 2a e8 11 3e
       0.20360145 0.03628349 -0.21796888 0.1424872
000190 a3 0e 5f bd f1 25 a9 be fb d6 92 be 06 74 20 be
       -0.054457318 -0.3303676 -0.28679642 -0.1566926
0001a0 c2 72 aa be 89 88 12 be 94 7e 80 be dc 39 aa 3c
       -0.33290678 -0.14309897 -0.2509657 0.020779543
0001b0 15 e0 b5 be 63 19 16 be d1 fb 07 be 08 b4 34 be
       -0.35522524 -0.14658122 -0.13279654 -0.17646801
0001c0 5d 89 7b be 96 87 c1 be 81 8a 5b be 22 b8 65 bd
       -0.24564119 -0.37798756 -0.21439554 -0.056083806
0001d0 f3 54 88 be af b1 b4 be 5a b5 95 be 08 b2 84 bd
       -0.2662731 -0.35291812 -0.29239923 -0.06479269
0001e0 85 4c 12 bd 73 8e 97 be 0b 10 22 be fc 9d 39 be
       -0.035717506 -0.29600868 -0.15826432 -0.18126673
0001f0 92 5a 12 be ed b1 ed bc fd e9 51 be 50 83 41 be
       -0.14292362 -0.029015506 -0.20499416 -0.18897748
000200 a1 0c 4a be 55 a7 88 be 6a 95 0c be cb 44 9c be
       -0.1973138 -0.26690164 -0.13728872 -0.30521235
000210 c0 7c 85 be bd 92 81 be 8f c0 e4 bd f9 be 4d be
       -0.2607174 -0.25307265 -0.1116954 -0.20092382
000220 8a af 59 be 30 98 b8 be e3 c7 b9 be 61 84 51 be
       -0.21258369 -0.3605361 -0.36285314 -0.20460655
000230 1e 17 53 3c fa 77 94 bd 40 e4 a1 be 9b 87 1e be
       0.01288393 -0.07249446 -0.31619453 -0.15481417
000240 38 bf a5 bd d2 db 56 be 2f c3 60 be ae e8 9b be
       -0.08093113 -0.20982292 -0.21949457 -0.30450958
000250 36 8d 46 be e4 2b 75 be a9 fc 05 be a6 97 32 be
       -0.19389805 -0.23942524 -0.13084663 -0.17440662
000260 20 59 53 be 63 25 03 be a9 51 6b be 16 84 94 bd
       -0.20639467 -0.1280723 -0.2298037 -0.07251756
000270 8c ed 50 be 53 15 7e be d1 bb 98 be a8 f3 1d be
       -0.20403117 -0.24812822 -0.29830793 -0.15424979
000280 a4 33 f9 bd be 65 0c be 45 66 a8 be c3 90 7f be
       -0.12168053 -0.13710687 -0.32890525 -0.24957566
000290 2e 8e 3a be 8d 37 21 be fe 5c 30 be ad 10 22 be
       -0.182183 -0.15743847 -0.17222974 -0.15826674
0002a0 62 cc 1d be 12 22 de bd d2 96 4d be 46 5c 5a be
       -0.15409997 -0.10846342 -0.20077065 -0.21324262
0002b0 78 a7 38 be c2 7e a7 be cc 19 da bd a7 b4 f2 bd
       -0.18032634 -0.32713896 -0.106494516 -0.11850863
0002c0 15 e5 16 be 64 16 de bd fb fc 29 be 2f 6e 8e be
       -0.14735825 -0.108441144 -0.1660041 -0.27818438
0002d0 94 e2 48 be 84 ff 42 be bf e7 57 be ba 2b bb be
       -0.19617683 -0.19042784 -0.21084498 -0.36556798
0002e0 8a 1d 07 bd 4f 20 18 be bd 5d 23 be ce 5d a8 be
       -0.032987155 -0.14856075 -0.15953727 -0.32884067
0002f0 fd 6f ae be 07 41 31 be 09 3d 11 be 50 d6 17 be
       -0.34069815 -0.17309962 -0.1418344 -0.14827847
000300 89 98 8c be 4f 9e 05 be c8 d9 9b bd 00 75 12 be
       -0.27460125 -0.13048671 -0.07609898 -0.14302444
000310 c3 52 93 be 7c 7b 06 be 50 32 5f be 27 b1 b5 bd
       -0.2877408 -0.13133043 -0.21796536 -0.0887168
000320 df 90 7c 3d 3b b1 94 bd b4 66 21 bd f9 cc 7e 3b
       0.061661597 -0.072603665 -0.039404586 0.0038879497
000330 dd f7 1f be d8 41 cb 3d 5a da 6b 3d 79 29 03 bc
       -0.15621896 0.09924668 0.057581283 -0.008005493
000340 e4 cd 42 3d 7d 5a b3 bd f3 05 00 3d 9e 6a c8 bd
       0.047559634 -0.08757494 0.031255674 -0.097859606
000350 51 bf 38 3d ea c2 1f be 90 d0 91 bd 66 e4 3d 3d
       0.04510433 -0.15601698 -0.07119858 0.046360396
000360 40 27 d1 3d ea 9b 32 bd 04 6f ee bd aa c7 05 be
       0.102125645 -0.043605722 -0.11642268 -0.13064447
000370 dc 25 fa 3d 86 20 27 bd c6 04 30 bc 0e 62 0b be
       0.12214252 -0.0408025 -0.010743326 -0.13611624
000380 f6 eb 66 bd 7c 7d ea 3d a8 cb a7 3d b2 1c 1a 3d
       -0.056377374 0.114497155 0.08193141 0.037625022
000390 cb 32 3e be fd b4 3b be 2a 59 bf 3d 49 08 ac bb
       -0.18574063 -0.1833076 0.093431786 -0.005250011
0003a0 f9 e5 0a 3e 23 17 76 bc 12 d7 bb bd d9 9f b9 bc
       0.1356429 -0.015020165 -0.09171881 -0.02265923
0003b0 30 e3 13 3e 6a b9 a6 3d 02 0c bc bc 24 cd 90 bd
       0.14442134 0.08140834 -0.022954945 -0.070703775
0003c0 35 1b a4 3d 7d d0 d7 3d 59 56 cd 3b e5 26 cb bd
       0.08013002 0.10537813 0.006266397 -0.09919528
0003d0 6e 15 a7 bd b6 5b 24 bc ee 38 fa 3c ef ff da bc
       -0.08158384 -0.010031631 0.030544724 -0.026733367
0003e0 cb b3 8c bc b6 76 9c bd 43 a9 c4 3c ce 68 41 3b
       -0.017175576 -0.0763983 0.024006492 0.0029511931
0003f0 c9 8e 0e 3d 61 40 6a bd d0 46 b5 bd bf d8 2e 3b
       0.03480414 -0.057190303 -0.08851397 0.0026679484

bias f4 [16]
000000 d8 74 91 3d e7 92 80 bc 59 0e 4c 3c c9 38 31 3d
       0.07102364 -0.015695048 0.012454593 0.043267045
000010 d1 33 57 3c 67 a1 15 3d 45 84 a6 3d 0a 3d 03 bc
       0.013134913 0.03653088 0.08130697 -0.008010158
000020 ab 70 7f 3d f6 47 bf 3c 56 04 95 3d 8d a3 34 bb
       0.062363308 0.023349743 0.07276218 -0.0027563304
000030 2d 14 0d 3d 23 1e 42 b9 93 96 94 3c 1b 42 a3 3d
       0.03444307 -0.00018512509 0.018138206 0.07971593

weight f4 [32, 16, 3, 3]
000000 68 05 95 3c fb ee 15 3e 7c 5f 1d be 63 b4 b9 3d
       0.018191054 0.14641945 -0.15368456 0.09067609
000010 19 c5 7d 3d 73 24 a2 bd f1 46 82 bd de 15 83 3d
       0.061955545 -0.079171084 -0.06361187 0.06400655
000020 29 32 16 be 1f a1 c4 be 68 46 04 be bb 40 55 bd
       -0.14667572 -0.38404176 -0.12917483 -0.052063685
000030 4d 0f f5 be bd 2d 86 be 7a a6 57 be d6 41 6e be
       -0.47863236 -0.2620677 -0.210596 -0.23267302
000040 97 0a 70 3e 4d 56 0e be d7 25 f9 3c 7c 0d 91 bd
       0.2344154 -0.13900109 0.030413551 -0.0708265
000050 dd b2 b7 3d 9f 29 bc 3d 3c f3 40 be 17 93 1a 3d
       0.08969662 0.09187626 -0.18842787 0.037737932
000060 35 3e 4e bd ed b7 f2 3d b9 bc 21 3c e1 18 7c 3d
       -0.050352294 0.11851487 0.009871655 0.061547164
000070 b6 20 66 3e dd 07 be bd ba f7 19 bb 01 a4 fd 3d
       0.22473416 -0.092788436 -0.0023493604 0.12384797
000080 10 33 0a bd 54 b9 16 3c 97 34 cc 3d d8 46 b6 3c
       -0.033740103 0.009199459 0.09970968 0.022250578
000090 8a ff d4 bd 02 0e a1 bd d4 ad e9 3c 39 9d 68 be
       -0.10400303 -0.07864 0.02852527 -0.22716226
0000a0 97 a7 5a 3c e1 e5 86 bc fe f3 a1 bd 0e 1d 36 3e
       0.013345621 -0.016467037 -0.07907866 0.17784521
0000b0 59 11 af bd a2 d0 8f bc c0 71 54 3d 6e a2 26 bf
       -0.08548231 -0.017555539 0.051866293 -0.650916
0000c0 94 af de 3d 35 06 46 3e 77 93 47 be ab 1e 49 ba
       0.108733326 0.19338305 -0.19489847 -0.00076721114
0000d0 57 01 39 bc cf 46 fc be 75 81 62 3e 7c 09 87 bd
       -0.011291823 -0.49272773 0.22119696 -0.06593606
0000e0 37 bb d0 bd c3 7c ce 3d 0e e9 f6 bd cf 82 b8 3d
       -0.101919584 0.1008239 -0.120561704 0.09009325
0000f0 ec 7b 7b 3e 84 fb 46 be 27 f4 3c bd d2 07 0f 3e
       0.24558991 -0.19431883 -0.04613128 0.13967827
000100 13 c5 dd bd 4f 2e 25 3d 0b db 12 3e ff c4 23 3e
       -0.108286045 0.040327366 0.14341371 0.15993117
000110 d1 2c 02 bd 61 86 83 3e 26 3d 1c 3e 18 f9 69 3d
       -0.03178102 0.2568846 0.15257701 0.05712232
000120 4e 9b b7 3d 9c ff 25 3b 22 6d 1f 3e fa 77 86 3d
       0.08965169 0.0025329357 0.15568975 0.065658525
000130 f9 62 1e be 3b 25 d2 bd 6b a1 28 3d da 48 78 be
       -0.15467443 -0.102610074 0.041169565 -0.2424654
000140 bf 73 cc bd 15 c0 1a 3e fc a9 cb be 11 b9 d1 bc
       -0.09983014 0.15112336 -0.39778125 -0.025600942
000150 cf 26 75 3e 4c 46 7d be ca 01 c3 3d 0f 0b 48 3d
       0.23940586 -0.24733847 0.095218256 0.04883867
000160 30 73 58 be aa f8 e4 bc 12 f6 ce 3d b4 35 15 3e
       -0.2113769 -0.027950604 0.10105528 0.14571267
000170 37 90 72 3e 36 d7 5d 3e d1 cd 44 3e d0 d4 23 3e
       0.23687826 0.21664128 0.19219138 0.1599915
000180 16 b8 93 3d ef 22 aa 3d 22 25 f9 3d 3a bf 66 bd
       0.07212846 0.08307444 0.12165286 -0.05633471
000190 cc 5b fd 3d 3c f1 1b bb 50 f9 e6 bc a8 e0 45 3d
       0.123710245 -0.002379491 -0.028195053 0.048309952
0001a0 8f 13 14 3e 5b 4f 72 3e f1 10 1e 3d e9 14 90 3d
       0.14460586 0.23663084 0.038590375 0.07035238
0001b0 fa 04 6d ba 11 e3 2d 3e 6c 2f f4 bd a6 86 f0 bc
       -0.0009041574 0.1698115 -0.119231075 -0.02936108
0001c0 da be 10 be e4 a0 8c be a1 24 49 bd 64 98 49 3d
       -0.14135304 -0.274665 -0.049107198 0.049217597
0001d0 e7 84 a1 bd 2a 61 0f be 2c 61 a7 be 0d b6 16 bd
       -0.07886677 -0.14001909 -0.32691324 -0.03679471
0001e0 14 43 8a 3b 69 42 7f be 47 d2 2e 3c 46 42 bd bb
       0.004219422 -0.24927677 0.010670251 -0.0057757227
0001f0 e1 1c 54 be fe ef 14 3e e0 75 da bd 52 19 26 3d
       -0.20714141 0.14544675 -0.10667014 0.04055149
000200 85 42 84 bd 1a 31 ac 3d 60 d2 7b 3d 12 12 8f 3d
       -0.06458 0.08407803 0.061479926 0.069858685
000210 e2 40 1f 3e e5 74 98 3d 74 fd 81 3c 79 58 ed 3c
       0.15552095 0.07444171 0.015867926 0.028972851
000220 fc 32 45 3d d5 45 5f be 98 d1 fb 3d 06 16 e1 3c
       0.048144326 -0.21803983 0.12295836 0.027476322
000230 a6 8c 65 be 45 88 62 bd fb 14 58 3d fa 21 d4 bd
       -0.22416934 -0.055305738 0.052754384 -0.10358043
000240 a3 2d 03 be d4 40 33 3d 3b bc 20 be 10 71 9a 3b
       -0.12810378 0.043762997 -0.15696804 0.004713185
000250 9e d6 85 3e 1b 53 65 3d 92 af ab 3e f1 9d 0f 3d
       0.26140302 0.05598746 0.33532387 0.035062734
000260 ff 16 b8 bd 4c 13 33 be 62 5d fd bd 05 a6 38 be
       -0.08988761 -0.1748783 -0.12371327 -0.18032081
000270 4b 33 cb bd f4 1e 1f bd 5c 07 8c be ec 76 73 bd
       -0.09921893 -0.03884788 -0.27349365 -0.059439585
000280 4d af 6a be 70 71 78 be 81 45 8a 3d aa 66 8c be
       -0.22918434 -0.24262023 0.06751538 -0.27422076
000290 fa ef b6 bd 1e 78 80 be d1 62 b5 be 3a 61 4c be
       -0.08932491 -0.25091642 -0.35426953 -0.19958964
0002a0 0a 6b 26 3d 5e 8e 90 be 1d 53 82 bd 33 e6 ad bd
       0.040629424 -0.28233618 -0.06363509 -0.08491173
0002b0 b5 6b 2c 3e 6d 61 9f be 54 f2 cf bd 82 4b 96 bd
       0.16837962 -0.31129017 -0.10153642 -0.07338621
0002c0 48 bd 2e be 68 42 63 be d2 a5 38 bc 52 26 33 be
       -0.17064393 -0.221933 -0.011270003 -0.17495087
0002d0 a2 b8 82 bd 29 9f 20 3e c4 b0 77 bd 35 90 07 be
       -0.06382872 0.15685715 -0.06047131 -0.13238604
0002e0 39 ba b9 3d 82 92 3d bc 0c c4 36 be 66 5a 88 3d
       0.09068722 -0.011570575 -0.17848223 0.06657867
0002f0 1b b7 8f 3b 53 2f ba be d5 40 18 3e c5 52 bd bd
       0.0043858415 -0.3636423 0.14868481 -0.09244303
000300 12 e3 e2 3d 4b ef fb 3d 11 aa 28 be f5 ef c3 bd
       0.110784665 0.12301501 -0.16471125 -0.095672525
000310 e0 1d 4f 3c 10 bd 84 3c bf 33 c0 bc 36 74 02 bd
       0.0126414 0.016203433 -0.023462174 -0.03184911
000320 39 97 ff 3c 30 d2 0f 3e f5 e9 3f bd c8 2f 8f bc
       0.031200038 0.14045024 -0.04685398 -0.017478839
000330 16 02 23 3d 51 ff 04 be 70 ff 0d be df e4 98 3c
       0.03979691 -0.1298802 -0.13866973 0.018663822
000340 e2 ad 60 3c b7 26 c2 3c 45 dc b2 3d 23 c5 88 ba
       0.013713332 0.023700101 0.08733419 -0.0010434728
000350 56 c9 71 be 2b 38 10 3e eb 08 27 3e 38 a2 45 3e
       -0.2361196 0.14083926 0.16311996 0.19300163
000360 9e e6 43 3e 7f 7a 17 3b a5 9c b8 bd 7b ff 5d 3d
       0.19130942 0.0023113785 -0.090142526 0.054198723
000370 b8 17 07 be 20 e5 0c be 09 49 c5 bd b5 90 a7 bd
       -0.13192642 -0.13759279 -0.09633071 -0.081818976
000380 9d 1b 1e 3d 4f ad e9 bc a8 1d d7 bd 2e 48 ac be
       0.038600553 -0.028525023 -0.10503703 -0.3364882
000390 1a b7 b2 bd d3 a6 0f 3e df bf db 3b bc 0d 73 3e
       -0.0872633 0.14028482 0.0067062224 0.23735708
0003a0 1f f3 22 3d 0e 87 5a be 0b 02 e3 3d 2b 8b a1 3c
       0.03978264 -0.21340582 0.11084374 0.01971968
0003b0 de 6e d2 3e 80 23 5e 3e 43 d4 92 bd 4d c6 85 3e
       0.4110021 0.2169323 -0.07169392 0.26127854
0003c0 cf 8f 68 3e 7d 37 98 3e 07 f2 2f 3d 93 1b 78 be
       0.22711109 0.29729834 0.042955425 -0.24229269
0003d0 a7 df 47 3d a4 cc 67 bd 02 1c 05 be 9e 0f 4d be
       0.048797276 -0.056591645 -0.12998965 -0.20025489
0003e0 ac 2b 59 be 25 b8 da be 7b ed b2 3d c5 90 ae be
       -0.21208066 -0.42718616 0.08736702 -0.34094825
0003f0 16 f0 84 bd e6 5e 97 3d 1d f9 f8 3c 98 13 2b be
       -0.06491105 0.07391147 0.030392224 -0.16706693

bias f4 [32]
000000 f5 bb a9 3c c8 b7 fe bc 59 1f 2c 3d 9e 01 18 bd
       0.020719508 -0.031093493 0.042022083 -0.037110917
000010 24 9b fb 3c 96 40 b6 bc 1a fc 6b 3d 34 a1 c0 3c
       0.030713625 -0.022247594 0.05761347 0.023514368
000020 63 44 ca 3d d5 f1 3a 3d 63 0b d9 3d f9 e4 0f 3e
       0.09876325 0.045640785 0.10597875 0.1405219
000030 98 e8 3e 3c be 19 27 3c 64 fc 8b bc 6d 58 53 bd
       0.011652134 0.0101990085 -0.017088123 -0.051598
000040 d1 bf 4d 3c dd c4 a9 3d dc 8a c8 3d b1 90 6e 3d
       0.01255794 0.08289502 0.0979211 0.058243457
000050 01 f8 cb 3d 82 b3 d3 3d 1a 3b e8 3c b2 de 2c 3e
       0.09959412 0.10336973 0.028348494 0.16881827
000060 ed 6f 19 bc 54 85 0c 3d 1c 90 64 3b ba 58 2b bd
       -0.009365064 0.03430684 0.0034875935 -0.041832663
000070 eb 3a b6 bd b2 e2 ed 3d ed e3 00 3d 09 e5 b9 3c
       -0.088979565 0.11615504 0.031467367 0.02269222

weight f4 [64, 32, 3, 3]
000000 ef 33 46 bc f1 76 69 3e d0 ff ed 3d 09 6e 89 bd
       -0.012097343 0.22799279 0.11621058 -0.06710441
000010 f1 67 8b 3d 91 47 ca bd 7d 46 2d bd 8c 11 d7 3c
       0.068069346 -0.098769315 -0.04230355 0.026253484
000020 c9 39 82 bd 14 5b 7b 3d 76 92 20 3e b0 4e 52 3d
       -0.06358678 0.061366156 0.1568087 0.051344573
000030 1b 90 7d bd c8 bc 8d bd d6 0b ae bd 17 5e f0 bd
       -0.061905008 -0.06920773 -0.08498351 -0.11736696
000040 31 78 26 be 56 10 fc bd 7d 6f d8 3d 2e 0f f4 3c
       -0.16256787 -0.12307803 0.1056814 0.029792394
000050 6e 0e 4b 3d cc 59 7a bc cc 76 2c be e8 e1 7c 3d
       0.049574308 -0.015280198 -0.16842192 0.06173888
000060 88 86 23 be a5 1b 9e bd ca a3 9b 3d c6 5f 7c be
       -0.15969288 -0.077201165 0.075996 -0.2464591
000070 09 48 87 be 06 92 26 be 01 fa d2 bc fc 4a b2 bc
       -0.26422146 -0.16266641 -0.025753977 -0.021764271
000080 9e 7a 65 3e 94 29 2d bd 88 94 26 3e 8f 7c 1b 3e
       0.22410056 -0.04227598 0.16267598 0.15184234
000090 d8 2e 23 be 44 ed d0 bd e1 09 2b bd 62 35 f8 be
       -0.15935838 -0.10201505 -0.041757468 -0.48478228
0000a0 93 89 30 be 16 85 20 3e fc f1 09 bf a2 ef 0c be
       -0.1723998 0.15675768 -0.53884864 -0.13763288
0000b0 2b f4 68 3e 10 84 4f bd e0 93 96 3d 24 ee 61 3d
       0.22749393 -0.050663054 0.07352424 0.05515875
0000c0 6b 07 88 3c 8e 45 c2 3c 80 21 96 bc d0 fa 21 3d
       0.0166051 0.023714807 -0.01832652 0.039545834
0000d0 f3 f0 f9 bd f6 73 2d be 5a d4 53 be ad 12 49 bd
       -0.122041605 -0.16938767 -0.20686474 -0.049090076
0000e0 62 ec 9e bd dc 11 cd be 03 c0 1c be ef c8 1f bd
       -0.0775993 -0.40052688 -0.15307622 -0.039009985
0000f0 48 0e 84 be 1e 94 42 3d f9 83 84 3e 04 f3 9a 3e
       -0.25792146 0.047504537 0.25881937 0.3026353
000100 f9 40 44 3d e9 78 0e be 55 25 c6 bd 7d e5 74 bd
       0.047913525 -0.13913311 -0.09675089 -0.05978917
000110 80 cc 4c be 76 eb 3a 3d 60 1a 41 3d b5 b4 3c be
       -0.19999886 0.04563471 0.047144294 -0.1842831
000120 b4 d8 6f bd 99 6d 47 be 69 36 8b 3d 34 7b 07 be
       -0.058556274 -0.19475402 0.06797487 -0.13230592
000130 3c 19 b1 be 51 d8 a0 3d 9f f6 fe 3c 18 eb 1f be
       -0.34589565 0.07853759 0.031123457 -0.15617025
000140 1e d6 2b 3e e9 6c 8f bc 30 4e 10 3c c1 35 d5 3b
       0.16780898 -0.017507987 0.008807704 0.006506652
000150 5c cd fc bd db 9b 77 3c a8 c5 9e bd 1b 86 3d bb
       -0.12343857 0.015112842 -0.07752544 -0.0028919044
000160 7b 76 46 ba 64 f1 a4 bd b3 45 d4 3e 28 5f 46 3e
       -0.00075707556 -0.08053854 0.41459426 0.19372237
000170 99 e9 f2 3d d3 28 94 bd df 41 d0 3d 05 88 1c 3d
       0.118609615 -0.07234349 0.10168814 0.038215656
000180 0a 46 ce bc 92 61 fb 3b df 53 f2 3c 9e ad 86 bd
       -0.025179882 0.0076715434 0.029581008 -0.065760836
000190 4b 44 5a be e5 8f 30 bd ef 75 12 be 78 74 2f be
       -0.21315114 -0.04310598 -0.143028 -0.17134273
0001a0 25 7f 00 3e 0c 32 45 be a8 c0 50 be 5b 50 8c 3d
       0.12548502 -0.19257373 -0.20385993 0.06851264
0001b0 d0 3c ad 3d f2 41 b2 3b 1b 91 14 be a2 6f 88 be
       0.08458865 0.00543999 -0.14508478 -0.2664767
0001c0 c6 e1 c1 bc a3 2b 94 3d ae ee 73 be 00 e3 a7 bd
       -0.023667227 0.072348855 -0.23821518 -0.08197594
0001d0 63 6b 4b 3d d6 cb 23 3e 52 ef 29 be 96 49 c1 be
       0.04966296 0.15995726 -0.165952 -0.37751454
0001e0 8c b3 22 bd 76 e1 cd 3d 42 9a 53 3c 31 40 3c be
       -0.03972201 0.10052769 0.012915196 -0.18383862
0001f0 7c 1d 5d 3d c4 97 b1 bc f3 f0 0a be 0c ca 87 be
       0.053983197 -0.021678813 -0.13568477 -0.26521337
000200 e3 d1 98 bd d6 a9 3a be 0b 11 ef bd 21 03 58 3e
       -0.07461908 -0.1822885 -0.116731726 0.21094944
000210 22 3a bd be 47 b3 f2 bd b3 c0 96 3e bd 00 86 be
       -0.36958414 -0.11850601 0.29443893 -0.26172438
000220 6d c9 b6 be 8f 9b 6c be c7 cf f2 be ad a1 ef be
       -0.3570055 -0.23106216 -0.47424147 -0.46803036
000230 ac 63 5f bc fe c2 1e be 13 17 34 be 91 8b 62 3e
       -0.0136346035 -0.15504071 -0.17586927 0.22123553
000240 c0 5c 92 be 1d fc 58 be c6 6a c1 bd 80 d1 cf be
       -0.28586388 -0.21189924 -0.094441935 -0.40589523
000250 3b 10 38 be ab 39 75 bd fa f7 98 bd b1 b1 ba 3c
       -0.17974941 -0.05986945 -0.07469173 0.022789808
000260 0c 72 b1 3e f5 f1 53 be 93 59 31 bd db d0 03 bd
       0.34657323 -0.20697768 -0.043298315 -0.032181602
000270 1e f5 ba bc 4b bd 0c 3e 43 7f 18 3e 38 8a 06 be
       -0.02282196 0.13744085 0.14892296 -0.13138664
000280 67 5b 8b 3c a5 40 85 bc ff b3 72 3d e5 c4 df bd
       0.017011357 -0.016266176 0.05925369 -0.109262265
000290 ad e6 12 be 46 f2 cd 3c 78 38 89 3d 38 7d d6 3b
       -0.14345808 0.025139939 0.06700224 0.006545689
0002a0 64 1b 74 bd 96 ab 45 bc ad 11 66 3e 16 e8 66 be
       -0.059596434 -0.012064835 0.2246768 -0.22549471
0002b0 45 96 a9 3d 0e 0f aa bd fe 01 47 3d 8d f3 9c 3d
       0.08280615 -0.08303653 0.048585884 0.07663641
0002c0 ae 51 3e be 1d d5 c9 3d 36 dd ff 3d 5d ed c3 3d
       -0.18585846 0.09855101 0.124933645 0.09566758
0002d0 c6 5c df bd 4f 1d 05 bf f1 ce f4 bd 5b 00 2c be
       -0.10906367 -0.51997846 -0.119535334 -0.1679701
0002e0 7d f0 dd be 79 13 37 3e 15 51 2c be 29 ae ef bd
       -0.4334754 0.17878522 -0.16827805 -0.1170314
0002f0 81 9a b6 3e 6b 09 98 bc d9 87 a5 bd 8f 31 23 be
       0.35664752 -0.018559178 -0.080825515 -0.15936874
000300 8e e6 38 be d3 10 01 3d 37 17 ee 3c 1b 7a 96 3d
       -0.180567 0.031510185 0.029063804 0.073475085
000310 07 b7 50 3e f6 36 4f 3e f9 dc a6 bc c5 e4 97 bd
       0.2038232 0.2023581 -0.02036904 -0.07416681
000320 58 c7 9a bd c6 cf 76 3d d4 d9 4a be 26 2d a5 bc
       -0.07557553 0.060256742 -0.19809657 -0.02016313
000330 a0 28 27 be d5 c2 53 be c5 b1 3b 3d 3a 10 d5 3d
       -0.16324091 -0.20679791 0.04582383 0.104034856
000340 41 d8 dc 3d fb e9 81 be 60 64 13 3e 18 5e c0 3d
       0.10783435 -0.25373825 0.14393759 0.09392947
000350 f0 58 be bc 99 fc 19 3d 60 cc 25 3e ad 42 49 bd
       -0.023235768 0.03759441 0.16191244 -0.049135853
000360 4e b3 0d be a6 c3 23 be 60 c0 cb be c5 0c 1c be
       -0.1383793 -0.15992603 -0.39795208 -0.15239246
000370 3e 31 dc bd be 2b f5 bd d6 37 10 3e bc a4 cc 3d
       -0.1075158 -0.11971234 0.140838 0.09992358
000380 fa 01 06 3e dc 68 23 3e 26 b7 97 bc e2 d3 63 3e
       0.13086691 0.1595797 -0.01851995 0.22248796
000390 a3 5a 3c 3e f2 89 2a be a1 3d e1 3d 55 29 97 3c
       0.1839395 -0.16654184 0.10998083 0.018452326
0003a0 7e 93 aa be 7d 50 d8 bd e8 d3 dc be 9a d5 d3 be
       -0.33315653 -0.10562227 -0.43130422 -0.41373903
0003b0 39 b4 a2 bd 70 6d 41 be 3f b2 71 be 26 3e 21 3e
       -0.07944531 -0.18889403 -0.23603152 0.15746364
0003c0 a5 5d 71 be 40 9c b4 3d d9 42 d8 3e 95 62 03 3e
       -0.23570879 0.08818865 0.422385 0.12830575
0003d0 58 3a 08 bc 20 d5 bf bd a1 15 d5 bc e4 47 18 be
       -0.0083146915 -0.09366822 -0.02601129 -0.14871174
0003e0 56 1c 2a be 8f fa 26 3d d6 28 3a bd 2f e4 6b bc
       -0.16612372 0.040766295 -0.0454491 -0.014397665
0003f0 57 56 14 bc 33 a2 0a bd a5 e4 48 bd eb be 25 be
       -0.009053788 -0.03384609 -0.049046177 -0.1618611

bias f4 [64]
000000 63 b0 08 bd 5f 4f f4 3d 33 ce 38 bd d4 b6 49 3d
       -0.03337134 0.11929201 -0.045118522 0.049246624
000010 55 20 96 3d 3f 2b de bc 68 bd 65 bd 17 48 cd 3d
       0.073303856 -0.02712023 -0.056088835 0.10023516
000020 47 de ea 3c a7 a4 94 3d e9 00 b7 bc 8f f4 08 bd
       0.028670443 0.072579674 -0.022339301 -0.033436354
000030 e1 7f 35 3d a8 e6 05 3e c6 e4 e1 3d 8c 74 8d 3d
       0.044311408 0.1307627 0.11029963 0.06906995
000040 08 7b 99 3d 14 f7 15 bb e2 1b 7d bd a7 67 c7 3d
       0.074941695 -0.0022882866 -0.06179417 0.09736567
000050 71 48 46 bd 7b 83 41 3b b7 2f cf 3c 2e 04 d8 bc
       -0.04840893 0.0029527831 0.025291307 -0.02636918
000060 d9 f9 84 bc 00 98 49 bd d5 97 89 bd 53 9b 45 3c
       -0.016232418 -0.049217224 -0.06718413 0.012060958
000070 b8 ab bc bc 85 ef 8c 3d 6d 45 d5 bd dd c4 44 bd
       -0.0230311 0.06881622 -0.104136325 -0.048039306
000080 cd ea e9 3c c1 98 a2 bc 67 1c 42 3d db 39 e1 bc
       0.028554345 -0.01984823 0.047390368 -0.027493408
000090 8b 35 72 bd 87 2e 1c bd a5 68 5f 3d 46 57 81 bc
       -0.059133094 -0.03813031 0.054543156 -0.015788686
0000a0 4a 12 1e bd 5e 0b 4c 3e 81 63 d6 3d ba 54 9a bd
       -0.03859166 0.19926211 0.104681976 -0.075356916
0000b0 8b 6c ac bc ef 49 1d 3d 87 bf 13 bc 08 ce 1c bb
       -0.021047851 0.038400587 -0.009017832 -0.0023926515
0000c0 67 ee 43 bd 1f 4f 9b 3d 28 50 5d 3c 3a 36 86 bc
       -0.04783478 0.075834505 0.01350788 -0.01638328
0000d0 54 66 98 bd c9 e0 db 3b ca e8 98 3d 8c c6 11 3d
       -0.074413925 0.006710146 0.07466276 0.03558974
0000e0 6f 1b e1 bc 6e 12 13 3b e6 c3 16 bd d4 4f 81 3d
       -0.027478902 0.0022441405 -0.036807917 0.06314054
0000f0 08 05 67 3c 1d 3d 97 3d d9 ca 63 bd bc 74 8a bd
       0.014100321 0.07384703 -0.055613372 -0.067605466

weight f4 [128, 64, 3, 3]
000000 4d 69 d1 bd 8c b8 46 be 4f 38 fd 3d ee ef a6 3c
       -0.10225163 -0.19406337 0.12364256 0.02037808
000010 b9 4f 58 bc 7b c7 82 bc d5 f3 81 3c 93 9d 2b bc
       -0.013202601 -0.01596426 0.015863338 -0.01047458
000020 5f e8 bf 3d c8 36 1d bc df 00 fd bd fd 0b 48 bc
       0.09370493 -0.00959558 -0.12353682 -0.0122098895
000030 7d 73 c3 bc 36 a9 d8 bb 21 62 1b bc 2e fd 08 bd
       -0.02385878 -0.0066119684 -0.009483845 -0.033444576
000040 d0 2a 7e bd d0 90 b2 bc 5d f4 51 3d 5d 13 04 be
       -0.062052548 -0.021797568 0.051258434 -0.12898012
000050 ec ea 3f be 8d e5 ae bc b5 fe 5b bd 82 cb ce 3c
       -0.1874196 -0.021349693 -0.053709704 0.025243524
000060 b1 2c 1d 3d 5b 3e b5 bd 18 29 aa bd a2 85 88 bd
       0.0383727 -0.08849784 -0.08308619 -0.066661134
000070 78 df c2 3c a6 0f 1e 3d 12 94 55 3c b5 df 5b 3d
       0.023788199 0.038589142 0.013035791 0.05368014
000080 fe 2c 5b 3d 8a 27 e2 3d 58 b5 b5 bd 57 40 73 3d
       0.053509705 0.11042698 -0.08872479 0.05938753
000090 50 75 16 bd d4 f4 35 3d 2a 15 6d bd 5a 9e 40 3d
       -0.03673297 0.04442294 -0.05788151 0.047026016
0000a0 43 81 32 bd 8f cb 96 bd 55 e9 aa 3c 04 db ff bd
       -0.043580305 -0.073630445 0.020863215 -0.12492946
0000b0 00 1a 9b bd a7 73 ba bd a5 3f fb bd ff f8 1e be
       -0.075733185 -0.0910409 -0.122679986 -0.15524672
0000c0 e2 c9 ab 3d d5 2b 77 3d 1d 98 90 3c d5 54 c5 3d
       0.083881155 0.060344536 0.017650658 0.09635321
0000d0 ca de c1 3d 25 30 46 3d d8 96 05 3d 0e 33 47 bd
       0.09466322 0.048385758 0.03261456 -0.048632674
0000e0 93 cf 30 3c f7 23 34 3c 5a 96 c9 3d 3a 2d 93 3d
       0.010791677 0.010994903 0.098431304 0.07186361
0000f0 d3 7f c2 bd 8e 4d ad 3d e7 d1 4c 3b 3d ba 16 3d
       -0.09497037 0.08462058 0.0031253041 0.036798704
000100 b0 94 f4 bc 9e 4c aa bc 0f ec 6e bd 04 ff f6 3c
       -0.029856056 -0.020788487 -0.05833059 0.030150898
000110 7e 1a c1 3c ed b3 34 3d ee 0d d2 3c e4 15 9c bd
       0.023572203 0.044116903 0.025641408 -0.07621363
000120 15 43 f0 3d 8f 77 86 bd cd 2e b4 bd c2 2d e3 bc
       0.11731545 -0.06565773 -0.08797989 -0.02773178
000130 3b 5c 6e bd f1 a7 45 3d 46 ae 93 3d a3 6e 8b bc
       -0.058193427 0.048255865 0.072109744 -0.01702053
000140 85 14 62 bc f1 4f 54 3d a2 b0 ec 3c a8 73 4e 3c
       -0.013798838 0.05183405 0.028892819 0.012600817
000150 d7 68 63 3d 94 2f 9f bd 4c c1 de 3b dd ed 07 bb
       0.055519905 -0.07772747 0.006797945 -0.0020741143
000160 a2 c8 61 bd 6f be 86 3d 8a 04 1d 3d 4a c9 cd 3b
       -0.05512298 0.06579291 0.038334407 0.006280099
000170 82 82 43 bc 19 22 2f 3c 85 bf 20 3d 52 d7 0a 3d
       -0.011932971 0.010689282 0.039245147 0.03389675
000180 e2 df 2a 3e 61 44 18 bd 47 c2 c2 3c 08 63 e9 bd
       0.16686967 -0.037174586 0.02377428 -0.11395842
000190 5b 63 91 bd 0b 9a b0 bd 42 b4 39 be aa 1a 62 bb
       -0.07099029 -0.08623131 -0.18135169 -0.0034500756
0001a0 21 af fd bd 3f e7 83 bd c9 bd 83 bd fa 48 24 be
       -0.12386919 -0.06440591 -0.06432683 -0.16043463
0001b0 a6 90 cf bd ab 5b 4b bd b1 d2 37 bd 74 24 15 3d
       -0.101350114 -0.04964797 -0.044878665 0.036411718
0001c0 35 b4 15 3d 4d 76 9d bc f1 40 5a 3d 28 d8 5e 3d
       0.036548812 -0.01922145 0.05328459 0.05440536
0001d0 53 2c 2c 3d 2e 21 15 3d 5e bd 5f be 3c 11 39 3d
       0.04203446 0.036408596 -0.21849582 0.04518245
0001e0 d8 0f 30 be a3 28 51 be cb d9 ab 3d 7d 9a af bd
       -0.17193544 -0.20425658 0.0839115 -0.08574388
0001f0 f9 9a a7 bd 50 5c 1e bd 88 75 cc 3d 55 97 ce bd
       -0.081838556 -0.038662255 0.09983355 -0.10087458
000200 c1 1b f8 bd 00 63 6b 3e 15 84 63 3d f6 8e 8d bb
       -0.12114669 0.22986984 0.055545885 -0.004320021
000210 66 90 30 3e c6 dc 15 be 56 d3 a5 3c e9 76 f7 bc
       0.17242584 -0.14635 0.020242374 -0.030208068
000220 6e a1 8b bd 22 50 3a 3d 9b cd 35 3d 16 f1 59 bd
       -0.068179 0.045486577 0.044385534 -0.053208433
000230 5d ce 0b 3d b2 1a 93 bc c8 06 56 bd 35 49 a9 bd
       0.03413235 -0.017957065 -0.05225256 -0.08265916
000240 3d 82 ab 3b 79 28 c0 3d 9b dd 86 bc 4c d2 85 3d
       0.0052340315 0.093827195 -0.016463092 0.065342516
000250 38 42 5c 3d a6 a3 47 bd 1a 90 ee 3d bd e0 47 bd
       0.05377409 -0.04874005 0.11648579 -0.04879831
000260 ae 8a 2d be 25 57 97 bd cc 1c be bc ad aa 1f bd
       -0.16947433 -0.073896684 -0.02320709 -0.03898113
000270 99 42 dc bb 3a 57 10 3e 85 27 89 3d bc e8 33 3e
       -0.0067218062 0.14095774 0.06696991 0.1756925
000280 10 f7 2a bd e0 ca 59 3d cc 79 eb bd c0 74 b6 bc
       -0.041739523 0.053171992 -0.1149784 -0.022272468
000290 73 c0 f1 bd 97 3e 6b 3d 27 72 13 3d fe 25 a2 3d
       -0.11804285 0.057432737 0.035997536 0.07917403
0002a0 24 87 cc 3d a7 b2 f4 bc c2 e9 0b 3d 04 34 7d bd
       0.099867135 -0.029870344 0.034158476 -0.061817184
0002b0 a0 15 34 3d e1 49 db bd da d4 58 3c ba 2f 25 3e
       0.043965936 -0.10707451 0.0132343415 0.16131487
0002c0 5a df 07 3e 87 e5 80 3d 35 89 7a 3c 23 7b f1 3d
       0.13268796 0.06293779 0.015291502 0.117910646
0002d0 d2 3d f6 3d 0b 88 24 3d 8b 64 cb 3d 76 fe cb 3c
       0.1202351 0.040168803 0.099312864 0.02490161
0002e0 cf 53 b1 bd 04 d8 f3 bc 96 cc c3 bd fc b9 59 be
       -0.08658563 -0.02976609 -0.09560506 -0.21262354
0002f0 01 1a 59 3c a6 8c f3 bd 80 56 1e be 00 b7 38 bd
       0.013250829 -0.11892061 -0.15462685 -0.045096397
000300 18 80 01 3e 2b 05 d4 ba 95 27 4d 3d 94 72 15 be
       0.1264652 -0.0016175857 0.050086576 -0.1459449
000310 e3 30 9d 3c 67 15 ce bd 14 7e 16 3d fb c0 59 be
       0.01918835 -0.10062676 0.03674133 -0.21265022
000320 75 6e 88 bd f8 0c b2 bb 61 2d fa bc 75 1b 6d 3d
       -0.06661693 -0.005433675 -0.030539216 0.057887513
000330 dd 6c d0 3d 11 02 ee 3c ee 42 f5 bd 91 8a 82 3c
       0.10177014 0.02905372 -0.119756564 0.015935214
000340 62 b7 1c be e9 5e 21 3e 2d a3 b8 bd 72 4e 1a be
       -0.1530433 0.15758862 -0.09015498 -0.15068987
000350 35 94 19 bd aa c1 30 bb d2 36 11 3e 3a 8e 4b bd
       -0.037494857 -0.0026970902 0.14181069 -0.049696185
000360 66 e9 81 3c e7 03 7b bd 8a 33 38 3d 3c 40 e4 3c
       0.015858363 -0.06128302 0.044971026 0.02786266
000370 91 c6 b8 bd a1 5b bc 3b 69 c7 f2 bd ff 0f 64 bd
       -0.090222485 0.0057482277 -0.11854441 -0.055679318
000380 1c eb 1d 3d 59 f3 07 be 01 f5 96 bd 91 c1 e9 3d
       0.038554296 -0.13276424 -0.073709495 0.11413873
000390 4f 42 8b 3d 61 ba a9 3c 1d 56 b3 bd 5f 0c d9 3d
       0.06799757 0.020718755 -0.08756659 0.10598063
0003a0 0c 0a 19 bc ae b5 9b bd 66 58 49 3e 5b 76 b8 3d
       -0.009340774 -0.07603012 0.19662628 0.090069495
0003b0 8a d7 e7 bd ae 99 d3 3d 9b 91 ed bb d7 75 d2 3d
       -0.11320408 0.103320464 -0.0072500235 0.102763824
0003c0 41 16 8e bd b9 2c 34 3a 68 ff a7 3d f7 5f de bd
       -0.06937838 0.0006873119 0.08203012 -0.108581476
0003d0 81 e8 f7 bc 46 5f 2b bd 11 d7 e7 bd a1 9c 29 bc
       -0.030262234 -0.041838907 -0.113203175 -0.010352285
0003e0 8b 32 07 3d c5 f1 bd bd a4 a2 8b bc 7c a3 fc 3d
       0.033007186 -0.092746295 -0.017045327 0.1233587
0003f0 d0 86 20 be 11 a1 b1 3c 3d 0b 1b bd 5b ac e6 3d
       -0.15676427 0.021683248 -0.037852515 0.11263343

bias f4 [128]
000000 f9 49 32 bd 5f d1 9c bc 2b b2 45 bd 0c 40 12 3c
       -0.043527577 -0.019142805 -0.048265617 0.008926403
000010 ac 68 a3 3b 9e 31 95 3b 2e 36 03 3d 98 dc c1 3b
       0.004986843 0.004553034 0.03203409 0.0059161894
000020 7e 12 28 bd b0 51 d4 3d 9b 4f 83 3d a7 19 8a 3c
       -0.04103326 0.10367143 0.06411668 0.016857935
000030 ad 4f e2 bc 91 38 83 3d 8f 71 eb bc 50 a5 74 bd
       -0.027625883 0.064072736 -0.028740672 -0.059727967
000040 b4 3b b4 bd e9 17 dd bc b4 74 ac 3c 27 8b a2 3d
       -0.0880045 -0.02698894 0.021051742 0.079366975
000050 f9 13 18 bc 83 6b 52 3c 9c 57 8c 3d 1f 7d 08 3e
       -0.009282106 0.012843016 0.06852648 0.1332898
000060 d7 60 29 bd e8 85 4c bd 0f 80 89 bd 13 43 a2 bd
       -0.04135212 -0.04993239 -0.06713878 -0.0792295
000070 1b ac 93 bd 7a 89 ba 3d 49 32 96 bd 9d fa d8 bd
       -0.07210561 0.09108253 -0.0733381 -0.10594676
000080 f9 11 2e 3d c2 15 c6 3c 2f 4c 81 bb 53 ac a9 3d
       0.04249761 0.024180297 -0.0039458494 0.08284821
000090 3d aa 52 3d 6e 53 90 bd 66 90 9f 3c 3d a0 9f bd
       0.051431883 -0.07047163 0.019478034 -0.07794235
0000a0 89 76 b8 bc 5a 33 32 3d 04 a8 ed 3d d4 ce 9e 3d
       -0.02251746 0.043506004 0.11604312 0.07754293
0000b0 00 db b4 bd 33 e2 5e bd 9b 46 a9 bc 2c 27 7e bc
       -0.088308334 -0.05441494 -0.02066355 -0.015512269
0000c0 0d 92 3a bd f5 81 e3 bd 9e 41 d3 3c 4b 84 7c bd
       -0.04554944 -0.11108772 0.025788125 -0.061649602
0000d0 e2 5d 8e bd cf 11 38 be 07 e9 13 be 7a 75 9a bc
       -0.069515005 -0.17975543 -0.14444362 -0.018854845
0000e0 8a 2a 49 bd 81 e6 95 bc 35 70 9e bd 5d db 15 bb
       -0.049112834 -0.01829839 -0.077362455 -0.0022866346
0000f0 34 19 d3 3c d6 06 7c bd 26 23 44 3d 66 4d 46 3c
       0.025768854 -0.061529957 0.047885083 0.012103414
000100 dc 4c 60 bd ae bc 41 3c d9 6e c7 3c 06 93 a3 3d
       -0.0547608 0.01182477 0.024344848 0.07987027
000110 b9 a6 91 3d f1 17 14 be ed 71 c4 bc 5c fc 18 bc
       0.07111878 -0.14462258 -0.023980105 -0.009337511
000120 61 2b 4a bd 7c d8 9e 3d 3f bb ce 3a f6 3b 34 bc
       -0.049357776 0.07756135 0.0015772356 -0.011000624
000130 ce b5 7d bd 1a 1b 4d bd 80 dd 2c bd 4b ad d6 3c
       -0.06194096 -0.050074674 -0.042203426 0.02620568
000140 03 c7 05 be 2d 1f cb bd bb c4 c0 bc b6 1e 8e 3d
       -0.13064198 -0.09918056 -0.023531308 0.069394514
000150 e9 ce 84 3d 87 71 13 3d 81 d7 69 bd d5 10 a8 3d
       0.064847775 0.03599694 -0.057090286 0.082063355
000160 8f b0 1a 3d 2d ce ce bd ee 93 41 bb 0b 11 58 bc
       0.037766036 -0.10097919 -0.0029537636 -0.013187657
000170 2f 83 19 3d 4c f5 c1 3d bf be 65 3d 68 09 7d bd
       0.037478622 0.09470615 0.056090113 -0.06177655
000180 7e cc 64 3d f1 42 c6 3c 7f 7b 02 bd 82 ea 92 3c
       0.05585908 0.024201842 -0.031856056 0.017934088
000190 f1 6f 7a 3b aa fe 88 bd 15 41 1b 3b fd 8e 7d bd
       0.0038213695 -0.06689198 0.0023689915 -0.061903942
0001a0 0a 7d ba 3d da b1 48 bc bd d9 80 3c d4 43 06 bd
       0.091058806 -0.012249434 0.015728826 -0.03277953
0001b0 08 21 80 bd ef 7a c1 3d 07 c5 88 3d c2 53 2d bd
       -0.062563 0.09447276 0.06678205 -0.042316206
0001c0 3c 18 d7 3d 21 80 db 3c 52 53 bd bc ff f0 ae 3b
       0.10502669 0.026794495 -0.02311102 0.0053387876
0001d0 cc a2 52 bd be 94 1e 3c 1c 9c 42 3d 9c 82 1a bc
       -0.051424786 0.009679018 0.04751216 -0.009430554
0001e0 59 d4 25 bd f5 65 74 bd 0e 4c 76 bd d8 d7 58 bd
       -0.040485714 -0.059667546 -0.060131125 -0.05294022
0001f0 83 2e 8b 3d 13 f5 e3 bb b9 65 d8 bd b3 a6 6e bd
       0.06795981 -0.0069567054 -0.10566277 -0.058264446

weight f4 [128, 16, 3, 3]
000000 6d 19 13 bf 3a 17 ad 3d a2 c3 09 be f1 31 5d bd
       -0.5746067 0.08451696 -0.13453534 -0.054002706
000010 47 79 74 bd 06 1b d0 3d c8 81 2b be 2b b5 12 be
       -0.05968597 0.10161404 -0.16748726 -0.14326923
000020 fe 58 3e 3e 36 ae 7d be f0 1f 3c be b8 1c 1f be
       0.18588635 -0.24773487 -0.18371558 -0.15538299
000030 90 e3 a3 be 94 7e 65 be 67 cf 67 3d ef c8 0d 3e
       -0.32009554 -0.22411567 0.05659428 0.13846181
000040 5e 3a 22 bc ee 99 03 be b7 ab b8 bd 88 e5 af be
       -0.009901611 -0.12851688 -0.09017127 -0.34354806
000050 32 f3 9b 3e c5 02 97 3d ef 27 eb 3e f3 91 18 3e
       0.3045898 0.07373575 0.45928904 0.14899425
000060 b4 f4 4e 3d 41 62 62 3d fc 45 99 be 02 47 e2 be
       0.050526336 0.055269483 -0.29936206 -0.441948
000070 30 27 39 be e9 0e a5 be e8 2f 4d 3e e1 29 23 3c
       -0.18081355 -0.32237938 0.20037806 0.009958715
000080 6e ca 24 bd 48 3c 2e 3e d5 9d 7d be c9 19 03 be
       -0.040232114 0.17015183 -0.2476724 -0.12802805
000090 fb 7d 61 3c 9b f1 51 be af 11 13 3c f7 5d 84 bd
       0.013762946 -0.20502321 0.008976384 -0.06463235
0000a0 c1 c3 d4 bd d7 7f 7b 3d a8 2f 79 3d 72 e3 24 3d
       -0.103888996 0.061401214 0.060836464 0.04025597
0000b0 b6 39 8b 3d 34 21 c5 3d 70 d6 18 be 46 2c b2 3b
       0.06798117 0.096254736 -0.14925551 0.0054374067
0000c0 2d 57 8e bc 13 bc 3b be ec 5a 33 be d9 41 fc 3d
       -0.017375553 -0.18333463 -0.17515153 0.12317247
0000d0 89 2a fa 3c c5 b0 c3 bc fe 76 c0 3d b2 a8 d6 3c
       0.03053786 -0.023888001 0.09397696 0.026203487
0000e0 1c 28 21 bd 40 2a 5a 3d cb 87 f1 3d c0 cf 51 be
       -0.039344892 0.05326295 0.117934786 -0.20489407
0000f0 bc c2 09 3e 13 8d 9b bb 7b 9d d3 bd 94 2a b9 bd
       0.13453192 -0.004747042 -0.103327714 -0.09041324
000100 0d cf fa 3d eb ff 07 3e b4 b9 c4 3d 78 c0 1d 3d
       0.12246523 0.13281219 0.096057326 0.03851363
000110 0a 7f 72 3d 85 d2 fd 3d c4 c8 cb 3d b1 44 62 3d
       0.059203185 0.12393669 0.099504024 0.05524129
000120 22 06 97 bd f9 62 93 bd 49 83 65 bd f3 94 ba 3d
       -0.073742166 -0.07196612 -0.056033406 0.09110441
000130 5b ff 81 bc 5b 46 36 bd 15 84 5c bc 96 43 30 be
       -0.015868833 -0.04450069 -0.013459225 -0.17213282
000140 9a 98 a6 3d 86 dc 12 3e 3d 41 6d be 0b aa db be
       0.08134575 0.14341936 -0.23169418 -0.4290317
000150 8a 83 b3 3c e7 e2 4f be 14 a9 7d 3c 2f 70 14 bd
       0.021913309 -0.203014 0.015482206 -0.0362398
000160 18 75 9b bd 75 bf ba b8 7b f0 75 bd 07 45 38 38
       -0.07590693 -8.904833e-05 -0.060043793 4.3933305e-05
000170 49 10 3c 3d 35 84 ab bc 53 04 81 3d dc dd a7 be
       0.04591397 -0.020937065 0.06299653 -0.32786453
000180 70 a4 01 be 0c 06 64 3c f0 08 22 bd 39 08 1e 3e
       -0.12660384 0.013917457 -0.039559305 0.15432824
000190 c0 74 be bd 3c 7f ed 3c fd ce a3 bd c9 77 a7 bd
       -0.09299612 0.028991334 -0.07998464 -0.08177144
0001a0 7f f2 bf 3d 12 96 06 be a5 23 55 3d 82 a0 9d 3a
       0.09372424 -0.13143185 0.052035946 0.0012025984
0001b0 8e 0a 1d 3e 47 01 96 bd c4 24 36 3c cf d3 cd bd
       0.15336058 -0.073244624 0.011117164 -0.10050165
0001c0 20 a3 39 be 7f f8 af bd ad c8 a1 3d 22 fb d8 bd
       -0.18128633 -0.08592319 0.07899604 -0.10594775
0001d0 15 57 71 3d 7d 64 90 3d b3 b4 56 3d 5b f2 ff bc
       0.05892094 0.070504166 0.052418422 -0.031243494
0001e0 fd 27 87 be 96 16 4e bd f2 01 39 3e 33 49 35 bf
       -0.26397696 -0.05031451 0.18067148 -0.7081482
0001f0 13 65 68 bd 7a 25 08 3e 42 24 c4 bd 7d 40 0b 3e
       -0.056737017 0.13295546 -0.09577228 0.13598819
000200 8a b0 00 be 5e 6e 63 be 60 06 7f bb 53 46 d2 3d
       -0.12567344 -0.2221007 -0.0038913712 0.102673195
000210 5e 6e 27 bc 75 27 94 bb 4f a5 9a bd 30 3a 42 bf
       -0.010219185 -0.004521305 -0.07551061 -0.7587004
000220 b8 54 ae be 78 57 9a be f1 a9 97 3d 8a 21 84 3d
       -0.3404901 -0.30144858 0.074054606 0.064517096
000230 92 07 52 3d dc 3a e9 bd 78 a3 f1 bd 27 91 86 bc
       0.05127675 -0.1138818 -0.11798757 -0.016426636
000240 6a 57 4a bd 9a 64 02 3e c8 c2 16 3d 2c 1d 7c 3d
       -0.04939977 0.12733689 0.03680685 0.061551258
000250 43 49 b2 3d fa a5 8a 3e f7 b5 3c be 47 51 03 3c
       0.0870538 0.27079755 -0.18428789 0.0080149835
000260 d6 f8 12 3e 02 14 2f be ff 50 59 be 3b 08 da bd
       0.14352736 -0.17097476 -0.21222304 -0.10646101
000270 70 6c 96 be cb b4 fe bd f4 90 fd bd b3 18 f7 3d
       -0.29379606 -0.12436827 -0.12381163 0.12065258
000280 16 c2 cc bd 72 ad 43 3d a6 42 0c be fd 0a 39 be
       -0.099979565 0.047772832 -0.136973 -0.18070598
000290 76 eb 0f be 54 93 18 bc f7 93 8d 3d 5a d9 0c bb
       -0.14054665 -0.0093124695 0.06912988 -0.0021491856
0002a0 e0 4c 3c 3e f5 89 2f 3e 24 87 94 3d c8 f1 d8 bc
       0.183887 0.1714247 0.072523385 -0.026482478
0002b0 be 3a 63 3d 5c b5 85 be ae dd 1a bb ea c0 13 be
       0.055475943 -0.2611493 -0.0023630667 -0.1442906
0002c0 32 c0 1e be a0 fb b0 be 43 48 2a 3e 91 c5 d1 bd
       -0.15503004 -0.34566975 0.16629128 -0.10242761
0002d0 13 af 69 bd cc a2 94 3d 38 bc 16 bd d3 d0 5b be
       -0.05705173 0.072576135 -0.036800593 -0.21466379
0002e0 bf 84 48 bd 0d 5c df 3d 40 c1 ff bd 8d b0 08 bd
       -0.04895472 0.10906229 -0.124880314 -0.033371497
0002f0 41 45 e7 bd af dc 6d 3d 3c 1b 86 3d 6a 66 06 3e
       -0.11292506 0.05807179 0.06548163 0.13125005
000300 f3 84 8d 3d 26 73 e9 3d 1c 36 0e 3e 79 6a 47 3d
       0.06910124 0.11398916 0.13887829 0.048685525
000310 77 91 8d bd 48 31 3d be f1 1b 3b 3e be 0e 23 3a
       -0.06912511 -0.1847583 0.18272378 0.00062201533
000320 e7 46 0b bc 27 65 02 3e b2 e6 ec 3c 7e de 77 3b
       -0.008500791 0.12733899 0.028918598 0.0037821825
000330 dd 79 b1 3d bd 01 a5 3d cc f1 28 bd 10 39 4f 3e
       0.08665822 0.08056972 -0.04124622 0.20236611
000340 c8 f0 b6 bd 41 70 81 bd 07 15 70 be a3 02 b1 bc
       -0.08932644 -0.06320239 -0.23445521 -0.021607703
000350 bf e1 9d be 60 4f 23 3e a1 2d cb bc 01 96 5d 3d
       -0.30836293 0.15948248 -0.024802031 0.054098133
000360 a7 7d 4c be 48 11 28 3e e4 dd e4 bc ab 43 e7 3d
       -0.19969808 0.16412842 -0.027937837 0.112922035
000370 17 bf 9c 3d 47 e0 aa bc e5 4a 33 3d ad 8c 72 bc
       0.07653635 -0.020858897 0.043772597 -0.0148040475
000380 7d b9 8c bd 46 6f b8 bd 97 b9 28 be 4d 3a 66 bc
       -0.068713166 -0.09005599 -0.16477047 -0.014051986
000390 7a e1 2a be d0 d1 f3 bc 9f 69 d5 3d f1 74 86 be
       -0.16687575 -0.029763132 0.10420536 -0.26261094
0003a0 70 0d 37 3e 82 36 db be 02 cf 9c 3a 57 ee 09 bd
       0.1787622 -0.42815024 0.0011963549 -0.033674564
0003b0 20 c2 50 bd ea 46 0c 3e 0b c3 13 3c 3c 3b 72 bd
       -0.050966382 0.13698927 0.00901867 -0.05913852
0003c0 aa 5d ff bd c5 7b 60 bc 98 a9 18 be 19 e7 34 bd
       -0.12469037 -0.013701384 -0.14908445 -0.044165704
0003d0 45 a2 1c be 90 45 ea 3c 25 4a 1b be 33 ec bd bd
       -0.15296276 0.028597623 -0.15165003 -0.09273567
0003e0 2c 83 81 bd 4f 1d e9 bd 61 cb 43 be d6 a5 ad bc
       -0.06323847 -0.11382543 -0.19120552 -0.02119724
0003f0 75 82 aa 3d 45 db be bd e5 16 db 3d 22 2a 1b bd
       0.08325664 -0.09319166 0.10697726 -0.037881978

bias f4 [128]
000000 12 26 c8 bd bc bb 91 bd cb 2b c0 bc 30 80 a0 bc
       -0.09772886 -0.071158856 -0.023458382 -0.019592375
000010 db fb 21 3d ce 04 0e 3d 0b be 57 bd d7 35 9c bd
       0.03954683 0.03467255 -0.052671473 -0.07627457
000020 8d 7c 84 bc 69 66 85 3c 48 5f 89 3d 04 3b f4 ba
       -0.016172672 0.016284185 0.067076266 -0.0018633311
000030 72 25 86 3c 80 54 5b bc 48 d0 f1 bd c2 ff 88 bd
       0.016375277 -0.013386846 -0.118073046 -0.06689407
000040 40 ce 07 be 1f 8e 07 3d 14 cb 83 bc eb 5a bd bd
       -0.13262272 0.03309452 -0.016088046 -0.09245857
000050 31 55 6d bc ac bf ff bd a5 33 a1 bc 04 0a 7c be
       -0.014485643 -0.124877304 -0.019677946 -0.24613196
000060 a2 2d 24 3d 40 12 1b bd 05 56 25 3d 2b 83 93 3d
       0.04008258 -0.0378592 0.040365238 0.07202753
000070 37 4c d5 bd 73 3c 92 3c ec e6 c1 bd cc 3c a9 bc
       -0.104149275 0.01785109 -0.09467873 -0.020658873
000080 10 09 24 bd ea 04 88 3c aa 55 4f bd 88 90 8a bd
       -0.040047705 0.016603906 -0.050618805 -0.067658484
000090 fe 19 a3 bd d9 75 f2 bd 62 46 28 3d 81 5f a1 bd
       -0.07963942 -0.11838884 0.041082747 -0.07879544
0000a0 a6 d4 88 bd 40 07 e4 bd 28 6d 07 3c 71 78 91 bd
       -0.066811845 -0.11134195 0.008265771 -0.071030505
0000b0 23 55 f0 bc f4 3f a9 3b e0 c5 56 bd 5a c5 02 3d
       -0.029337471 0.0051650945 -0.052434802 0.03192649
0000c0 d4 cd 04 bd b3 bd 90 bc bc 21 67 3c f2 d7 94 bd
       -0.032422855 -0.01766858 0.014107164 -0.07267751
0000d0 bf 97 b7 bd a5 dc 11 3d 07 c9 21 be 59 e8 08 be
       -0.0896449 0.035610814 -0.15799342 -0.13369884
0000e0 da 36 29 bc 69 c9 2a be 72 d0 95 bd e2 e6 2b 3b
       -0.010328019 -0.16678394 -0.073151484 0.0026230146
0000f0 bf 7e dd bb 79 7c 0f be 3f ae 3e be bf 3c 39 bd
       -0.006759494 -0.14012326 -0.18621157 -0.045223948
000100 b4 58 34 be e3 f8 d1 bd ea a3 9f 3d 2a 7b 8f bd
       -0.17611963 -0.102525495 0.07794936 -0.070059136
000110 b9 1b df bd a6 12 38 be 28 fd c3 3c 08 cd 5e bd
       -0.108939596 -0.17975864 0.023924425 -0.05439475
000120 0e 37 a1 3b 03 68 05 3d b2 dd 39 bd a7 3d 69 bd
       0.004919893 0.032569896 -0.04537744 -0.056943562
000130 51 3c 84 bd 3a 3f 54 bd 81 ce 8f bd 9e 41 09 be
       -0.06456817 -0.05181811 -0.07021809 -0.13403937
000140 da c4 28 3c 47 5c d2 bd cb 13 c7 bd b3 9e 9a bd
       0.010300839 -0.10271507 -0.09720572 -0.07549801
000150 03 e5 6d bd b0 6b 17 3d 08 07 9a 3d b9 a3 a6 bd
       -0.05807973 0.036967933 0.07520872 -0.08136696
000160 49 02 c5 bc ae d2 11 bd 5c 52 5a bd 97 30 01 3b
       -0.024048941 -0.03560131 -0.0533012 0.00197128
000170 87 8c ad bd d7 2c 0a bd 93 5c f2 bd e5 52 fc bd
       -0.08474069 -0.03373417 -0.118340634 -0.123204984
000180 f5 80 ce 3b 65 3e c0 bd 22 89 ff bc 6c e2 da bd
       0.006301994 -0.09386901 -0.03119332 -0.10687718
000190 d9 f5 3c be 4e 22 ab bd a7 ba cf bd ff b3 48 bd
       -0.18453158 -0.083561525 -0.10143023 -0.048999783
0001a0 9a 7a c6 bd df 7f d2 bd 25 c2 cb bd 75 88 79 bd
       -0.09691353 -0.10278296 -0.099491395 -0.06092115
0001b0 06 27 35 bd 38 d7 15 be 40 ea e4 3c 5d 3d d0 bd
       -0.04422667 -0.1463288 0.02794373 -0.10167954
0001c0 8a 1a 62 bd 4f fa 23 bc cf 5e 59 bd 0c c1 b1 bd
       -0.05520109 -0.010008409 -0.053068932 -0.08679399
0001d0 fe 08 bf bd 7b f5 6f bd 27 fc 5f 3d 4d 09 85 bd
       -0.09327887 -0.058583718 0.05468383 -0.064959146
0001e0 ac ab 31 bd eb f9 b8 bc db 01 7f bd 00 01 45 bd
       -0.04337661 -0.022580108 -0.06225763 -0.048096657
0001f0 1a d0 97 bd 21 e3 c4 bd 9d 17 34 bc d4 2e ca 3c
       -0.07412739 -0.09613634 -0.010991958 0.024680533
