checkpoints/q_net.safetensors (safetensors, 629056 bytes, 15 tensors)

advantage_head.0.bias f4 [5]
-0.036852896 -0.027237248 0.008811463 0.028510323 -0.00089818647
00000000: 10f3 16bd a620 dfbc f45d 103c 7b8e e93c
00000010: 4674 6bba

advantage_head.0.weight f4 [5, 256]
0.17723271 -0.51486164 0.03045732 -0.016513698 0.44350788 0.03805712 0.08698043 0.0089439005
0.034511488 -0.022840435 0.07136917 0.051921733 -0.008589387 0.042875845 -0.007327367 -0.0045018643
0.0012981076 -0.019663759 -0.15684496 0.0785173 0.041729514 -0.20058654 -0.4494085 0.0043976014
-0.001622444 -0.022529816 -0.006150364 -0.01716599 0.003403321 -0.09233174 -0.05715895 0.009159018
-0.037763637 -0.009042195 0.07010037 0.01800536 -0.010092233 0.08241376 0.008910801 -0.008105916
-0.3089961 0.013545542 0.0063932426 -0.017798187 -0.00091447314 0.010375891 -0.02883728 -0.030214373
-0.015862131 0.10865314 -0.018252295 0.0057280352 -0.16616462 -0.01365842 0.08051997 0.07752745
-0.031565733 0.06066548 -0.0077397935 0.008890741 -0.10357999 0.00238382 -0.01546127 -0.10005111
-0.03471839 0.11627652 -0.18794067 0.24155554 0.055635873 0.030554524 -0.007279077 -0.19149108
0.041706108 0.4006987 0.07403026 0.086420015 -0.5375967 0.01610283 0.002030503 0.00961736
0.042830337 0.027799394 0.4844291 0.013015586 0.0044442075 -0.0002120143 0.0041920817 -0.057002172
0.00025025365 0.005544608 0.041579198 -0.14111193 0.012312215 0.031709947 0.033897728 -0.052218445
-0.0393186 0.031218456 -0.011285795 0.03592656 0.042174086 0.043434568 -0.011212166 0.17520544
-0.09185332 0.041819766 0.024862725 0.03047747 0.0077749477 0.1323639 -0.59315217 0.036676623
0.02346899 -0.09017215 0.03208722 0.03617736 0.0037196812 0.0326471 0.012999653 0.03731909
0.0040732822 0.003515768 -0.0064032883 0.028142834 -0.08197879 -0.0059659127 0.009679774 -0.0048391162
0.05791919 0.10354108 0.14845732 0.08135122 0.15212218 0.3189974 0.026586033 0.019653134
-0.013772706 -0.046094615 0.023201546 -0.03466403 0.21374272 0.10017043 0.0030173357 0.041505378
0.15037313 -0.061787315 -0.03339232 0.12831591 -0.11285143 -0.021022312 0.0028753027 0.20206423
0.09018608 -0.029201968 -0.0061374633 -0.015196845 0.037226837 0.28734356 0.03416886 -0.040968027
-0.103918865 -0.0067820502 0.052402716 -0.008880353 -0.56061065 -0.1565758 -0.0031645217 0.008900986
0.060258135 -0.03374828 0.01695756 0.04654793 0.14346083 0.06263701 0.07512988 -0.022288177
0.015522818 -0.022029897 0.062247526 0.028060842 0.037138835 -0.04811557 -0.02316148 0.20958811
0.10944238 0.09153696 -0.032441255 0.028888592 -0.4050678 -0.015661787 0.08272215 -0.05080812
0.0102605 0.058042537 -0.006821276 0.017730096 0.012236207 -0.015249998 0.007258878 0.010463403
0.050586104 0.1814154 -0.0905178 0.034162145 0.081099994 -0.04399296 -0.0053262324 -0.009686965
-0.4530528 -0.01701362 -0.3053366 -0.021158427 -0.002353525 0.0022373903 0.015402994 0.120382495
0.14950797 -0.056940317 0.049886253 0.05071048 -0.022072824 0.048980698 -0.04238861 0.049712878
0.029883923 0.145008 -0.016357122 0.057583015 0.03701553 0.10728638 -0.014408039 0.17856622
0.06339704 0.054392044 -0.009295321 0.021467501 0.030569648 -0.03626279 0.25832996 0.06321594
0.07534968 -0.04167514 -0.06212495 -0.029828833 -0.099688485 -0.069678776 -0.0142258825 -0.09328903
-0.2036617 -0.044481248 0.0014380186 -0.015492186 -0.0021278092 -0.033377312 0.037332185 -0.019706575
00000000: 7e7c 353e f9cd 03bf a181 f93c bc47 87bc
00000010: 7713 e33e c8e1 1b3d cc22 b23d 7089 123c
00000020: eb5b 0d3d dd1b bbbc 002a 923d e2ab 543d
00000030: 80ba 0cbc 959e 2f3d 691a f0bb 6084 93bb
00000040: 4325 aa3a e415 a1bc f79b 20be aecd a03d
00000050: 91ec 2a3d 8f66 4dbe df18 e6be c119 903b
00000060: 30a8 d4ba 7390 b8bc fe88 c9bb b19f 8cbc
00000070: 400a 5f3b 6c18 bdbd 811f 6abd b50f 163c
00000080: 0bae 1abd b725 14bc c890 8f3d fa7f 933c
00000090: e559 25bc 8cc8 a83d 9cfe 113c adce 04bc
000000a0: bd34 9ebe 1fee 5d3c 687e d13b 81cd 91bc
000000b0: 41b9 6fba a4ff 293c 293c ecbc 2284 f7bc
000000c0: 4df1 81bc 8a85 de3d d685 95bc 3eb2 bb3b
000000d0: 0f27 2abe 91c7 5fbc a7e7 a43d b6c6 9e3d
000000e0: 124b 01bd 5e7c 783d 189e fdbb 78aa 113c
000000f0: bf21 d4bd dd39 1c3b 4451 7dbc 99e7 ccbd
00000100: df34 0ebd 6222 ee3d 8573 40be 565a 773e
00000110: 71e2 633d 7b4d fa3c 5385 eebb 3d16 44be
00000120: 06d4 2a3d 6128 cd3e 2d9d 973d fafc b03d
00000130: f09f 09bf 15ea 833c 3012 053b 2292 1d3c
00000140: dd6e 2f3d 8ebb e33c 1707 f83e 533f 553c
00000150: b7a0 913b 2850 5eb9 bb5d 893b 1c7b 69bd
00000160: 7a34 8339 8baf b53b f34e 2a3d a57f 10be
00000170: 2cb9 493c 4ae2 013d 58d8 0a3d 02e3 55bd
00000180: 8a0c 21bd d9bd ff3c 0ee8 38bc bb27 133d
00000190: bcbe 2c3d 72e8 313d 3cb3 37bc 0e69 333e
000001a0: 981d bcbd 344b 2b3d eaac cb3c e3ab f93c
000001b0: fdc4 fe3b 678a 073e d2d8 17bf 3a3a 163d
000001c0: 0a42 c03c 2dac b8bd e46d 033d b62e 143d
000001d0: e5c5 733b f7b8 053d 7ffc 543c e7db 183d
000001e0: 2b79 853b cd68 663b add2 d1bb cd8b e63c
000001f0: 7fe4 a7bd b47d c3bb ea97 1e3c 7391 9ebb
00000200: ac3c 6d3d 590d d43d 3205 183e 789b a63d
00000210: ebc5 1b3e a153 a33e f4ca d93c 9cff a03c
00000220: eaa6 61bc b5cd 3cbd 2b11 be3c dffb 0dbd
00000230: 5fdf 5a3e 2826 cd3d 7ebe 453b 8b01 2a3d
00000240: 6afb 193e b214 7dbd 63c6 08bd 3f65 033e
00000250: a71e e7bd fc36 acbc 936f 3c3b ede9 4e3e
00000260: 7bb3 b83d f738 efbc c61c c9bb 30fc 78bc
00000270: 2b7b 183d b21e 933e a6f4 0b3d 17ce 27bd
00000280: 6ad3 d4bd f63b debb 3ba4 563d e67e 11bc
00000290: 2e84 0fbf 6855 20be dd63 4fbb 71d5 113c
000002a0: 3cd1 763d a33b 0abd 95ea 8a3c 0ba9 3e3d
000002b0: 65e7 123e d547 803d b2dd 993d b295 b6bc
000002c0: 6b53 7e3c 0b78 b4bc 43f7 7e3d dadf e53c
000002d0: e41e 183d d514 45bd 25bd bdbc 449e 563e
000002e0: 5423 e03d bb77 bb3d 1fe1 04bd c5a7 ec3c
000002f0: 0c65 cfbe 264d 80bc 3b6a a93d 2d1c 50bd
00000300: a81b 283c 03be 6d3d 0385 dfbb b53e 913c
00000310: 5f7a 483c 21db 79bc e2db ed3b b16e 2b3c
00000320: 6033 4f3d f5c4 393e 6561 b9bd 9bed 0b3d
00000330: c117 a63d f631 34bd ad87 aebb 13b6 1ebc
00000340: 89f6 e7be 2660 8bbc 1455 9cbe 7054 adbc
00000350: 993d 1abb 2ea1 123b d75c 7c3c 198b f63d
00000360: 9e18 193e 403a 69bd 8755 4c3d cbb5 4f3d
00000370: 11d2 b4bc fc9f 483d ae9f 2dbd bb9f 4b3d
00000380: 21cf f43c fa7c 143e 5fff 85bc 2bdc 6b3d
00000390: 999d 173d f6b8 db3d b20f 6cbc 10da 363e
000003a0: 4fd6 813d 31ca 5e3d 674b 18bc 9ddc af3c
000003b0: 336d fa3c 4b88 14bd d343 843e 5c77 813d
000003c0: ef50 9a3d 8db3 2abd bb76 7ebd 995b f4bc
000003d0: 7a29 ccbd bfb3 8ebd ad13 69bc 520e bfbd
000003e0: b18c 50be f831 36bd e67b bc3a f0d2 7dbc
000003f0: b772 0bbb a6b6 08bd a2e9 183d af6f a1bc

backbone.0.bias f4 [16]
0.03404258 0.006479091 0.057710025 0.0535686 0.01500928 0.042315055 -0.022505237 0.0340054
0.007879862 -0.0055186437 0.028001264 -0.0028798648 0.0024993168 0.042678773 -0.018351443 0.039292347
00000000: 3b70 0b3d 8e4e d43b 5961 6c3d c06a 5b3d
00000010: 7ce9 753c 8d52 2d3d e75c b8bc 3f49 0b3d
00000020: 891a 013c bdd5 b4bb e862 e53c 1dbc 3cbb
00000030: 94cb 233b f0cf 2e3d c455 96bc 03f1 203d

backbone.0.weight f4 [16, 17, 5, 5]
0.09062256 -0.0143472785 0.1429613 -0.00018564824 0.021464728 0.03426459 -0.0070101023 0.0044408245
-0.025757747 0.046262138 -0.024173867 -0.09402835 0.02961562 0.06386553 -0.042905528 -0.0766291
-0.008063458 0.02419555 0.068356276 -0.03611232 0.004468666 -0.09325874 0.02583213 -0.044154424
-0.056000136 -0.095919855 0.1133752 -0.021076068 0.066639595 -0.07943218 0.024956146 -0.008917452
-0.07257896 -0.47990015 0.017562825 -0.10298775 -0.05810465 0.2511212 0.15360948 -0.10582608
-0.025695555 0.117663674 0.040786278 -0.009499734 0.16293158 0.09325007 0.08218672 0.1671307
0.013803446 -0.10721929 0.034493208 0.061172683 -0.03874638 0.06330643 -0.004985668 0.006442814
-0.10683809 0.05894617 0.08006926 0.026653688 -0.10811153 0.07686077 0.06613925 0.115730524
-0.021659385 -0.124399595 0.041897487 0.09490622 0.05674941 0.08280677 0.050566286 -0.052287288
0.009765103 0.05774393 0.03273002 -0.0032542641 0.14205499 0.02039263 0.23672651 0.009928973
0.034918312 -0.09945097 0.29699647 0.11339477 0.04477939 -0.06760897 0.06512194 -0.08818169
-0.19794747 -0.07947513 0.14151861 0.097117186 -0.17079443 -0.14315812 0.09085273 0.31170714
0.21896406 -0.079962924 -0.34669536 0.08531595 -0.042046227 -0.043471012 -0.012471859 -0.08256095
-0.22113398 -0.15397178 0.053205457 -0.18728694 0.06436154 -0.0049459464 0.05951421 -0.26252186
-0.09382794 -0.14231202 -0.27366823 -0.20909806 -0.39756408 -0.33408174 -0.13533066 -0.28035825
-0.15940604 -0.4629923 -0.27114862 -0.089493 -0.035793863 -0.060012173 -0.19403744 -0.13963783
-0.13082194 -0.34972408 -0.16513969 -0.047945336 -0.23932229 -0.024030467 -0.01054336 -0.04135259
-0.35440105 -0.1631429 -0.17693174 -0.33465266 -0.39078188 -0.35738716 -0.43231416 -0.19073421
-0.3608396 -0.29915744 -0.5179865 -0.25091943 -0.1381803 -0.088053055 -0.0012661191 -0.175762
-0.13766013 -0.1866994 -0.40829116 -0.26988968 -0.05604238 -0.36577675 -0.11926864 -0.07130672
0.061955936 -0.3912871 -0.15283015 -0.2002307 -0.35324273 -0.27283716 -0.34257933 -0.3242454
-0.20045647 -0.3359267 -0.110909775 -0.39336675 -0.24724816 -0.19010851 -0.18814275 0.09452138
-0.07672174 0.086398914 -0.13835235 -0.27634117 -0.16429071 0.10778032 -0.18857598 -0.04339315
-0.059455242 0.025963817 -0.30982476 0.020483207 -0.14862798 -0.17563242 -0.22887056 -0.162363
-0.36031458 -0.13397735 -0.31519496 -0.16427189 -0.4034253 -0.15268928 -0.25417665 -0.08942324
-0.08074695 0.095481984 0.16927569 0.17629755 -0.09993245 -0.0023455992 0.25678524 0.30415928
0.15806645 0.10459655 -0.004382523 -0.12825216 0.4063951 0.14535639 -0.018729199 -0.003097894
0.13857566 0.030607836 0.19216102 0.047459126 -0.11414579 0.16325894 -0.08126927 0.20293877
0.005721624 -0.09662753 0.05578133 0.21204734 0.18001045 -0.09326831 -0.110163644 0.24848275
0.33759388 0.17576401 0.1056511 -0.045244344 -0.06270782 0.39512587 0.24880695 0.013375
-0.06619371 0.05361315 0.09056444 0.21726765 0.016470801 -0.13968407 0.07476266 -0.07308707
0.13971679 0.07048883 -0.06845506 0.112196475 0.25517246 0.12386284 -0.11926813 -0.095471285
00000000: 5298 b93d d910 6bbc 7264 123e 92aa 42b9
00000010: ccd6 af3c 0759 0c3d 00b5 e5bb 5684 913b
00000020: e901 d3bc 5e7d 3d3d 4608 c6bc f091 c0bd
00000030: 759c f23c eecb 823d b5bd 2fbd b8ef 9cbd
00000040: 981c 04bc bf35 c63c 60fe 8b3d 83ea 13bd
00000050: e36d 923b 70fe bebd e79d d33c 45db 34bd
00000060: 6660 65bd a171 c4bd 4231 e83d b8a7 acbc
00000070: 577a 883d 57ad a2bd d570 cc3c 811a 12bc
00000080: 47a4 94bd 79b5 f5be eadf 8f3c 3eeb d2bd
00000090: 24ff 6dbd f592 803e ce4b 1d3e 58bb d8bd
000000a0: 7c7f d2bc a7f9 f03d 830f 273d c6a4 1bbc
000000b0: 89d7 263e e5f9 be3d 8351 a83d 4f24 2b3e
000000c0: d927 623c ca95 dbbd c048 0d3d 3590 7a3d
000000d0: 86b4 1ebd cda6 813d d15e a3bb 3e1e d33b
000000e0: eecd dabd 8a71 713d 5afb a33d d658 da3c
000000f0: 9469 ddbd 2e69 9d3d 0474 873d 2004 ed3d
00000100: 066f b1bc 37c5 febd b39c 2b3d 315e c23d
00000110: 1272 683d 9996 a93d 981e 4f3d 322b 56bd
00000120: d0fd 1f3c e684 6c3d ea0f 063d 7e45 55bb
00000130: dd76 113e 720e a73c 6f68 723e 22ad 223c
00000140: 8106 0f3d f3ac cbbd ec0f 983e 843b e83d
00000150: 986a 373d 9276 8abd a75e 853d 9a98 b4bd
00000160: beb2 4abe dbc3 a2bd 41ea 103e 60e5 c63d
00000170: bce4 2ebe 0b98 12be ff10 ba3d 1498 9f3e
00000180: 1d38 603e 9ac3 a3bd 0e82 b1be 21ba ae3d
00000190: aa38 2cbd a90e 32bd c556 4cbc b715 a9bd
000001a0: f270 62be c7aa 1dbe f7ed 593d 26c8 3fbe
000001b0: fccf 833d 9b11 a2bb 2cc5 733d 4469 86be
000001c0: dd28 c0bd 3eba 11be 3e1e 8cbe cd1d 56be
000001d0: 858d cbbe c30c abbe 1f94 0abe 1e8b 8fbe
000001e0: 563b 23be 540d edbe fed3 8abe 1b48 b7bd
000001f0: 969c 12bd 53cf 75bd c0b1 46be 38fd 0ebe
00000200: 30f6 05be 090f b3be 611a 29be 5462 44bd
00000210: e710 75be 8bdb c4bc 0fbe 2cbc 5561 29bd
00000220: 0e74 b5be ef0e 27be 982d 35be 9857 abbe
00000230: 9014 c8be 73fb b6be 4858 ddbe d44f 43be
00000240: f8bf b8be 2a2b 99be c39a 04bf 8378 80be
00000250: 237f 0dbe 2955 b4bd e8f3 a5ba f4fa 33be
00000260: c7f6 0cbe 212e 3fbe 8a0b d1be fb2e 8abe
00000270: b28c 65bd 1747 bbbe 1e43 f4bd 4209 92bd
00000280: 82c5 7d3d c856 c8be 827f 1cbe 4709 4dbe
00000290: 3bdc b4be 50b1 8bbe 8f66 afbe 7e03 a6be
000002a0: 7644 4dbe 96fe abbe aa24 e3bd 5e67 c9be
000002b0: 9f2e 7dbe ceab 42be 7ea8 40be 6d94 c13d
000002c0: 4a20 9dbd eaf1 b03d 3dac 0dbe 977c 8dbe
000002d0: d33b 28be eebb dc3d 101a 41be 04bd 31bd
000002e0: 5787 73bd 12b2 d43c 5aa1 9ebe 66cc a73c
000002f0: ef31 18be fcd8 33be 0b5d 6abe 7c42 26be
00000300: 277b b8be 5c31 09be 3c61 a1be e436 28be
00000310: c38d cebe 945a 1cbe 7123 82be 8823 b7bd
00000320: a85e a5bd 0f8c c33d 9b56 2d3e 5887 343e
00000330: 62a9 ccbd a0b8 19bb 5b79 833e c4ba 9b3e
00000340: 2cdc 213e b736 d63d 449b 8fbb 8954 03be
00000350: 0513 d03e 4ed8 143e fa6d 99bc 0906 4bbb
00000360: c7e6 0d3e 49bd fa3c dcc5 443e 8064 423d
00000370: 45c5 e9bd 5a2d 273e 8170 a6bd 2ecf 4f3e
00000380: 767c bb3b a8e4 c5bd f77a 643d f022 593e
00000390: a954 383e 7503 bfbd 7a9d e1bd 4372 7e3e
000003a0: 1bd9 ac3e 7bfb 333e 9b5f d83d 2252 39bd
000003b0: f56c 80bd f04d ca3e 40c7 7e3e d122 5b3c
000003c0: 9190 87bd 7699 5b3d d979 b93d 697b 5e3e
000003d0: c6ed 863c 5709 0fbe 2a1d 993d acae 95bd
000003e0: eb11 0f3e 735c 903d 2b32 8cbd 44c7 e53d
000003f0: f7a5 823e cdab fd3d d942 f4bd 7386 c3bd

backbone.11.bias f4 [128]
-0.0484585 -0.06979773 -0.04213212 0.017965868 -0.11766907 -0.13621649 -0.06741974 0.09551302
-0.055880826 -0.06439273 -0.056712087 0.047255132 -0.06953561 0.0064635053 -0.008546097 -0.023324568
-0.023175653 0.034200486 -0.16781367 -0.036357988 -0.030015588 -0.19021715 -0.086898856 -0.124372184
-0.03957836 -0.113986626 -0.006900597 -0.027224386 -0.10011107 0.043974895 -0.033155307 -0.0012188022
-0.009275856 0.1214539 -0.021972809 -0.032846276 -0.09619161 -0.08918277 -0.07639538 0.012223617
-0.045867734 0.016856473 -0.0358158 -0.065447964 -0.10358068 -0.0078035314 0.027929142 -0.008161179
-0.05767055 0.043089233 0.0030608666 -0.06411043 -0.055888325 -0.016093563 0.0121287815 -0.028915914
-0.116622716 -0.0011821492 0.010989402 -0.10044537 -0.1325419 -0.10032877 0.014188311 -0.060495548
-0.06946611 -0.07857057 0.021879334 0.038015317 -0.073623076 -0.034713518 -0.05924029 -0.16373576
-0.05389134 -0.06310415 -0.121578634 -0.119623475 -0.030886007 -0.027163941 0.034453914 -0.030183675
-0.04190421 -0.00025304768 -0.049832642 0.0052809976 -0.07085984 0.10837556 -0.0051848753 0.0030885122
0.030798951 -0.05717971 -0.026377188 -0.051876314 -0.068859756 -0.10269363 -0.012930497 -0.11268933
-0.0006041605 -0.18955594 0.062496044 -0.05438872 -0.042141557 -0.031190189 -0.026941583 -0.04965714
-0.11295066 -0.045471158 -0.06462374 -0.06793973 -0.09777139 -0.011563332 -0.017551068 -0.057622384
-0.08314765 -0.08362606 -0.06143128 -0.07728071 0.0013852912 -0.01942372 0.01966614 -0.05499477
0.10411044 0.049453996 -0.012439805 -0.030761264 -0.048043404 0.0023159287 -0.10694785 -0.053054344
00000000: 6c7c 46bd 1df2 8ebd bb92 2cbd 282d 933c
00000010: 7bfc f0bd 567c 0bbe 5c13 8abd 559c c33d
00000020: 4be3 64bd 56e0 83bd ef4a 68bd 998e 413d
00000030: b068 8ebd d0cb d33b ee04 0cbc 2a13 bfbc
00000040: deda bdbc cf15 0c3d 59d7 2bbe 1dec 14bd
00000050: 40e3 f5bc 49c8 42be 07f8 b1bd d8b6 febd
00000060: eb1c 22bd d271 e9bd 671e e2bb ad05 dfbc
00000070: 0807 cdbd 051f 343d dccd 07bd 37c0 9fba
00000080: c3f9 17bc d3bc f83d 5200 b4bc d189 06bd
00000090: 1b00 c5bd 75a5 b6bd 2e75 9cbd 9145 483c
000000a0: cedf 3bbd 9616 8a3c 97b3 12bd 9509 86bd
000000b0: 1c22 d4bd c4b4 ffbb a8cb e43c 77b6 05bc
000000c0: f437 6cbd 567e 303d d298 483b 544c 83bd
000000d0: 28eb 64bd a6d6 83bc ccb7 463c 11e1 ecbc
000000e0: e4d7 eebd 58f2 9aba e50c 343c 4db6 cdbd
000000f0: 10b9 07be 2c79 cdbd 1776 683c 2eca 77bd
00000100: 3f44 8ebd 9be9 a0bd 4a3c b33c f3b5 1b3d
00000110: b2c7 96bd c32f 0ebd f2a5 72bd 59aa 27be
00000120: 2abd 5cbd c03c 81bd 38fe f8bd 27fd f4bd
00000130: a704 fdbc ea86 debc 8c1f 0d3d c143 f7bc
00000140: c0a3 2bbd 7cab 84b9 501d 4cbd 380c ad3b
00000150: f71e 91bd 01f4 dd3d e3e5 a9bb a368 4a3b
00000160: 154e fc3c 4635 6abd f914 d8bc 427c 54bd
00000170: 5806 8dbd 0a51 d2bd 6fda 53bc aac9 e6bd
00000180: 8660 1eba f41a 42be dafb 7f3d b5c6 5ebd
00000190: a09c 2cbd 9182 ffbc 98b4 dcbc 4965 4bbd
000001a0: ad52 e7bd f73f 3abd 7459 84bd fc23 8bbd
000001b0: 5e3c c8bd 2174 3dbc 42c7 8fbc 7305 6cbd
000001c0: 5149 aabd 2444 abbd 5e9f 7bbd 5945 9ebd
000001d0: a992 b53a 7e1e 9fbc e31a a13c 3242 61bd
000001e0: db37 d53d 4690 4a3d 53d0 4bbc 0cff fbbc
000001f0: 29c9 44bd d6c6 173b 7907 dbbd 834f 59bd

backbone.11.weight f4 [128, 16, 3, 3]
-0.025935935 0.009007261 0.17797165 0.16903423 0.12243382 -0.06134345 -0.12365767 -0.061759103
0.14513697 -0.040044367 -0.009801934 -0.018608158 -0.15291308 -0.028894244 -0.085332006 -0.01009219
-0.27562723 0.06376438 0.05825553 -0.20225276 -0.027811486 0.07021889 0.018446174 0.044250265
0.21708176 -9.9121935e-05 0.042374335 0.23441525 -0.007244055 -0.30427524 0.0036613035 0.08013921
0.09116721 0.19934095 -0.09127814 0.033570334 0.083229706 0.0863202 0.043204468 -0.13327852
0.050377887 -0.08134863 0.06866842 0.0041638846 -0.06748068 0.21856828 0.00925518 -0.07331305
-0.04583318 -0.08128251 -0.052854374 -0.18598467 -0.10167149 0.0015494281 0.0699737 0.037395682
-0.008668574 0.08126377 0.08766677 0.06475694 -0.0034069463 -0.011681412 0.02564132 0.12249456
0.009163134 -0.037270408 0.043925997 -0.0022248488 0.04943912 -0.06691606 -0.17845437 -0.083504304
0.19444565 0.26215276 -0.0137141645 0.17189392 0.016982358 -0.18555713 -0.31066176 -0.09766018
-0.29516658 -0.054512892 -0.085328914 -0.21758014 -0.08037897 0.03395214 -0.00833215 0.061226662
-0.032932896 0.1103393 -0.056839775 -0.022421587 -0.3370809 0.015053643 -0.06672374 -0.075124435
-0.12189293 0.018501787 -0.13742316 0.23857562 0.11457449 -0.24825077 -0.08125436 0.14053175
-0.08179977 -0.085153885 -0.16026738 -0.22626248 -0.00049360027 -0.10777472 -0.11528595 0.04237748
-0.11984858 -0.083279654 -0.11975339 -0.13832368 0.021631414 0.07006183 0.17005359 0.09720473
-0.10861537 -0.123381905 0.07433296 0.19043927 -0.04735478 -0.11130369 0.04121161 -0.012095808
-0.05347877 0.013351025 -0.04969544 -0.11982674 -0.16709489 -0.14172225 0.1519312 -0.12140353
0.14236774 0.06845696 0.13918492 0.022163697 -0.010761399 0.102708206 0.18208891 -0.1960797
-0.05943731 -0.20080005 0.017100206 -0.05552791 -0.011522068 -0.054659434 0.028360317 0.19282606
0.011556313 -0.03280183 0.21094532 -0.05680739 -0.12773176 -0.24283694 -0.06342863 -0.20699432
-0.06411666 -0.116803646 -0.010273444 0.1552718 -0.058712915 0.09085846 0.30076692 0.022609638
0.12130949 -0.23512843 -0.2148265 0.0026357 0.25744522 -0.037778635 -0.0015376189 0.06059997
0.0466278 -0.060188923 -0.13518354 -0.2009039 0.009484997 -0.14359567 -0.0797999 -0.11155278
-0.07272178 -0.036385976 0.06393638 -0.17303033 -0.030474098 0.22805038 0.08874357 -0.022537803
-0.06731574 0.051168438 0.0026281043 -0.08543071 -0.072069585 -0.068236195 -0.16266236 0.05195121
0.011564148 -0.20737527 0.17002603 0.09979195 -0.08282948 0.00037115204 -0.032393023 -0.14022598
-0.21580032 0.03579492 0.030376285 0.14269434 -0.09611346 0.019540697 0.00030557203 0.15003026
-0.46818316 0.0053778393 -0.10283404 -0.033830255 0.03525286 0.07602136 -0.2243531 -0.025635403
-0.007712399 -0.119005926 -0.04895831 0.07464036 -0.17609678 -0.08135932 0.017438993 0.084440954
-0.06776813 -0.09699599 0.038223345 0.21067743 0.05003161 -0.04012685 -0.22264615 0.038166262
-0.12307573 -0.1857922 -0.15408666 0.16089475 0.36918694 -0.12374989 0.16544381 -0.010119693
-0.32736397 -0.31332904 -0.29294282 -0.12745129 0.17338428 0.29070544 -0.16039959 0.13705449
00000000: 9977 d4bc 3193 133c 333e 363e 4f17 2d3e
00000010: 95be fa3d 4543 7bbd 3c40 fdbd 1df7 7cbd
00000020: c99e 143e 9005 24bd 4a98 20bc 2370 98bc
00000030: 3f95 1cbe 9fb3 ecbc 8cc2 aebd b659 25bc
00000040: 031f 8dbe e696 823d 5a9d 6e3d 591b 4fbe
00000050: ead4 e3bc ecce 8f3d 6e1c 973c c43f 353d
00000060: ae4a 5e3e afdf cfb8 b690 2d3d 8d0a 703e
00000070: 8a5f edbb f7c9 9bbe 7bf2 6f3b 0720 a43d
00000080: e0b5 ba3d 0920 4c3e 09f0 babd 0c81 093d
00000090: 5674 aa3d a5c8 b03d 2bf7 303d 2a7a 08be
000000a0: 0b59 4e3d 1c9a a6bd 07a2 8c3d 3271 883b
000000b0: 5033 8abd 5dd0 5f3e 0aa3 173c 2725 96bd
000000c0: 93bb 3bbd 7277 a6bd d47d 58bd c472 3ebe
000000d0: 2439 d0bd 2e16 cb3a 5f4e 8f3d 372c 193d
000000e0: a206 0ebc 9f6d a63d a38a b33d 499f 843d
000000f0: 1347 5fbb 6563 3fbc bf0d d23c 6ede fa3d
00000100: f820 163c dba8 18bd bfeb 333d c5ce 11bb
00000110: ad80 4a3d 4a0b 89bd bebc 36be 4e04 abbd
00000120: c31c 473e e338 863e 60b1 60bc f604 303e
00000130: 961e 8b3c b002 3ebe 0f0f 9fbe 0f02 c8bd
00000140: 1320 97be e948 5fbd edc0 aebd 54cd 5ebe
00000150: bb9d a4bd 6611 0b3d 9283 08bc cfc8 7a3d
00000160: a5e4 06bd 92f9 e13d d3d0 68bd 7aad b7bc
00000170: de95 acbe 8ea3 763c 75a6 88bd d7da 99bd
00000180: 00a3 f9bd 0f91 973c a8b8 0cbe 2b4d 743e
00000190: 08a6 ea3d 7335 7ebe b068 a6bd 8ee7 0f3e
000001a0: a386 a7bd 2965 aebd 221d 24be 5ab1 67be
000001b0: f464 01ba feb8 dcbd 0a1b ecbd 0294 2d3d
000001c0: 2c73 f5bd 868e aabd 4441 f5bd b9a4 0dbe
000001d0: 5d34 b13c 947c 8f3d 8722 2e3e 4613 c73d
000001e0: bc71 debd a7af fcbd e13b 983d 8302 433e
000001f0: 16f7 41bd 30f3 e3bd 81cd 283d 7f2d 46bc
00000200: 8e0c 5bbd 42be 5a3c 728d 4bbd b967 f5bd
00000210: ec1a 2bbe a31f 11be da93 1b3e 6aa2 f8bd
00000220: d9c8 113e 2a33 8c3d 7e86 0e3e a490 b53c
00000230: 9450 30bc ae58 d23d 8475 3a3e 1ec9 48be
00000240: 8974 73bd 879e 4dbe bb15 8c3c 3c71 63bd
00000250: 0ec7 3cbc 92e2 5fbd e553 e83c 3274 453e
00000260: b156 3d3c 365b 06bd 0d02 583e deae 68bd
00000270: 1dcc 02be 3faa 78be dfe6 81bd 52f6 53be
00000280: 984f 83bd c036 efbd f251 28bc 92ff 1e3e
00000290: f47c 70bd 0014 ba3d 1ffe 993e d937 b93c
000002a0: 1c71 f83d 82c5 70be 7afb 5bbe b5bb 2c3b
000002b0: dccf 833e c5bd 1abd ee89 c9ba ad37 783d
000002c0: cbfc 3e3d a988 76bd 8e6d 0abe c1b9 4dbe
000002d0: f666 1b3c be0a 13be 216e a3bd c975 e4bd
000002e0: 28ef 94bd 7609 15bd 14f1 823d dd2e 31be
000002f0: d1a4 f9bc 0a86 693e 30bf b53d 33a1 b8bc
00000300: d6dc 89bd ff95 513d 463c 2c3b 4cf6 aebd
00000310: 3899 93bd 6bbf 8bbd f690 26be cbca 543d
00000320: 8d77 3d3c 2f5a 54be 4e1b 2e3e b95f cc3d
00000330: 81a2 a9bd 2f97 c239 8cae 04bd 6697 0fbe
00000340: c2fa 5cbe b29d 123d b0d7 f83c 771e 123e
00000350: 22d7 c4bd d013 a03c 2f35 a039 88a1 193e
00000360: b4b5 efbe 9638 b03b a79a d2bd 9891 0abd
00000370: 4e65 103d 16b1 9b3d d2bc 65be 5601 d2bc
00000380: 4bb8 fcbb 61b9 f3bd 8288 48bd 0cdd 983d
00000390: b752 34be b79f a6bd 38dc 8e3c 61ef ac3d
000003a0: 04ca 8abd d5a5 c6bd 1590 1c3d d3bb 573e
000003b0: f2ed 4c3d 0d5c 24bd 5afd 63be 3a54 1c3d
000003c0: 210f fcbd 4f40 3ebe e5c8 1dbe 98c1 243e
000003d0: 1206 bd3e 9570 fdbd 1a6a 293e 12cd 25bc
000003e0: 409c a7be aa6c a0be 9afc 95be 9782 02be
000003f0: a68b 313e 58d7 943e ca3f 24be 0358 0c3e

backbone.15.bias f4 [256]
0.001368055 -0.014598269 -0.073216535 0.010450203 -0.0026581069 -0.013234691 -0.015183055 0.0051135845
-0.019971384 0.09270708 0.054335423 -0.06494607 -0.040253017 -0.013368515 0.02799199 -0.017688708
0.13679363 0.02055029 -0.061562173 0.08965903 -0.006281188 -0.111501075 -0.14122923 0.04662415
-0.0038253723 0.030214503 0.051204868 -0.014281396 -0.056382988 -0.026731765 0.0030650524 -0.0786658
0.17065884 0.020597827 -0.018063594 -0.041569263 0.031316873 -0.0497768 0.052961316 0.00070798694
-0.06334207 0.058881834 -0.04966747 0.008746374 0.07869971 -0.0059565175 0.015720395 -0.01691735
0.025061896 -0.09118102 0.08235182 0.08320976 -0.058086943 0.065330684 0.076395705 0.09819114
0.050204948 0.092071004 -0.015771003 -0.012232664 0.054835096 0.04033241 0.029405124 -0.08605014
-0.02222124 -0.053907055 -0.068225145 0.015725056 0.0037408983 -0.054934673 0.033913452 -0.018197501
-0.045703273 -0.048612915 0.042380664 -0.03367162 -0.092769355 0.042884048 -0.043607622 -0.017128708
-0.024847772 0.0777751 -0.062158175 0.030703574 0.15029064 -0.03402999 0.037786204 0.09067517
0.06758054 0.0052782954 0.08783483 0.038658924 0.06914905 0.037518658 0.030939005 0.021818012
0.040262192 -0.047456216 -0.0017969725 -0.054552477 -0.0066370713 0.009738457 -0.04953645 -0.016751848
-0.002294798 -0.05560842 0.040681522 0.03586937 0.01820724 -0.01580599 -0.10372206 -0.02572581
0.12980698 0.06554233 -0.010650479 0.0069017503 0.02674939 0.0020713003 0.019948164 -0.062102858
-0.072322555 -0.01223878 0.06861314 -0.02831543 0.017960183 0.03707032 0.04776065 0.058466066
-0.039525438 -0.030266285 0.0021176378 -0.07636874 -0.009827009 -0.05904576 -0.05026913 -0.04661472
-0.11264097 0.09285314 -0.030948607 0.009021493 -0.026259983 0.033979185 -0.028974187 0.035572305
-0.04759766 -0.050633747 0.08488193 0.038378518 -0.014119467 0.04563508 -0.0097078625 -0.017439056
0.004424544 -0.047385998 0.02796698 0.003773906 -0.0055186152 0.0065315887 0.1149533 0.010978069
-0.075092494 0.013698497 0.06361053 0.027472505 -0.041721746 -0.08482498 -0.02875644 -0.05221271
0.010675752 0.013381067 0.042796127 0.045436177 0.00899584 -0.0047038374 0.062338687 0.015698113
0.069649994 0.052126717 0.15016961 0.044431914 0.041990913 0.05699315 0.015273136 0.036466014
-0.0065725106 0.0007040725 -0.037862524 0.007428891 -0.0042732763 -0.015370396 -0.03247171 -0.011244681
-0.06201536 -0.0520585 0.079062656 -0.018258955 0.050934147 0.014667415 -0.06915193 -0.10084692
0.11860445 -0.05527689 -0.08034713 0.0049250075 -0.07395441 0.045243647 0.12855612 0.062272806
-0.009791093 0.005721544 0.0070380056 -0.02376518 -0.006932302 -0.0026178968 -0.061639417 -0.027719118
0.0065057664 -0.06928186 0.034231145 0.11090618 0.097888336 0.014886849 0.016024819 0.0074861227
-0.057272702 -0.04493137 -0.078669846 -0.010178157 0.08306033 0.09596192 -0.07607659 -0.07900542
0.06560383 -0.056713752 0.00041871268 0.064777434 0.0032947578 0.053760618 0.011860491 0.05022008
0.08599306 0.10585818 0.033960126 0.0009546227 -0.08511109 0.047627777 -0.05633372 -0.025875352
0.0471124 -0.021777911 -0.037548866 9.382233e-05 0.005631617 -0.008745802 0.14053787 0.028676579
00000000: 4f50 b33a 942d 6fbc 8df2 95bd 5437 2b3c
00000010: a233 2ebb 51d6 58bc 59c2 78bc db8f a73b
00000020: 079b a3bc 36dd bd3d d28e 5e3d 7202 85bd
00000030: 59e0 24bd 9e07 5bbc 754f e53c e9e7 90bc
00000040: a113 0c3e 1559 a83c 9e28 7cbd 279f b73d
00000050: 6dd2 cdbb ad5a e4bd 659e 10be f7f8 3e3d
00000060: 19b3 7abb 6884 f73c 32bc 513d 84fc 69bc
00000070: d9f1 66bd 93fc dabc 0cdf 483b 891b a1bd
00000080: 31c1 2e3e c6bc a83c 1afa 93bc 8844 2abd
00000090: 1f46 003d c2e2 4bbd f7ed 583d 3398 393a
000000a0: 7db9 81bd 142e 713d 1e70 4bbd f44c 0f3c
000000b0: 502d a13d e42e c3bb 0fc8 803c 4196 8abc
000000c0: 9b4e cd3c 1dbd babd 12a8 a83d e169 aa3d
000000d0: 93ec 6dbd 18cc 853d 5a75 9c3d 7018 c93d
000000e0: b4a3 4d3d b98f bc3d 3132 81bc 836b 48bc
000000f0: c49a 603d 9933 253d 04e3 f03c 0e3b b0bd
00000100: 5109 b6bc a5cd 5cbd a0b9 8bbd d5d1 803c
00000110: dc29 753b 2e03 61bd d5e8 0a3d ed12 95bc
00000120: 5b33 3bbd 561e 47bd 5997 2d3d 41eb 09bd
00000130: dcfd bdbd 2fa7 2f3d e89d 32bd 8151 8cbc
00000140: 8e8d cbbc 8d48 9f3d 9299 7ebd 1086 fb3c
00000150: cae5 193e 0863 0bbd b5c5 1a3d e7b3 b93d
00000160: ab67 8a3d 8df5 ac3b bfe2 b33d d258 1e3d
00000170: 049e 8d3d 2aad 193d cc73 fd3c b0bb b23c
00000180: f8e9 243d 7361 42bd 6488 ebba 6b72 5fbd
00000190: ca7b d9bb 0d8e 1f3c bce6 4abd 2c3b 89bc
000001a0: 5264 16bb a8c5 63bd aba1 263d c3eb 123d
000001b0: 5a27 953c 907b 81bc 3b6c d4bd efbe d2bc
000001c0: 1fec 043e 0f3b 863d 597f 2ebc 1428 e23b
000001d0: 8921 db3c a7be 073b 556a a33c 915f 7ebd
000001e0: d91d 94bd 2a85 48bc 0c85 8c3d c3f5 e7bc
000001f0: 3c21 933c 0cd7 173d aca0 433d 1d7a 6f3d
00000200: 6de5 21bd 00f1 f7bc 11c8 0a3b 3767 9cbd
00000210: 7701 21bc f8d9 71bd 01e7 4dbd 14ef 3ebd
00000220: 4fb0 e6bd c929 be3d ef87 fdbc e2ce 133c
00000230: 2d1f d7bc c22d 0b3d 465b edbc 44b4 113d
00000240: c4f5 42bd 5565 4fbd 94d6 ad3d cb32 1d3d
00000250: 5655 67bc daeb 3a3d ba0d 1fbc 5adc 8ebc
00000260: c4fb 903b d217 42bd 021b e53c a353 773b
00000270: 80d5 b4bb f006 d63b a36c eb3d 5cdd 333c
00000280: 18ca 99bd a96f 603c 3d46 823d 050e e13c
00000290: 6ce4 2abd b8b8 adbd a092 ebbc ffdc 55bd
000002a0: 59e9 2e3c 433c 5b3c fe4a 2f3d 491b 3a3d
000002b0: 4a63 133c a622 9abb da56 7f3d 5499 803c
000002c0: a8a4 8e3d d382 553d 10c6 193e 3dfe 353d
000002d0: aafe 2b3d a671 693d 2d3c 7a3c 635d 153d
000002e0: 375e d7bb 8191 383a bc15 1bbd 0e6e f33b
000002f0: d706 8cbb 1dd4 7bbc 0e01 05bd 9c3b 38bc
00000300: d103 7ebd 4b3b 55bd 9aeb a13d ce93 95bc
00000310: 53a0 503d 994f 703c 879f 8dbd d488 cebd
00000320: e4e6 f23d 056a 62bd 098d a4bd f561 a13b
00000330: 6975 97bd 6751 393d 37a4 033e c511 7f3d
00000340: d26a 20bc ca7b bb3b 129f e63b 32af c2bc
00000350: 5d28 e3bb 0591 2bbb 9d79 7cbd 3413 e3bc
00000360: 532e d53b a6e3 8dbd f535 0c3d c822 e33d
00000370: ae79 c83d f8e7 733c 7b46 833c 264e f53b
00000380: c896 6abd f509 38bd a81d a1bd 49c2 26bc
00000390: 891b aa3d af87 c43d 0bce 9bbd 98cd a1bd
000003a0: 4d5b 863d ae4c 68bd aa86 db39 08aa 843d
000003b0: ddec 573b 1834 5c3d 8152 423c 92b3 4d3d
000003c0: 211d b03d 2ccc d83d c619 0b3d a53f 7a3a
000003d0: b94e aebd 5815 433d 30be 66bd 8cf8 d3bc
000003e0: eff8 403d 9767 b2bc d7cc 19bd 7bc2 c438
000003f0: 6d89 b83b 8d4a 0fbc 29e9 0f3e 25eb ea3c

backbone.15.weight f4 [256, 128]
-0.07053451 0.12420913 0.11397771 -0.018942773 0.1832818 0.02173719 -0.03747261 0.02985726
-0.01309136 -0.063491665 -0.19758506 0.09045434 0.0013053619 0.06709308 -0.07012744 -0.22052747
-0.03944833 0.0024283389 0.041591313 -0.04332176 -0.18600348 -0.084470674 -0.0038039146 -0.056273848
-0.21972205 -0.07243596 -0.015414345 -0.08030472 -0.07192218 0.06263693 -0.14581837 -0.29739326
-0.0680766 -0.111614674 -0.19819663 0.20642808 -0.0041410797 -0.053778317 -0.03272688 0.1432936
-0.11618491 0.042575844 0.007703202 -0.105912186 -0.16008107 0.06428052 -0.009941242 0.16396995
0.04846361 -0.14325719 0.1043839 -0.11046016 -0.1949527 -0.117776684 -0.07789894 0.029263161
-0.08822572 0.020920154 0.029023243 -0.055882074 -0.16874176 0.07688733 -0.17552775 -0.113896236
0.23384377 0.06775696 0.09050054 0.07949649 0.014776414 0.18056215 -0.06875415 0.03704147
-0.05396826 0.16128285 0.12457387 -0.17462692 0.019780476 0.08695642 -0.19067174 0.09433923
-0.06284524 -0.011399319 -0.090410106 -0.1166733 -0.14855435 -0.12682825 0.0014630832 0.18144713
-0.12004315 0.02366283 -0.08055158 -0.15456697 0.022720763 -0.2826814 0.0015580037 -0.04508694
0.07029737 0.013829915 0.21435568 0.009355098 0.10356124 -0.11900866 0.054285463 0.006190773
-0.013533929 -0.08108465 0.14668813 0.14579317 0.17951696 -0.015000558 0.043044366 -0.026306506
-0.004839291 -0.1848121 0.037486237 -0.08109184 -0.20978203 0.03271755 -0.15167792 -0.057467878
0.10063169 0.053815022 -0.018256675 -0.07877245 0.03266738 -0.13210785 -0.08029446 0.053035725
-0.15355168 0.27399373 0.07359819 -0.14214088 0.23150577 0.021447564 -0.03794023 0.030438207
0.19010434 0.023935322 0.16662773 0.048112925 -0.0666881 0.060833264 -0.017133538 -0.034539618
-0.16357824 -0.10817863 0.12494796 0.2543745 -0.043562077 -0.07757841 -0.026560722 0.12495516
0.014537064 -0.028302466 -0.027208582 -0.09010482 -0.051287796 -0.08178911 -0.016415896 -0.05672741
-0.14785032 0.0015411569 0.104746275 -0.10676045 0.10100549 -0.13999425 -0.07089268 -0.043271907
-0.01505923 0.17512167 0.200881 0.033614375 0.010780685 0.038052466 -0.14733876 0.09825357
-0.20350507 -0.11788358 0.0030711612 0.29688814 0.005332136 -0.132192 0.054901987 -0.118358605
-0.05674301 0.020096926 -0.2165192 -0.0021585643 0.03385993 -0.034414884 0.07736139 0.19316524
0.038076732 0.09201688 -0.21428615 -0.0999776 0.13456254 -0.06327042 -0.05479339 0.15089984
-0.026164286 0.12088834 -0.043159466 0.17896043 0.07048908 -0.14035112 -0.16306567 -0.0003784062
-0.08424293 -0.058526378 0.09689041 -0.022445941 -0.044905506 -0.08632276 0.07539752 -0.3327934
0.100956574 -0.034600537 0.10355143 -0.096326426 -0.13999987 -0.29761264 -0.35852963 -0.13867004
-0.26651603 0.16735755 -0.105801396 -0.13899803 0.14318547 0.026084788 -0.15330479 -0.22686724
0.12575741 -0.06345133 -0.120700136 0.03701412 -0.025718441 -0.14446771 -0.11803343 0.20011377
-0.015887171 -0.03730513 0.027052982 -0.1861292 -0.05829461 0.10961921 -0.1017564 -0.008619485
0.09778927 -0.116711706 0.06718883 -0.023344275 -0.00812576 -0.16420156 -0.33189604 -0.019152582
00000000: 6674 90bd 5b61 fe3d 256d e93d e02d 9bbc
00000010: 39ae 3b3e 3112 b23c e17c 19bd 3697 f43c
00000020: 257d 56bc eb07 82bd bd53 4abe 2040 b93d
00000030: ad18 ab3a 1968 893d fa9e 8fbd f4d1 61be
00000040: 9294 21bd c424 1f3b a75b 2a3d 2872 31bd
00000050: b277 3ebe f6fe acbd 194b 79bb 687f 66bd
00000060: d1fe 60be 4e59 94bd 738c 7cbc cd76 a4bd
00000070: f04b 93bd ca47 803d 6951 15be ee43 98be
00000080: bf6b 8bbd 3c96 e4bd 0ff4 4abe e261 533e
00000090: e5b1 87bb a746 5cbd 9f0c 06bd 8fbb 123e
000000a0: 5bf2 edbd 0264 2e3d 246b fc3b 7de8 d8bd
000000b0: 4bec 23be 81a5 833d 97e0 22bc bde7 273e
000000c0: c781 463d 03b2 12be 3ac7 d53d f038 e2bd
000000d0: aea1 47be e734 f1bd 7b89 9fbd 4cb9 ef3c
000000e0: b0af b4bd be60 ab3c 27c2 ed3c 9ae4 64bd
000000f0: a4ca 2cbe 1b77 9d3d 8cbd 33be 6e42 e9bd
00000100: be74 6f3e 29c4 8a3d 5958 b93d 0ecf a23d
00000110: c618 723c 49e5 383e face 8cbd ccb8 173d
00000120: d20d 5dbd 5527 253e 9620 ff3d 66d1 32be
00000130: aa0a a23c 3516 b23d 743f 43be ed34 c13d
00000140: 01b5 80bd 36c4 3abc ef28 b9bd 69f2 eebd
00000150: a21e 18be 44df 01be edc4 bf3a 47cd 393e
00000160: 2fd9 f5bd 8dd8 c13c 3af8 a4bd ce46 1ebe
00000170: e520 ba3c 9ebb 90be ee35 cc3a 15ad 38bd
00000180: 11f8 8f3d de96 623c 0e80 5b3e 2046 193c
00000190: ea17 d43d d0ba f3bd 6f5a 5e3d f8db ca3b
000001a0: 6abd 5dbc b50f a6bd 6a35 163e ce4a 153e
000001b0: 4bd3 373e e7c4 75bc 4a4f 303d be80 d7bc
000001c0: ea92 9ebb 623f 3dbe 2b8b 193d 7b13 a6bd
000001d0: 1ad1 56be d602 063d 7551 1bbe 7063 6bbd
000001e0: fd17 ce3d 246d 5c3d 068f 95bc 7353 a1bd
000001f0: 3bce 053d 4847 07be 6c71 a4bd fd3b 593d
00000200: a73c 1dbe e848 8c3e a6ba 963d 618d 11be
00000210: d90f 6d3e cdb2 af3c 3767 1bbd 8c59 f93c
00000220: b6aa 423e 0214 c43c 76a0 2a3e 0f12 453d
00000230: c593 88bd 4d2c 793d a25b 8cbc 6a79 0dbd
00000240: 0e81 27be c28c ddbd b7e4 ff3d 603d 823e
00000250: 266e 32bd 6ee1 9ebd df95 d9bc 7ee8 ff3d
00000260: de2c 6e3c 93da e7bc 88e4 debc e088 b8bd
00000270: 2713 52bd 0d81 a7bd a17a 86bc 005b 68bd
00000280: 1366 17be a500 ca3a 3785 d63d 39a5 dabd
00000290: f7db ce3d a75a 0fbe 2e30 91bd e23d 31bd
000002a0: fdba 76bc 1853 333e c0b3 4d3e 3aaf 093d
000002b0: 78a1 303c e7dc 1b3d f9df 16be 2b39 c93d
000002c0: a263 50be f26c f1bd 8945 493b b901 983e
000002d0: 33b9 ae3b 575d 07be e8e0 603d ff65 f2bd
000002e0: 5c6b 68bd 4fa2 a43c 36b7 5dbe b376 0dbb
000002f0: b6b0 0a3d 9ff6 0cbd a66f 9e3d 1ccd 453e
00000300: 59f6 1b3d 5973 bc3d d46d 5bbe 0ec1 ccbd
00000310: c3ca 093e ec93 81bd 096f 60bd 7d85 1a3e
00000320: 7c56 d6bc 4e94 f73d fbc7 30bd 6741 373e
00000330: 945c 903d 34b8 0fbe b0fa 26be d264 c6b9
00000340: 8f87 acbd 5bb9 6fbd 7b6e c63d 8de0 b7bc
00000350: d6ee 37bd fdc9 b0bd 046a 9a3d e663 aabe
00000360: 52c2 ce3d 4bb9 0dbd c612 d43d ca46 c5bd
00000370: 205c 0fbe af60 98be 3291 b7be 85ff 0dbe
00000380: ca74 88be c75f 2b3e 67ae d8bd 8055 0ebe
00000390: 369f 123e c4af d53c eefb 1cbe e34f 68be
000003a0: 8dc6 003e c5f2 81bd a231 f7bd 1e9c 173d
000003b0: 7baf d2bc 58ef 13be 83bb f1bd a0ea 4c3e
000003c0: d025 82bc 44cd 18bd 379e dd3c a798 3ebe
000003d0: 54c6 6ebd 0980 e03d a965 d0bd be38 0dbc
000003e0: be45 c83d 8c06 efbd 4c9a 893d 7e3c bfbc
000003f0: e821 05bc 7424 28be 47ee a9be e0e5 9cbc

backbone.2.bias f4 [32]
-0.03514074 -0.0375275 0.0139756035 -0.07733471 -0.008471822 0.09863306 0.019165706 -0.0040941965
0.11766976 -0.06856007 0.110751204 0.032606218 -0.017414616 0.05912088 0.04872776 -0.07051282
0.03916638 0.048198517 0.04213249 -0.08087051 0.061555807 0.0060809646 -0.04156859 0.019143276
0.09925224 0.023318779 0.0017808196 0.01879842 -0.037216898 0.04010224 0.016701689 0.046209406
00000000: bdef 0fbd 70b6 19bd eef9 643c a961 9ebd
00000010: 66cd 0abc 2100 ca3d 6601 9d3c 9c28 86bb
00000020: d8fc f03d 3969 8cbd 87d1 e23d 198e 053d
00000030: 19a9 8ebc bc28 723d c296 473d 0669 90bd
00000040: ed6c 203d cf6b 453d 1e93 2c3d 709f a5bd
00000050: f121 7c3d d442 c73b d343 2abd 5cd2 9c3c
00000060: c244 cb3d 0607 bf3c 646a e93a 25ff 993c
00000070: bf70 18bd 3f42 243d fbd1 883c 1346 3d3d

backbone.2.weight f4 [32, 16, 3, 3]
-0.14704871 -0.0642338 -0.104901604 -0.1961074 -0.115552515 -0.052055907 -0.060246367 0.07320404
-0.21844262 0.022750089 -0.07888664 0.08513347 0.04296344 0.018414533 0.12307523 0.072013244
0.07178155 0.08926993 -0.001744323 0.11392218 0.020506648 -0.30497488 0.08421809 0.012396724
0.072845876 -0.0974667 0.014123184 0.03027743 -0.20267788 0.046078213 -0.019714244 -0.13732366
-0.07846915 0.030243909 -0.08517257 -0.06909786 -0.00584279 -0.14056869 -0.11363216 -0.44622853
-0.06929113 -0.10900721 -0.5159315 -0.365971 -0.2851373 0.07936658 -0.015439489 -0.02187975
0.00017384361 -0.1471825 0.10815503 0.14562611 0.08245365 0.058481757 0.14375187 0.117562085
-0.0024143993 0.1975135 0.1633883 0.22197334 0.09177588 -0.07011431 0.16686615 0.028520482
-0.14774668 -0.13710241 -0.23004207 -0.048700765 -0.1501692 0.010772424 -0.000707972 0.004017047
0.02422162 -0.16406393 -0.10237054 -0.18872029 -0.09640735 -0.04007721 -0.14942178 -0.011537902
0.12127489 0.065283254 -0.049938 0.10605881 -0.12659949 -0.0046703382 0.06462126 0.094818726
-0.11503715 0.12221237 0.01130105 0.090130776 0.09457442 0.13853477 0.19577086 0.04026393
-0.017360244 0.04957852 0.13818824 0.09170132 0.009659558 -0.15486234 -0.010075286 -0.047390416
-0.09364248 -0.053573288 -0.08177031 -0.09936127 -0.026933277 0.04172235 0.26409808 -0.020062303
-0.008529223 -0.16930309 -0.2524411 -0.22313176 -0.068283126 0.0702743 -0.062124703 -0.07115468
-0.07814545 0.049968436 -0.060789347 -0.12476836 -0.12899739 -0.06956918 0.057970077 0.1337635
-0.02472537 0.1858316 0.19950427 0.10592055 0.32158157 0.3374826 0.20505963 -0.021231972
-0.075377904 -0.100201026 0.26715478 -0.025262682 -0.05117827 -0.12431624 -0.02694986 -0.061543364
0.09462843 0.029520407 0.14415714 0.016491935 -0.06562549 -0.022390943 -0.015943296 -0.0995817
-0.01392445 0.031306084 -0.0645372 0.12377542 0.14674334 0.08010057 0.32300806 0.24853657
0.061899696 0.14716431 0.06844519 -0.1879594 0.05112646 0.11375609 -0.051257085 0.06553648
0.19775033 0.0826974 0.2601933 -0.018630985 -0.0040703057 0.11088605 0.024146888 -0.06453324
-0.11050001 0.14842048 -0.0018654263 -0.06461983 -0.088538006 -0.005207208 -0.2103438 -0.2802792
-0.27410206 -0.4444633 -0.114585936 -0.28447527 -0.37322333 -0.057658076 -0.02666748 -0.02745432
-0.019465266 -0.072957605 -0.0881715 -0.024211284 0.13685843 0.08027434 0.0043794964 0.24165304
0.072338425 0.22209814 0.071344554 -0.03496062 0.01509203 -0.155334 -0.0032136098 -0.2215719
-0.11403996 -0.031475108 -0.24557453 -0.2394207 -0.13085787 0.0053774156 -0.15891968 0.049964003
-0.0895485 0.08565506 0.0417548 0.055062607 -0.08964889 -0.056121636 -0.07908262 -0.23239107
-0.04913811 -0.07544305 -0.11503865 -0.0032351876 0.12665035 -0.040500477 -0.004599416 -0.010776425
0.0034464735 0.23127407 -0.0951577 -0.14012244 -0.11913596 0.073554516 0.105437785 -0.15262297
0.023395352 0.037953194 0.047008928 -0.20880367 -0.16954097 -0.080727555 -0.17522177 -0.20975296
0.019534657 -0.2761167 -0.2777018 -0.05705544 -0.14164172 0.24041955 -0.07081748 -0.17591217
00000000: f093 16be 038d 83bd a7d6 d6bd 61d0 48be
00000010: cca6 ecbd 9338 55bd e5c4 76bd 00ec 953d
00000020: 6caf 5fbe 655e ba3c 528f a1bd 755a ae3d
00000030: 6ffa 2f3d 13da 963c de0e fc3d ae7b 933d
00000040: 3502 933d 27d3 b63d c4a1 e4ba 0850 e93d
00000050: 8ffd a73c ab25 9cbe 897a ac3d a11b 4b3c
00000060: 3830 953d 9f9c c7bd ed64 673c 5f08 f83c
00000070: ca8a 4fbe 82bc 3c3d c47f a1bc 939e 0cbe
00000080: 6fb4 a0bd 13c2 f73c f56e aebd 2e83 8dbd
00000090: e074 bfbb 3df1 0fbe fab7 e8bd 1178 e4be
000000a0: 82e8 8dbd 2c3f dfbd 1614 04bf 8d60 bbbe
000000b0: 84fd 91be f28a a23d e9f5 7cbc 293d b3bc
000000c0: ca49 3639 02b7 16be 6280 dd3d 031f 153e
000000d0: 76dd a83d 918a 6f3d b133 133e 64c4 f03d
000000e0: e63a 1ebb fb40 4a3e 434f 273e fb4c 633e
000000f0: fef4 bb3d 1798 8fbd f6de 2a3e c9a3 e93c
00000100: e84a 17be 9364 0cbe 2690 6bbe 747a 47bd
00000110: f4c5 19be d27e 303c 3297 39ba 6fa1 833b
00000120: 6b6c c63c 6000 28be a5a7 d1bd e43f 41be
00000130: 3771 c5bd 0028 24bd 0602 19be 7809 3dbc
00000140: f85e f83d 3ab3 853d ca8b 4cbd 5d35 d93d
00000150: 4ca3 01be a309 99bb 2758 843d 5230 c23d
00000160: 9998 ebbd 7b4a fa3d 0a28 393c 7c96 b83d
00000170: 3cb0 c13d 0fdc 0d3e 2878 483e caeb 243d
00000180: 1237 8ebc d912 4b3d 3881 0d3e e7cd bb3d
00000190: 1f43 1e3c 3c94 1ebe d012 25bc 741c 42bd
000001a0: a1c7 bfbd aa6f 5bbd 3177 a7bd ec7d cbbd
000001b0: 2da3 dcbc 0ee5 2a3d dd37 873e b359 a4bc
000001c0: 27be 0bbc ca5d 2dbe f63f 81be a77c 64be
000001d0: 06d8 8bbd f9eb 8f3d 7976 7ebd 8bb9 91bd
000001e0: b90a a0bd b4ab 4c3d 40fe 78bd 8e86 ffbd
000001f0: e417 04be 497a 8ebd 0872 6d3d 4df9 083e
00000200: dc8c cabc a44a 3e3e d94a 4c3e e0ec d83d
00000210: 57a6 a43e 85ca ac3e 27fb 513e acee adbc
00000220: bb5f 9abd 3236 cdbd 83c8 883e aff3 cebc
00000230: 4ea0 51bd 8399 febd f4c5 dcbc e514 7cbd
00000240: 8dcc c13d c8d4 f13c ee9d 133e 181a 873c
00000250: a866 86bd 366d b7bc 849b 82bc 7ef1 cbbd
00000260: 6023 64bc cf3a 003d 142c 84bd f87d fd3d
00000270: e343 163e c50b a43d 5061 a53e 5f80 7e3e
00000280: 898a 7d3d 3eb2 163e fe2c 8c3d 6e78 40be
00000290: fb69 513d f4f8 e83d f3f2 51bd fd37 863d
000002a0: 107f 4a3e 415d a93d 0e38 853e 02a0 98bc
000002b0: 3360 85bb 3a18 e33d b2cf c53c 012a 84bd
000002c0: d44d e2bd 8afb 173e 5281 f4ba 6757 84bd
000002d0: 6a53 b5bd 3aa1 aabb 5d64 57be c180 8fbe
000002e0: 1b57 8cbe b290 e3be 08ac eabd bea6 91be
000002f0: 2117 bfbe e02a 6cbd c275 dabc e2e7 e0bc
00000300: 9f75 9fbc cc6a 95bd 4293 b4bd be56 c6bc
00000310: 9e24 0c3e e066 a43d e181 8f3b e573 773e
00000320: 2b26 943d b26d 633e 181d 923d de32 0fbd
00000330: 9044 773c e00f 1fbe 6d9b 52bb bfe3 62be
00000340: c88d e9bd 0bec 00bd e477 7bbe b32a 75be
00000350: 9bff 05be 0835 b03b d7bb 22be 0ea7 4c3d
00000360: 3465 b7bd ec6b af3d 1507 2b3d 5489 613d
00000370: d699 b7bd cddf 65bd 12f6 a1bd edf7 6dbe
00000380: 0b45 49bd e381 9abd 6299 ebbd 7105 54bb
00000390: a1b0 013e d4e3 25bd b3b6 96bb 9a8f 30bc
000003a0: 3bde 613b 1cd3 6c3e 0ae2 c2bd 427c 0fbe
000003b0: 8efd f3bd c0a3 963d c4ef d73d 3249 1cbe
000003c0: 9ca7 bf3c cf74 1b3d 6f8c 403d a1d0 55be
000003d0: 269c 2dbe 7d54 a5bd 566d 33be 7bc9 56be
000003e0: 2507 a03c 2b5f 8dbe ee2e 8ebe f7b2 69bd
000003f0: 870a 11be 8b30 763e c108 91bd 5222 34be

backbone.5.bias f4 [64]
-0.035390083 0.062472507 -0.05390192 -0.07982899 -0.05616598 -0.0878956 0.0072724777 -0.022639597
-0.029849907 0.0002884788 0.03582439 -0.006436832 0.0958676 -0.012147712 -0.0021395553 0.06039087
-0.045315683 0.018764598 -0.060185727 0.118172474 0.028471649 -0.007351904 -0.033663124 0.020835359
-0.07237976 -0.0276331 -0.04184715 0.048003003 -0.014254942 0.025995431 0.040300317 -0.03431074
-0.025183111 0.047197655 -0.031981654 -0.13677171 -0.062563784 0.013081429 -0.06798031 -0.006226787
0.042087298 -0.016975995 0.07556586 0.0045956085 0.012197081 -0.04962508 0.0073477444 0.039202448
0.040372744 0.050596938 0.062814705 -0.13341793 0.036221597 0.033327363 -0.08234905 -0.038126998
0.04210229 -0.076565795 -0.0498242 -0.0200967 0.05737905 -0.11621053 0.077982225 -0.11844588
00000000: 31f5 10bd 2ce3 7f3d 42c8 5cbd 627d a3bd
00000010: 4c0e 66bd 9c02 b4bd f74d ee3b ad76 b9bc
00000020: cb87 f4bc f83e 9739 98bc 123d 0fec d2bb
00000030: 3b56 c43d 3207 47bc c837 0cbb 6b5c 773d
00000040: f09c 39bd 37b8 993c 4f85 76bd 6904 f23d
00000050: 603d e93c 3ee8 f0bb 58e2 09bd eaae aa3c
00000060: d73b 94bd d05e e2bc eb67 2bbd cc9e 443d
00000070: 8f8d 69bc 5ff4 d43c f211 253d 6b89 0cbd
00000080: d04c cebc 5452 413d 32ff 02bd e20d 0cbe
00000090: 7121 80bd 7d53 563c 4339 8bbd 130a ccbb
000000a0: bb63 2c3d 3e11 8bbc 46c2 9a3d c296 963b
000000b0: 44d6 473c ab43 4bbd 59c5 f03b bf92 203d
000000c0: e45d 253d bc3e 4f3d ffa4 803d b69e 08be
000000d0: 195d 143d 4682 083d 9ea6 a8bd 0e2b 1cbd
000000e0: 7373 2c3d 87ce 9cbd 7614 4cbd d6a1 a4bc
000000f0: 4b06 6b3d c9ff edbd 25b5 9f3d c193 f2bd

backbone.5.weight f4 [64, 32, 3, 3]
-0.05016356 0.1424941 0.064118534 -0.08193739 0.08380234 0.070114456 -0.038043242 -0.0739581
-0.09473938 0.1432714 0.1940326 0.3058266 0.034136582 -0.09356938 0.22665267 -0.2637419
-0.13569112 -0.053080276 -0.13554211 -0.04881457 -0.031851925 -0.040819928 -0.11884349 -0.06865398
0.1355357 0.046509683 -0.020359986 0.029436618 0.060117908 -0.03560417 0.15976958 0.07567711
0.012711307 -0.076979384 0.06493216 0.19234271 0.05431237 0.12021954 -0.01787608 0.026295405
-0.03209604 0.07802602 -0.0013770303 -0.01919417 -0.07565699 -0.033857416 0.059559464 -0.019520856
-0.117060065 0.019990152 -0.07338672 -0.14059187 0.18376112 0.07558411 0.01494618 0.079739094
0.058656488 0.07059873 0.06777615 -0.048563767 0.001876522 0.13479492 0.08416064 -0.32816848
0.29303288 0.2734369 -0.26696992 -0.11536778 0.2288146 -0.25442395 -0.10408782 0.16293795
0.02757207 -0.12057686 -0.007568647 0.17237975 0.11018583 -0.071725145 0.08613357 -0.046868637
-0.0485418 0.07883302 -0.01490247 -0.16428281 -0.0923694 0.21569826 -0.034132153 -0.10802447
0.09576417 0.09702885 0.10264132 -0.13770635 -0.050622944 0.063831314 -0.091273054 0.023332963
-0.07544248 -0.026939763 -0.0892827 0.0931789 0.24088739 0.09981988 -0.045815 0.051697083
0.08660139 -0.34181675 -0.078644186 0.0007883313 -0.036249656 -0.22071682 -0.13443868 0.0063423347
-0.108935304 -0.06178384 -0.1141213 0.06381204 -0.021742204 -0.093433134 -0.25991017 -0.09802634
-0.07343218 -0.27604678 -0.36193436 0.03589078 -0.019801142 0.10766145 -0.16081056 -0.08517187
-0.016895967 0.06824061 -0.10170511 -0.032494742 0.12570176 -0.1047681 -0.09631677 0.46758154
-0.017439079 0.006640395 0.10472489 -0.10935612 0.0051616863 0.071622685 0.20788386 0.12671115
0.29320624 0.14107943 -0.032347947 0.0011921448 0.012018936 0.21899107 -0.038440388 0.038809463
0.11705536 0.0380843 -0.06658556 0.13081573 -0.029293368 0.06602648 0.18911944 -0.030807853
0.050157886 0.04208589 -0.08546925 0.084198944 -0.0021481174 -0.029609809 0.13863054 -0.069267325
-0.10247946 0.026418796 -0.13179518 -0.07118283 0.053636827 0.04090769 0.10200719 0.03579856
-0.07321682 0.12694846 0.18031614 -0.023902891 0.13680857 -0.024927918 0.2127127 0.105586044
-0.15345713 0.030582935 -0.055428706 -0.09962729 0.07601907 -0.12340591 -0.016396789 -0.13066919
-0.003956149 -0.12763391 0.013727094 0.10004843 -0.04909418 -0.12975189 -0.023213973 -0.12677361
-0.08767795 0.00583056 -0.06480341 -0.123783484 0.120945126 -0.20347795 0.018820114 0.019096706
0.11642644 0.10573246 0.05411687 0.03857152 -0.041062694 0.026108706 -0.028656129 -0.0146472
0.042971402 0.22126304 0.09171337 -0.2048882 -0.03042234 0.07404163 -0.12500761 -0.06663033
0.017824037 -0.0005066015 0.11283877 0.048242718 -0.054444727 -0.043712713 0.13144153 -0.0132844085
0.092931 0.22640127 -0.011747704 0.2002345 -0.17493506 -0.094175056 0.2207828 -0.034620725
-0.03638735 0.25906467 -0.11139129 0.062513396 -0.06283005 -0.043147843 -0.0074926196 0.0031315803
-0.025355713 0.011597913 0.08058363 -0.08053952 -0.08469996 0.15874948 -0.2540932 0.072490886
00000000: 4e78 4dbd f9e9 113e 9450 833d cace a7bd
00000010: 90a0 ab3d 2b98 8f3d 3bd3 1bbd 5877 97bd
00000020: b806 c2bd bdb5 123e 7bb0 463e 4e95 9c3e
00000030: cdd2 0b3d 4ea1 bfbd a317 683e 2e09 87be
00000040: 9df2 0abe b46a 59bd 8dcb 0abe c9f1 47bd
00000050: 2a77 02bd cc32 27bd 3764 f3bd 759a 8cbd
00000060: dfc9 0a3e f080 3e3d fcc9 a6bc 1025 f13c
00000070: 323e 763d aed5 11bd a39a 233e 9afc 9a3d
00000080: 1643 503c 5ea7 9dbd 27fb 843d 7df5 443e
00000090: a676 5e3d aa35 f63d db70 92bc 7669 d73c
000000a0: 2377 03bd 1bcc 9f3d 787d b4ba 183d 9dbc
000000b0: 0df2 9abd 13ae 0abd a0f4 733d 34ea 9fbc
000000c0: 30bd efbd 63c2 a33c c74b 96bd 51f7 0fbe
000000d0: e02b 3c3e d8cb 9a3d d3e0 743c 404e a33d
000000e0: c941 703d 1196 903d 39ce 8a3d cdea 46bd
000000f0: a1f5 f53a ae07 0a3e 6a5c ac3d b305 a8be
00000100: 6808 963e ecff 8b3e 48b0 88be f145 ecbd
00000110: 604e 6a3e db43 82be ff2b d5bd 35d9 263e
00000120: d2de e13c 00f1 f6bd 6a02 f8bb 5184 303e
00000130: 1ca9 e13d a2e4 92bd cc66 b03d 54f9 3fbd
00000140: c4d3 46bd 3573 a13d 7d29 74bc c139 28be
00000150: 2b2c bdbd 01e0 5c3e 28ce 0bbd ef3b ddbd
00000160: 0120 c43d 10b7 c63d 9d35 d23d e502 0dbe
00000170: 015a 4fbd feb9 823d 5eed babd c524 bf3c
00000180: 9681 9abd c7b0 dcbc d9d9 b6bd 94d4 be3d
00000190: 2fab 763e 5e6e cc3d 82a8 3bbd 52c0 533d
000001a0: 125c b13d 9b02 afbe 3410 a1bd 05a8 4e3a
000001b0: 857a 14bd 9703 62be 4baa 09be 5cd3 cf3b
000001c0: 7919 dfbd 0d11 7dbd 6eb8 e9bd e3af 823d
000001d0: b51c b2bc df59 bfbd f212 85be 09c2 c8bd
000001e0: 9c63 96bd 0156 8dbe 764f b9be 3602 133d
000001f0: 0136 a2bc 9b7d dc3d 86ab 24be 976e aebd
00000200: 6969 8abc bcc1 8b3d c54a d0bd 3519 05bd
00000210: f6b7 003e a890 d6bd ba41 c5bd d966 ef3e
00000220: 66dc 8ebc ac97 d93b 017a d63d 1af6 dfbd
00000230: 5d23 a93b eaae 923d 82df 543e 91c0 013e
00000240: 211f 963e 2077 103e 487f 04bd be41 9c3a
00000250: 12eb 443c 323f 603e ab73 1dbd acf6 1e3d
00000260: b8ba ef3d 48fe 1b3d 035e 88bd 8ff4 053e
00000270: a5f8 efbc e438 873d 87a8 413e c060 fcbc
00000280: 5b72 4d3d 4162 2c3d 810a afbd 7f70 ac3d
00000290: 6ec7 0cbb 4590 f2bc 2af5 0d3e 07dc 8dbd
000002a0: c0e0 d1bd 3b6c d83c 51f5 06be 4ec8 91bd
000002b0: 4ab2 5b3d d28e 273d 25e9 d03d 83a1 123d
000002c0: b3f2 95bd c7fe 013e cba4 383e ffcf c3bc
000002d0: 8c17 0c3e a235 ccbc 5cd1 593e 7f3d d83d
000002e0: de23 1dbe 1089 fa3c 3609 63bd 6509 ccbd
000002f0: e3af 9b3d 3dbc fcbd 8f52 86bc 25ce 05be
00000300: 95a2 81bb 77b2 02be 9be7 603c 31e6 cc3d
00000310: fb16 49bd aedd 04be 3b2b bebc f1d0 01be
00000320: 7f90 b3bd 480e bf3b a6b7 84bd 3282 fdbd
00000330: 14b2 f73d 865c 50be a42c 9a3c b270 9c3c
00000340: fc70 ee3d 438a d83d a7a9 5d3d 2cfd 1d3d
00000350: 5b31 28bd ede1 d53c 42c0 eabc cffa 6fbc
00000360: c802 303d c792 623e 38d4 bb3d 36ce 51be
00000370: 4538 f9bc 23a3 973d ff01 00be 7c75 88bd
00000380: b703 923c 73cd 04ba 0318 e73d 289a 453d
00000390: 6f01 5fbd 1a0c 33bd 9c98 063e d9a6 59bc
000003a0: 9c52 be3d bcd5 673e 7179 40bc 460a 4d3e
000003b0: 2d22 33be dade c0bd e314 623e 76ce 0dbd
000003c0: e70a 15bd 20a4 843e 1e21 e4bd 0607 803d
000003d0: 0bad 80bd cbbb 30bd a684 f5bb 333b 4d3b
000003e0: c9b6 cfbc 2c05 3e3c 0809 a53d e7f1 a4bd
000003f0: 2c77 adbd 398f 223e 8118 82be 1a76 943d
