checkpoints/q_net.safetensors (safetensors, 627456 bytes, 15 tensors)

advantage_head.0.bias f4 [5]
-0.089179195 0.018394966 -0.04622571 0.060290433 0.035266694
00000000: 95a3 b6bd 0ab1 963c 2c57 3dbd 1af3 763d
00000010: cf73 103d

advantage_head.0.weight f4 [5, 256]
0.011156894 0.028049883 -0.022154903 0.015544471 0.19126727 0.0002877671 -0.02132412 0.015355801
9.979441e-05 -0.02198448 0.03837745 0.016301759 0.08164965 0.275674 -0.014654472 -0.12256817
0.015183319 -0.0949314 -0.0070592277 0.022594204 0.07068298 -0.0070960354 0.0041779294 0.047526162
0.017267354 0.0040634237 0.057812795 0.09328864 0.0029784746 0.02856361 -0.010452529 0.023799157
0.030601207 0.06664107 0.019366682 0.053603563 0.012247006 0.012403709 0.05036101 0.05770937
-0.01991119 -0.016290016 -0.03244181 0.011608481 0.013676909 0.017973306 0.0375347 0.070640095
0.014910573 0.0064143306 -0.0030580487 -0.010963442 0.01616185 0.03351735 0.039763916 -0.15591262
0.13981389 -0.016548427 -0.030423459 -0.06769427 -0.062686875 -0.012333504 0.037137184 0.071583614
0.030014237 0.036724597 0.03725811 0.030010957 0.13725427 0.104622774 0.05998936 -0.03156749
-0.02318855 0.027045248 0.010053591 0.06181637 -0.019306649 -0.69192296 -0.014130921 -0.05298941
-0.03179142 0.046510316 0.036628563 -0.0014069643 0.06865992 0.04705734 0.004007062 0.32409167
-0.014279167 -0.02968078 0.03566187 0.06870043 0.023487676 0.07060722 0.021069866 0.016583845
0.02722161 -0.015642917 -0.006199052 -0.009928561 0.071082525 0.04928605 0.039691944 0.025041739
0.035618667 -0.02829627 -0.0040930733 0.033863023 -0.058616772 0.00441362 0.043531902 -0.007862045
0.036763545 0.024862332 0.004675123 0.006981625 0.052193888 0.011154135 0.012636145 0.0055188835
0.021327678 -0.016626664 -0.02621793 0.03597762 0.024800627 -0.037831064 0.009515525 0.049747888
0.030788926 0.06747595 0.03403149 0.1420643 0.33576852 0.012799331 -0.023096945 0.03374456
0.05698888 0.075504765 -0.08945467 0.06260634 0.1213693 0.041895017 0.047232077 0.054399557
-0.023532448 -0.010234087 0.06144572 0.23392352 0.012663389 0.016835265 -0.0018555883 -0.014422106
0.017900556 0.022240045 0.0062916097 0.05091724 -0.002304836 -0.10694692 -0.00999758 0.022829698
-0.06288489 0.063803 -0.0014465969 0.012763562 -0.008529911 -0.6089915 0.035580594 0.10451334
0.034642003 0.045507148 -0.003104738 0.019302316 0.004271937 -0.0006206119 0.02577549 0.061723985
0.033844527 0.02453689 -0.005761506 0.020299062 0.019631973 0.0008828126 0.062536396 0.046377685
-0.11673983 -0.0066040657 0.0878376 -0.016587188 0.07622913 0.13452846 0.022163153 0.0068744053
0.001075748 0.050725564 0.005964797 -0.044368006 0.008206913 0.011981384 0.16963199 -0.08615115
-0.023325687 0.055303104 0.0075521907 0.1166307 0.016949734 0.022611873 0.021905925 0.041198313
-0.023310212 0.01684514 -0.0005729496 0.23792492 0.023924954 0.05096477 -0.08147877 -0.0071810745
0.009792351 -0.0030561392 0.025608372 -0.059805088 0.04125874 -0.022434045 -0.03816452 0.06736693
0.047496673 0.00042909835 0.019697782 -0.15986723 0.089868374 -0.055075284 -0.052109998 0.22987922
0.4346134 -0.005403014 0.13611528 0.4306967 0.004976951 0.0054749907 0.0075219832 -0.0055867806
0.0055666203 0.45768943 0.05563312 0.013787767 -0.004746796 -0.21375 0.0073076566 -0.0019983058
-0.039375212 -0.060977258 -0.017667461 0.0024564082 0.00070182176 0.003953158 -0.025677584 0.0054636546
00000000: 68cb 363c dec8 e53c 337e b5bc 3dae 7e3c
00000010: 91db 433e 72df 9639 ecaf aebc e696 7b3c
00000020: b748 d138 cc18 b4bc ac31 1d3d 448b 853c
00000030: ef37 a73d 2425 8d3e 4f19 70bc 0505 fbbd
00000040: 75c3 783c 656b c2bd 1851 e7bb 7b17 b93c
00000050: 3dc2 903d dc85 e8bb 03e7 883b cbaa 423d
00000060: 4474 8d3c 7826 853b 1ccd 6c3d 1d0e bf3d
00000070: 8332 433b 3bfe e93c 1641 2bbc 73f6 c23c
00000080: 62af fa3c 1d7b 883d e0a6 9e3c 698f 5b3d
00000090: aba7 483c ed38 4b3c 5947 4e3d a960 6c3d
000000a0: cb1c a3bc a472 85bc b4e1 04bd 8031 3e3c
000000b0: 1d15 603c c13c 933c fcbd 193d c1ab 903d
000000c0: 7a4b 743c 4e2f d23b 8b69 48bb 02a0 33bc
000000d0: db65 843c 7d49 093d 7ddf 223d 8fa7 1fbe
000000e0: 5f2b 0f3e 9190 87bc 9e3a f9bc 4ba3 8abd
000000f0: fa61 80bd 7712 4abc 291d 183d 6e9a 923d
00000100: 6be0 f53c 886c 163d f69b 183d 8ad9 f53c
00000110: 628c 0c3e 7744 d63d 67b7 753d ea4c 01bd
00000120: eaf5 bdbc ff8d dd3c d1b7 243c 2933 7d3d
00000130: fa28 9ebc dd21 31bf 6185 67bc 6c0b 59bd
00000140: b837 02bd 9a81 3e3d d507 163d e369 b8ba
00000150: 929d 8c3d 33bf 403d ac4d 833b 58ef a53e
00000160: 2bf3 69bc 1b25 f3bc 2e12 123d d0b2 8c3d
00000170: 3a69 c03c 859a 903d b69a ac3c d8da 873c
00000180: dbff de3c 9325 80bc 6b21 cbbb 67ab 22bc
00000190: b793 913d 2be0 493d 0594 223d 5524 cd3c
000001a0: e1e4 113d 94cd e7bc 301f 86bb f4b3 0a3d
000001b0: 2418 70bd 21a0 903b 824e 323d cfcf 00bc
000001c0: 5f95 163d 17ac cb3c c631 993b 1ec6 e43b
000001d0: 42c9 553d d5bf 363c d507 4f3c c0d7 b43b
000001e0: 62b7 ae3c a434 88bc fcc6 d6bc 455d 133d
000001f0: af2a cb3c bff4 1abd 01e7 1b3c 71c4 4b3d
00000200: 0f39 fc3c d530 8a3d 9b64 0b3d 4e79 113e
00000210: dae9 ab3e 49b4 513c ce35 bdbc bc37 0a3d
00000220: 2c6d 693d 3ea2 9a3d 0334 b7bd c137 803d
00000230: 7890 f83d 1c9a 2b3d 6c76 413d 12d2 5e3d
00000240: 1fc7 c0bc dfac 27bc 82ae 7b3d a689 6f3e
00000250: 1a7a 4f3c 1cea 893c 3637 f3ba b24a 6cbc
00000260: 30a4 923c c130 b63c d929 ce3b 998e 503d
00000270: bb0c 17bb fd06 dbbd e4cc 23bc 5905 bb3c
00000280: cbc9 80bd 26ab 823d bd9b bdba 421e 513c
00000290: 0ac1 0bbc dee6 1bbf f5bc 113d 170b d63d
000002a0: c6e4 0d3d b465 3a3d dc78 4bbb e41f 9e3c
000002b0: 9bfb 8b3b 8fb0 22ba 1f27 d33c 4ad2 7c3d
000002c0: 8fa0 0a3d 9701 c93c 04cb bcbb 384a a63c
000002d0: 3bd3 a03c 8d6c 673a 1513 803d 87f6 3d3d
000002e0: 4b15 efbd eb66 d8bb 33e4 b33d dbe1 87bc
000002f0: 051e 9c3d d4c1 093e 808f b53c b142 e13b
00000300: 1d00 8d3a 9cc5 4f3d 5874 c33b 3abb 35bd
00000310: 4a76 063c 914d 443c 02b4 2d3e 0470 b0bd
00000320: 8315 bfbc 8285 623d 5e78 f73b 14dc ee3d
00000330: 2bda 8a3c 893c b93c 0e74 b33c 90bf 283d
00000340: 0ff5 bebc d2fe 893c ff31 16ba 97a2 733e
00000350: 44fe c33c 6fc0 503d 57de a6bd 384f ebbb
00000360: 1970 203c 8249 48bb a6c8 d13c 2ef6 74bd
00000370: edfe 283d 9ac7 b7bc 6652 1cbd acf7 893d
00000380: df8b 423d 9bf8 e039 3e5d a13c 3cb4 23be
00000390: e90c b83d 9f96 61bd 4b71 55bd 7565 6b3e
000003a0: a685 de3e c40b b1bb ce61 0b3e 4784 dc3e
000003b0: b115 a33b 8d67 b33b f87a f63b 5011 b7bb
000003c0: 3268 b63b 4556 ea3e 8edf 633d 16e6 613c
000003d0: 038b 9bbb 48e1 5abe 1175 ef3b 02f6 02bb
000003e0: e747 21bd 4ac3 79bd 5abb 90bc b1fb 203b
000003f0: 76fa 373a 7e89 813b cc59 d2bc 7508 b33b

backbone.0.bias f4 [16]
-0.020867055 -0.034035303 0.0017470913 0.0007303065 0.0771274 -0.024153162 -0.03377124 0.03093288
0.037390627 -0.035149015 0.0097454535 -0.014896134 0.0068607037 -0.029306153 0.055141956 -0.029630681
00000000: 63f1 aabc 9a68 0bbd a8fe e43a 0a72 3f3a
00000010: f8f4 9d3d dadc c5bc b653 0abd f366 fd3c
00000020: ea26 193d 6af8 0fbd 65ab 1f3c ea0e 74bc
00000030: c1cf e03b 7513 f0bc 88dc 613d 0bbc f2bc

backbone.0.weight f4 [16, 16, 5, 5]
0.029635653 0.04878918 0.0030658522 0.034289036 0.03500739 -0.04445935 0.049563322 -0.04060779
-0.12714979 0.08035441 0.070090815 0.08877071 -0.033050627 0.08369738 0.004811095 -0.040547248
-0.0007333475 -0.14869079 -0.02486016 0.08451809 0.09873897 0.1012176 0.034029916 -0.045140762
0.09511507 -0.0360195 -0.057773422 -0.053051442 -0.025304342 -0.18543445 -0.1534824 -0.057772636
-0.51897323 0.012001796 0.031898994 -0.084357955 0.058238745 -0.124493316 0.07610782 0.009830742
-0.1950736 -0.060173996 -0.001845575 -0.24850962 0.24522252 0.020789651 -0.050186936 0.018764198
0.069253586 0.033650152 0.0019813045 0.06963588 -0.0287984 -0.013126222 0.057958346 -0.0027070309
-0.01818257 -0.0668917 -0.15381196 0.046128966 -0.08734922 0.061890766 -0.04325755 0.0068706945
-0.014759981 -0.06329387 -0.25930765 -0.048645698 -0.22707082 -0.08150259 -0.011553445 0.024586031
-0.06302816 -0.057913873 -0.19989108 -0.07027079 -0.014532984 0.16460486 0.25087225 -0.08677804
-0.15030386 -0.07067767 0.26922613 0.20235717 0.15001674 0.13881673 0.243468 0.16392413
0.191622 0.06433199 0.3633863 0.006288757 0.21393898 -0.14616038 0.29913256 0.49380678
0.1885071 0.19047482 0.25258222 -0.061251044 -0.12346757 0.0103061795 0.05288615 -0.26269293
0.092341185 -0.10196339 -0.04764607 -0.2336458 -0.05898515 0.07468679 -0.10818445 -0.37374076
-0.33602718 -0.4817218 -0.06335662 -0.39086768 -0.5695285 -0.38491932 -0.13458909 -0.25119743
0.058275316 -0.03083772 0.027062291 -0.37702808 -0.16545174 -0.036784403 -0.08418215 0.06547382
-0.26133993 0.065617956 -0.19488071 -0.033675883 -0.28873295 -0.18829417 0.0023943395 -0.21035215
-0.16738269 -0.29738647 -0.48919085 -0.12932663 -0.3299937 -0.5672784 -0.5798114 -0.16947378
-0.271805 -0.088180944 -0.13321537 -0.10222108 -0.23575467 -0.17509268 -0.13969019 -0.05221945
0.08701421 -0.20844103 0.10409636 -0.06881468 0.035737462 -0.13567884 -0.10356318 -0.018585376
-0.008645199 0.04928397 -0.17497888 -0.35374153 -0.10871668 -0.11434214 -0.4422366 -0.51476735
-0.24696033 -0.19821846 -0.007366857 -0.063356966 -0.16936925 -0.115395576 -0.19064339 -0.16619897
-0.008564306 0.06707494 -0.23188534 0.12396847 -0.0749732 -0.10555648 -0.1728376 -0.13767445
0.059027027 -0.15089022 -0.06272997 -0.24624088 -0.39803454 -0.14379953 -0.382726 -0.6533589
-0.5520651 -0.25383782 -0.20804265 0.002484423 -0.107740186 -0.03555521 -0.29901916 -0.2368782
0.05770418 0.16886337 0.42453548 0.058532886 0.1332181 0.1662047 0.51818055 0.22206198
0.44440293 0.18215951 0.16690098 0.26869094 0.43122447 0.25150412 0.16552334 0.1211747
0.2604651 0.3147757 0.637792 0.40883163 0.027805723 0.10052665 0.28833434 0.2036213
-0.06877175 0.15577042 0.15875693 0.31380615 0.041074343 0.14218317 0.040781856 0.43278912
0.21416767 0.31205755 0.15554681 0.19116119 0.3522353 0.397905 0.30209145 0.245905
0.17680061 0.4728623 0.35063282 0.72567564 0.4315738 -0.008063476 0.051648576 0.33889154
0.345063 -0.092408456 0.031514257 0.12354849 0.2960704 0.012645326 0.09439866 0.0016901657
00000000: 78c6 f23c 2ad7 473d 77ec 483b a972 0c3d
00000010: e963 0f3d 021b 36bd e902 4b3d 5b54 26bd
00000020: 8e33 02be da90 a43d c68b 8f3d 6bcd b53d
00000030: 1860 07bd 8869 ab3d 64a6 9d3b df14 26bd
00000040: 1e3e 40ba 6642 18be 89a7 cbbc d217 ad3d
00000050: a837 ca3d 2c4b cf3d f462 0b3d 85e5 38bd
00000060: b1cb c23d 2f89 13bd d3a3 6cbd 784c 59bd
00000070: 0d4b cfbc 87e2 3dbe 7e2a 1dbe 00a3 6cbd
00000080: 6edb 04bf 2ea3 443c 85a8 023d ddc3 acbd
00000090: c08b 6e3d 5af6 febd 6bde 9b3d 1f11 213c
000000a0: 60c1 47be 0279 76bd 39e7 f1ba 4e79 7ebe
000000b0: 9d1b 7b3e 0f4f aa3c d190 4dbd 60b7 993c
000000c0: d3d4 8d3d bed4 093d c6d8 013b 429d 8e3d
000000d0: 9fea ebbc 5e0f 57bc bb65 6d3d 7168 31bb
000000e0: 9df3 94bc 84fe 88bd e280 1dbe baf1 3c3d
000000f0: 26e4 b2bd 2c81 7d3d d42e 31bd 9023 e13b
00000100: d9d3 71bc 37a0 81bd f9c3 84be b640 47bd
00000110: 4185 68be d4ea a6bd a94a 3dbc a568 c93c
00000120: e814 81bd 1937 6dbd 3fb0 4cbe 22ea 8fbd
00000130: c11b 6ebc 2d8e 283e 5472 803e afb8 b1bd
00000140: 41e9 19be 74bf 90bd 02d8 893e b836 4f3e
00000150: fd9d 193e f925 0e3e ad4f 793e badb 273e
00000160: 8f38 443e 7ec0 833d c50d ba3e eb11 ce3b
00000170: d212 5b3e 11ab 15be e727 993e 3ed4 fc3e
00000180: 0108 413e d50b 433e 7552 813e 60e2 7abd
00000190: 91dc fcbd 40db 283c 269f 583d b07f 86be
000001a0: 601d bd3d 2fd2 d0bd 8728 43bd d840 6fbe
000001b0: 6a9a 71bd 63f5 983d cf8f ddbd f35a bfbe
000001c0: c10b acbe 3da4 f6be 1ec1 81bd cf1f c8be
000001d0: 9fcc 11bf 2514 c5be b9d1 09be f39c 80be
000001e0: 19b2 6e3d 639f fcbc bdb1 dd3c d309 c1be
000001f0: 2e6c 29be 3eab 16bd b167 acbd 2317 863d
00000200: 59ce 85be b562 863d cf8e 47be b9ef 09bd
00000210: ced4 93be 30d0 40be 5aea 1c3b 8e66 57be
00000220: 5e66 2bbe 0a43 98be 3977 fabe 336e 04be
00000230: eff4 a8be 2839 11bf 856e 14bf 898a 2dbe
00000240: 062a 8bbe 3698 b4bd 9c69 08be 4959 d1bd
00000250: ac69 71be 7f4b 33be f20a 0fbe 10e4 55bd
00000260: 8234 b23d 9171 55be 7930 d53d b6ee 8cbd
00000270: 7261 123d 65ef 0abe ef18 d4bd 5c40 98bc
00000280: 98a4 0dbc fddd 493d aa2d 33be 9c1d b5be
00000290: daa6 debd 362c eabd d66c e2be cbc7 03bf
000002a0: 2be3 7cbe c8f9 4abe ad65 f1bb 4cc1 81bd
000002b0: 226f 2dbe 8454 ecbd 0538 43be 1030 2abe
000002c0: 4e51 0cbc 965e 893d 5a73 6dbe 2ee3 fd3d
000002d0: 8d8b 99bd ff2d d8bd 57fc 30be 88fa 0cbe
000002e0: 53c6 713d f782 1abe 9278 80bd 9226 7cbe
000002f0: 2fcb cbbe 2f40 13be aaf4 c3be 8742 27bf
00000300: 2354 0dbf 08f7 81be 2209 55be b4d1 223b
00000310: e3a6 dcbd 57a2 11bd 0a19 99be 3390 72be
00000320: 385b 6c3d 85ea 2c3e b75c d93e 2ec0 6f3d
00000330: 536a 083e 9131 2a3e 7ba7 043f 3764 633e
00000340: c888 e33e 0688 3a3e 17e8 2a3e dc91 893e
00000350: 74c9 dc3e 26c5 803e f37e 293e 712a f83d
00000360: ae5b 853e 482a a13e 5646 233f 6152 d13e
00000370: d4c8 e33c ebe0 cd3d 8fa0 933e 1a82 503e
00000380: 34d8 8cbd 4882 1f3e 2d91 223e 33ab a03e
00000390: 923d 283d 7798 113e e00a 273d 8996 dd3e
000003a0: c54e 5b3e 02c6 9f3e aa47 1f3e c2bf 433e
000003b0: 2f58 b43e 34ba cb3e bbab 9a3e 85ce 7b3e
000003c0: 380b 353e 021b f23e 2586 b33e e1c5 393f
000003d0: 3ef7 dc3e ab1c 04bc 758d 533d 3183 ad3e
000003e0: 19ac b03e a540 bdbd 1815 013d fe06 fd3d
000003f0: 8a96 973e 572e 4f3c 1654 c13d 8d88 dd3a

backbone.11.bias f4 [128]
-0.008636489 -0.17370322 -0.057026144 -0.012748485 -0.06999077 -0.10965627 -0.06470819 -0.15421976
-0.08274234 -0.0731601 -0.08306284 -0.16955772 0.09971675 -0.03533454 -0.061197914 -0.057581004
-0.11687856 -0.13441251 -0.08291205 0.008712731 -0.030526593 0.011617173 -0.14800033 -0.20837267
0.05274657 -0.054946158 -0.13299733 0.058272578 -0.07973049 -0.047512196 0.047887333 -0.107422076
-0.19615768 0.00015274908 -0.22482379 -0.17309079 -0.12344512 -0.19006157 -0.16957828 -0.04800967
-0.14016162 -0.014070946 0.022642786 -0.017852932 -0.0609739 -0.1460135 -0.2289804 0.06812057
-0.1690472 -0.16363548 -0.16187432 -0.03978353 -0.2430974 -0.027951583 -0.12363267 -0.09269979
-0.13142154 -0.18522574 -0.09446529 -0.09701718 -0.1730201 -0.21483696 -0.015260905 0.0051911185
-0.2656903 -0.10824623 -0.030414559 -0.10652523 -0.010689683 0.041229848 -0.056419797 -0.08450992
-0.024604248 -0.0124101695 -0.07517381 -0.27921242 -0.089502156 -0.066154376 -0.25588188 -0.16083291
-0.033491574 -0.009470844 -0.052295934 -0.08095289 -0.05815705 0.118250564 -0.0481016 -0.020139704
0.16405256 -0.08882447 -0.11253644 -0.09540951 -0.00047816185 -0.14298603 -0.116958514 -0.21264578
-0.053744216 0.012988791 -0.065256685 -0.03223621 0.03802006 -0.1236914 -0.063885204 -0.0156190675
-0.14954855 -0.049239367 -0.21776181 -0.12041894 -0.17204566 -0.21294068 -0.10485494 -0.066184826
-0.21161488 -0.18288042 -0.031858716 0.030494899 -0.048484772 -0.031425577 -0.114816554 -0.08607621
-0.03601926 0.088343345 0.008197129 -0.018314516 0.049233302 -0.0062266095 -0.12476777 -0.106779836
00000000: 0f80 0dbc 42df 31be 3f94 69bd 06df 50bc
00000010: 5257 8fbd 7793 e0bd ba85 84bd c9eb 1dbe
00000020: d174 a9bd f6d4 95bd da1c aabd 8aa0 2dbe
00000030: 4c38 cc3d f3ba 10bd aaaa 7abd 0fda 6bbd
00000040: 075e efbd 6fa3 09be cbcd a9bd d8bf 0e3c
00000050: e812 fabc f555 3e3c 668d 17be a55f 55be
00000060: ca0c 583d 390f 61bd 7430 08be 3aaf 6e3d
00000070: bd49 a3bd 269c 42bd 8225 443d 1b00 dcbd
00000080: 8fdd 48be 452b 2039 3538 66be b63e 31be
00000090: ccd0 fcbd 809f 42be eea5 2dbe caa5 44bd
000000a0: 8786 0fbe d389 66bc 5d7d b93c 5040 92bc
000000b0: c5bf 79bd 9084 15be d779 6abe cc82 8b3d
000000c0: b61a 2dbe 0f90 27be 62c2 25be 0ef4 22bd
000000d0: 86ee 78be b8fa e4bc 2033 fdbd 63d9 bdbd
000000e0: 5e93 06be d1ab 3dbe 0577 c1bd f1b0 c6bd
000000f0: 2e2c 31be 38fe 5bbe e008 7abc 421a aa3b
00000100: 8f08 88be 33b0 ddbd f427 f9bc e629 dabd
00000110: c823 2fbc a1e0 283d 7218 67bd 8913 adbd
00000120: d98e c9bc 0654 4bbc baf4 99bd eef4 8ebe
00000130: e84c b7bd f27b 87bd f302 83be 62b1 24be
00000140: 762e 09bd 992b 1bbc 4334 56bd a1ca a5bd
00000150: 1636 6ebd 5a2d f23d 2f06 45bd 05fc a4bc
00000160: 65fd 273e 9be9 b5bd 8179 e6bd 1066 c3bd
00000170: ccb1 fab9 ee6a 12be f287 efbd d1bf 59be
00000180: e522 5cbd f0ce 543c 4ca5 85bd 1e0a 04bd
00000190: ecba 1b3d eb51 fdbd 3fd6 82bd 1ee7 7fbc
000001a0: 4123 19be 38af 49bd f4fc 5ebe 359e f6bd
000001b0: bd2c 30be 1f0d 5abe 30be d6bd e98b 87bd
000001c0: 92b1 58be 0145 3bbe 497e 02bd 70d0 f93c
000001d0: f897 46bd 1bb8 00bd f124 ebbd b948 b0bd
000001e0: ee88 13bd 5bed b43d 404d 063c 5308 96bc
000001f0: dca8 493d 9608 ccbb 3f86 ffbd 63af dabd

backbone.11.weight f4 [128, 16, 3, 3]
-0.0067446735 0.003915848 0.006519978 -0.002305016 0.038187273 -0.052160002 -0.18508156 0.13389209
-0.15703785 -0.11032814 -0.064804085 0.012547971 -0.0058698817 0.13579771 -0.048085354 -0.062494364
-0.02608911 0.012062236 0.20173691 0.18045887 0.08673966 0.13105974 -0.008391192 0.16080095
0.050447144 0.055667073 -0.14471103 0.01210579 -0.079823226 0.01900098 0.013529046 0.060748406
-0.25017205 -0.040831756 0.06285269 -0.049019456 -0.021804547 -0.18830335 0.108474605 -0.0583009
-0.029282393 -0.18910564 -0.025484415 0.21218877 -0.1707006 -0.18324965 0.13124135 -0.05889676
0.06205096 0.10556154 -0.07377472 0.17087738 0.059819374 0.06762193 0.04669439 0.043451175
-0.13992745 -0.03586588 -0.03251262 0.020585073 -0.19148332 -0.086204045 -0.019727543 0.121960804
0.102933 -0.09590455 0.14017078 0.043406084 0.13903576 -0.09264409 -0.16381982 0.13652465
0.12877533 -0.043960594 0.10804594 -0.08859818 -0.2804679 -0.015174059 -0.014314713 -0.03674825
-0.17573354 -0.18649481 -0.008917426 -0.05378409 -0.11239569 -0.10511334 -0.17456307 -0.1631876
0.09965705 -0.0764745 0.045280512 0.042548623 -0.006477318 0.23284328 0.0756961 0.21148242
-0.023851246 0.17324476 0.13895394 -0.008206019 0.074248746 -0.053606644 0.004660849 0.090848744
-0.14827122 -0.11221672 0.1439972 0.30020848 -0.10171343 -0.052069105 -0.016999394 0.0774028
0.013688063 -0.03310902 -0.11767891 -0.026121546 -0.008610516 0.020320037 0.19277835 0.21628739
0.33361578 0.4526444 0.3550969 0.35526854 0.28554502 0.34688267 -0.032643598 -0.16764824
-0.16960771 -0.19651267 -0.045968585 0.19956516 -0.17799167 0.0012882848 -0.37145528 -0.05412851
-0.021932969 -0.0045016794 -0.03653143 -0.18779682 0.06284755 -0.1610304 0.04184589 0.01773633
0.12704244 -0.12195094 -0.023758745 0.024983346 0.050392725 -0.017018666 -0.070103064 0.07227172
0.029360453 -0.20191328 -0.09548129 0.18110132 0.062465783 -0.10154863 0.13863859 0.033732213
-0.08129884 -0.014195235 0.24334016 0.15664701 -0.25053236 -0.10498079 -0.07794307 -0.16994734
0.11041847 0.0691045 -0.20063584 -0.09443776 -0.12900381 -0.031897757 0.07547913 0.14352795
-0.15077679 -0.09324595 -0.101502925 0.041649897 0.08615385 0.07606816 0.0044526607 -0.019550754
0.08235119 0.04669293 -0.05667305 -0.10901219 0.107612014 -0.012462746 -0.048405375 0.076348126
-0.07026542 0.11596481 0.012292518 0.11286338 0.2806552 0.07309573 0.0026532519 0.010838301
0.02470421 -0.27614936 0.14717568 -0.121723644 -0.037182104 0.03921134 0.04621135 0.1557715
0.03550604 -0.29246753 -0.007751612 0.21427938 -0.009746267 0.24999511 0.105303615 0.18780483
-0.20795378 -0.09008847 -0.046132073 -0.08516543 0.14961007 -0.25172064 0.09788676 0.1359057
0.053430088 -0.14052922 -0.03102544 0.060593184 0.093253456 -0.028310953 -0.038053896 -0.09449893
-0.11153631 -0.01694931 0.18837917 0.08449675 -0.05744662 0.19674306 0.08740352 -0.34061024
0.18903416 0.18380287 -0.031721752 -0.15142772 -0.13974912 -0.100245185 0.055414524 0.15739755
-0.21329118 -0.0817746 -0.11765602 0.15309395 0.1947553 0.028720502 0.01725726 -0.12589037
00000000: 6c02 ddbb 8450 803b 8aa5 d53b c00f 17bb
00000010: 426a 1c3d baa5 55bd 0586 3dbe 021b 093e
00000020: 88ce 20be b8f3 e1bd 01b8 84bd 0196 4d3c
00000030: 2358 c0bb 8e0e 0b3e 26f5 44bd 17fa 7fbd
00000040: d4b8 d5bc afa0 453c 1f94 4e3e 36ca 383e
00000050: 90a4 b13d 8634 063e 367b 09bc 01a9 243e
00000060: aaa1 4e3d 2803 643d 212f 14be 5d57 463c
00000070: 5c7a a3bd f1a7 9b3c efa8 5d3c 52d3 783d
00000080: 8d16 80be 333f 27bd e9b8 803d a0c8 48bd
00000090: 739f b2bc 98d2 40be ef27 de3d edcc 6ebd
000000a0: a1e1 efbc e9a4 41be b1c4 d0bc 0348 593e
000000b0: 23cc 2ebe cca5 3bbe 2264 063e bb3d 71bd
000000c0: 2629 7e3d a630 d83d 3317 97bd 7bfa 2e3e
000000d0: 2905 753d 5e7d 8a3d 9e42 3f3d dcf9 313d
000000e0: 2449 0fbe 1ae8 12bd f42b 05bd 07a2 a83c
000000f0: 3414 44be bf8b b0bd a89b a1bc 96c6 f93d
00000100: 89ce d23d 9b69 c4bd ee88 0f3e 94ca 313d
00000110: 645f 0e3e 2fbc bdbd 62c0 27be 1ecd 0b3e
00000120: aedd 033e 0610 34bd 3147 dd3d f672 b5bd
00000130: 7d99 8fbe 9e9c 78bc 4288 6abc 5585 16bd
00000140: 7ef3 33be 7ff8 3ebe 651a 12bc b54c 5cbd
00000150: b62f e6bd aa45 d7bd a9c0 32be a61a 27be
00000160: ff18 cc3d aa9e 9cbd 0f78 393d 7747 2e3d
00000170: ae3f d4bb 786e 6e3e 8f06 9b3d d98e 583e
00000180: b063 c3bc 1367 313e f149 0e3e 8a72 06bc
00000190: ba0f 983d a492 5bbd 09ba 983b e80e ba3d
000001a0: 69d4 17be e1d1 e5bd 0174 133e edb4 993e
000001b0: 214f d0bd 6a46 55bd 5042 8bbc 5c85 9e3d
000001c0: e643 603c 539d 07bd a401 f1bd dafc d5bc
000001d0: 1f13 0dbc 3576 a63c b067 453e 717a 5d3e
000001e0: b0cf aa3e 02c1 e73e 43cf b53e c2e5 b53e
000001f0: f532 923e 9b9a b13e 4bb5 05bd fbab 2bbe
00000200: a5ad 2dbe 9e3a 49be 8e49 3cbd cf5a 4c3e
00000210: 7343 36be aadb a83a 632f bebe dbb5 5dbd
00000220: c5ac b3bc d382 93bb fba1 15bd cf4d 40be
00000230: 37b6 803d 27e5 24be 9966 2b3d c84b 913c
00000240: 6a17 023e 6ac1 f9bd b3a1 c2bc e0a9 cc3c
00000250: 9a68 4e3d bb6a 8bbc 3292 8fbd 3203 943d
00000260: 5585 f03c 5bc2 4ebe b28b c3bd a072 393e
00000270: 1fdc 7f3d baf8 cfbd 46f7 0d3e ca2a 0a3d
00000280: 0280 a6bd 2293 68bc 2a2e 793e 1368 203e
00000290: c745 80be 2b00 d7bd 9ea0 9fbd ad06 2ebe
000002a0: 1423 e23d a986 8d3d 7b73 4dbe 9668 c1bd
000002b0: 9319 04be 39a7 02bd cd94 9a3d fef8 123e
000002c0: 3b65 1abe bcf7 bebd c4e0 cfbd 1599 2a3d
000002d0: 6e71 b03d a0c9 9b3d a0e7 913b e728 a0bc
000002e0: bea7 a83d 1641 3f3d 0022 68bd c841 dfbd
000002f0: b063 dc3d 8c30 4cbc b744 46bd 685c 9c3d
00000300: 51e7 8fbd f57e ed3d 8f66 493c ea24 e73d
00000310: 0ab2 8f3e 37b3 953d 2ee2 2d3b 2193 313c
00000320: 7c60 ca3c 7363 8dbe 39b5 163e 3f4a f9bd
00000330: 434c 18bd 129c 203d 1d48 3d3d 9082 1f3e
00000340: c86e 113d 4ebe 95be 3c01 febb 0e6c 5b3e
00000350: cfae 1fbc b8fe 7f3e 6ca9 d73d e94f 403e
00000360: d6f1 54be 4e80 b8bd fcf4 3cbd 376b aebd
00000370: 6233 193e 87e1 80be db78 c83d dd2a 0b3e
00000380: 82d9 5a3d e4e6 0fbe 1029 febc 8f30 783d
00000390: abfb be3d 5fec e7bc 67de 1bbd a888 c1bd
000003a0: 266d e4bd 48d9 8abc 78e6 403e a20c ad3d
000003b0: 264d 6bbd 0377 493e 9e00 b33d 7764 aebe
000003c0: 2c92 413e d236 3c3e abee 01bd de0f 1bbe
000003d0: 651a 0fbe 594d cdbd 57fa 623d d32c 213e
000003e0: 0169 5abe 7179 a7bd a4f5 f0bd a9c4 1c3e
000003f0: ef6d 473e 4247 eb3c 195f 8d3c 68e9 00be

backbone.15.bias f4 [256]
0.14494824 0.14193203 -0.023934834 0.023584638 0.09213895 0.094742455 0.11148001 -0.037228856
-0.024814107 0.028170673 -0.14873037 0.19111286 0.08589249 0.14147165 0.054709263 0.108553685
0.0016032931 -0.04527438 0.11918911 -0.00096444425 0.039363883 -0.0016727702 0.11597901 0.016738249
0.16094047 0.08727486 0.07626385 0.05652902 0.094167374 0.048978403 0.12151058 0.04231939
0.057843126 0.0654882 0.12525715 0.106266655 0.016014429 -0.017251419 -0.008518174 0.08033284
0.14040075 0.09098715 -0.0402227 -0.036637742 -0.051993053 0.11227999 0.019357616 0.120381296
0.05060513 0.040570628 0.12918511 0.015363348 0.057871792 0.067848675 -0.070347704 0.013288585
-0.03708315 0.15295225 0.057598665 0.08082581 0.17167835 -0.056506902 0.09268969 -0.14000914
-0.022659471 -0.03030897 0.11782526 -0.18843356 0.10361033 -0.030176148 0.22290356 0.13729587
0.08649779 -0.0061591393 0.10284652 -0.12284013 0.02464253 0.106109634 0.09522627 0.13451862
-0.008487496 -0.2323112 0.08607367 -0.0988785 -0.07935434 0.031569432 0.10150191 0.011786772
0.046212215 0.053796113 0.0016789595 -0.08379558 -0.12116149 0.08627769 0.09997147 0.02629132
-0.12647611 0.023644742 0.06768842 -0.10977151 0.009522625 -0.11255955 0.027770696 0.115925044
0.07290643 -0.11981249 0.10667048 -0.037158307 -0.16752505 -0.06274395 0.10239232 0.07200965
0.018312471 0.1631957 0.015012243 0.09419149 -0.05930879 0.05972996 0.064143874 0.2122446
0.024020158 0.10387646 0.116047494 0.06710012 0.061329003 -0.11190042 0.059396725 0.046784416
0.040849548 -0.050806586 0.06189842 0.12057028 0.031042593 0.17396137 0.13461411 0.17912951
-0.02237368 0.038724978 0.03339937 -0.05514386 0.009635006 0.10712937 0.13970283 0.13689084
-0.0993655 -0.08089638 -0.043707646 -0.038086306 0.007700194 -0.11330391 0.10261421 0.080373295
-0.04578459 0.023492102 -0.10668844 -0.11372505 0.04930185 0.10513683 -0.06939797 -0.09511287
0.043700498 -0.09524476 -0.054136492 0.09049455 0.02382715 0.19529906 -0.06403512 0.14223489
-0.04293846 0.02263707 0.017302852 0.1121919 -0.031285807 -0.011414958 -0.022475084 0.086330675
0.11619708 0.18450196 0.12866524 0.036420744 0.001765939 0.09366695 -0.085034005 0.099951915
0.18284336 0.080843516 -0.02669914 0.042487197 0.0764116 0.04624653 -0.059484426 0.0135751115
0.029430572 -0.09536383 0.06222774 0.06995108 -0.09382812 0.047870748 -0.007070323 0.086763926
-0.038165275 -0.062771566 -0.0032231174 0.0039607035 0.09518647 0.04578077 -0.03240352 0.0460027
-0.014420768 0.1357793 0.018270422 -0.070640326 0.05554536 0.019881664 0.13012286 0.03247518
0.06950927 0.20826079 -0.14297028 -0.08169286 -0.05382509 -0.046954446 0.057552066 0.044159897
-0.010966369 0.04243124 -0.28188637 0.12963548 0.0954082 -0.04492695 0.052794866 0.0050743488
-0.0129371155 0.14168592 -0.0693237 -0.018380765 0.09924197 -0.14660016 0.09077855 0.14138715
0.07409732 -0.12258354 0.026118893 -0.13817005 -0.07395272 -0.032503776 0.121722616 0.06471401
-0.0071117715 -0.18804018 0.11774072 0.049445715 -0.06611566 0.045349896 0.12532602 0.14682646
00000000: 506d 143e a156 113e fc12 c4bc 9234 c13c
00000010: 59b3 bc3d 5508 c23d a24f e43d 497d 18bd
00000020: f446 cbbc 2fc6 e63c c64c 18be 17b3 433e
00000030: 67e8 af3d f2dd 103e d216 603d 6551 de3d
00000040: 9725 d23a a171 39bd 6c19 f43d c2d2 7cba
00000050: 063c 213d db40 dbba 6786 ed3d a71e 893c
00000060: 94cd 243e 29bd b23d 3930 9c3d f98a 673d
00000070: d3da c03d 949d 483d 8ada f83d 1957 2d3d
00000080: eaec 6c3d ad1e 863d 6943 003e 55a2 d93d
00000090: b130 833c d952 8dbc d08f 0bbc 8b85 a43d
000000a0: 37c5 0f3e 7957 ba3d 8fc0 24bd 7511 16bd
000000b0: abf6 54bd 0df3 e53d dd93 9e3c 788a f63d
000000c0: 5347 4f3d 632d 263d 1a49 043e 8db6 7b3c
000000d0: f90a 6d3d 3ff4 8a3d 7512 90bd 5db8 593c
000000e0: 80e4 17bd 849f 1c3e 94ec 6b3d 0188 a53d
000000f0: 73cc 2f3e c873 67bd 18d4 bd3d 8e5e 0fbe
00000100: 5ba0 b9bc 844a f8bc 5f4e f13d baf4 40be
00000110: a731 d43d f833 f7bc d540 643e 4a97 0c3e
00000120: c125 b13d 9bd2 c9bb 32a1 d23d 9b93 fbbd
00000130: 22df c93c 0250 d93d fe05 c33d 40bf 093e
00000140: 230f 0bbc fde2 6dbe 6447 b03d d080 cabd
00000150: 8784 a2bd f34e 013d 3ce0 cf3d 4e1d 413c
00000160: 0549 3d3d 5059 5c3d 8810 dc3a 049d abbd
00000170: 8423 f8bd 5cb2 b03d d8bd cc3d e560 d73c
00000180: f482 01be 9eb2 c13c 3aa0 8a3d e3cf e0bd
00000190: c904 1c3c 9f85 e6bd 5f7f e33c 1c6a ed3d
000001a0: f74f 953d 4060 f5bd 0d76 da3d 4f33 18bd
000001b0: b08b 2bbe e67f 80bd 11b3 d13d cc79 933d
000001c0: 0904 963c c61c 273e e9f5 753c 78e7 c03d
000001d0: c6ed 72bd 67a7 743d dd5d 833d a656 593e
000001e0: ecc5 c43c 2ebd d43d 4faa ed3d ca6b 893d
000001f0: 1f34 7b3d 0c2c e5bd fb49 733d 04a1 3f3d
00000200: db51 273d 911a 50bd 3389 7d3d 8ded f63d
00000210: 094d fe3c ee22 323e 48d8 093e ba6d 373e
00000220: 0249 b7bc 159e 1e3d c7cd 083d 87de 61bd
00000230: 25dc 1d3c a566 db3d 420e 0f3e 1d2d 0c3e
00000240: 2480 cbbd 00ad a5bd ca06 33bd 6300 1cbd
00000250: e951 fc3b e10b e8bd 6627 d23d c19a a43d
00000260: 9f88 3bbd 8272 c03c 787f dabd aee8 e8bd
00000270: bdf0 493d fa51 d73d 8620 8ebd 89ca c2bd
00000280: 4bff 323d af0f c3bd 3abe 5dbd 3555 b93d
00000290: 2831 c33c 7afc 473e d824 83bd 06a6 113e
000002a0: 3de0 2fbd 6071 b93c b6be 8d3c dec4 e53d
000002b0: 8c25 00bd ce05 3bbc ab1d b8bc 23ce b03d
000002c0: bcf8 ed3d 15ee 3c3e d2c0 033e eb2d 153d
000002d0: 1577 e73a 75d4 bf3d 4f26 aebd 97b3 cc3d
000002e0: 4a3b 3b3e 4991 a53d 28b8 dabc 0e07 2e3d
000002f0: af7d 9c3d 006d 3d3d f1a5 73bd 256a 5e3c
00000300: 6218 f13c 1d4e c3bd 84e2 7e3d 8342 8f3d
00000310: f528 c0bd 1e14 443d 2bae e7bb 49b1 b13d
00000320: 3153 1cbd 618e 80bd f03a 53bb cac8 813b
00000330: 20f1 c23d 9e84 3b3d 8eb9 04bd 546d 3c3d
00000340: 1645 6cbc bb09 0b3e daab 953c e0ab 90bd
00000350: 8883 633d dfde a23c ed3e 053e b204 053d
00000360: e05a 8e3d 5142 553e cd66 12be 964e a7bd
00000370: b377 5cbd 4e53 40bd b7bb 6b3d 02e1 343d
00000380: 49ac 33bc 61cc 2d3d 6953 90be 2abf 043e
00000390: 6065 c33d 5205 38bd 6e3f 583d b946 a63b
000003a0: 32f6 53bc 1d16 113e 96f9 8dbd 4293 96bc
000003b0: 603f cb3d 5a1e 16be 1bea b93d cbc7 103e
000003c0: 56c0 973d 140d fbbd 4af7 d53c 737c 0dbe
000003d0: 8674 97bd ae22 05bd b549 f93d c788 843d
000003e0: dd09 e9bb 9b8d 40be 0c22 f13d 9787 4a3d
000003f0: a667 87bd d0c0 393d 7755 003e ad59 163e

backbone.15.weight f4 [256, 128]
-0.03267724 0.053355653 -0.15106227 0.104211845 -0.016609017 0.02212608 0.040798105 0.094051495
-0.0275493 0.12277947 -0.120618485 -0.04462079 -0.08028165 0.101422936 -0.029984437 0.06328653
-0.16113622 -0.12766457 -0.07466095 0.18745062 -0.03620271 -0.26321718 -0.15844794 0.17745875
0.069407515 0.13308075 0.037361853 0.039583284 0.032338914 -0.17445183 -0.06188789 0.15645407
0.029351693 -0.16784143 0.069315225 -0.24789223 0.06901231 0.15288886 0.21877109 -0.034430806
-0.0025933883 0.07423644 0.13187502 0.01690641 -0.0083407005 -0.21057267 0.071706995 -0.04156739
-0.0867305 0.035330813 -0.10584544 0.00024435576 -0.37449253 0.202962 -0.06831513 -0.049294636
-0.12561318 0.029186435 0.1462668 0.02679542 -0.14007986 0.053175744 0.0116705205 -0.008652861
-0.0253615 0.15344122 0.03528167 -0.081029475 0.1100408 0.04986055 0.0042879093 0.026698207
-0.19218142 -0.2089256 0.026493238 0.04486047 -0.031625018 0.03355409 0.017017158 -0.04194879
0.06944035 0.03955096 -0.02147541 -0.29398072 -0.06617769 0.04072936 -0.24084908 0.02732475
-0.09881502 -0.086462766 0.10879897 0.19477633 0.105070755 0.11902276 0.05377566 -0.14361136
-0.112980984 0.16652058 0.34182906 0.1563495 -0.46129134 -0.30307335 0.07613701 -0.06014757
-0.30228347 0.044304345 -0.20496182 -0.0684439 0.036634505 -0.23985061 -0.11599168 0.22567035
-0.108280584 -0.30254123 -0.060487986 0.048633404 0.009061919 -0.07010636 -0.048830792 0.03794507
-0.068270646 -0.10089823 0.18589443 -0.19624041 0.083479 -0.35165155 0.03798581 -0.05255359
0.14808552 0.044787806 0.027960831 -0.0008436513 -0.10469406 -0.25525206 -0.03805055 0.14426668
0.11054036 -0.028347565 0.15288383 0.05531401 0.04945623 -0.43506464 0.037679832 0.26950955
0.18246809 -0.02105736 -0.041210562 -0.031536877 0.088230625 0.11684043 0.08413365 0.00028906387
-0.17441468 -0.12727694 -0.04180913 0.04093043 0.1031739 0.017663358 0.07164705 -0.3037578
-0.07663052 0.069338165 -0.28367624 0.1002031 -0.0022473224 0.067725085 -0.074879326 -0.036492027
-0.08883092 -0.07592032 -0.07576845 -0.16403013 0.03506374 -0.14670402 0.045263164 -0.29621223
0.10082973 -0.14875644 -0.057659287 0.10449818 0.13820447 -0.1829971 -0.011509625 0.06912578
-0.048676573 0.05037656 -0.16048022 -0.031097632 -0.14154212 0.023192232 0.0016350613 0.0023154535
0.15630005 0.16141088 0.057117693 -0.4114549 -0.122807056 0.036386874 -0.32328576 -0.33185765
0.14945944 -0.0840178 -0.22235893 0.025428258 0.18168393 -0.10683836 0.17776947 -0.25095546
0.0038033929 0.0106039895 0.1030255 0.20742875 -0.020765051 -0.036550403 0.102800205 0.18754467
0.013339874 0.04533695 -0.117244735 -0.15245773 0.047117036 -0.1597531 -0.24332838 0.0015384812
-0.07323663 0.0818242 -0.08342615 -0.3226447 0.033415917 0.12591602 -0.28668302 0.09338834
-0.06997505 0.07358581 0.13234514 -0.04898764 -0.23405616 0.11925608 -0.124542594 -0.064718165
-0.14623964 0.08113452 0.18832576 -0.03535129 0.016004736 0.082434095 0.040107816 0.18870614
0.13632067 -0.10170822 0.1076131 -0.032128572 -0.06511057 -0.13904384 -0.08968329 -0.1559299
00000000: 92d8 05bd 758b 5a3d 11b0 1abe 056d d53d
00000010: a20f 88bc c141 b53c ea1b 273d 129e c03d
00000020: 12af e1bc ce73 fb3d d306 f7bd 4ac4 36bd
00000030: b56a a4bd d4b6 cf3d eca1 f5bc 5e9c 813d
00000040: e500 25be 80ba 02be d7e7 98bd 0ef3 3f3e
00000050: 4b49 14bd 67c4 86be 2d40 22be bfb7 353e
00000060: 8725 8e3d 5246 083e be08 193d 1522 223d
00000070: cf75 043d 80a3 32be 287e 7dbd 7f35 203e
00000080: f672 f03c a0de 2bbe 24f5 8d3d 76d7 7dbe
00000090: 5356 8d3d e68e 1c3e 8705 603e 5107 0dbd
000000a0: d6f5 29bb 4609 983d 3f0a 073e 507f 8a3c
000000b0: 6fa7 08bc 5da0 57be 1edb 923d 9142 2abd
000000c0: c39f b1bd 0bb7 103d 7ec5 d8bd e01c 8039
000000d0: 7cbd bfbe 45d5 4f3e cee8 8bbd 2ce9 49bd
000000e0: bea0 00be 6418 ef3c f7c6 153e 1282 db3c
000000f0: 1871 0fbe cfce 593d b635 3f3c bbc4 0dbc
00000100: ecc2 cfbc b21f 1d3e 8383 103d c8f2 a5bd
00000110: 125d e13d 933a 4c3d 9781 8c3b 33b6 da3c
00000120: 35cb 44be 98f0 55be 5908 d93c 9dbf 373d
00000130: 3c89 01bd 0370 093d 9167 8b3c 7fd2 2bbd
00000140: be36 8e3d 3000 223d 33ed afbc a484 96be
00000150: 2b88 87bd d4d3 263d 24a1 76be 27d8 df3c
00000160: 875f cabd 6413 b1bd ffd1 de3d 7273 473e
00000170: 562f d73d 34c2 f33d de43 5c3d db0e 13be
00000180: 9362 e7bd 5f84 2a3e 3804 af3e 151a 203e
00000190: 612e ecbe 6e2c 9bbe b8ed 9b3d 4c5d 76bd
000001a0: e6c4 9abe 7978 353d 83e1 51be 512c 8cbd
000001b0: 100e 163d 669b 75be 0c8d edbd 2116 673e
000001c0: 36c2 ddbd afe6 9abe 40c2 77bd d233 473d
000001d0: 7178 143c ec93 8fbd cc02 48bd 4a6c 1b3d
000001e0: 7bd1 8bbd bba3 cebd 1c5b 3e3e 3ff3 48be
000001f0: 0af7 aa3d ac0b b4be 0297 1b3d 6f42 57bd
00000200: bba3 173e 6b73 373d 1d0e e53c 7b28 5dba
00000210: d769 d6bd 66b0 82be e5da 1bbd a5ba 133e
00000220: fc62 e23d 2739 e8bc 948d 1c3e f190 623d
00000230: 9e92 4a3d cbc0 debe 2b56 1a3d 28fd 893e
00000240: ead8 3a3e 7c80 acbc 68cc 28bd d02c 01bd
00000250: 42b2 b43d 094a ef3d 434e ac3d 7f8d 9739
00000260: c399 32be e354 02be 0d40 2bbd aba6 273d
00000270: d64c d33d bfb2 903c b0bb 923d 2486 9bbe
00000280: 76f0 9cbd 2b01 8e3d 033e 91be 4837 cd3d
00000290: d047 13bb 73b3 8a3d 555a 99bd aa78 15bd
000002a0: fcec b5bd 1d7c 9bbd 7d2c 9bbd 84f7 27be
000002b0: ff9e 0f3d 9439 16be de65 393d 21a9 97be
000002c0: d17f ce3d 9c53 18be 252c 6cbd 2403 d63d
000002d0: 7985 0d3e 9763 3bbe de92 3cbc d191 8d3d
000002e0: 1661 47bd a757 4e3d ed54 24be 76c0 febc
000002f0: 6bf0 10be a3fd bd3c 8e4f d63a ddbe 173b
00000300: 1f0d 203e e548 253e 3ef4 693d 37aa d2be
00000310: 4482 fbbd 670a 153d b685 a5be 3fe9 a9be
00000320: e50b 193e 8611 acbd 0fb2 63be ec4e d03c
00000330: 5a0b 3a3e 12ce dabd 3309 363e 3c7d 80be
00000340: 5842 793b 5bbc 2d3c 09ff d23d 3468 543e
00000350: 781b aabc e0b5 15bd ea88 d23d b60b 403e
00000360: 7d8f 5a3c 3db3 393d 021e f0bd e11d 1cbe
00000370: cbfd 403d 5196 23be 132b 79be dda6 c93a
00000380: 16fd 95bd 7293 a73d 54db aabd b031 a5be
00000390: 21df 083d 21f0 003e 1ec8 92be 6342 bf3d
000003a0: 144f 8fbd 28b4 963d 7c85 073e 43a7 48bd
000003b0: 6bac 6fbe 883c f43d 3010 ffbd f58a 84bd
000003c0: d8bf 15be db29 a63d 78d8 403e 84cc 10bd
000003d0: 5d1c 833c 35d3 a83d 1848 243d 2f3c 413e
000003e0: a597 0b3e 664c d0bd 4264 dc3d 4099 03bd
000003f0: b158 85bd 8261 0ebe dfab b7bd 16ac 1fbe

backbone.2.bias f4 [32]
-0.006644794 0.030022565 0.03481599 0.19116683 0.031136923 -0.12739144 -0.066332184 0.051899627
0.0050485064 0.017029686 0.04131249 -0.16248962 0.10273183 -0.03621411 0.0011008902 0.020052716
0.105735645 -0.07761476 -0.043797195 0.11299865 -0.0540816 0.15263547 -0.029654095 -0.03941579
0.026424503 -0.029606601 -0.098026566 -0.080954924 0.06226722 0.02604976 0.034045815 0.054896776
00000000: 92bc d9bb e2f1 f53c 369b 0e3d 3dc1 433e
00000010: dc12 ff3c e772 02be 2bd9 87bd b494 543d
00000020: f16d a53b d781 8b3c 4937 293d ae63 26be
00000030: 1165 d23d 3f55 14bd bf4b 903a 9845 a43c
00000040: ee8b d83d 7df4 9ebd b064 33bd d66b e73d
00000050: ab84 5dbd 794c 1c3e 25ed f2bc 7472 21bd
00000060: 3378 d83c 8b89 f2bc 27c2 c8bd b2cb a5bd
00000070: ea0b 7f3d 4e66 d53c a073 0b3d 71db 603d

backbone.2.weight f4 [32, 16, 3, 3]
0.0034609437 0.2397869 -0.08524479 0.025428297 -0.21348116 -0.08053529 0.12572719 0.11243633
0.051901467 0.086113356 0.08752531 0.14875995 -0.1290097 -0.004649302 -0.017287234 0.0678804
0.24972066 0.19728413 -0.08593612 0.17300229 0.06293508 0.16719374 -0.04385758 -0.17455241
-0.07765036 0.036389258 -0.054844696 0.14704141 0.010957415 0.14281909 0.20191635 0.10209834
0.11554424 -0.032290827 -0.16660643 0.21628134 0.18523185 -0.15689005 -0.0208705 -0.094870426
-0.19592269 0.04598279 0.026080128 0.13603757 0.06614883 -0.025601791 0.074844964 0.09750035
-0.06856259 0.1728355 0.013920927 0.11595749 -0.06461749 -0.12093485 -0.15991302 -0.099758364
-0.31673318 -0.07971849 -0.08786999 -0.37146047 0.27793127 -0.068066314 -0.046589904 0.1297606
0.23194976 -0.027163798 0.3377869 -0.06778183 -0.09664451 -0.013243635 0.02525964 -0.018992415
0.09792607 -0.028978664 -0.09590113 0.090833254 -0.04936441 -0.03265504 0.1345964 -0.07440207
-0.106250726 0.068631716 0.005103249 0.019018836 0.095326796 -0.08505664 -0.24906532 0.03425778
-0.033042412 -0.19111471 0.17873456 -0.08264775 -0.36031076 0.120857574 0.016722012 0.06653215
0.18565246 0.21510738 0.07905908 -0.051346615 -0.06059662 -0.003564352 -0.057651293 -0.008962563
0.09569372 0.054377977 -0.016021881 0.13601929 -0.08633262 -0.06261229 -0.25126755 -0.092264324
-0.22780053 -0.01889959 -0.018582534 0.11467299 0.0025691043 -0.030700209 -0.06510011 -0.20683688
0.0911296 0.014440466 0.10111448 -0.19158801 -0.047845367 -0.07497452 -0.23665121 -0.13947503
-0.16052869 -0.30097103 -0.09984774 -0.18206108 -0.24603647 -0.041321803 0.017621733 -0.03256638
0.12681004 -0.08762062 0.014996724 0.2779561 -0.09490088 -0.0035365568 0.18497549 0.06246651
-0.072872914 -0.17425163 -0.01662578 0.10512386 -0.31101924 0.19174355 0.16195415 -0.023528472
0.21847545 0.2688739 0.20565934 0.10991957 0.0030481846 0.1102499 0.056582246 0.23077166
-0.271528 -0.012551769 0.14492872 0.01584266 -0.26320833 0.3055635 0.050991006 -0.15744351
0.009973474 0.017312579 -0.049367383 -0.033243597 0.044363152 -0.16560094 -0.035378534 0.07126712
0.09293678 0.002567082 0.15604167 0.024967697 0.115333505 0.11639404 -0.1019006 0.1024606
0.045015536 0.053188577 -0.09901405 0.21762648 0.07019089 0.06008798 -0.097304285 -0.008714789
0.2868302 0.04962455 0.030380739 0.15836468 0.04907182 -0.069468625 0.43599373 0.15846707
0.20873763 -0.26396543 -0.17831719 -0.0567364 -0.28645223 -0.16499509 0.09756751 0.16998543
0.33393455 0.36600852 0.15927525 0.055375215 0.27495524 0.14649828 0.20966594 0.19347998
0.022756077 0.07982925 -0.015475158 0.25058457 0.07672454 0.06928252 0.17960435 0.19586714
0.15926313 0.1545329 0.06072439 -0.19030288 0.009665493 0.07546593 -0.028217454 0.05448671
0.052948225 0.036717407 -0.08210942 -0.02604663 0.14102937 -0.10370634 0.068969175 -0.081273764
-0.14003776 -0.100327276 -0.0016147002 0.2579876 0.043402184 -0.044656157 -0.10490104 -0.0946604
-0.052476794 -0.0028314835 0.026212363 -0.11241983 0.1687506 -0.048900705 -0.15901983 -0.024853965
00000000: 00d1 623b b28a 753e d294 aebd 014f d03c
00000010: ce9a 5abe b0ef a4bd a1be 003e 0545 e63d
00000020: a296 543d 335c b03d 7840 b33d 8754 183e
00000030: 1e1b 04be 2c59 98bb f59d 8dbc e104 8b3d
00000040: c6b6 7f3e da04 4a3e 47ff afbd 8327 313e
00000050: 1be4 803d d634 2b3e 01a4 33bd debd 32be
00000060: 2707 9fbd e70c 153d d5a4 60bd 0692 163e
00000070: bb86 333c 2b3f 123e 29c3 4e3e ef18 d13d
00000080: 75a2 ec3d 6343 04bd e09a 2abe db78 5d3e
00000090: 6bad 3d3e c9a7 20be 9cf8 aabc 6d4b c2bd
000000a0: f59f 48be 7358 3c3d fea5 d53c 6f4d 0b3e
000000b0: 0a79 873d d9ba d1bc 5148 993d 43ae c73d
000000c0: 8b6a 8cbd cafb 303e 9a14 643c 1f7b ed3d
000000d0: 2d56 84bd b1ac f7bd 3dc0 23be 1d4e ccbd
000000e0: da2a a2be 7343 a3bd 2ef5 b3bd 1130 bebe
000000f0: 024d 8e3e 5a66 8bbd 0ed5 3ebd f6df 043e
00000100: 3d84 6d3e 9d86 debc 68f2 ac3e 33d1 8abd
00000110: 8fed c5bd d5fb 58bc 4eed ce3c fb95 9bbc
00000120: 778d c83d aa64 edbc d067 c4bd c906 ba3d
00000130: 5632 4abd 4bc1 05bd a4d3 093e 1d60 98bd
00000140: fb99 d9bd c98e 8c3d 2839 a73b 64cd 9b3c
00000150: b23a c33d 2d32 aebd fb0a 7fbe e351 0c3d
00000160: 7b57 07bd 93b3 43be 3106 373e 3943 a9bd
00000170: a77a b8be 2d84 f73d 9afc 883c 0242 883d
00000180: ae1b 3e3e 1c45 5c3e bae9 a13d d450 52bd
00000190: 2934 78bd e797 69bb c323 6cbd b7d7 12bc
000001a0: 12fb c33d 71bb 5e3d 5240 83bc a448 0b3e
000001b0: 28cf b0bd df3a 80bd 24a6 80be 14f5 bcbd
000001c0: 8b44 69be 50d3 9abc 663a 98bc acd9 ea3d
000001d0: 6b5e 283b 017f fbbc 3553 85bd 0ccd 53be
000001e0: 28a2 ba3d b497 6c3c 1c15 cf3d a62f 44be
000001f0: 81f9 43bd 3e8c 99bd b254 72be 8bd2 0ebe
00000200: a261 24be e018 9abe f97c ccbd 386e 3abe
00000210: fcf0 7bbe 0d41 29bd 745b 903c 5364 05bd
00000220: 7eda 013e 7172 b3bd d2b4 753c 4350 8e3e
00000230: 645b c2bd 94c5 67bb 376a 3d3e e2dc 7f3d
00000240: 653e 95bd 056f 32be ca32 88bc 2e4b d73d
00000250: ea3d 9fbe 6c58 443e 4fd7 253e c8be c0bc
00000260: 07b8 5f3e d7a9 893e 5d98 523e 831d e13d
00000270: 0dc4 473b b3ca e13d c9c2 673d 684f 6c3e
00000280: b805 8bbe efa5 4dbc 3268 143e 77c8 813c
00000290: 3ec3 86be d272 9c3e f2db 503d df38 21be
000002a0: c867 233c 1cd3 8d3c 7435 4abd 702a 08bd
000002b0: 23b6 353d 4b93 29be 15e9 10bd 7ff4 913d
000002c0: a355 be3d 7d3c 283b 63c9 1f3e 0e89 cc3c
000002d0: f933 ec3d 0060 ee3d 43b1 d0bd ddd6 d13d
000002e0: 3662 383d 44dc 593d e1c7 cabd 7ad9 5e3e
000002f0: 3ec0 8f3d d01e 763d 7847 c7bd 79c8 0ebc
00000300: 68db 923e 1d43 4b3d 07e1 f83c 5a2a 223e
00000310: 88ff 483d 9145 8ebd 923a df3e 3145 223e
00000320: 51bf 553e 7a26 87be c898 36be 6d64 68bd
00000330: dea9 92be 79f4 28be 7ad1 c73d a910 2e3e
00000340: 78f9 aa3e 7865 bb3e 0d19 233e 1fd1 623d
00000350: efc6 8c3e a503 163e abb2 563e 9e1f 463e
00000360: f46a ba3c 857d a33d 848b 7dbc 9f4c 803e
00000370: c121 9d3d fee3 8d3d 34ea 373e 6591 483e
00000380: e015 233e df3d 1e3e 23ba 783d c2de 42be
00000390: 045c 1e3c e28d 9a3d 4a28 e7bc 752d 5f3d
000003a0: 3de0 583d fe64 163d fc28 a8bd be5f d5bc
000003b0: 016a 103e fd63 d4bd b63f 8d3d dc72 a6bd
000003c0: 0f66 0fbe 6378 cdbd 59a4 d3ba f316 843e
000003d0: 7dc6 313d 60e9 36bd 5bd6 d6bd 50dd c1bd
000003e0: e8f1 56bd 6990 39bb 4fbb d63c 5e3c e6bd
000003f0: f5cc 2c3e 1b4c 48bd 18d6 22be 8b9a cbbc

backbone.5.bias f4 [64]
-0.00676797 0.00917113 0.0047351797 -0.033769444 -0.065834925 0.04305688 -0.075681776 0.037075743
-0.11650386 -0.14129665 0.01440202 -0.03705011 0.07723516 -0.0034254838 -0.03492014 -0.12672107
-0.045561563 0.016259257 0.0035586257 -0.034060895 -0.056200948 -0.0022817417 -0.00026029357 0.031170012
-0.0047245836 0.0032090023 -0.06517469 -0.07121123 0.1103702 0.02557503 -0.052855037 0.043571804
-0.12806064 0.03586285 -0.016017534 0.0509743 -0.086203404 -0.046104427 -0.04184374 0.033590022
0.07975852 0.05350322 -0.058288608 0.042814907 0.009829261 0.0681092 0.07353091 -0.023697073
0.07761003 -0.035753567 -0.12079927 0.017128104 -0.10237736 0.14203686 -0.038390547 -0.10382731
-0.043009914 0.045234893 0.0072124484 -0.042643204 -0.08687896 0.057200238 -0.11371332 0.034142878
00000000: d9c5 ddbb 8242 163c 9129 9b3b d451 0abd
00000010: 76d4 86bd 695c 303d 0cff 9abd bcdc 173d
00000020: 9399 eebd 12b0 10be 73f6 6b3c dbc1 17bd
00000030: 782d 9e3d 157e 60bb 6c08 0fbd 2bc3 01be
00000040: c39e 3abd 2232 853c d537 693b 7083 0bbd
00000050: f732 66bd 4689 15bb 0378 88b9 4158 ff3c
00000060: aed0 9abb 204e 523b 4f7a 85bd 31d7 91bd
00000070: c509 e23d ba82 d13c 867e 58bd 5978 323d
00000080: 5422 03be ece4 123d 3437 83bc 6dca 503d
00000090: 698b b0bd ffd7 3cbd 5764 2bbd b195 093d
000000a0: 6f58 a33d 3126 5b3d 09c0 6ebd af5e 2f3d
000000b0: e90a 213c d67c 8b3d 6097 963d 5d20 c2bc
000000c0: 02f2 9e3d 5572 12bd 9c65 f7bd 3d50 8c3c
000000d0: 39ab d1bd 1c72 113e 683f 1dbd 6aa3 d4bd
000000e0: 2a2b 30bd 3948 393d 6756 ec3b a4aa 2ebd
000000f0: 99ed b1bd cc4a 6a3d 87e2 e8bd 67d9 0b3d

backbone.5.weight f4 [64, 32, 3, 3]
0.12586015 0.05364036 -0.17060529 -0.185136 -0.07043257 -0.15320292 0.0078503005 -0.12631029
0.06980259 -0.0046726363 0.17326011 0.14865822 0.0037554556 -0.039636157 -0.10083575 0.08414308
0.17971309 -0.017370855 0.1599683 0.040735804 0.09670674 0.110318445 0.17461628 0.023535503
-0.09592627 0.039890405 -0.047660813 -0.020661639 0.0098394 -0.03827074 0.12810835 -0.061520517
0.08797292 0.12317278 -0.18175888 -0.16923322 -0.11149036 -0.12021768 0.011162924 -0.15490215
-0.19666496 0.0961752 0.18079415 -0.08022972 0.02379665 0.20394082 0.227445 0.18074878
-0.042338952 -0.042502705 0.0053684385 -0.23411544 -0.13464761 0.08358958 -0.027123246 -0.0032163751
0.045782324 -0.06020761 0.04755216 0.043695148 -0.0017732877 -0.043403734 -0.035077035 0.08404454
-0.03624732 -0.107199274 -0.025892137 0.015886456 -0.07490611 0.0055919583 0.08836909 -0.087935545
-0.0010013181 0.047353633 0.047059145 -0.13372684 -0.081515715 -0.017519224 0.03215053 -0.11614409
-0.15439083 -0.078420386 0.10371229 0.040842425 -0.032412197 -0.043886386 -0.13661794 0.25089586
0.045486055 -0.10382725 0.03499908 -0.0075963996 0.303516 -0.18822224 -0.0015529282 0.067134984
0.06956313 -0.028778575 0.2212764 -0.05083452 -0.09760232 -0.018108992 0.069077626 0.08709048
0.10441915 0.16713223 0.30860052 0.107042626 -0.18124679 -0.032289013 0.08797057 -0.086078614
-0.05117656 0.12928985 0.16070896 0.18874516 0.122584514 -0.15410332 -0.19880861 0.05504993
0.00376061 0.14661242 0.14072818 -0.08915965 -0.12555969 0.044440642 -0.1278649 -0.27601993
-0.102998674 -0.20822246 -0.2827766 0.2338033 0.22347446 0.12137593 0.1677933 0.3134506
0.1587409 0.22445528 0.11836819 0.0031390027 -0.056139097 -0.051058978 -0.15689577 -0.038999062
0.13285646 -0.055014938 0.16184613 0.022788944 0.05942679 0.17709242 -0.022156686 0.13734873
-0.0019899395 0.10720781 -0.10306807 -0.23675048 0.07495416 -0.14235458 -0.11286382 0.20335984
-0.23122667 0.02372217 0.0034776258 0.020051226 -0.03430331 0.12224491 0.028396992 -0.13215216
-0.09321397 -0.023929406 -0.09127626 -0.07291005 -0.10048611 -0.1845747 -0.1003726 -0.066413276
-0.044680044 -0.14182785 -0.20738421 0.10178303 -0.13132365 0.1902665 0.26763994 -0.21941754
-0.18771449 -0.07085163 0.17424296 -0.11575654 -0.17759746 0.02102982 0.19694659 0.05190247
-0.059333358 -0.11303679 0.056209218 -0.17851588 -0.26100215 -0.11023211 0.004110655 -0.12084998
0.08486459 -0.030396456 -0.060165588 0.116173945 0.19584985 0.1068625 0.17208831 -0.22186188
-0.05109491 0.052977674 -0.15253729 -0.17539428 -0.008817772 -0.08115166 -0.101349525 0.010664961
-0.113091335 0.0019466205 0.061996054 0.056942463 -0.064742215 0.005496684 0.09755302 -0.0042661065
0.056692176 -0.12755418 -0.29054198 -0.027153691 0.04569961 -0.05865697 0.15775672 -0.003422611
-0.118505046 -0.15399405 0.08545949 -0.0021573529 -0.097339444 0.17258252 -0.06934725 0.1219453
0.10804958 0.35263312 0.030436166 -0.08351966 -0.058110483 -0.08495355 -0.010725538 -0.0770094
-0.055081736 -0.024888419 0.034680683 0.0674357 0.15106928 0.13109085 0.07405977 0.0833291
00000000: 7ce1 003e feb5 5b3d 27b3 2ebe 4b94 3dbe
00000010: f43e 90bd 3ae1 1cbe 8c9e 003c 7c57 01be
00000020: a9f4 8e3d ea1c 99bb 196b 313e dc39 183e
00000030: 171e 763b 8659 22bd f982 cebd 3553 ac3d
00000040: b506 383e 534d 8ebc bbce 233e 96da 263d
00000050: 2f0e c63d a3ee e13d 9cce 323e 87cd c03c
00000060: fe74 c4bd 1f64 233d fc37 43bd 9942 a9bc
00000070: 6f35 213c c8c1 1cbd d62e 033e f0fc 7bbd
00000080: 252b b43d 0342 fc3d 001f 3abe 794b 2dbe
00000090: 0f55 e4bd b034 f6bd b2e4 363c ab9e 1ebe
000000a0: 8a62 49be 81f7 c43d 1a22 393e 7b4f a4bd
000000b0: 31f1 c23c ddd5 503e 58e7 683e 3516 393e
000000c0: 9c6b 2dbd 5117 2ebd bae9 af3b f5bb 6fbe
000000d0: 10e1 09be 0431 ab3d 9231 debc d2c9 52bb
000000e0: 3f86 3b3d 419c 76bd 0ec6 423d aff9 323d
000000f0: a96d e8ba 1dc8 31bd f0ac 0fbd 8b1f ac3d
00000100: 1278 14bd 4b8b dbbd bf1b d4bc 5024 823c
00000110: 6068 99bd bf3c b73b dafa b43d 8d17 b4bd
00000120: a93e 83ba e2f5 413d 17c1 403d b0ef 08be
00000130: b6f1 a6bd 7a84 8fbc 46b0 033d f4dc edbd
00000140: a118 1ebe de9a a0bd 1c67 d43d 634a 273d
00000150: a7c2 04bd 36c2 33bd 93e5 0bbe 6c75 803e
00000160: 964f 3a3d 62a3 d4bd 325b 0f3d 38eb f8bb
00000170: 7366 9b3e 55bd 40be a08b cbba 117e 893d
00000180: 1d77 8e3d 0cc1 ebbc 4896 623e dc37 50bd
00000190: bae3 c7bd 4f59 94bc 9278 8d3d 7e5c b23d
000001a0: b5d9 d53d b624 2b3e e300 9e3e 2a39 db3d
000001b0: c298 39be 7c41 04bd ea29 b43d fc49 b0bd
000001c0: 839e 51bd 8f64 043e e490 243e 6946 413e
000001d0: 970d fb3d 43cd 1dbe 7c94 4bbe 097c 613d
000001e0: 9174 763b 9121 163e 0c1b 103e 5699 b6bd
000001f0: b892 00be 6407 363d 04ef 02be 7c52 8dbe
00000200: f8f0 d2bd 4538 55be 18c8 90be 226a 6f3e
00000210: 7dd6 643e f293 f83d 02d2 2b3e 997c a03e
00000220: f98c 223e 9bd7 653e 066b f23d bab7 4d3b
00000230: 1cf2 65bd 3823 51bd 49a9 20be 7bbd 1fbd
00000240: 860b 083e 5857 61bd feba 253e e1af ba3c
00000250: 8169 733d b757 353e f081 b5bc 25a5 0c3e
00000260: a569 02bb c58f db3d 5a15 d3bd b86e 72be
00000270: 9181 993d 66c5 11be 2525 e7bd 903d 503e
00000280: afc6 6cbe ff54 c23c e1e8 633b 7842 a43c
00000290: a181 0cbd 8a5b fa3d cfa0 e83c e552 07be
000002a0: f7e6 bebd 9a07 c4bc 0cef babd dd51 95bd
000002b0: a9cb cdbd 2601 3dbe 2690 cdbd af03 88bd
000002c0: 6c02 37bd 523b 11be 875c 54be 9f73 d03d
000002d0: b579 06be 39d5 423e 1a08 893e feae 60be
000002e0: 3a38 40be a91a 91bd bf6c 323e c411 edbd
000002f0: 1cdc 35be bb46 ac3c 5eac 493e af97 543d
00000300: 8907 73bd d57f e7bd a33b 663d decc 36be
00000310: 13a2 85be 5fc1 e1bd acb2 863b 3280 f7bd
00000320: 7ccd ad3d fd01 f9bc 3170 76bd 9bec ed3d
00000330: dd8c 483e bada da3d eb37 303e c32f 63be
00000340: e548 51bd 1eff 583d bc32 1cbe 8f9a 33be
00000350: 6b78 10bc d732 a6bd 5790 cfbd 17bc 2e3c
00000360: 6e9c e7bd bf25 ff3a 93ef 7d3d 803c 693d
00000370: 9197 84bd 871d b43b e1c9 c73d b2ca 8bbb
00000380: 0e36 683d 909d 02be ebc1 94be 6b71 debc
00000390: 842f 3b3d 4a42 70bd fa8a 213e e24d 60bb
000003a0: c6b2 f2bd 9eb0 1dbe 6305 af3d 6062 0dbb
000003b0: e759 c7bd 79b9 303e ee05 8ebd 75be f93d
000003c0: 1949 dd3d 548c b43e 4455 f93c 5b0c abbd
000003d0: 4205 6ebd 20fc adbd 2bba 2fbc 1bb7 9dbd
000003e0: 639d 61bd cce2 cbbc 550d 0e3d ba1b 8a3d
000003f0: e8b1 1a3e ae3c 063e a6ac 973d 72a8 aa3d
