checkpoints/q_net.safetensors (safetensors, 627456 bytes, 15 tensors)

advantage_head.0.bias f4 [5]
000000 33 67 e6 bd 55 80 42 3c 94 bd dc ba e2 29 26 3a
       -0.112501524 0.011871417 -0.0016841167 0.00063386385
000010 d4 2e 89 3d
       0.06698385

advantage_head.0.weight f4 [5, 256]
000000 4e 23 ba bc 63 22 87 ba 7d c2 a1 3c 10 f5 4c 3d
       -0.022721913 -0.0010309931 0.01974606 0.050038397
000010 be 1f 16 ba 5d bb 85 3c 5a 2b 11 bc fe e8 2a bc
       -0.0005726776 0.016324693 -0.0088604335 -0.010431526
000020 33 a5 3c 3c 11 92 11 3a 32 c3 a5 3d 27 79 c9 3d
       0.011513996 0.00055530766 0.08093871 0.09837561
000030 48 47 1a bf a8 52 6d bb 6f 3a 53 3b da 0b 3e bb
       -0.60265017 -0.0036212597 0.0032230874 -0.0028998763
000040 2f e3 ee bc a8 97 4b 3d 08 90 ef 3c 16 15 a6 3c
       -0.029161064 0.049705178 0.029243484 0.020273726
000050 a5 53 0c bc cf 66 80 3c 55 6c 97 3b c9 91 2a 3e
       -0.008564864 0.015674023 0.0046210685 0.16657175
000060 93 14 25 3d fc 1c ba 3c 0d 0c aa 3e 06 7d d0 bc
       0.040302824 0.022718899 0.3321232 -0.02545024
000070 3c 5d ae 3d ee be a5 3e ac de 62 bf 56 1f 9a 3e
       0.08513877 0.3237223 -0.8862102 0.30102032
000080 3a ad a4 3d 6e 93 4f 3c 51 1b ef bd 30 be 42 3d
       0.08040853 0.012669427 -0.11675132 0.04754466
000090 51 b6 a8 bd f6 ce 5b bc 35 6b 08 3d a5 6c cd 3c
       -0.08237899 -0.013416043 0.033305366 0.02507622
0000a0 54 2b df ba a0 0a 41 bd 1c 42 15 3b d2 5d 02 3f
       -0.0017026463 -0.047129273 0.0022775 0.5092441
0000b0 0d e3 56 bc 73 3a 2e 3d 73 59 e6 3c c5 66 28 bc
       -0.013115657 0.04253621 0.028118825 -0.010278408
0000c0 4d f0 80 bd b7 d2 ea 3e ff 86 41 3d 9c b2 f5 bb
       -0.06295834 0.45863888 0.047247883 -0.0074980985
0000d0 dd 85 e8 3c 3d bd 1c 3d ec 7f 08 3e d6 4a d9 3c
       0.028384143 0.03826641 0.13330048 0.026524942
0000e0 de 9e 8d 3d 89 ee 9b be be ee 59 3d 94 30 26 3d
       0.06915067 -0.30455425 0.053206198 0.04057367
0000f0 38 2d 50 3c ef 57 47 bd fd 61 89 3d 11 a1 11 3e
       0.0127060935 -0.048667844 0.06708143 0.14221598
000100 a4 c2 25 3c 05 aa a6 bb 0d 71 92 3c fb 56 80 3a
       0.010117207 -0.005086186 0.017876172 0.0009791547
000110 53 56 bd 3d 44 41 13 3d 59 6e 4a 3d 15 42 b1 be
       0.09244981 0.035950914 0.049421642 -0.3462073
000120 e4 6b b0 bd f7 a9 02 be db 96 27 bd 49 27 77 3c
       -0.086143285 -0.12760149 -0.04091535 0.01508505
000130 8f 58 08 bc 07 ea 7d 3d 56 a5 60 3d 36 59 a5 3d
       -0.008321895 0.061990764 0.054845177 0.08073656
000140 16 50 99 bc e1 b9 c0 3c 44 bf 2c 3d ab 19 dd 3c
       -0.018714946 0.023526134 0.042174593 0.026989779
000150 8f bd 18 3d 41 5d 8d 3d 32 56 c9 3c 7c 51 d6 bc
       0.037290152 0.069025524 0.024577234 -0.026161902
000160 17 be 72 3d f1 69 b9 3c bd ac 08 3d 34 ac a4 3c
       0.059263315 0.022633525 0.03336786 0.020101644
000170 ee 27 b8 bb 36 1a 2e 3e 7b 78 15 3d fa d5 81 3b
       -0.0056199944 0.17002186 0.036491852 0.0039622756
000180 eb 50 31 bd cc b2 33 3e 60 24 e8 3b 05 01 ca bc
       -0.04329006 0.17548674 0.0070844144 -0.02465869
000190 27 10 89 3d a5 3f 3a 3c 20 64 82 3c 65 57 5a bc
       0.06692534 0.011367713 0.015916884 -0.013326501
0001a0 c8 72 25 3b d8 73 52 3e 33 b3 11 3d d0 5e a1 3d
       0.0025245417 0.20552003 0.03557129 0.07879412
0001b0 3b 01 7d 3d 32 48 90 bc 2b bb 2f 3d d8 e1 5b bd
       0.06176875 -0.01761255 0.042903107 -0.05368218
0001c0 c0 a0 cb 3c eb ac d3 3b 3c 98 6f 3b f0 5a 5b 3c
       0.024856925 0.0064598224 0.0036559245 0.01338838
0001d0 d7 d7 17 3c d1 df dd 3c d3 b4 63 be c6 22 4b 39
       0.009267769 0.027084263 -0.22236948 0.00019372543
0001e0 fa 80 ba 3d 02 87 08 3d d2 e0 00 bd 02 71 0e bd
       0.091066316 0.03333188 -0.031464405 -0.03477574
0001f0 67 00 e4 3c df 63 27 3c 02 a2 50 3d bb 3a 23 3d
       0.027832223 0.010216682 0.050935753 0.03985093
000200 7d 62 f2 3e 0c 92 aa be 3c 0b 8e 3a e0 49 4a 3d
       0.47340766 -0.3331455 0.0010837088 0.04938686
000210 91 e3 0c 3c 0a 35 a6 3c 57 13 ef 3c a1 ed 20 3d
       0.008599178 0.020288963 0.029184027 0.03928912
000220 48 fa ed 3b 0d 6a eb be 72 a1 07 3f e3 2a 29 ba
       0.007262502 -0.45979348 0.5298072 -0.0006453229
000230 da 05 52 3c ca f4 34 bd 92 84 cb bd dd 02 7c 39
       0.012818778 -0.04417876 -0.09937395 0.0002403366
000240 43 2f 0d 3b 60 36 6a 3b 36 88 d0 3e e3 88 05 be
       0.0021543063 0.0035737976 0.4072892 -0.130405
000250 b4 21 0c bd 79 4e 95 bc 65 07 0c bd 77 a3 f8 3c
       -0.03421183 -0.018225895 -0.03418674 0.030351384
000260 6a 20 58 3c fb f4 71 3c 5b b1 66 ba 7b 27 23 bc
       0.013191322 0.014767881 -0.0008800232 -0.009958143
000270 23 56 18 3d dd cc 5d bc 7d 8e be 3c b8 2c 92 bf
       0.03719152 -0.013537613 0.023261303 -1.1419897
000280 b8 27 6d 3d 92 f0 10 3b bf 35 db bc 26 b3 7d 3c
       0.057899207 0.0022116047 -0.026759027 0.015484607
000290 ab 40 9b 3d aa fa 25 3e 43 7c 67 bf 01 b9 c6 3e
       0.07580694 0.16208902 -0.90423983 0.38813022
0002a0 d8 8c 93 3c c9 bd a3 3d b9 31 4a bf cf 3f bb bb
       0.018011495 0.07995183 -0.7898212 -0.0057143937
0002b0 ea 41 cb bb aa 05 4e 3d 3b 50 2c 3f 68 48 7d bc
       -0.006202926 0.05029837 0.6730992 -0.0154591575
0002c0 68 f7 ab bc d4 ea 04 3d c5 81 c1 3c 71 a5 89 3d
       -0.020991996 0.032450512 0.02362145 0.067210086
0002d0 71 46 a0 3d 7b 1b 6d bd d5 8c b2 3c 9a f1 fd 3d
       0.07825936 -0.057887536 0.02179567 0.123995975
0002e0 24 b3 06 3c 14 d1 05 3e a3 77 4d 3c d0 fe 34 3a
       0.008221421 0.13068038 0.012540731 0.0006904425
0002f0 45 29 9b 3c 0b 62 b6 bc 60 c3 d2 3d c4 6e 7b 3d
       0.018940577 -0.022263547 0.10291171 0.06138493
000300 91 47 64 bc 38 37 c5 3d 82 43 7f 3e c3 86 46 3d
       -0.013933078 0.09629673 0.24928096 0.048468363
000310 73 f2 48 bc 47 29 9b bd 4d f4 d0 3c 93 6a cc 3d
       -0.012264836 -0.075762324 0.025507117 0.09981265
000320 a8 d5 f3 3c 23 c4 de bc 97 a7 51 3e f5 2f 0c bd
       0.029764965 -0.027193135 0.20474087 -0.034225423
000330 3a 07 1e 3d 61 03 98 3a e6 b9 80 be 10 b6 33 bc
       0.03858111 0.0011597687 -0.2514183 -0.0109687
000340 d8 04 a1 bc 94 b4 22 bc e0 60 2c 3d ad 1b f3 3c
       -0.01965563 -0.0099307485 0.042084575 0.029676283
000350 14 df af 3c d5 58 7a bc a0 bd 24 3c ea aa 1f 3d
       0.021468677 -0.015279968 0.010054976 0.038981356
000360 af 2e 20 bd d3 16 78 bd 59 76 3f 3e a3 77 86 3c
       -0.03910702 -0.060568642 0.1869749 0.01641447
000370 23 87 e7 3b 0b c3 f5 bc 82 d1 b2 3d 5f af cd 3c
       0.00706567 -0.03000023 0.08731367 0.025108038
000380 81 f6 a1 3b d3 c0 27 bf 35 2f 7f bd 5d 22 cd bc
       0.0049427156 -0.655286 -0.06230088 -0.0250408
000390 b7 27 9e bc 1b 5f 34 3e c5 f1 aa 3d 1c 58 f2 3d
       -0.019306047 0.17614405 0.08346895 0.11833212
0003a0 84 ed 55 3a 26 b6 d3 3c 2a 88 5a bc a3 b4 73 3d
       0.0008160698 0.025843691 -0.013338128 0.05949844
0003b0 ae 98 13 3c 8c 96 b5 3c 97 a6 4a 3c 2a 72 7f 3c
       0.00900857 0.022166513 0.01236882 0.015591184
0003c0 4c 6d 31 3c fd 1c 47 3d e6 6c e4 3e bb 69 87 3c
       0.010829281 0.04861163 0.44614333 0.016529908
0003d0 8e 4e d5 be 7d 52 2c bd 00 4b 1f bd 2c cb 90 bd
       -0.41661495 -0.042070854 -0.038889885 -0.07070002
0003e0 f1 2d 08 3c d6 3c 7e 3d 8a 0d 0b be c7 bd 9d be
       0.008311735 0.062069736 -0.13579383 -0.3080885
0003f0 4d 83 be 3d a6 5c 9f 3d 44 26 88 3d 24 ec f7 3e
       0.093023874 0.07781343 0.066479236 0.48422348

backbone.0.bias f4 [16]
000000 24 44 8d 3d d0 22 63 bc 9f bd 5c bd 3c 0f 00 3d
       0.068977624 -0.01386328 -0.053891774 0.03126453
000010 11 8e 86 3c 4c 8a 9c bc 5e 3f fc bd 9a c4 5f 3d
       0.016425164 -0.019108914 -0.12316774 0.054630853
000020 07 81 78 b9 70 de de 3c 04 6c ca 3b 20 ae 75 3d
       -0.0002369919 0.027205676 0.0061774272 0.05998051
000030 21 fd 41 3d bd b0 79 3e 61 a7 24 3d 39 cf 82 3b
       0.047360543 0.24383827 0.040198687 0.003991988

backbone.0.weight f4 [16, 16, 5, 5]
000000 cf 2d 53 bb 6f 26 20 3d 30 90 28 3d 8b 11 3b bc
       -0.003222335 0.039099153 0.041153133 -0.011417757
000010 67 7b 9e 3c 5e 83 b1 3d ce 49 30 be d9 52 1a be
       0.019345952 0.086676344 -0.17215654 -0.15070666
000020 12 c5 79 3b a3 14 c1 3d d3 02 af 3b bd 9d a4 bd
       0.0038111848 0.09427764 0.005340913 -0.08037899
000030 45 e9 dd ba 44 48 36 bc 06 8b 13 3c 21 6e 41 3c
       -0.0016930482 -0.011125628 0.009005314 0.011806042
000040 7c 0f 06 3d 91 ec 02 3e 8f bf 8d bc 8f 40 02 be
       0.03272961 0.12785555 -0.017303256 -0.1271994
000050 65 ed 90 3c 60 5b b7 3c be 36 8e b8 99 9c fc bc
       0.017691324 0.022382438 -6.781284e-05 -0.03083639
000060 d9 47 31 bc 6d 26 21 3d cc e0 1b bc 66 f9 63 3e
       -0.0108203525 0.039343286 -0.009514045 0.22263107
000070 78 8b a3 3d a5 ab ed bd 07 3f 20 3e b6 52 b3 3e
       0.07985586 -0.11605004 0.15649043 0.3502404
000080 f6 18 1b 3e 8d da 45 3e 6d 5d 64 3d 1d c8 3b 3e
       0.1514624 0.19321652 0.05575316 0.18338056
000090 e2 26 3b 3e 51 2f a1 3e bd 32 9e bd 7c 2c 0c 3d
       0.18276551 0.31481412 -0.07724521 0.03422211
0000a0 26 c1 c9 3d a5 b2 82 3e f1 13 f6 3d 4b 6c 0c 3e
       0.09851293 0.2552692 0.12015522 0.13713185
0000b0 72 8e 64 ba 4c 8a 2b bd 1f 7b da 3c 95 2a 74 be
       -0.0008718736 -0.041879937 0.026670037 -0.23844369
0000c0 86 f1 28 be e3 a3 ee b9 c7 18 84 bc bc c1 8f 3d
       -0.16498384 -0.00045517003 -0.016125096 0.07019374
0000d0 f4 35 1a 3e 54 16 6d 3d 1f 4e f3 3d 70 a1 94 3d
       0.15059644 0.057882622 0.11880135 0.07257354
0000e0 72 04 fd 3d 8b 95 85 3d a8 8d f9 3d 93 82 19 3e
       0.123543635 0.06522664 0.12185222 0.14991216
0000f0 76 c1 40 bd 4c bc 99 3d e3 64 e9 3d 93 4d f7 3d
       -0.0470595 0.07506618 0.11396196 0.12075343
000100 26 9d 21 3e b2 d6 39 3e 80 85 04 3e fd 77 f2 3d
       0.15782604 0.18148306 0.12941551 0.11839292
000110 7d 27 1e 3e 8a d2 29 3e fa eb 62 bc a2 ef 96 3d
       0.15444751 0.1658422 -0.0138502065 0.07369925
000120 b0 6e 0f 3e 25 fd 23 3e 49 b8 d7 3c f9 b5 7a 3d
       0.14007068 0.16014536 0.026332991 0.0612087
000130 bc 79 23 3e 74 cf a8 3d ff de bd 3d 2d 6a b2 3d
       0.15964407 0.082426935 0.09271049 0.08711658
000140 f3 02 a4 3e a8 7a e6 3e e4 d7 ed 3e 61 92 9e 3e
       0.320335 0.45015454 0.46453774 0.30971053
000150 c8 e7 69 3c c1 3a 1a bc 49 90 fb 3e 9e b5 27 3f
       0.014276452 -0.009413422 0.49133518 0.655115
000160 f6 cd 82 3e 66 d1 f8 3c ac ae a8 3c 8b 20 5d 3d
       0.2554776 0.030373286 0.020591103 0.053986114
000170 4b 1c 2b 3e ba 76 2d 3e 3f 2f 18 bd bf 40 67 be
       0.16710012 0.16939822 -0.037154432 -0.22583292
000180 ec 6c 33 bd a3 4a da bd 8b 80 27 be be 03 1c be
       -0.043805048 -0.10658767 -0.16357629 -0.15235803
000190 c4 05 cc bd 8f d4 5d bf 88 ee d8 be c6 74 4b be
       -0.09962037 -0.86652464 -0.42369485 -0.19868764
0001a0 7f 7f 67 bb 50 6d 2f bf dc 7e 29 bf 29 c6 9b bf
       -0.0035323796 -0.6852617 -0.662092 -1.2169849
0001b0 ce 14 20 bf d0 8a 7f be 8b 64 31 bf e3 46 60 bf
       -0.62531745 -0.24955297 -0.6929404 -0.87608165
0001c0 3b bc 33 bf 16 bb 57 bf 20 7f b2 be ba 29 de bb
       -0.7020909 -0.84269845 -0.34862614 -0.0067798765
0001d0 66 7b d8 be dc 3b 37 bf 3e ef 9b 3c c9 72 db bd
       -0.42281646 -0.71575713 0.019034978 -0.10715253
0001e0 ee a8 73 bc 52 e5 3d be 8a 0c a9 bd 51 69 01 be
       -0.014871819 -0.1854451 -0.08254345 -0.12637831
0001f0 7e 4b 31 bd 23 56 3e be 36 b0 3f bf 7f 18 e4 be
       -0.043284886 -0.18587546 -0.7487825 -0.4454994
000200 db 27 88 be d2 2d 74 bd 57 77 28 bf fa 70 36 bf
       -0.26592907 -0.05961401 -0.658071 -0.7126614
000210 a0 14 93 bf e0 6d 2a bf 3f 3f bf be 42 ab 1f bf
       -1.1490669 -0.66573906 -0.3735294 -0.62370694
000220 4a 4e 7f bf 48 b3 41 bf 81 69 27 bf a4 90 aa be
       -0.99728835 -0.75664186 -0.6539536 -0.33313477
000230 fc e7 12 bd 45 a3 ff be 7a 3b 45 bf eb 5f e9 bc
       -0.03586577 -0.49929252 -0.7704388 -0.02848812
000240 25 ae be bd b0 57 a7 bd fc 7f 8f be f1 22 91 bd
       -0.09310559 -0.08171022 -0.28027332 -0.07086743
000250 92 7c a9 bb af b7 74 bd 77 b2 50 be 31 00 5f bf
       -0.0051723206 -0.059745487 -0.20380579 -0.8710967
000260 7b d2 ce be ec b3 9a be 04 31 09 bd 24 f9 36 bf
       -0.4039496 -0.30215394 -0.03349401 -0.7147391
000270 44 89 54 bf 31 08 83 bf 33 89 22 bf 8a 0a d1 be
       -0.8302195 -1.0236875 -0.634906 -0.40828353
000280 ab d6 37 bf 6f 27 8b bf 47 7f 2f bf d8 e5 2f bf
       -0.7181193 -1.0871409 -0.68553585 -0.6871009
000290 d2 6d b2 be 9b a3 8e bd 97 68 de be 25 24 3a bf
       -0.3484941 -0.06964799 -0.4343917 -0.727114
0002a0 89 e0 bd 3c 5a e2 22 be e7 10 c4 3c e1 d3 2c be
       0.023178356 -0.15906659 0.02393384 -0.168777
0002b0 2a 19 44 3c 65 c0 90 bb 84 c4 d8 bc 6a 24 63 be
       0.01196889 -0.0044174665 -0.026460893 -0.2218186
0002c0 db 1a 35 bf 96 31 bc be ef ee c7 be c2 f5 98 bd
       -0.70744103 -0.3675658 -0.3904948 -0.074687496
0002d0 89 c4 4d bf 61 31 57 bf 66 89 a2 bf ab bf 23 bf
       -0.80378014 -0.8405972 -1.2698181 -0.6396434
0002e0 d6 06 cf be f5 53 38 bf d4 5f 83 bf 91 f2 31 bf
       -0.40434903 -0.7200311 -1.026362 -0.6951075
0002f0 19 11 43 bf 30 d6 a0 be 35 b5 27 be fd e8 08 bf
       -0.76197964 -0.31413412 -0.16377719 -0.5348051
000300 ff 9d 46 bf 06 51 af 3c 25 73 b6 bd d0 bf 42 bd
       -0.7758483 0.02140094 -0.08908681 -0.047546208
000310 6e 06 8d be e9 94 c5 bd 62 4e 0b be 27 8d de bc
       -0.27543968 -0.09647543 -0.1360412 -0.027166916
000320 9a 7a 79 3e 7f f2 5d 3e 20 f3 5b be f5 3e 7a 3d
       0.24363175 0.21674536 -0.21479464 0.061095197
000330 82 c3 05 bc 38 5f cc 3d 10 3c 16 bf 6d eb 83 bf
       -0.0081642885 0.09979099 -0.586854 -1.0306221
000340 d6 31 d3 be dc fa 71 3e 48 bb a5 3d 49 04 b1 bf
       -0.4124896 0.23630852 0.08092362 -1.3829433
000350 89 06 9e 3c 1b ba a9 3e 87 bd 3c be 13 23 47 3e
       0.019290226 0.331498 -0.18431674 0.19446974
000360 9f 6a 4a 3e cf 05 d0 bb d7 04 45 3d fd c0 69 bc
       0.19767235 -0.0063483487 0.04810032 -0.014267203
000370 75 2d 18 bd a5 d1 3f 3e 15 ae 4b 3e b9 ac 12 bc
       -0.037152726 0.18732317 0.19890626 -0.008952313
000380 d9 c2 f9 3c 54 44 91 3e 73 ad 88 3e 44 ed 33 be
       0.030488418 0.28372443 0.2669483 -0.17570978
000390 a9 cc 76 3d 82 76 92 bc 02 42 16 3e ea 32 09 bf
       0.060253773 -0.017878775 0.14673617 -0.53593314
0003a0 ce e7 86 bf b4 06 90 be 54 7a 3c 3e 64 03 3a 3e
       -1.0539491 -0.28130114 0.1840604 0.18165356
0003b0 06 b3 a8 bf 91 ba d9 bd 3d 6f c2 3e cd d4 1d be
       -1.3179634 -0.10631288 0.37975493 -0.15413208
0003c0 39 0e 0b 3e 6a 2d 93 3e 48 7f d8 3d 4c dc 29 3d
       0.13579644 0.28745586 0.10571152 0.041469857
0003d0 b9 3f 5b bc 56 ad a0 bd 23 6b f8 3d 74 01 1a 3e
       -0.013381892 -0.07845561 0.1212981 0.15039617
0003e0 18 83 24 3d 75 41 0a 3d ee 46 a4 3e ee e4 85 3e
       0.040164083 0.03375383 0.32085365 0.26151222
0003f0 57 fd 67 be 99 3a 1a 3e 5c 6d 75 3c 67 13 5f 3e
       -0.22655235 0.15061416 0.014979687 0.21784745

backbone.11.bias f4 [128]
000000 ec aa 10 be 0d 6b 11 be 86 a0 f9 bb eb dc 9f 3c
       -0.14127702 -0.14200993 -0.007618013 0.019514522
000010 e6 ae 16 be fd be 29 bd a3 77 1e bd 42 d7 b4 bd
       -0.14715156 -0.041441906 -0.038688313 -0.0883012
000020 9d 36 72 3d 6c 07 6a bd 1a d0 48 be 04 6d 5b 3c
       0.059134115 -0.057135984 -0.19610634 0.013392691
000030 8b 7d ae bd 0a 2d 3d bd 31 e5 b2 bd 70 57 d1 3d
       -0.08520039 -0.04618553 -0.08735121 0.102217555
000040 c2 85 96 bb b5 3d bc bd 9c 5f e9 3a 00 c5 bc bc
       -0.004593582 -0.09191457 0.0017804983 -0.023043156
000050 2b 8e 4e bd 4b b0 1c be f7 dd 3d 3d 9b db 46 bd
       -0.05042855 -0.15301625 0.04635426 -0.048549276
000060 45 9e 06 bd a9 84 3f bd bb d4 f0 bc 80 e0 ee bd
       -0.03286578 -0.046757374 -0.029398313 -0.11663914
000070 b3 da a3 3c a4 92 e1 3c d4 43 ea bd 8c e8 8e bd
       0.020001745 0.027535744 -0.114387184 -0.069779485
000080 c5 bb d3 b8 d6 ad 84 bd ac 96 a6 bd 9d 90 f6 bd
       -0.00010096239 -0.06478469 -0.08134207 -0.120393015
000090 af 8f ac bd c6 ad 79 bd e8 0c 20 be 52 e6 e6 3d
       -0.08425843 -0.06095674 -0.15629923 0.11274399
0000a0 46 4f ec bd be 43 aa bd c7 b1 2f be 80 48 e4 bc
       -0.11538558 -0.08313702 -0.1715766 -0.027866602
0000b0 d7 7a 50 bc c1 d9 09 3c cf 5b 7b bd 2c c9 1b 3d
       -0.0127246 0.008413733 -0.061366852 0.03803365
0000c0 cc c5 e2 bd 00 4a c3 bd 7f 3b 80 bd 95 fa dc 3b
       -0.11072883 -0.09535599 -0.06261348 0.006743739
0000d0 68 9a 44 3d a3 58 3a 3c ef 5a 99 bd 75 09 2e bd
       0.047998816 0.011373672 -0.07488047 -0.042489488
0000e0 31 49 91 bd ad 33 13 3c 5a 9f 01 3d cf 0b 81 bd
       -0.07094038 0.008984488 0.03164611 -0.063010804
0000f0 75 e4 b8 3d 28 d5 91 3d 83 dc 05 3e 19 eb 02 be
       0.0902795 0.071207345 0.130724 -0.12784995
000100 b7 6b 28 be 5d 9a 20 be 65 d5 ad bd 1b f6 b4 bd
       -0.1644734 -0.15683885 -0.084879674 -0.088360034
000110 59 f6 03 3d f7 ac 32 be a9 21 09 bd 52 82 90 bd
       0.032217357 -0.17448793 -0.033479366 -0.070561066
000120 9a 71 2b bc ad a1 db bd 40 1f a7 bd 4a 00 95 bd
       -0.010464096 -0.107241966 -0.08160257 -0.07275446
000130 c6 8e 30 3d dd 58 34 be 4d 61 c3 bd 30 65 bb bd
       0.04310491 -0.17612024 -0.09540043 -0.09150159
000140 dd 63 2b 3d a1 3e 14 bc 4c 2b 47 3c 62 f4 18 be
       0.041843284 -0.009048135 0.012156319 -0.14936975
000150 a4 1f 29 3b 81 34 e7 bc 7c 2b 88 3d e1 5c 98 bd
       0.0025806213 -0.028223278 0.06648919 -0.0743959
000160 ab ee 20 be 6e 6c 49 bd 4b 5b 9d bd a8 f9 5b 3c
       -0.15716045 -0.049175672 -0.076834284 0.013426222
000170 08 68 3b 3d e1 89 56 bc 1d 48 0e 3c fa c7 45 bd
       0.04575351 -0.013094396 0.008684185 -0.048286416
000180 07 21 c9 bc 36 37 90 bd 18 7b 11 bc aa d4 90 3d
       -0.024551881 -0.07041781 -0.0088794455 0.070718125
000190 80 94 c9 3c 0a ad ab bd 1f bc 93 bd 69 e3 24 3c
       0.024606943 -0.08382614 -0.072136156 0.010063984
0001a0 d3 61 2b 3d ff 85 88 bb 90 7f ce bd aa 05 52 3d
       0.04184134 -0.004166364 -0.10082924 0.051274933
0001b0 d7 bd 28 bd 47 03 54 bd c9 17 42 3c a6 28 0a 3e
       -0.04119667 -0.051760938 0.011846491 0.13492069
0001c0 eb 01 c9 bd 81 eb 90 bd 8f 90 08 be 1f 67 62 bd
       -0.09814819 -0.07076169 -0.13336395 -0.055274125
0001d0 78 5a 2c be fb 04 08 bd 69 77 92 bd 1e 9e 48 bd
       -0.16831386 -0.033207875 -0.07151682 -0.048978917
0001e0 87 a2 c1 bc b0 d8 df bd 25 0f 19 be 94 ef b6 3c
       -0.02363707 -0.10930002 -0.14947183 0.022331037
0001f0 6c 06 92 3c b7 40 2a be 7e f4 bd bb aa bf 00 be
       0.017825328 -0.16626249 -0.005796968 -0.12573114

backbone.11.weight f4 [128, 16, 3, 3]
000000 ba ca d4 3d ef 35 d9 3c 9e 71 8e 3d 5e a0 5e bd
       0.103902295 0.026514975 0.069552645 -0.054352157
000010 ff c7 2b 3d 0c 92 28 3e 05 76 aa 3d 15 c3 99 bc
       0.041938778 0.16461962 0.08323292 -0.01876978
000020 00 20 c4 3d 0c ed 8b be 2a 19 0d 3d 73 d7 54 3e
       0.09576416 -0.2732929 0.034447826 0.20785312
000030 cf 7d 65 3d 69 8d ff bc 6f 27 0d 3d fd f9 1d 3e
       0.056028184 -0.03119536 0.034461435 0.15427394
000040 c6 05 90 3e 6f b5 be 3d c3 2e d3 3d eb ef 40 3d
       0.28129405 0.093119495 0.103116535 0.047103804
000050 59 d8 45 be 98 ef 5b bd 67 71 42 be d6 5e 3a be
       -0.19320811 -0.05369529 -0.18988572 -0.1820024
000060 19 56 5a be 21 99 32 be 62 29 f6 bd e8 c2 d9 be
       -0.21321906 -0.17441227 -0.12019612 -0.42531514
000070 99 67 ed bd 16 7e 1d be a1 62 2b be 31 14 75 bd
       -0.11592025 -0.15380129 -0.16736843 -0.05983371
000080 1b bb 70 bc 3d eb 37 bd 00 12 37 bc 91 25 72 3d
       -0.014693047 -0.044902075 -0.011173725 0.059117857
000090 45 f2 1e bd ce 8c 6c bd 61 7f d2 bb b3 dc 11 bc
       -0.038805265 -0.05775147 -0.006423876 -0.008902716
0000a0 96 a6 49 bd d1 42 75 bd 09 2f ec bd 2b ce 08 3e
       -0.049231134 -0.059878174 -0.11532409 0.13359897
0000b0 ca aa 0e bd 87 9e 3d be b6 8f cc 3d d1 10 6a bd
       -0.034830846 -0.18517505 0.09988348 -0.057144944
0000c0 01 f0 40 3d 65 76 8e bd 25 69 db 3d c4 74 89 3e
       0.047103886 -0.06956176 0.10713414 0.26846898
0000d0 c7 40 35 3d 9e 96 7b 3e af f2 bb 3c 9a a0 d7 3d
       0.04425123 0.24569175 0.022942869 0.10528679
0000e0 53 68 3b bc 08 9e 13 be 83 d3 5d be c7 71 b0 bd
       -0.011438447 -0.14415753 -0.21662717 -0.08615451
0000f0 67 fc d2 bd 33 88 7c bd 49 14 5e bd fd 5f f5 bd
       -0.10302048 -0.061653327 -0.054218564 -0.11981199
000100 88 ca ff bc 25 a4 a9 bc 27 eb cf bd 69 9b 3b 3c
       -0.031224504 -0.020708153 -0.101522736 0.011450627
000110 61 b2 75 bd 9b 28 8e 3d bd a1 6d be 67 eb 21 be
       -0.05998457 0.06941339 -0.2320623 -0.15812455
000120 2e 04 dc be 30 2f 9d bc 8c 3c 33 3c f2 bb a0 be
       -0.4297194 -0.01918754 0.0109397285 -0.3139339
000130 de 22 bf 3d 0e 23 10 3e 66 a1 9c be 62 8f 06 be
       0.09332822 0.14075872 -0.30591887 -0.13140634
000140 87 3f 24 3e 3c d7 ac be a0 b7 12 3d 33 43 58 3d
       0.16039859 -0.3375796 0.03581965 0.05279846
000150 58 f6 0b ba d8 3c 05 3c 45 ff 9f bb f7 00 4c bc
       -0.0005339137 0.008132182 -0.0048827254 -0.012451402
000160 98 38 30 3d 2c 17 0d 3c f6 99 53 be d0 98 01 be
       0.043022722 0.008611482 -0.206642 -0.1265595
000170 e9 cf b4 3a 31 39 30 be e2 22 63 bc aa 4b d5 bd
       0.0013794872 -0.17209317 -0.013863297 -0.104148224
000180 c4 c3 80 3d cd a3 1c bc 19 71 33 be b1 69 95 3d
       0.06287339 -0.0095605375 -0.17523612 0.0729555
000190 40 56 92 3d dd 59 97 bd ab d2 80 3c 8b 64 34 3d
       0.07145357 -0.07390187 0.015725454 0.044041198
0001a0 55 13 db 3d 76 56 5c bd fc 64 22 3c 7f 27 52 3e
       0.10697047 -0.053793393 0.009911772 0.20522879
0001b0 59 0b f6 3e 1a 5c 84 3e c6 f1 d3 3c db ce 7a 3e
       0.48055533 0.25851518 0.025872122 0.24492972
0001c0 6b c4 3b 3d 3c 53 27 3d a9 d0 98 3e ea 17 1e 3e
       0.045841616 0.040850863 0.29846695 0.1543881
0001d0 f4 22 98 bd b9 cb bb 3c 0f e9 66 3e 6e 3a b4 3d
       -0.07428542 0.022924291 0.22549842 0.08800207
0001e0 8c a8 f4 bb fe 33 c6 bc 44 58 62 3d 31 e9 af bc
       -0.0074663814 -0.024194714 0.055259958 -0.021473499
0001f0 7c d6 54 3e ec 0b e8 3d 5c 80 be be 42 1e 02 3b
       0.20784944 0.11330399 -0.37207305 0.001985446
000200 58 b5 3d 3d a4 1b 80 bd a0 a8 25 bd bf b0 b0 bd
       0.04631552 -0.06255272 -0.040444016 -0.08627462
000210 5b c5 87 bd eb e2 40 bc 04 cf 03 be 5a 40 03 be
       -0.066294394 -0.011772851 -0.12871939 -0.12817517
000220 5c 4e 2f 3d b1 cf 20 3e 98 13 29 3d 78 40 92 bc
       0.04279934 0.15704228 0.04127845 -0.017853007
000230 f6 82 b4 3d a4 6d 67 be fe 16 39 bd ff 0c 81 3e
       0.08814041 -0.22600418 -0.045187943 0.25205228
000240 8e 63 8a 3e fa 39 98 3e c0 e7 ce bc 13 40 5a 3e
       0.2702908 0.29731733 -0.025256991 0.21313505
000250 ad 75 8f 3e d7 ad c3 be de 37 df bc 4f f5 04 3e
       0.28019467 -0.38218567 -0.02724832 0.12984203
000260 a7 08 1c bd ec 29 d0 3c 8f c2 15 be e3 92 7a bd
       -0.03809419 0.025410615 -0.14625 -0.06117524
000270 74 6f c9 be c8 0e 96 be ac 6a 24 be f9 4f 8d bd
       -0.39342844 -0.29308152 -0.16056317 -0.06900019
000280 8c 21 6c be a3 c6 70 3d c3 03 c1 3d 25 62 1c be
       -0.23059672 0.058783185 0.094245456 -0.15271814
000290 5f 96 f4 bd 34 c6 de bd 00 f4 c8 bd ad af 76 3d
       -0.119427435 -0.10877648 -0.09812164 0.06022613
0002a0 3e 40 73 3d 31 f6 79 3c f5 ae 33 bd 94 76 7e 3d
       0.059387438 0.0152564505 -0.043868024 0.062124804
0002b0 60 19 b0 3d fe ef 10 be 57 1f af 3d a7 cd a1 bd
       0.0859859 -0.1415405 0.085508995 -0.07900553
0002c0 2c 5e 0b 3d 26 e6 dc bd 23 ab 81 3d 8a 33 33 bd
       0.034025356 -0.10786085 0.0633147 -0.043750323
0002d0 36 ef 4a bd d8 d1 63 be a9 05 53 be 77 fd 03 be
       -0.049544536 -0.22248018 -0.20607628 -0.12889658
0002e0 a4 89 95 3d d0 f6 a0 3c 77 92 38 3d bb a3 87 bc
       0.073016435 0.01964894 0.045061555 -0.016557565
0002f0 72 97 90 3b 3a 4d 05 be 23 2a 69 3c 3e 57 04 be
       0.004412585 -0.13017741 0.014231238 -0.12923905
000300 06 11 fa bd 69 1d dd bc 5e 9a 90 bd e6 0f 1e 3e
       -0.12210278 -0.026991563 -0.07060693 0.15435752
000310 1b d4 10 3e 09 68 28 bc 98 fe 0e be 26 e6 58 be
       0.14143412 -0.01027871 -0.13964307 -0.21181545
000320 57 ae 4a 3c 77 d0 64 bd af c7 b9 bc 57 78 12 be
       0.012370667 -0.05586287 -0.022678224 -0.14303719
000330 27 f3 9c bd 50 7b a2 bc a1 b0 b0 3d 49 2b 34 be
       -0.07663565 -0.01983419 0.08627439 -0.17594637
000340 2c 1b 58 3e b0 ef 48 3e e7 77 7c 3c ac 3f 90 3d
       0.21104115 0.19622684 0.015409446 0.070433944
000350 c2 17 8d be 90 a8 81 3a 21 4a 7b 3d ec 2c ff 3d
       -0.27557188 0.0009892154 0.06134999 0.1245974
000360 37 ed 90 3d 5e c5 35 3d af 99 98 3b 0d 3b 8d 3c
       0.07076495 0.044377677 0.0046569924 0.017240072
000370 35 f2 4e 3e 4f 47 16 3d 0a 36 ba bc 69 fe 8a bc
       0.20209582 0.0366891 -0.022730846 -0.016967015
000380 56 95 d5 bc 41 6a 0e be 70 e3 8f bb 61 f2 74 3e
       -0.026072185 -0.1390772 -0.0043911263 0.23920585
000390 f9 cd 2d be 16 58 16 3d 57 95 8a 3d c4 1d 13 3d
       -0.16973104 0.0367051 0.067667656 0.03591706
0003a0 24 ee 08 3e 15 ab b4 39 5e 62 ee bd 53 e7 29 be
       0.13372093 0.0003445974 -0.11639856 -0.1659215
0003b0 59 3d d1 bd 25 34 8f 3d 59 c4 0b 3e 08 bf e0 bc
       -0.10216779 0.06992368 0.1364912 -0.02743484
0003c0 8b 18 9f 3d 24 53 02 3e 60 93 da 3d 8d 78 55 be
       0.07768353 0.12727028 0.10672641 -0.20846768
0003d0 22 96 57 3e 29 8d 59 3e ae 7e 50 be e8 ce 79 3c
       0.21053365 0.21245255 -0.20360824 0.015247084
0003e0 8c 66 55 3d 9f 99 22 3e 78 6d 86 bd b1 5d 85 3e
       0.05209975 0.15878914 -0.06563848 0.26048043
0003f0 b6 a6 1c bd 15 f6 b5 3d ae 53 83 be d2 30 67 be
       -0.038244925 0.08884827 -0.2564978 -0.22577217

backbone.15.bias f4 [256]
000000 d7 86 10 3e c3 05 8a 3e 40 91 96 3d cb 9b ac 3d
       0.14113937 0.2695752 0.07351923 0.08428153
000010 ce 0b d6 bb 0f 61 1a 3d 9a 71 a9 bd dc 20 cd 3d
       -0.006532169 0.03769022 -0.08273621 0.10016033
000020 7b 66 92 3d 7c a7 f2 3d bb e1 34 3d b6 20 98 3d
       0.07148453 0.11848351 0.044160586 0.07428114
000030 32 54 8c bd 0e 25 14 3e 26 dd f0 3d af d2 5f 3c
       -0.068519965 0.1446726 0.11760931 0.013661071
000040 2a 8b a6 bd bc 3c 84 bd ae f5 51 3e 75 e4 cb 3d
       -0.08132012 -0.06456897 0.20503876 0.09955684
000050 b6 f7 9e 3d 52 28 29 3d 2b 0b 16 3e 81 1e 59 3d
       0.07762091 0.041298218 0.14652698 0.053007606
000060 d9 86 2c be 92 fc c0 bc 3f b4 e3 bd c7 79 1f bc
       -0.16848315 -0.023557935 -0.111183636 -0.009733624
000070 b7 48 b3 3c a7 db 26 b9 2e 59 97 bd b8 fa 93 3d
       0.02188526 -0.0001591282 -0.073900566 0.07225555
000080 67 cc c9 3c eb 6c 87 3d 89 5e 24 bd b8 df b4 3d
       0.0246336 0.06612571 -0.04012922 0.088317335
000090 ad 10 12 3d 86 44 d0 3d 27 d8 35 be 8f 7e 78 3d
       0.035660435 0.1016932 -0.17758237 0.06066757
0000a0 46 0a 33 3c 97 c8 60 3d 16 11 05 be 7b 70 57 3d
       0.010927742 0.054878797 -0.12994799 0.052597504
0000b0 07 16 d5 bb 5c b2 34 3e b4 51 40 3d 3c 41 87 bd
       -0.00650287 0.17646164 0.04695292 -0.06604239
0000c0 f0 6d c4 3d c6 c7 8e 3d 38 a6 12 3e 61 24 19 bd
       0.095912814 0.069716975 0.1432122 -0.03738821
0000d0 82 ee cf bb 08 43 b5 3d 8f 00 94 3d 7e f8 80 3c
       -0.006345571 0.08850676 0.07226669 0.01574349
0000e0 e1 b4 97 3d 94 bc 5e 3d d6 34 ef bd 04 1b d4 3c
       0.07407547 0.05437906 -0.116799995 0.025891788
0000f0 8d 4c 56 bd c1 90 df 3d 47 fe ba bc ca f5 88 bd
       -0.0523191 0.109162815 -0.022826327 -0.066875055
000100 d4 6a 97 bd 9e b9 8c 3c f4 49 f9 3d 72 80 ca 3d
       -0.07393423 0.017178353 0.121723086 0.0988778
000110 fe 69 3c be 52 1a da 3d 6f 4e 1d 3d af 74 c8 bd
       -0.18399808 0.106495515 0.03840488 -0.09787881
000120 63 5b 35 3e 28 b6 01 be 12 81 c5 3d f5 43 84 3d
       0.17710643 -0.12667143 0.09643759 0.06458274
000130 2b 69 0f 3e 04 4f 91 3d 5e 04 34 3c fd a1 d3 3d
       0.14004962 0.07095149 0.010987369 0.10333631
000140 a5 55 c4 3d f0 de 1c be f2 e0 37 3d f6 a2 66 bd
       0.09586648 -0.15319419 0.04489226 -0.056307755
000150 8d a4 1a 3d 7f 19 3f bc 82 ba 3c 3c 6b 1f bc 3d
       0.037754584 -0.011663794 0.011519076 0.0918568
000160 09 a8 ab bb 48 f3 0b 3d f0 89 9c bd 78 53 3c bd
       -0.005238537 0.034167558 -0.07643497 -0.04597804
000170 6c 04 2d 3d dc 11 03 bc cb 1a 83 3c 2f 7a 4c 3d
       0.042240545 -0.0079998635 0.016003987 0.04992121
000180 fb b6 a8 39 e1 94 1d bd a6 3a 11 bc 0f 2e 17 3e
       0.00032179788 -0.03847206 -0.0088640805 0.14763664
000190 f2 37 78 3d 55 26 61 3d 14 70 ab 3d fc b7 94 3b
       0.06060023 0.054968197 0.083709866 0.004538534
0001a0 97 dd 9b 3d ba 08 05 bd ba 56 0e 3e f5 ec 85 bc
       0.07610624 -0.032479025 0.13900271 -0.016348341
0001b0 d9 6b 5e bd a9 e4 ee 3c 1e cd 4c 3d 3d 67 af 3d
       -0.05430207 0.029161768 0.050000302 0.08564613
0001c0 9f 39 d6 bd 46 b4 c3 3d e3 7e 2b 3e bb 62 46 bc
       -0.10460209 0.09555869 0.16747622 -0.0121085
0001d0 92 8c 7f 3c 3e 39 ae 3d ba ca 39 3d fb 5f ec 3d
       0.015597479 0.08507012 0.04535935 0.11541744
0001e0 23 f0 07 3e 5a dd 31 be 77 77 a1 3d 3b 70 29 3d
       0.13275199 -0.17369595 0.07884114 0.041366797
0001f0 f8 5a f5 3d cf 8d e0 3c bc 7f 23 3e aa f6 3e be
       0.119802415 0.02741137 0.15966696 -0.18648782
000200 36 1e 44 bd fd b7 d9 3d 9d 10 73 3d fb a4 07 3e
       -0.047880374 0.10630796 0.059342016 0.13246529
000210 c1 33 b4 3d c6 b9 34 3d 0f 65 92 bd a9 fa b6 3d
       0.08798934 0.04412248 -0.07148182 0.089345284
000220 a1 f1 d9 3d f3 f5 18 3e 69 3f 96 3c 25 df e6 3d
       0.1064179 0.14937572 0.018340783 0.1127303
000230 9e 1c 42 3d ae 6c 82 3c 76 95 e0 3d a9 e3 4e 3e
       0.047390573 0.015920963 0.109660074 0.20204033
000240 c0 82 c4 3c 8d 16 45 be e4 1e a6 bd 98 cc 2b 3e
       0.023988128 -0.19246884 -0.08111361 0.16777265
000250 10 fe d7 3c 5e 46 c2 3d 76 32 97 3d 2c 63 a1 bd
       0.026366264 0.09486078 0.073826715 -0.07880244
000260 a3 2b 28 be 66 bd 76 3d 35 c1 cc bc 09 93 a4 3d
       -0.16422896 0.06023922 -0.024994472 0.08035857
000270 a5 cc 03 3d d8 95 0e 3e 0a ea da 3d 24 8e 15 bd
       0.032177586 0.13924348 0.10689171 -0.03651251
000280 f3 c0 01 3d 70 6d e9 bd 30 4e 06 3d fb 3a e4 3d
       0.03167815 -0.11397827 0.03278941 0.11144062
000290 06 fc 42 3e b3 bb d7 3c 14 7d 80 bb b4 6b 8a 3c
       0.19041452 0.02633462 -0.0039211605 0.01689706
0002a0 0f e3 85 3d 7a fa c1 3d 56 d7 44 3c 62 2b 36 3d
       0.065374486 0.09471603 0.012014231 0.044474967
0002b0 50 66 bd 3d 13 fd 80 bd 4d c6 e3 3c 51 ec ce bc
       0.0924803 -0.0629827 0.027804518 -0.025259169
0002c0 bc 26 21 3e c3 e3 9a 3d a5 3d 07 be fa c7 d4 3a
       0.15737432 0.07562973 -0.1320711 0.0016233914
0002d0 a1 aa af 3c 88 54 2b bc 7d 42 38 3d ca 94 1f bd
       0.021443667 -0.010457166 0.044985283 -0.038960256
0002e0 5d 54 91 3d cb c1 03 3d f2 46 b8 3c 0c e1 4d 3e
       0.07096169 0.032167237 0.022494767 0.2010538
0002f0 c5 89 8a 3c 3b 45 fc 3d c1 36 a4 bd 77 86 3f bc
       0.016911397 0.12317892 -0.08018256 -0.011689774
000300 1d 3a 34 3e 70 87 5e bc 81 ec 2b 3c 9d 66 de 3d
       0.17600293 -0.0135820955 0.010493399 0.10859416
000310 d4 0d 78 3d 97 4c 0d be be 32 14 3e 54 c9 2a 3e
       0.060560063 -0.13798748 0.14472482 0.16678363
000320 8b 96 91 3d e8 3c 32 3e 25 d8 5b 3d da 4c a6 3d
       0.07108792 0.17406046 0.05367293 0.08120127
000330 99 7f db 3d c7 e5 27 3e 93 23 2a be d5 56 b2 3d
       0.10717697 0.16396247 -0.16615133 0.08707968
000340 53 d9 6f bd f0 d4 09 3d 77 5b e0 3d e3 1d 39 bc
       -0.058556866 0.03365034 0.109549455 -0.011298629
000350 fd 00 0d 3e b5 6d c5 3b b6 cf ce 3d 91 74 aa 3c
       0.13769908 0.006025041 0.100982115 0.020807536
000360 32 de e9 3c 73 98 97 3c dd b9 87 3d dc 02 c3 3d
       0.028548334 0.01850531 0.066272475 0.0952203
000370 54 62 fd 3c 4a a6 fd 3d 89 6e 40 bc 8e ad e6 3d
       0.030930676 0.12385233 -0.011745104 0.11263572
000380 6d 1d 3f 3e 89 df 2e bc d7 bf 88 3d 12 8f 72 bd
       0.18663569 -0.010673412 0.066772155 -0.059218474
000390 7d 44 5c 3d 4e d4 45 3d 75 f8 ae bc a6 2b af 3d
       0.053776253 0.048298173 -0.021358708 0.08553247
0003a0 9a b0 8b 3c e5 eb 01 3e 83 52 7a 3d 87 fa 5a 3c
       0.017051984 0.12687643 0.061113846 0.013365394
0003b0 30 92 5c 3d 8f a2 13 be 76 4d 9c 3d 48 8f 74 bd
       0.053850353 -0.1441748 0.07631962 -0.059706956
0003c0 dd d5 25 3e 11 8b b0 bc 14 7c da bd 15 38 23 bd
       0.16194864 -0.021550687 -0.10668197 -0.039848406
0003d0 89 4f 76 bd da aa 30 3c e2 70 08 3e d9 04 e7 3b
       -0.060134444 0.010782922 0.13324311 0.0070501384
0003e0 00 a3 27 bc 9b 44 1b bd 70 19 2b 3d 65 19 05 3d
       -0.010231733 -0.037907224 0.041772306 0.03249492
0003f0 2f ff b1 3d 60 f8 c2 bc 88 1a b3 bb 16 99 fa bd
       0.086912505 -0.023800075 -0.0054658093 -0.1223623

backbone.15.weight f4 [256, 128]
000000 db e4 ca bd c6 6f 3d bc 85 b1 21 bb 0e 69 c4 3d
       -0.09906932 -0.011562293 -0.002467246 0.0959035
000010 d3 1c b0 3d d5 b7 7b 3d 81 1b 02 3b 9e d3 cc 3c
       0.08599248 0.061454613 0.001985282 0.02500325
000020 11 5c b4 3c 8c ed 86 3d 3d 97 41 bd 64 ad a5 bc
       0.022016557 0.06588277 -0.047263373 -0.02022428
000030 df 7e 27 be 9b 12 c5 3d 6a a6 a9 bc cf 56 08 3b
       -0.16356991 0.09622689 -0.020709235 0.0020803695
000040 1e f1 e6 3d 05 fa 81 3b 92 fe be 3c a9 72 ee bc
       0.11276458 0.003966572 0.023314748 -0.029107409
000050 51 08 ec 3d 9e e9 c5 3b 11 99 f0 3d 89 dc b6 3c
       0.11525024 0.006039812 0.11747945 0.022321956
000060 93 fb 80 3d b9 e1 b9 bd a3 36 55 3d 03 ee 34 bd
       0.06297984 -0.09076256 0.05205406 -0.0441723
000070 48 5c 3a 3e e1 0a 12 be 67 2f 50 bd 29 bf 34 3c
       0.18199265 -0.14261962 -0.050826456 0.011031904
000080 34 29 a5 ba cd c7 92 bd c0 53 9d 3d c5 8c 41 3d
       -0.001260078 -0.07167015 0.0768199 0.04725339
000090 1d 9f 51 bd 08 a9 19 bd 3e cd c1 3d 81 06 48 3d
       -0.051177133 -0.037514716 0.09462975 0.048834328
0000a0 b7 e8 2c 3c b1 8a 71 bd e7 e9 0f bd e6 02 5a 3c
       0.01055353 -0.058970157 -0.035135176 0.013306355
0000b0 3a e9 ad 3d 87 e2 e0 3d ee b2 69 3d 9e 72 db 3d
       0.0849175 0.10980707 0.057055406 0.10715221
0000c0 f3 e2 9d 3c d2 39 17 3d ca 5a 00 3e 51 26 b1 3c
       0.019273257 0.036920376 0.12534633 0.021624716
0000d0 c6 f5 04 3e 87 30 e4 bd ba 22 9e 3d b9 6a c5 3d
       0.1298438 -0.11142068 0.07721467 0.09639496
0000e0 a1 ee 73 3d e1 39 a9 3c 25 11 7f 3e 82 94 f6 bd
       0.059553746 0.020657482 0.24908884 -0.12040044
0000f0 cb 90 69 bd aa 75 f4 3d cd f7 b5 3d c6 ba 61 bc
       -0.05702285 0.11936505 0.08885155 -0.01377744
000100 03 08 10 be ba e2 ec 3b 0b 96 2f bd 6e e7 5b 3d
       -0.14065556 0.0072291763 -0.0428677 0.053687505
000110 e3 17 b7 3b 56 b3 76 3d ca 8f af 3d 5e ea fd 3b
       0.0055875643 0.06022962 0.085723475 0.007748886
000120 a0 e1 0f 3d 96 e4 66 3d cd 8e 5d 3d 91 ab 68 bd
       0.035127282 0.05637034 0.054091264 -0.056804243
000130 86 b0 30 3d d1 b6 03 be 8b c7 30 bd 53 82 ee bd
       0.043137096 -0.12862708 -0.04315905 -0.11645951
000140 35 4d d3 3d 59 71 10 3e 95 b3 63 3c df 16 a7 b9
       0.103174604 0.14105739 0.013897796 -0.00031869762
000150 d9 ba 1b 3d 25 6e 43 bd ed 01 b6 3d e9 6e e7 bc
       0.03801999 -0.047712464 0.08887086 -0.028251128
000160 5f b5 f5 bb 75 57 2f 3d 84 6a f9 3d 31 75 0d 3d
       -0.0074984278 0.042808015 0.12178519 0.03453559
000170 91 82 00 3e f0 ec 02 bd 01 bd 14 3d 59 2c de 3d
       0.12549807 -0.031964242 0.03631306 0.108483024
000180 c3 2a 2d bd 19 3b 8c 3d 61 6d 6d ba bc 87 02 3e
       -0.04227711 0.068472095 -0.0009057131 0.12747091
000190 d0 22 3c 3d 25 e5 ff 3b 9c c1 14 3d c5 c7 8d 3d
       0.045931637 0.0078092986 0.036317453 0.06922869
0001a0 ae dd 93 3c 21 6e 08 3e d4 d0 78 3d 90 43 b7 3c
       0.018050041 0.13323261 0.06074603 0.022371083
0001b0 60 64 3d 3d e9 b2 08 3e 3f 8f a2 3d de 51 9f 3d
       0.046238303 0.13349499 0.07937478 0.07779287
0001c0 6e d3 90 bc 46 b8 9f 3d a8 22 aa bc 07 b0 ed 3d
       -0.017678943 0.07798819 -0.020768479 0.1160584
0001d0 02 be ec 3c 23 fd 93 3d 47 d1 98 3d d5 94 34 3e
       0.028899197 0.07226016 0.074617915 0.176349
0001e0 f1 93 6b 3d 47 b1 4d 3c e2 bc 52 3e b1 28 1d 3c
       0.057514135 0.012554473 0.20579866 0.009592221
0001f0 be 41 5f 3d d6 ae 84 3d ee f0 20 3c c5 95 f1 3c
       0.054506056 0.0647866 0.009823067 0.029490361
000200 67 4b c3 bd d0 3f ce 3d 33 af 10 bd b5 48 e0 3d
       -0.09535866 0.10070765 -0.035323333 0.10951368
000210 aa 2b 18 3d b0 0a 89 3d 3f 04 1d 3e 66 2c 9f bc
       0.037151016 0.066914916 0.15333651 -0.01943035
000220 6f b9 e0 bb ea 90 22 3c 28 da 78 3d dc e7 95 bd
       -0.006858043 0.0099222455 0.060754925 -0.07319614
000230 e3 e7 8b 3d b7 c1 1c 3e 7a c6 a1 3d 64 10 b2 3d
       0.06831338 0.15308271 0.078991845 0.086945325
000240 30 52 0f 3e d5 8f 80 3d 85 e5 c1 3c d7 6d 37 bd
       0.13996196 0.06277434 0.023669014 -0.044782486
000250 45 34 9f 3d cc 2b 30 3b 91 a5 c2 3d 0b 9b 9d 3d
       0.077736415 0.0026881574 0.095042355 0.07695588
000260 cc f3 d6 3c 03 fe 8c bd 5b a4 19 3d 28 b0 3f bd
       0.026239298 -0.068843864 0.037510257 -0.046798855
000270 38 f7 36 3e 0a 8e 1f be 35 00 79 3c c8 a2 8b bc
       0.17867744 -0.15581527 0.015197803 -0.017045394
000280 4f cf 8f ba 94 ab 5f bd 48 3a 87 3c 77 e9 aa bc
       -0.0010971817 -0.05460699 0.016507283 -0.020863278
000290 b1 aa e7 3d 2f 12 10 bd bf 95 e4 bc 50 0d 5e 3d
       0.11311854 -0.03517359 -0.027903436 0.054211915
0002a0 31 75 ce bd 7e 32 9e bd ef cd 16 3d 5e 38 8b bc
       -0.10080946 -0.07724474 0.036817487 -0.016994651
0002b0 0f 10 00 3e 95 e2 a4 bc 04 4e b2 bc 0e a6 3c 3e
       0.12506126 -0.020127574 -0.021765716 0.1842272
0002c0 b8 90 d8 bc 5b 6b 34 3c 56 15 a4 3d 9c a0 71 3d
       -0.026436195 0.011011924 0.08011882 0.05899106
0002d0 cb 39 09 3e 08 ce 93 3d f2 94 68 3c c7 1c 68 bc
       0.13400953 0.07217032 0.014195668 -0.014167017
0002e0 e1 25 73 3c 94 74 cf 3d 31 60 cf 3d e8 f6 11 be
       0.014840574 0.101296574 0.10125769 -0.14254344
0002f0 9e f4 bc 3d 8c 00 75 bd 0e b3 ea 3d 19 22 84 3d
       0.092263445 -0.059814975 0.11459933 0.06451816
000300 a4 2c 66 3d b3 f8 b1 bd 5a 24 5b bc 26 9f 1e be
       0.056194916 -0.08690014 -0.013375366 -0.15490398
000310 03 51 2e 3e 9c fb 21 3d 8c 27 a3 3d d3 7d a1 3d
       0.17023091 0.039546594 0.07966527 0.07885327
000320 02 39 22 bc 63 47 6d 3b 1f ee 8e 3d 4f 0c ab bd
       -0.009901287 0.003620588 0.06979012 -0.08351957
000330 6e 5f 72 bd e1 4a 30 bd 67 44 90 bc 86 d6 d1 38
       -0.05917304 -0.04304016 -0.017610742 0.00010005855
000340 ae 2d 95 3d f5 54 65 bd e7 cd d4 bc 23 07 8c 3d
       0.07284103 -0.055989224 -0.025977088 0.06837299
000350 4c 89 25 3d 52 e7 e8 bb 98 c9 f3 3d 5a 4d bd 3d
       0.04041414 -0.0071076537 0.11903685 0.09243269
000360 ec 76 8d 3c 1f f7 86 3d 13 c4 a1 3d 11 51 fe 3d
       0.01726862 0.06590103 0.07898726 0.12417806
000370 13 7a bc 3d c1 b3 89 3d fe ba 83 3d 75 57 50 3b
       0.09202971 0.067237385 0.0643215 0.003179041
000380 00 76 2c bd 9b 29 59 3e 5b 4a fb bd 59 9e 96 bd
       -0.04210472 0.21207277 -0.122700416 -0.07354421
000390 f3 63 0b 3e 4b 22 73 3c 99 40 ed bc d1 2b 16 3e
       0.13612346 0.014839719 -0.028961467 0.14665152
0003a0 e3 77 9f 3b b5 f8 3b 3d e9 dc 36 3c 44 2c 54 bc
       0.0048665865 0.045891482 0.0111610675 -0.012950007
0003b0 db b1 57 3e 35 9f 4b 3e 02 67 67 3d 22 b7 d5 3d
       0.2106394 0.19884951 0.05649472 0.104353204
0003c0 10 d5 21 3d 72 eb 0d bd d4 42 cf bd 98 6f 46 bc
       0.039509833 -0.034648366 -0.10120168 -0.012111567
0003d0 15 0d fa bd dd 92 61 3a 4f 52 ed bc 8b af b2 3c
       -0.122095264 0.0008604953 -0.028969912 0.021812221
0003e0 97 1f f8 3d 57 49 c3 bd 75 b9 8a bd e1 f2 79 3d
       0.121154 -0.09535473 -0.06773654 0.061022643
0003f0 ab bc a1 bc be a6 19 3e 90 f4 2d 3d 5b 6d 07 3d
       -0.019743284 0.15005013 0.04246956 0.033063274

backbone.2.bias f4 [32]
000000 31 98 bc 3c 4b 9b b7 bd b8 bd be 3d 53 a3 23 3d
       0.02302179 -0.08965167 0.0931353 0.03995068
000010 7c e2 a3 bd 78 6a 46 3d 6f fc 85 bd 56 da ab 3c
       -0.08002183 0.04844138 -0.065422885 0.020978134
000020 4e 41 a3 3d cc 53 90 3d ba 5e 99 bd 7a a3 4d bc
       0.0797144 0.07047233 -0.07488771 -0.012551183
000030 df 53 16 bd 7e 92 83 bc 8c b4 35 bd a9 8d a3 bd
       -0.03670108 -0.016061064 -0.044361636 -0.07986004
000040 04 1d b7 bd c2 7a 49 bd 61 61 df bc 69 59 77 bc
       -0.08941081 -0.049189337 -0.027268114 -0.015097001
000050 2e 0b a7 bd 79 42 c4 bd 54 d7 20 be 2d 4f 95 3d
       -0.08156429 -0.09582991 -0.15707141 0.07290492
000060 e2 eb f0 bd 5b c0 86 3d 6d aa 8c 3d 7f 09 f6 bd
       -0.11763741 0.06579658 0.06868444 -0.1201353
000070 30 89 e1 bd 37 1b 8c bc 24 5b d2 bd ad 89 3e bd
       -0.110124946 -0.01710282 -0.1027129 -0.046518017

backbone.2.weight f4 [32, 16, 3, 3]
000000 ab e3 20 be 0c 24 0a 3d 5f 0e af bc 8d 00 05 bd
       -0.15711848 0.033725783 -0.021369157 -0.03247123
000010 34 64 2b be d4 dd f2 3d c0 d5 99 bc 77 b5 a4 be
       -0.16737443 0.118587166 -0.018778682 -0.32169697
000020 02 fc 56 bd 30 de 92 3e 0b 5f c1 3e 0e 5e 81 3e
       -0.052486427 0.2868514 0.37767825 0.2526707
000030 32 b3 75 be 9a 33 cd bd e3 25 3c be 37 e6 96 bd
       -0.23994139 -0.10019608 -0.18373828 -0.07368129
000040 a3 af 05 be cb f7 33 bd 9d 1c 0a be d6 21 9a bb
       -0.13055281 -0.043937486 -0.13487478 -0.0047037406
000050 a3 9c 3c bd 14 85 e2 be bd c3 e0 be 04 47 46 be
       -0.046047818 -0.44242156 -0.43899336 -0.19363028
000060 15 b1 8e be 59 c2 ad be 8a 6f 9e be 90 b6 fd be
       -0.27869478 -0.33937338 -0.30944473 -0.49553347
000070 36 18 9c be c4 58 a9 bc f6 f0 d9 3b e0 39 16 3e
       -0.3048722 -0.02067221 0.0066510392 0.14670515
000080 35 e4 2e 3e a5 c7 8d be 20 fe 63 be c8 73 3c be
       0.17079242 -0.2769138 -0.2226491 -0.18403542
000090 d1 ed d7 be c1 d7 99 be d7 c0 b1 be ac 46 db 3d
       -0.42173627 -0.3004742 -0.34717438 0.10706839
0000a0 6d 0d c7 3e 7d 21 8a 3e 4d 49 76 be b5 46 ad be
       0.3887743 0.26978675 -0.240514 -0.33843008
0000b0 e3 52 30 be 81 55 40 be 90 65 e4 bd ec eb d9 3c
       -0.17219119 -0.18782617 -0.11152184 0.026601754
0000c0 0e a5 79 be 5d 36 82 be 2c 6b ed be 46 c4 ec bc
       -0.2437937 -0.254321 -0.46370828 -0.028902184
0000d0 5d 02 df 3d 26 be 47 be 70 f9 6a be be ce 4e 3d
       0.10889123 -0.1950613 -0.22946715 0.050490133
0000e0 a3 53 1d be f4 19 a8 be ca f6 ce 3c 45 e3 1d be
       -0.15363936 -0.328323 0.025264163 -0.15418728
0000f0 94 34 91 bd 87 31 6b bd 48 d1 45 3c 2a 0a c5 be
       -0.070901066 -0.05742028 0.012073822 -0.38484317
000100 01 fb 88 be 10 b7 a0 bd e2 6e 30 bc 14 74 6e be
       -0.26754 -0.078474164 -0.010768624 -0.23286468
000110 e8 54 bb bd ed 6a 17 be 2e 3f cb be f9 95 f0 be
       -0.09147054 -0.14786883 -0.3969664 -0.4698942
000120 bb 24 d5 be 68 c5 09 bf 71 85 c5 be 0e dc c4 bd
       -0.41629586 -0.53816843 -0.3857837 -0.096122846
000130 fa 0c 97 bd 65 d0 6e be 74 3a 91 be a0 99 49 be
       -0.07375522 -0.23321684 -0.2836491 -0.1968751
000140 d9 11 5d be f5 e9 84 3e 08 e8 cc 3e dc 44 a2 3e
       -0.2158884 0.25959745 0.40020776 0.3169316
000150 73 20 73 3f be 25 e6 3e 25 93 4e 3f 4e 0e 6e 3d
       0.9497139 0.4495067 0.80693275 0.05811911
000160 9a f7 7e be 4a d9 4f 3e 5b c6 04 3f 03 8b 07 3f
       -0.2489914 0.20297733 0.51865166 0.5294649
000170 a0 ed cd 3e 81 e3 be 3e 15 a4 09 3e 8a 82 e5 3d
       0.40220356 0.37282947 0.13441499 0.11206539
000180 fa d7 86 bd e1 d5 de 3e 03 fc 41 bd cc 47 34 3e
       -0.06584163 0.43522552 -0.047359478 0.17605513
000190 14 d8 5e 3e d2 6a 59 3e ba c7 33 be 23 57 36 be
       0.21762115 0.21232155 -0.17556658 -0.17806678
0001a0 7a ee 72 be 7d b4 0c 3e 27 a7 54 3e 65 03 1e 3d
       -0.23723784 0.13740726 0.20766889 0.038577456
0001b0 ef 97 ae be aa b9 cf be a0 70 58 be 54 1f b6 3e
       -0.3410029 -0.40571338 -0.21136713 0.35570776
0001c0 a0 32 3b 3e b7 22 b6 3e 65 37 fd be 89 ba 51 be
       0.1828103 0.3557336 -0.49456325 -0.20481314
0001d0 87 8a 10 be f3 e2 a8 be 63 4a 6c be 55 aa f1 bb
       -0.14115344 -0.3298565 -0.23075251 -0.0073750415
0001e0 fa 74 60 3e 71 0c f8 bd 0f e6 cf 3d c6 bd 9c bd
       0.21919623 -0.12111748 0.10151302 -0.07653384
0001f0 ae eb 4b be 17 fc b0 be 8f aa 6e be 78 9c 23 bc
       -0.19914123 -0.3456733 -0.2330725 -0.0099860355
000200 08 3f 39 be a2 e3 dd be f7 d7 8c be 89 65 59 bd
       -0.18090451 -0.43337733 -0.27508518 -0.053075347
000210 41 d1 23 be 60 90 16 be 9b e8 44 be 5e e1 0f be
       -0.15997793 -0.14703512 -0.19229357 -0.14050815
000220 f5 3b 88 be 17 91 99 3d 49 8b c5 be 5e f9 e8 bd
       -0.26608244 0.07498377 -0.3858283 -0.11375688
000230 7f 88 c2 3d 85 6e 7b be d0 ec 48 be fb 5c 23 be
       0.09498691 -0.24553879 -0.19621587 -0.15953438
000240 25 2a a3 3e 66 84 29 be e9 04 3f be 63 b3 20 3e
       0.3186809 -0.16554412 -0.18654217 0.1569343
000250 20 75 03 bf a8 e6 53 be 04 41 50 be 1c ae 26 3e
       -0.51350594 -0.20693457 -0.20337301 0.16277355
000260 ad 42 aa 3e 88 8d b0 3d b9 5f 3f 3d 56 81 29 3e
       0.33253995 0.08620745 0.046722148 0.16553244
000270 6a cb ad bc b5 46 06 3e 77 e2 cc 3d 09 f5 e1 bd
       -0.02121516 0.1311291 0.10004132 -0.11033065
000280 02 d3 aa 3d 7c a2 19 3e 05 06 c6 bd a5 37 a9 3d
       0.08341028 0.15003389 -0.09669117 0.082625665
000290 78 59 0b bc ac d4 cc 3c f1 c6 0c 3e 35 55 ec bd
       -0.008505218 0.025003754 0.13747765 -0.115396895
0002a0 71 81 4d bd 9e df 00 3e 01 bc 2a bc 4e 73 93 bc
       -0.050172273 0.12585303 -0.0104208 -0.017999317
0002b0 e1 ac 6a bf 63 c0 0b bf 76 f3 cb be 37 7a 0e bf
       -0.9167004 -0.54590434 -0.39834183 -0.55655235
0002c0 18 a5 e6 be ba 23 79 be f0 2f 3e bd 64 86 76 be
       -0.45047832 -0.24330035 -0.046432436 -0.24074703
0002d0 e2 e0 f3 bd e6 f9 c2 3d ea 5e 11 3d 8f 85 a1 3e
       -0.11908127 0.095203206 0.035490908 0.3154721
0002e0 8e 4e 2d 3e 2d 4c 0e be 2c 5c 67 3d 68 dc 44 bd
       0.16924497 -0.13896246 0.056484386 -0.04806176
0002f0 8f 5c 8f be b9 b3 0e be d5 7e b5 bd 72 37 4c 3e
       -0.28000304 -0.13935746 -0.08862082 0.19943026
000300 6b 1b 49 be 9f 80 dd bd eb 29 0e 3e 15 e3 a4 3c
       -0.19639365 -0.10815548 0.13883178 0.020127812
000310 fc 61 aa 3d cf 90 61 3d ba 40 b3 bd 65 78 4a be
       0.0831947 0.05506974 -0.0875258 -0.1977249
000320 76 9c bd 3d 1b a0 16 3d 8c 5a 04 be 9d 2f b6 bd
       0.09258358 0.036773782 -0.12925166 -0.088958
000330 68 8e 38 3e 2e fa 97 3c 44 eb ce bd 87 fe 8b be
       0.18023074 0.018551912 -0.10103467 -0.27342626
000340 d1 41 33 3e 44 8c b5 3c 3a 34 a6 3d e0 94 e7 3d
       0.17505576 0.02216161 0.0811543 0.113076925
000350 52 ae ad bd ac 6f 40 3d d4 ed 32 be 15 77 15 be
       -0.084805146 0.0469815 -0.17473537 -0.14596207
000360 77 f5 30 be bf b6 09 3e 30 b4 5d 3d f3 5a 37 3e
       -0.17281137 0.13448618 0.05412692 0.17905788
000370 c9 83 1b 3e 54 47 92 be e3 25 73 bd 1b 1c 81 bd
       0.15186991 -0.28570044 -0.059362303 -0.06304189
000380 9a 0d 4f be e6 db 25 3e f6 7e 9d 3e b6 15 39 be
       -0.20220032 0.16197166 0.30760926 -0.18074688
000390 f9 95 b6 3d e6 80 33 3d d1 a1 84 bd db 5d 37 3d
       0.08915324 0.0438241 -0.064761765 0.044767242
0003a0 7e 18 af 3d 59 11 16 3e 90 11 e6 bd 92 28 a6 bd
       0.085495934 0.14655055 -0.112338185 -0.08113207
0003b0 c8 16 18 be 00 44 50 3e b1 d2 e9 bd b1 83 5f be
       -0.1485244 0.2033844 -0.11417139 -0.2182758
0003c0 5f 0b 83 3b b4 c9 c2 bc 9e 2e 87 3d 04 23 23 be
       0.0039991583 -0.02377782 0.066006884 -0.15931326
0003d0 cd 36 97 bd d8 f7 11 be f0 05 85 be 15 d0 e1 3e
       -0.07383499 -0.14254701 -0.25981092 0.44104066
0003e0 e1 e6 8f 3c dd b9 45 bd 91 65 83 3e db 6b 1e 3d
       0.017566146 -0.048272956 0.25663427 0.038677078
0003f0 f0 66 2d be d4 b4 62 be 3e d3 92 bd 84 5b 33 be
       -0.16933799 -0.22139293 -0.071691975 -0.17515379

backbone.5.bias f4 [64]
000000 72 b3 bd bc 4a 01 19 be 4e e1 ca bc 38 5d 94 3c
       -0.023156855 -0.14941898 -0.024765637 0.018110856
000010 41 6f 80 3d 35 50 f9 bd bd 53 2b bd 85 a8 a7 3d
       0.0627122 -0.121735014 -0.041827906 0.081864394
000020 87 c1 98 bd 88 12 eb bd 63 d4 b8 3c f9 88 b2 bd
       -0.074587874 -0.11478144 0.022562211 -0.08717532
000030 23 4a f3 bd 70 ef 5a bb b1 e9 76 bc c9 e5 61 3d
       -0.11879375 -0.0033406876 -0.015070365 0.05515078
000040 69 f6 b4 bc 47 e2 db bd 6e a4 27 bd 8f 96 75 3c
       -0.022090154 -0.10736518 -0.040928297 0.014989509
000050 36 b0 7d bc 2c eb cc bd 3e 57 3a be 09 56 82 bd
       -0.0154839065 -0.10005793 -0.18197343 -0.06364066
000060 7c 63 f3 bd 6c 24 e6 bd 50 7a 95 bd 41 22 cc 3b
       -0.118842095 -0.11237416 -0.0729872 0.0062296693
000070 a1 98 e9 3d 88 e7 0e bd 92 42 d2 bd 3b 11 c4 bd
       0.11406065 -0.034888774 -0.102666035 -0.09573599
000080 d2 4a 36 3d 35 58 11 bc 7c e9 cb bd b4 73 f5 3c
       0.044504948 -0.008871128 -0.09956643 0.029962398
000090 6f fc e7 bc ed 79 ea bd e5 0e 03 3d 5b 03 bc 3c
       -0.028318612 -0.11449037 0.031996626 0.022950819
0000a0 44 f6 ae 3c 78 a0 15 3d 14 9c 0f bd 5e 6b 21 3d
       0.021357663 0.036529988 -0.035060957 0.039409034
0000b0 db b6 be bd a4 0f 10 3c 35 b4 b0 bd e1 2c a6 3d
       -0.09312221 0.0087927915 -0.08628122 0.08114029
0000c0 72 c1 a3 3d a3 3b 16 be b4 ac aa bd ad d9 be 3b
       0.07995881 -0.14671187 -0.08333722 0.005824289
0000d0 25 5e 0e 3e f5 d3 1d 3d 74 a7 dd bc 3b 65 91 bc
       0.13903101 0.038532216 -0.027057387 -0.017748466
0000e0 ae 65 33 3c fe 4c b7 3c de f6 b1 bd a7 eb 4b be
       0.010949535 0.02237558 -0.08689664 -0.19914113
0000f0 1c ac 08 be 40 3f 9e 3d 29 14 3a bc 14 4f c8 bc
       -0.13346905 0.07726908 -0.011357346 -0.02445177
