checkpoints/q_net.safetensors (safetensors, 629056 bytes, 15 tensors)

advantage_head.0.bias f4 [5]
000000 8d e8 8f bc 96 31 3d bd 00 b0 4a 3c 15 53 2e 3d
       -0.017566944 -0.046189867 0.012371063 0.042559702
000010 d9 67 90 bc
       -0.017627643

advantage_head.0.weight f4 [5, 256]
000000 de 6c fe 3d 53 77 5a bf 98 e7 d9 3c 9c 89 dd 3b
       0.124231085 -0.85338324 0.02659969 0.006760789
000010 5a 7f aa 3e 55 ef e4 3c 49 14 f1 3e fb 22 ff 3b
       0.33300287 0.027946154 0.4708579 0.0077861524
000020 07 ad f5 3c 01 a7 4e 3c 3e f5 63 3e ca f9 8e 3d
       0.029989732 0.012613059 0.22261521 0.06981237
000030 2b c0 72 bc f5 24 16 3d d1 5c ee 3b 89 ef a4 bc
       -0.014816324 0.03665634 0.007274248 -0.02013375
000040 ce df 2b 3d 5f 56 b7 b8 98 df cd be bb 61 e7 3d
       0.041961484 -8.742208e-05 -0.4020965 0.112979375
000050 94 6d da 3d 0f 28 0a be 9b f2 44 bf cd 41 59 3b
       0.106654316 -0.13491844 -0.76932687 0.0033150793
000060 cb 1d 8b bc 47 d0 70 bc ac 4a 40 bb b1 b8 f3 3a
       -0.01698198 -0.014698095 -0.0029341383 0.0018594471
000070 3e 20 b7 bd cc 24 f9 3c 61 ae 30 bc 4f 4d 4e ba
       -0.089416966 0.030413054 -0.010783763 -0.0007869796
000080 2c a3 88 bb 00 71 6d bc 49 04 a9 3c e4 4f 93 3c
       -0.004169842 -0.014492273 0.020631926 0.01798243
000090 5d ed cd 3a b5 aa 1d 3e 9e f6 5a 3d 31 d4 34 bd
       0.0015710999 0.15397151 0.05345785 -0.044147674
0000a0 72 8e a9 bd 84 da 92 3e bc 82 c6 3c 69 8a 08 3e
       -0.082791224 0.2868234 0.02423226 0.1333405
0000b0 f3 5f 31 bc 03 f6 a3 3d b5 d6 ea bc c8 bc fa bb
       -0.010826099 0.080059074 -0.028666833 -0.007651899
0000c0 74 a6 ca 3b 59 b7 20 3e f4 fc 76 bc b2 44 08 3d
       0.0061843935 0.15694942 -0.015074957 0.033268638
0000d0 c5 13 79 3d ba ba d2 3a 2c 80 cd 3d 87 c4 54 3d
       0.06080987 0.0016077377 0.100342125 0.051945236
0000e0 3a 6d df 3c b6 9f bd 3d 0c 8d 37 3c 34 0c 2b bc
       0.027273763 0.09258978 0.011203062 -0.010439921
0000f0 52 38 02 be 48 9a 81 bb 35 85 6e bd f2 ec 92 bd
       -0.12716797 -0.0039551593 -0.058232505 -0.071741
000100 e5 95 2c 3d f2 39 27 3e ef a0 d3 bd f4 33 8c 3e
       0.042135138 0.16330698 -0.1033343 0.27383387
000110 03 b6 8e 3d 34 8d 52 3d 1b ea eb bb 2b 63 9e 3d
       0.0696831 0.051404193 -0.0071995384 0.077337585
000120 56 26 d9 bb 2a 73 c1 3e 9d 83 44 3e d9 3c 16 3d
       -0.0066268845 0.37783176 0.19190831 0.036679123
000130 d1 af 2f bf 69 4e 84 3d 02 ea a0 39 d1 17 c1 3c
       -0.6862765 0.06460268 0.00030691928 0.023570927
000140 e3 4a 41 3e 36 39 a2 3c 64 8f 1d 3f 1c a9 82 3d
       0.18876223 0.01980267 0.6154692 0.06379911
000150 f6 28 a2 b9 eb 0c 65 3c 87 b6 20 3d 61 ae 94 bc
       -0.00030929566 0.013980131 0.03923657 -0.018149557
000160 68 42 14 bc ff f5 0f 3d d0 22 55 3d fb e2 3a be
       -0.009049036 0.03514671 0.052035153 -0.18250649
000170 42 37 ee 3c 07 44 49 3d d3 4d ae 3d 14 ae 20 be
       0.029079083 0.04913714 0.085109375 -0.15691406
000180 72 30 09 bd cf 88 3b 3e 84 06 67 3b 56 ed 9b 3d
       -0.033493467 0.18313907 0.0035251686 0.076136276
000190 a3 93 0d 3e 40 70 56 be 97 6a 4f 3d 61 c5 82 3e
       0.1382585 -0.20941257 0.05063876 0.25541213
0001a0 04 e2 1b 3d 9c 95 26 bd 65 3a d5 3c 98 f6 ef 3c
       0.038057342 -0.040670022 0.026028821 0.02929239
0001b0 9c e0 c1 3c 90 a1 1c 3e 9e 18 5f bf 86 5a 01 bc
       0.023666672 0.15296006 -0.8714694 -0.007895118
0001c0 ef 7e 8c 39 3b 48 75 3d fe 22 14 3d 21 f5 7a 3d
       0.00026797454 0.059883337 0.036166184 0.06126893
0001d0 66 ee a6 ba 01 99 ef 3c 59 74 26 3c 4f 3b 4b 3d
       -0.0012735843 0.029247763 0.010159575 0.049617108
0001e0 35 85 d7 3c a6 03 84 3c 3f 75 81 bb 2e 83 92 3c
       0.026308635 0.016115021 -0.0039507444 0.017884817
0001f0 b9 d3 af bd 1d 5d 66 b9 3d 9c fe 3c ec ec 48 bc
       -0.08585305 -0.00021969197 0.03108036 -0.012263518
000200 1f 09 92 3c 85 1b 7c 3d 96 50 af bd d5 59 b1 bc
       0.017826615 0.061549682 -0.085602924 -0.02164928
000210 60 43 10 3e a2 69 ae 3e 97 39 3f bc d7 8c 71 3c
       0.14088202 0.34064966 -0.011671445 0.0147430515
000220 c3 00 84 3c f3 c1 88 bd 5d 8e ff 3c 8c 88 c1 3c
       0.016113644 -0.06677618 0.031195814 0.023624681
000230 59 3c 59 3f 6b b7 00 3e 7f ab ff 3c 87 3f 95 3d
       0.8485771 0.12569968 0.031209705 0.072875075
000240 95 db b7 3e 2a 2b 80 be 63 f3 d7 3c b9 88 17 3e
       0.35909715 -0.25032932 0.026361173 0.1479825
000250 9d 60 0a be 1c 1b 87 bc 3f e4 09 3d f2 96 ae 3e
       -0.13513418 -0.016492419 0.033664938 0.34099537
000260 74 16 ec 3d 19 b2 95 bc 35 1a 22 bc 0c 25 81 ba
       0.1152772 -0.0182734 -0.009893944 -0.000985296
000270 a0 d9 41 3d 5b 6a aa 3e 21 cd 91 3d 0a 9d f3 3b
       0.047326684 0.33284268 0.07119203 0.007434492
000280 2f cc 0b bc eb 20 8d 3a 65 fa 65 3d 5b 96 ac bc
       -0.008532568 0.0010767257 0.056146998 -0.021067789
000290 c3 cd 42 bf de 4c ce be 3f f3 42 3d 92 18 9d 3d
       -0.7609522 -0.4029302 0.04759526 0.07670702
0002a0 6f 00 67 3c 9c cc 48 bd eb c5 6c 3c 23 69 8d 3c
       0.0140992245 -0.049023256 0.014451484 0.017262047
0002b0 73 cc 31 3e 79 ec aa 3d 37 94 8d 3d 78 1e 10 bd
       0.17363147 0.08345885 0.06913035 -0.035185307
0002c0 e9 51 40 3d c9 8c 29 3c 31 f2 87 3d d1 a6 8c 3c
       0.046953116 0.010348507 0.06637991 0.017169388
0002d0 1f cd ed 3c 1a 69 01 3a 7d 2d cb bc 12 77 11 3e
       0.029028473 0.0004936621 -0.024801964 0.14205578
0002e0 80 77 e9 3d 5c c2 89 3d 37 8f 21 bd 45 f7 bd 3c
       0.11399746 0.06726524 -0.03944322 0.023189196
0002f0 b7 42 33 bf 13 17 25 3d e2 c5 66 3c d2 45 e9 bd
       -0.70023674 0.04030521 0.014085265 -0.1139027
000300 bb 91 90 3c 31 87 a9 3c 77 f1 fe bd db d0 4f 3d
       0.017647615 0.020694347 -0.124483995 0.05073629
000310 85 f5 4d bc 3a be 78 bd 5b e0 42 3c 06 af 59 bc
       -0.012570743 -0.06072829 0.011894311 -0.013286358
000320 e3 47 ee 3c 3f 1d 16 3e 6b 65 0a be 3b 1c 02 3d
       0.029087013 0.14659594 -0.1351525 0.031765204
000330 10 19 23 3c 8b a5 34 3d ee cd 26 3d 5a fd ca ba
       0.009954706 0.044103187 0.040723734 -0.0015486882
000340 e0 c1 1f bf 1e 25 93 3a 64 ce b3 bd d8 f7 04 bd
       -0.62405205 0.0011226272 -0.087796 -0.032462925
000350 51 2b b0 bc da ae 3e 3c f2 be 62 3d 57 67 0f 3e
       -0.02150503 0.011638368 0.05535788 0.14004265
000360 04 98 22 3d dc 83 82 3e e2 9d 07 3d 79 35 67 3b
       0.039695755 0.25491226 0.033109553 0.0035279675
000370 80 74 18 3d 0c 41 ff 3c 52 72 0b bd 35 f8 c4 3c
       0.037220478 0.031158946 -0.03404457 0.024044136
000380 bf da 25 3d 38 34 47 3e 55 01 15 3c 0f a8 57 3d
       0.040491816 0.19453514 0.009094556 0.052650508
000390 9b 60 73 3d 3c fe 80 3e 24 91 f5 3c 39 d8 9c 3e
       0.059418302 0.25193965 0.029976435 0.30633715
0003a0 bf 68 1d 3d e9 37 4a 3d 03 dd b1 3b 22 42 50 3c
       0.03842997 0.049369726 0.005427958 0.01271108
0003b0 77 d5 31 3d 0f a9 f8 3d f3 84 93 3e a7 d1 70 3d
       0.043416467 0.1214162 0.2881237 0.05879369
0003c0 11 53 b2 3d ed d1 c8 bc 67 08 56 3d e0 f5 b5 bc
       0.0870725 -0.024514163 0.052254107 -0.022211969
0003d0 d8 f9 f4 3c 73 e2 88 be 88 c7 bc 3c 8a e3 e5 bd
       0.029904291 -0.26735267 0.023044363 -0.1122504
0003e0 db 32 e2 be 62 62 e1 3c bf 18 98 3c d2 ad 11 bc
       -0.44179425 0.027512733 0.018566487 -0.00889154
0003f0 80 76 39 bb c9 f4 93 bc af 0a db 3d bf 7c ea 3c
       -0.0028299391 -0.018061059 0.10695397 0.028623937

backbone.0.bias f4 [16]
000000 1b ff a3 3c ca c5 51 bc e2 7a 88 3d e4 bf 14 3d
       0.020019105 -0.012803504 0.06664063 0.036315814
000010 bf 6d 5d 3d 6e 08 65 3a 12 84 97 bd 54 67 2e 3d
       0.05405974 0.0008736913 -0.07398237 0.04257901
000020 51 b7 8d 3c 68 e7 3a ba 7a 55 d9 bc 11 4b 97 bb
       0.017299326 -0.0007129819 -0.026530016 -0.004617103
000030 3b 74 46 bd 7e f1 ea 3c 78 ff e6 bd 9a 1e 5a 3d
       -0.04845069 0.028679606 -0.112791955 0.05325184

backbone.0.weight f4 [16, 17, 5, 5]
000000 d1 3b 78 3d bc fa 5d bc e2 5c d3 3d c4 51 4c bb
       0.06060392 -0.013548549 0.1032045 -0.0031176666
000010 08 b3 b5 bc 1f 4b 20 3c 9a b7 34 bd fa 80 82 bb
       -0.022180095 0.009783535 -0.04412041 -0.0039826604
000020 c9 fe 59 bc ec a2 d0 3c 1e 4c 86 bd 78 a2 fb bd
       -0.013305374 0.025468312 -0.06557487 -0.12286848
000030 f8 cf 4d 3d 41 6d ae 3d 7c f8 9d bd 60 a0 80 bd
       0.050247163 0.08516932 -0.0771341 -0.06280589
000040 c2 82 3e bd fe 83 8e bc c5 2e 8e 3d 3b 91 e2 bc
       -0.04651142 -0.017396923 0.06942514 -0.027657142
000050 92 66 4f 3c 6b ee a5 bd ae e5 1c bd ab c2 40 bd
       0.012658732 -0.08102115 -0.038304977 -0.04706065
000060 3f 94 95 bc 25 38 dd bd f1 29 d1 3d dd 18 ab 3b
       -0.018259166 -0.10801724 0.10213078 0.00522147
000070 c3 a0 43 3d b4 9e a7 bc 80 f1 b7 3c c5 e2 da bd
       0.047760736 -0.020461418 0.022454023 -0.10687784
000080 2f c7 86 3d 23 d5 1f bf c0 26 8e bc 15 1b d2 bd
       0.0658096 -0.62434596 -0.017352462 -0.10259072
000090 24 f4 b8 3b 61 73 5c 3e 29 44 9e 3d c0 e8 c7 bd
       0.005644338 0.21528389 0.07727844 -0.097611904
0000a0 15 f8 ef 3b a5 ad 81 3d b2 9f 9c 3d 88 0c 20 bd
       0.007323275 0.06331948 0.07647647 -0.03907445
0000b0 e2 25 b9 3d 24 5d fa 3c d6 73 83 3d b4 23 f3 3d
       0.09040429 0.030561991 0.06418578 0.11872044
0000c0 15 ee 74 3c 03 d7 e4 bd bb a1 ad bc a5 e8 9d bd
       0.014949341 -0.11173823 -0.021195283 -0.07710389
0000d0 3f b5 b1 bd 39 57 9d bd b6 58 13 bd ca e1 d4 bb
       -0.08677148 -0.07682652 -0.035973273 -0.0064966427
0000e0 5f f1 62 bd 53 3e 19 3b 45 ed b4 bc 02 63 9f 39
       -0.05540597 0.0023383095 -0.022085795 0.0003040061
0000f0 c3 2d 90 bc 0e 4c 9c 3d f9 ad bb 3c e8 de 71 bc
       -0.017599946 0.07631694 0.022910105 -0.014762618
000100 26 8d 0c bd f1 97 39 bd 6c c7 93 3c 81 5c 4b 3d
       -0.034314297 -0.04531092 0.018039428 0.049648765
000110 87 e5 db 3d 0a 0c 0f bd 9d cb a2 3c 78 09 9b bc
       0.10737138 -0.03492359 0.019872481 -0.018925413
000120 c0 5d 11 3d 51 f1 45 3d 42 f1 21 3c fe 7e 92 bb
       0.035489798 0.04832584 0.0098841805 -0.004470705
000130 aa 3b eb 3c 24 6d 03 3e f3 fa 80 3e 40 4f d4 3d
       0.028714973 0.12834603 0.2519146 0.10366678
000140 43 d5 ac bd fb 59 63 be e5 d2 78 3e 27 93 8b 3e
       -0.08439114 -0.22202294 0.242992 0.27260706
000150 17 16 35 3e 62 ac d6 bc 6c 94 1b 3e 4c 0c 2a bd
       0.17684208 -0.026205245 0.15193337 -0.041515633
000160 b4 33 50 bd 81 c1 45 bd 0a b5 09 3d 27 18 2b 3e
       -0.050830558 -0.048280243 0.033619918 0.16708432
000170 85 97 9d bd 61 6c ff bd 72 46 a3 3d 47 dd 48 3e
       -0.07694916 -0.124718435 0.07972421 0.1961566
000180 2e a3 19 3e 39 59 54 be b7 f8 9c be e1 1e 21 3d
       0.15003654 -0.2073716 -0.30658504 0.03933609
000190 28 1f a7 bd 8e f6 2f be 2f 65 23 be 6c 9a 85 be
       -0.081602395 -0.17183897 -0.15956567 -0.26094377
0001a0 9b ed a2 be e5 91 68 be b9 58 8c 3d 34 e3 9f be
       -0.31821904 -0.22711904 0.0685286 -0.3122803
0001b0 7f 5c e1 bd 30 dd 2c bd 16 15 5f 3d bc b9 e6 be
       -0.1100397 -0.04220313 0.05446347 -0.4506358
0001c0 80 e8 d2 bd 19 21 27 be 10 de 76 be 72 9d a4 be
       -0.10298252 -0.1632122 -0.24108148 -0.3215137
0001d0 8b a3 b8 be 9c 45 dc be 88 a8 8c be 74 54 89 be
       -0.36062273 -0.43021858 -0.2747233 -0.26822245
0001e0 37 38 53 be 6a fb fa be 1c 3a 3d be 06 08 10 be
       -0.20626913 -0.4901994 -0.18479198 -0.1406556
0001f0 37 7e 91 bd b0 22 1d be 21 0a 8c be 3a dd e7 bd
       -0.07104152 -0.15345263 -0.27351478 -0.113214925
000200 9e 9f 67 be 12 c8 e4 be 9a be 9c be 35 6f 72 3d
       -0.22619483 -0.44683892 -0.30614167 0.059188087
000210 4f 4d a4 be 67 67 d5 bd e7 cd a0 bd ce ad 4a 3d
       -0.32090232 -0.10420113 -0.07851773 0.04948216
000220 2f 19 0a bf ce 9e 13 be 22 28 88 be 20 c0 c5 be
       -0.5394468 -0.14416048 -0.2659312 -0.38623142
000230 23 18 0c bf 5d 58 a9 be fa 83 1d bf 8c 19 b3 be
       -0.5472433 -0.33075228 -0.61529505 -0.34980428
000240 70 e2 cf be c2 35 3e be eb 77 3d bf 6f 63 7f be
       -0.40602446 -0.18575194 -0.74011105 -0.24940275
000250 04 c4 88 be 1e 95 15 bd 98 a5 9a bd 7b 34 96 be
       -0.26712048 -0.036519162 -0.07551116 -0.29336914
000260 b3 68 e3 bd b9 9e 80 be 78 4c 04 bf bf c8 da be
       -0.11103954 -0.25121096 -0.5167918 -0.42731282
000270 50 4a 77 3d ef 4a c3 be 50 cf 38 be 5b 7e ce bd
       0.060373604 -0.38143107 -0.18047833 -0.10082694
000280 d6 c3 82 bc f7 53 0d bf a4 a3 21 be 47 06 98 be
       -0.015962522 -0.55206245 -0.1578508 -0.2969229
000290 2f 68 87 be 14 38 e5 be 30 10 96 be 5c 33 0e bf
       -0.26446673 -0.44769347 -0.29309225 -0.5554712
0002a0 1c 3b 91 be a3 fc b0 be e1 3b 2e be 14 76 15 bf
       -0.2836541 -0.34567747 -0.1701503 -0.583833
0002b0 9d 34 91 be 71 af 9e be 42 ca f0 bd d8 30 cf 3c
       -0.28360453 -0.30993226 -0.117573276 0.025291845
0002c0 10 70 29 be 6a e5 15 3e 55 79 ee bc 5d 10 dd bd
       -0.16546655 0.14638296 -0.02911059 -0.10794137
0002d0 10 6f 85 be f7 c2 66 3e fe b7 23 be b2 e0 cc 3d
       -0.26061296 0.2253531 -0.15988156 0.10003795
0002e0 36 8f eb 3c 69 5f ce 3d 75 ca da be f6 e9 9c 3d
       0.028754812 0.10076792 -0.42732587 0.07661812
0002f0 6f 74 0d be 49 e1 cc bd 39 f4 3b be 5b 5e c5 bb
       -0.13813947 -0.10003907 -0.18354882 -0.006023211
000300 29 0b 08 bf ec fa 30 be ab e6 b1 be 50 24 50 bd
       -0.5314203 -0.17283219 -0.34746298 -0.05081588
000310 3b ca cf be ae a9 97 3c 2c fe 38 be 95 1b 42 be
       -0.40583977 0.018513527 -0.18065709 -0.18955834
000320 a8 1a 00 be 1d 90 0e 3e e6 96 98 3e bd a4 3b 3e
       -0.12510169 0.13922162 0.29802626 0.18324561
000330 56 d9 6e bc 7d 28 bf bc 2d 64 97 3e 9b c9 b3 3e
       -0.014578184 -0.023334736 0.29568616 0.3511475
000340 09 98 9a 3e 33 ce bd bc 2a 6a 65 3b c4 ff 29 bd
       0.3019412 -0.023169613 0.0035005906 -0.041503683
000350 bc 44 00 3f eb 50 5e 3e 10 63 7f bd b3 f5 25 3e
       0.5010488 0.21710555 -0.062350333 0.16207008
000360 1c 50 5f 3e ec 2e 07 3e 21 28 59 3e 06 09 5d 3d
       0.21807903 0.13201493 0.21206714 0.053963684
000370 1c 79 c0 bd 25 35 60 3e 44 e3 eb bd d9 81 a5 3d
       -0.093981 0.21895273 -0.11517957 0.08081407
000380 d3 ad 7c bd 3f 4a e0 bd 9a 52 2d 3d 3e 34 7a 3e
       -0.06168921 -0.10951661 0.042315103 0.24433991
000390 7d 91 29 3e 78 56 96 bb f2 b4 7b bd 73 ea b3 3e
       0.16559406 -0.0045879446 -0.06145186 0.35139808
0003a0 9c 16 df 3e bc 5f 9f 3e 9b 85 2c 3d c1 0f 25 3c
       0.43571937 0.31127727 0.042119604 0.010074557
0003b0 70 d4 36 bc 16 d9 20 3f 27 33 7a 3e eb be 43 bd
       -0.0111590475 0.62831247 0.24433576 -0.047789495
0003c0 0f 99 0e 3e e9 d3 81 3e be 81 3b 3e 95 dd 93 3e
       0.13925575 0.25356987 0.18311211 0.2887999
0003d0 76 f8 ca 3d 01 65 48 3d 80 75 3e 3e d4 0c 89 bd
       0.099106714 0.04892445 0.1859951 -0.066919
0003e0 f2 29 a0 3c 7c 07 2d bc 77 99 79 bd 5e 70 bd 3a
       0.019551251 -0.010560866 -0.06093737 0.0014453044
0003f0 50 e2 a8 3e ad 8b 03 3e 3a 93 94 bc 38 99 fc bd
       0.32985163 0.12846251 -0.01813661 -0.12333912

backbone.11.bias f4 [128]
000000 49 5f 1b be c5 ae e9 bc ad 23 41 bd cf d7 09 3d
       -0.15173067 -0.02852572 -0.047153164 0.033653077
000010 a3 07 2c be b6 96 77 be a2 01 30 be 90 9a a2 3d
       -0.16799788 -0.24178585 -0.17188123 0.07939637
000020 04 46 cb bd ae a9 b5 bd eb 26 16 be 05 cf 74 3d
       -0.09925464 -0.088702545 -0.14663284 0.05976774
000030 06 29 a3 bd 16 46 bb 3c b9 d2 e6 3c f6 0c 99 bc
       -0.07966809 0.022860568 0.028176652 -0.018682938
000040 52 36 47 bc 95 f6 61 bd de fa 7e be c2 49 02 be
       -0.012158947 -0.0551668 -0.24900386 -0.12723449
000050 97 db c1 bd 8f 41 87 be cf e6 40 be 27 7a 57 be
       -0.094657116 -0.26417205 -0.18838046 -0.21042691
000060 76 56 bb bd 19 b0 32 be 8d 7c e4 bb ff 9c 17 bd
       -0.091473505 -0.17449988 -0.0069728554 -0.037014958
000070 a2 74 42 be a1 b7 11 bd bb d2 01 be fd b0 56 3d
       -0.18989804 -0.035575513 -0.12678044 0.052414883
000080 73 8d bd 3c 05 38 de 3d 5f 6a 10 be ab 69 7a bd
       0.023138737 0.10850529 -0.14103077 -0.06113593
000090 c0 96 28 be 0f eb 46 be f5 59 8a bd 22 43 73 3d
       -0.16463757 -0.19425605 -0.06755439 0.059390195
0000a0 25 96 31 be 2a 65 5c bd 61 dc 05 be fc c9 11 be
       -0.17342432 -0.053807415 -0.13072349 -0.14237207
0000b0 e9 13 3c be 26 e9 50 bd f3 5f 85 3b ab f5 c4 3b
       -0.1836697 -0.051003598 0.004070276 0.006010731
0000c0 7c c9 2a bd 9b 18 bd 3c 2b c4 cf 3c 93 08 98 bc
       -0.041696057 0.023083022 0.025362095 -0.018558776
0000d0 b8 9d 26 be 2a b8 01 be a1 73 e9 b9 f3 7f b8 3c
       -0.16271102 -0.1266791 -0.00044527373 0.022521948
0000e0 b3 fb 3e be ca fd a1 bc 98 a2 7f 3d 43 4c 2f be
       -0.18650703 -0.019774336 0.06241092 -0.17118935
0000f0 23 aa 6b be 9b 98 49 be 13 7a c5 bd f3 1b 2f be
       -0.23014121 -0.1968712 -0.096424244 -0.17100506
000100 71 e7 f6 bd 91 07 a0 be 39 f8 0b 3c ce 69 07 bc
       -0.12055863 -0.31255773 0.008543068 -0.008264972
000110 c1 3b 74 be 4b 5b 43 bd 87 63 bb bd cd 1c 99 be
       -0.2385092 -0.047694486 -0.09149843 -0.29904786
000120 82 f6 1e be d3 21 37 be 1b ba a1 be 79 e2 0b be
       -0.15523723 -0.17883997 -0.315873 -0.13660611
000130 c8 0f d7 bd ba ff 55 bd ba 46 0f 3d 20 65 85 bd
       -0.10501057 -0.052245833 0.03497956 -0.06513429
000140 2b da 67 bd e9 6a 4f bc 32 a9 8c bd f1 b4 98 bd
       -0.056604546 -0.012659767 -0.06868209 -0.07456387
000150 b0 24 70 bd 86 37 09 3e cc 6f ea bd 15 b9 a4 bc
       -0.058628738 0.13400087 -0.11447105 -0.020107785
000160 33 99 df bc ac 8d 28 be 9d c4 e1 bd 70 2c de bd
       -0.02729473 -0.16460294 -0.11023829 -0.108483195
000170 29 d7 3f be 72 d0 2e be fa 32 f0 3c eb f4 59 be
       -0.18734421 -0.17071703 0.029321183 -0.21284835
000180 23 71 04 bd 19 26 bc be 4e f8 54 3d 73 cf 7d be
       -0.032334458 -0.36747816 0.051994614 -0.24786167
000190 81 66 fd bd 38 0f cd bc 3c a1 46 3d 32 fa 0e 39
       -0.12373067 -0.02503167 0.04849361 0.0001363538
0001a0 f8 a4 42 be 70 37 ae bd 95 7a 3a be 1b b4 85 be
       -0.19008243 -0.085066676 -0.18210824 -0.26113972
0001b0 62 67 7f be 40 8a d7 3b 1f c9 b9 3c 42 9e 3b be
       -0.24941781 0.00657776 0.02267891 -0.1832209
0001c0 b2 74 1f be 5f 56 40 be 12 7c 3e be 79 10 bf bd
       -0.1557186 -0.18782948 -0.18602017 -0.09329314
0001d0 2f 22 73 3d ce be 29 bc 1b f4 1f 3e b9 4d 01 be
       0.059358772 -0.010360433 0.15620463 -0.12627305
0001e0 44 f3 1d 3e 7e 5f 90 3d 95 60 94 bd 57 7e 39 be
       0.1542483 0.07049464 -0.07244984 -0.18114601
0001f0 39 a9 13 bd 01 40 39 bc b7 d2 9f bd 9b 3a f7 bd
       -0.036050055 -0.011306764 -0.078038625 -0.12071725

backbone.11.weight f4 [128, 16, 3, 3]
000000 a2 d8 a6 bd 5a 80 1d bd 75 e3 c0 3d d7 40 6c 3e
       -0.08146788 -0.038452484 0.09418384 0.2307161
000010 a4 86 f9 3d 05 49 15 be 76 36 9b bd 80 c6 69 bd
       0.12183884 -0.14578636 -0.07578747 -0.05707407
000020 4f 5f 3e 3d 54 6f 8c bd 38 f3 c8 bd c2 94 d9 3c
       0.046477612 -0.06857172 -0.09812015 0.026560191
000030 4b 9f e5 bd e7 b5 87 bd 3b 50 92 bd 9c d5 5a 3d
       -0.11212023 -0.06626492 -0.07144209 0.05342637
000040 9e 77 43 be f1 70 f6 3d 44 c4 62 3d 86 4a 23 be
       -0.19088599 0.120332606 0.055362955 -0.15946397
000050 26 c1 ef bd ce 9d f5 3d e1 7c 64 3d 18 d5 1f 3d
       -0.11706762 0.119929895 0.055783156 0.03902158
000060 1f b1 16 3e 87 86 25 be 71 fa 44 be b6 53 87 3e
       0.14716004 -0.161646 -0.19236161 0.26431054
000070 df 3e a0 3c 01 0b 65 be 2d c0 3f bc 31 c9 6a 3e
       0.01956123 -0.22367479 -0.011703533 0.22928311
000080 d1 98 06 be 42 9d 52 3e 3b 8a 9a bd ed 1b 79 bd
       -0.13144232 0.20567802 -0.075458966 -0.060817648
000090 37 90 37 3c d9 3a da 3d 1c 85 22 3d 95 1f d0 bd
       0.011203817 0.106557555 0.039677724 -0.10162274
0000a0 6e 66 75 3d 16 ac ab 3b 57 76 ed 3d 16 35 3e 3c
       0.059912138 0.00523902 0.11594837 0.011609336
0000b0 09 8a b1 3c 8b 7b 31 3e 9f 80 2a bc 50 0e 3e 3d
       0.021672266 0.17332284 -0.010406642 0.04640037
0000c0 54 1f ff bd 76 8d 9f bd fd c5 ab bd 60 bf b4 bd
       -0.12457147 -0.077906534 -0.08387373 -0.088255644
0000d0 a1 e7 da bd 11 60 ab 3d 9f 02 91 3d b4 b7 b3 3d
       -0.10688711 0.083679326 0.07080578 0.08775273
0000e0 a1 90 e2 bd f3 58 ac 3d 56 17 80 3d dd 7f 25 3c
       -0.11062742 0.08415403 0.06254451 0.010101286
0000f0 76 1c a0 3d cf a0 f9 bb 05 17 09 3e 70 62 1d 3e
       0.078179285 -0.007618047 0.13387688 0.15369582
000100 7a 30 9a bc bf fe 05 be 37 8e f0 3d 4d 25 95 3d
       -0.018821944 -0.13085459 0.11745875 0.07282505
000110 2e 18 f0 3d a1 ed 28 be 45 cd 1e be d0 3d ca bd
       0.11723362 -0.16496898 -0.15507992 -0.09875071
000120 06 33 76 3e 79 f1 4c 3e 71 de 5a 3e 42 8a e4 3d
       0.24042901 0.2001399 0.21373917 0.11159183
000130 54 a7 ba 3d 89 5f 7e be 95 25 ae be 2f c6 5a be
       0.091139466 -0.24841131 -0.34013048 -0.21364664
000140 6e 39 b6 be 93 cd 3a bc 83 b1 59 be 93 de a5 be
       -0.3559069 -0.011401552 -0.21259122 -0.32396373
000150 94 54 30 be c2 15 d3 bc a6 b3 01 be b2 5d f2 bd
       -0.17219764 -0.02576721 -0.12666187 -0.11834277
000160 c6 48 31 be 5f 1d 46 3e 8e d1 fd bc 0d 15 0f 3d
       -0.17312917 0.19347142 -0.030983713 0.034932185
000170 0e fa c2 be 1e d1 0f 3e cf ff 46 bd 6f e2 04 be
       -0.38081402 0.14044616 -0.0485838 -0.12977003
000180 84 3a 4d be 9a 0b 5e be 3a 64 9b be b1 bf 31 3e
       -0.20041853 -0.21684113 -0.30349904 0.1735828
000190 88 8f 09 3e b0 52 a7 be d9 96 29 be 34 d5 21 3e
       0.13433659 -0.32680273 -0.1656145 0.15803987
0001a0 3e 98 83 bd 2e d0 f2 bd fa ce 87 be 8d 70 35 be
       -0.06425522 -0.118561134 -0.26525098 -0.17718716
0001b0 a4 43 a9 bd af 60 89 bd 0a ec 1b bd 65 ea 0e 3d
       -0.082648546 -0.06707894 -0.0380669 0.034891505
0001c0 f2 e0 e3 bd 76 84 60 be 0c ac 67 3c e8 3e 6c be
       -0.11126889 -0.2192553 0.01414014 -0.23070872
0001d0 37 74 86 3d fc 9c 2c 3e 88 a5 88 3d 72 a6 07 be
       0.06565135 0.1685676 0.066721976 -0.13247088
0001e0 87 ca 22 be 40 34 36 be 29 e4 5e bd 30 7d 73 3e
       -0.1589757 -0.1779337 -0.05441681 0.23778224
0001f0 46 3b 85 bd 16 35 2b bd b3 7d 3a 3d 8c e1 a2 ba
       -0.06505446 -0.041798674 0.045530032 -0.0012426837
000200 7a 4b 40 bd d1 aa fd bd 18 4c 4c be b6 ed 7d be
       -0.04694698 -0.12386096 -0.19950902 -0.24797711
000210 8d 2f fb bc 7f 4c db bd 66 ad a5 3e 5e aa e9 bd
       -0.030662322 -0.1070795 0.32358855 -0.11409448
000220 53 e5 d8 3d 89 87 27 3e b1 11 8f 3d 29 06 65 3d
       0.10590615 0.16360296 0.06985796 0.055914078
000230 a9 c7 f9 3c 75 f6 50 3d 75 48 f7 3d 12 03 10 be
       0.030490713 0.05101629 0.12074367 -0.14063671
000240 d8 aa 0a be ec 9a 44 be 33 5a 98 3c 63 c3 7f bd
       -0.13541734 -0.19199723 0.018597698 -0.062442195
000250 16 10 1e 3d 97 91 bb 3b d4 93 6f bc 03 2a 45 3e
       0.03858956 0.005724143 -0.014622647 0.19254307
000260 6b 4a 38 3d 88 18 1b bd a0 99 67 3e d4 39 8d bc
       0.044992846 -0.03786519 0.22617197 -0.017239489
000270 92 79 bc bd 87 96 8f be a4 51 42 3c 70 54 17 be
       -0.09202875 -0.2804453 0.011860285 -0.14778304
000280 d7 42 b3 bd 47 a0 c3 bd eb f6 42 3b fc 51 ac 3e
       -0.08752983 -0.09552055 0.0029749225 0.336563
000290 12 d5 11 bd c0 e5 6c 3e de 32 b4 3e 69 63 8b bc
       -0.03560359 0.23134518 0.3519506 -0.017015176
0002a0 ff 81 b1 bd 04 61 5b be b3 63 69 be 21 3c f6 bd
       -0.08667373 -0.21423727 -0.22791938 -0.120231874
0002b0 5a 6d ae 3e a3 d5 d2 bd 14 9c b5 bd bb 3d 0c 3d
       0.34067804 -0.10294654 -0.0886766 0.03423856
0002c0 8f df 51 bd 27 d5 ef bc 2f a8 db 3c 45 21 05 be
       -0.051238593 -0.029276444 0.026813595 -0.13000973
0002d0 ad 5c 47 3d bb 80 18 be 15 22 59 bd 90 2f 96 bd
       0.048672367 -0.14892857 -0.05301102 -0.073332906
0002e0 79 92 cf bd 31 9a d1 3c 11 c0 2c 3d 00 64 32 be
       -0.10135359 0.02558622 0.042175356 -0.1742096
0002f0 cd 92 e6 3b 58 26 84 3e 3f 05 a4 3d a4 47 88 3b
       0.007036543 0.25810504 0.08008813 0.004158931
000300 b5 e4 04 bd aa 67 8a 3c 25 c3 fc bd a3 98 b2 bd
       -0.032444675 0.016895134 -0.12341908 -0.087205194
000310 ba dd 00 be 7d e5 85 bd 76 5e 52 be e8 e4 1e 3d
       -0.12584582 -0.06537912 -0.20543846 0.03879252
000320 89 5c c3 bd 89 20 35 be d6 0e 60 3e ee c1 56 3d
       -0.09539134 -0.17688192 0.2188066 0.05243104
000330 b3 d5 99 bd e0 fe ec bb 81 b1 ef bc 31 e7 3e be
       -0.07511463 -0.007232532 -0.029259445 -0.1864288
000340 17 34 81 be bc 7c 53 bc 98 8d 43 bc fd 0a 1b 3e
       -0.25235054 -0.012908157 -0.011935614 0.1514091
000350 f8 89 3a bc e7 6d 08 bd d0 c1 a6 3d 38 02 ea 3d
       -0.011385433 -0.033307936 0.081424356 0.114262044
000360 94 58 1b bf 93 df 6f 3c 1b 7c 96 be eb 4b ce bd
       -0.60682034 0.014640707 -0.2939156 -0.10073074
000370 25 bc 6f bd c8 6e b5 bd 11 84 44 be 7e 1a d6 bd
       -0.058529038 -0.088590205 -0.19191004 -0.10454272
000380 03 2c 25 bd 84 cd 71 be 04 16 09 be 07 ea 38 3d
       -0.040325176 -0.23613554 -0.13387305 0.04514506
000390 9b 3f 45 be ee b2 50 be ac 59 5b 3d 70 ff da 3d
       -0.19262545 -0.20380756 0.053552315 0.10693252
0003a0 27 04 c4 bd 88 e8 d8 bd ec a9 83 3d ca 1e 88 3e
       -0.095711045 -0.10591227 0.064288944 0.2658599
0003b0 e9 d9 5e 3d 4a 82 db bc 7e e7 45 be c0 ce 81 bd
       0.054407034 -0.026795525 -0.19326589 -0.063382626
0003c0 a0 19 6d bb 8f 3d 13 be 42 6d 03 be d9 cb 5f 3e
       -0.0036178604 -0.14378951 -0.12834647 0.21855105
0003d0 f4 fc dc 3e 9c b0 d1 bd 5b 41 e3 3d 98 f3 ea 3a
       0.43161738 -0.10238764 0.1109645 0.001792538
0003e0 86 16 f7 be 24 c0 e7 be 01 59 de be e9 74 f5 bd
       -0.48259372 -0.4526378 -0.4342728 -0.119851895
0003f0 93 fc 80 3e 01 93 a2 3e 06 b0 4e be 7d 31 14 3e
       0.251927 0.3175278 -0.20184335 0.14472003

backbone.15.bias f4 [256]
000000 35 73 0d 3d f8 de 41 bd ec 8b 8e be 11 08 f9 3b
       0.034533698 -0.04733178 -0.27841127 0.0075998385
000010 c1 c3 8d 3b 24 fa 79 bd e3 de 6b bc c1 33 b7 3d
       0.004326314 -0.06102957 -0.014396402 0.08945418
000020 5b f7 85 bd 8d fb fc 3d 05 47 fb 3d 0c 59 21 3d
       -0.0654132 0.12352667 0.12269405 0.039391562
000030 6f 02 37 bd 4e 51 08 3d 65 f4 81 bb db d7 76 3d
       -0.044680055 0.033280663 -0.0039659017 0.06026445
000040 f5 73 86 3c 30 d9 af 3d 47 5c a3 bd b2 ce 8e 3d
       0.016412714 0.08586347 -0.07976585 0.06973018
000050 9d d7 61 bd 58 d7 1e be 1f cd 49 be ac 9b f9 3d
       -0.055137265 -0.15511835 -0.19707154 0.12187895
000060 64 99 80 3d 0f 41 ce 3d ec 13 f4 3d 09 38 11 3d
       0.06279257 0.10071003 0.11917862 0.03545383
000070 ee 49 45 be db 0a 4a bd 20 b3 1f bd f0 e5 4b bd
       -0.19266483 -0.04932676 -0.038989186 -0.049779832
000080 e4 dd 58 3e 8d 84 c7 3d 85 eb 60 bd 16 ce 1a be
       0.21178395 0.09742079 -0.05491211 -0.15117678
000090 54 32 8b 3d 8e 2e 63 3c 8b 21 97 3d 25 de 7a 3d
       0.06796709 0.01386608 0.07379445 0.06124701
0000a0 ab 11 94 bc eb f8 b7 3d 0c 46 58 be 35 dd e3 bc
       -0.018074831 0.08983024 -0.21120471 -0.02781544
0000b0 e1 6c 25 3e 27 b2 a0 3c 95 48 c2 3d b6 88 91 3d
       0.16154815 0.0196162 0.094865 0.07106154
0000c0 25 ba 18 3e a4 d6 32 be 37 20 1b 3e f4 b5 19 3e
       0.14914759 -0.17464691 0.15149008 0.15010816
0000d0 f4 4e 2b bd 9b 94 cb 3d e9 57 fe 3d 62 a7 1a 3e
       -0.041823342 0.099404536 0.12419111 0.15102914
0000e0 a7 09 61 3c a2 8c 11 3e 11 e5 2b 3d 54 5f 46 3d
       0.013735211 0.14213803 0.0419665 0.048430756
0000f0 e7 3a 3b 3c 61 19 df 3d 59 d4 1e 3d 31 b1 c7 3c
       0.011427618 0.108935125 0.03877673 0.024376484
000100 7f 29 ca 3d 97 f1 57 bc df 18 cf bd 55 6b 83 bc
       0.09871196 -0.013180158 -0.10112166 -0.01604239
000110 40 e8 05 bd c6 2f d1 3b 5e 3e d3 3d c8 65 3e 3d
       -0.032692194 0.006383869 0.1031463 0.046483785
000120 70 5d ff 3c ea 2a b8 bc 89 7f dc 3c f7 59 11 3d
       0.031172484 -0.0224814 0.026916282 0.035486188
000130 49 4c f4 bd bd 9c da 3d 44 df 99 bc 57 5a 20 bd
       -0.11928613 0.10674427 -0.01878322 -0.039148655
000140 95 51 25 3d e7 11 07 3e 78 8f 3d bd 7e c1 ea 3d
       0.040361006 0.13190423 -0.0462794 0.11462687
000150 ff ce b6 3d fd 5c 1a 3d 4a 1d 50 3d 39 24 0a 3e
       0.089262 0.037686337 0.050809182 0.1349038
000160 c4 59 f0 3d f7 52 92 bc 06 18 04 3e 35 7e 14 3e
       0.117358714 -0.017861826 0.12899789 0.14501269
000170 1b f4 a0 bb d1 cf d0 3d eb e5 13 be 02 d0 db 3d
       -0.004911912 0.10195888 -0.14443175 0.10733034
000180 c2 e2 3f 3d 42 54 53 bd 29 29 89 3d e5 67 99 bd
       0.046847112 -0.051594026 0.06697304 -0.074905194
000190 65 91 ad bb 29 f1 c0 3c 6c cb 99 bd e9 6e 61 bc
       -0.0052968734 0.023552494 -0.07509503 -0.013759353
0001a0 0e f4 1e bd 78 7c ea bd 69 b6 c2 bc 98 88 02 3e
       -0.038806967 -0.11449522 -0.02376862 0.12747419
0001b0 4e d3 ba 3d 09 7f 08 3b 35 1e f1 bd 63 c4 6d bd
       0.091223344 0.0020827672 -0.1177334 -0.058048617
0001c0 16 07 40 3e 6a 31 b4 3d 0e f4 fc bc cb 88 0d be
       0.18752703 0.087984875 -0.030878093 -0.13821714
0001d0 37 83 8f 3d 2d 40 a6 3d 11 70 bb 3c df 9a 60 bc
       0.07007449 0.08117709 0.022880586 -0.013708799
0001e0 2f 8d 7a be d7 bb c5 bd 68 51 08 3e c5 22 22 be
       -0.2446792 -0.09654968 0.13312304 -0.15833576
0001f0 80 9d d7 3c 55 35 bd 3d dd 7c 46 3d 6a 46 0b 3e
       0.026320219 0.09238688 0.048458923 0.1360108
000200 11 49 81 bc 98 72 e4 bc 0d 73 f0 bc 35 1f fa bd
       -0.015781911 -0.027886674 -0.029351735 -0.122129835
000210 08 ef 0d 3c df f7 9e bd 03 52 36 be 60 b4 74 bd
       0.0086629465 -0.077621214 -0.17804722 -0.05974233
000220 17 2e 5a be 31 7d 33 3e 90 1e 04 be 3c fd dd 3d
       -0.21306644 0.17528225 -0.12902284 0.10839316
000230 e0 80 15 be 6c 8c b6 3d c7 af 29 bd 09 f2 24 3d
       -0.14599943 0.08913502 -0.0414274 0.040269885
000240 4f e5 82 bd 70 30 c6 bc fd 6d 18 3d c6 73 b9 3d
       -0.063913934 -0.024193019 0.037214268 0.09055285
000250 0f fb 88 3d d6 4b 9b 3d 06 1b b3 3d e8 85 89 bd
       0.066885106 0.07582824 0.08745389 -0.06714994
000260 e0 4b 86 bd cc c5 a9 3d 14 2d 00 3e a5 6f 90 3d
       -0.06557441 0.0828968 0.12517196 0.070525445
000270 ab 4e bb 3d 69 e5 d4 bb ec ec e9 3d 28 ed c5 bc
       0.09145864 -0.0064970744 0.114221424 -0.024160936
000280 04 89 d2 bd 06 f8 b7 3d c3 9a 93 3d bb dc 05 3e
       -0.1028004 0.089828536 0.07207253 0.13072483
000290 e7 35 9e bd fd 45 12 be 1b 86 80 3d 50 95 78 bd
       -0.07725125 -0.14284511 0.062755786 -0.06068927
0002a0 14 b6 8c 3d 85 02 b4 3d 62 fc 15 3d 0f 53 24 3c
       0.06870666 0.08789543 0.036617644 0.010029568
0002b0 8f da 30 3b 8c fa a9 bd 71 0a e8 3d 90 2b e0 3d
       0.002698574 -0.08299741 0.113301165 0.10945809
0002c0 c0 f3 84 3d 9d 36 ff 3d 23 95 51 3e 83 b0 e9 3d
       0.06491804 0.124615885 0.20467047 0.1141062
0002d0 d1 3b 10 3e fb ee bf 3d d8 01 eb 3d 97 5a 4b 3d
       0.14085318 0.09371754 0.11474961 0.04964694
0002e0 ff 8f 99 3d 64 8e b8 3c 46 4e 8f bd a2 5e ba 3d
       0.07498168 0.022528835 -0.06997351 0.09100081
0002f0 14 32 47 3d ba 2d 30 bd 83 26 94 bd ec e5 fd 3c
       0.048631743 -0.04301236 -0.07233908 0.030993424
000300 fd 3b e0 3c b6 c5 ef bd a7 6a b4 3c 1e 24 22 3c
       0.027372355 -0.11707632 0.022023512 0.009896306
000310 6d 89 12 3e 20 16 43 bc a0 b6 b7 be 6c f7 22 be
       0.14310236 -0.0119071305 -0.3588152 -0.15914696
000320 1e 37 6e 3e 7b 54 5f 3d 0c 7c 45 3b f8 d4 b5 3d
       0.23263213 0.054523926 0.0030133752 0.08878511
000330 c8 b9 a8 be 28 7e 69 3d 9a d4 20 3e b0 a7 01 3e
       -0.3295424 0.057005078 0.15706101 0.12661624
000340 cb cd 72 bd 55 79 85 3d 27 a5 94 3d d5 ae b9 3c
       -0.05927829 0.06517283 0.07258063 0.022666374
000350 57 e9 a2 3d 94 83 bb 3d 40 d8 8e bd 62 19 ea bd
       0.07954662 0.09155956 -0.0697484 -0.11430623
000360 81 13 db 3d 0e 90 81 3c 14 74 c0 3d 3a f6 f7 3d
       0.106970794 0.015815761 0.0939714 0.12107511
000370 a2 4e 1e 3e 3d e0 8a 3d c2 2d 0d 3d 83 7c a6 3c
       0.15459684 0.06781051 0.034467466 0.020323044
000380 9f 08 74 be 00 b8 da bd 4d db 8c be 0a ec 95 38
       -0.23831414 -0.106796265 -0.27511063 7.148839e-05
000390 8a b9 37 3e f5 3d e9 3d a4 2e 67 bd 33 38 e8 bd
       0.17941871 0.113887705 -0.056440964 -0.11338844
0003a0 f3 29 bd 3c ec c0 6e bd bc d4 20 bd 5c 8e c3 3d
       0.023091292 -0.058289453 -0.03926538 0.09548637
0003b0 80 3f bd bc 00 04 ae 3d b1 de 12 bd 73 65 cd 3c
       -0.023101568 0.08496857 -0.035856906 0.025072789
0003c0 34 2f 93 3d ec 1f 3d 3e 68 76 96 bc 32 b8 36 bd
       0.07186738 0.18469208 -0.018367007 -0.044609256
0003d0 b8 2b 38 be 61 63 e3 3d a3 1f 2a 3d 9e 65 dc 3c
       -0.17985427 0.111029394 0.041534077 0.026903924
0003e0 bd 93 28 bd c0 45 42 bd 44 4e 84 3c ec a6 a7 3d
       -0.04115652 -0.0474298 0.016150601 0.08186135
0003f0 40 ad 80 3d 52 c6 96 3d 3c da 4f 3e 1d 66 d2 3d
       0.06283045 0.07362045 0.20298094 0.10273383

backbone.15.weight f4 [256, 128]
000000 d8 37 4c be 80 76 a8 3d c2 d9 ba 3c 87 6a 06 bc
       -0.19943178 0.08225727 0.022808913 -0.008204109
000010 98 0d 6e 3d 4e 8e 36 bc d3 aa 0a 3e fb 4c ca 3c
       0.058118433 -0.0111423265 0.13541727 0.02469491
000020 da 33 c9 ba 9e 18 8d 3a 5d 73 7a be 95 24 ba 3d
       -0.0015350536 0.0010764783 -0.2445807 0.09089009
000030 63 1c 95 3c 40 b3 04 3d 88 e0 81 3c 7d 43 63 be
       0.018202012 0.03239751 0.015854135 -0.22193713
000040 dd f4 83 bd 16 57 3c bd 72 a1 f0 bb a8 00 29 be
       -0.06443188 -0.04598149 -0.0073434645 -0.16504157
000050 a1 40 ac be a6 fc bf 3d 5a 0b 1c 3e 81 f4 05 bc
       -0.33643058 0.09374361 0.15238705 -0.00817597
000060 8d a5 aa bd 6f 37 a7 be 91 15 d5 bb 2d ca 1e be
       -0.083323576 -0.3265948 -0.006502815 -0.15506811
000070 26 e6 43 be 77 2e 9c 3d d9 7d d1 bd a3 10 98 be
       -0.19130763 0.0762605 -0.10229082 -0.29700193
000080 3a 60 1e 3b df 35 49 bd d6 57 3d 3d 21 2b 81 3e
       0.0024166242 -0.04912364 0.046226345 0.25228217
000090 87 33 94 3d c7 b3 3a be b2 28 ed bd 50 30 89 3d
       0.072363906 -0.18232642 -0.11580028 0.06698668
0000a0 92 fe 26 bd 45 9a c5 39 03 85 c2 bd 9d 1e f1 bd
       -0.04077012 0.00037689708 -0.09498026 -0.11773417
0000b0 10 77 48 bd 15 d8 d6 3d f8 4e a0 bc 1a c5 bc 3c
       -0.04894167 0.10490433 -0.019568905 0.023043204
0000c0 e1 59 c4 bd ce 93 1e be 91 3b df 3d bf 68 04 be
       -0.095874555 -0.1548607 0.10900033 -0.12930582
0000d0 eb 7f a9 be 2f eb dd bd 86 56 9f bd 0a c7 e5 3c
       -0.33105406 -0.10835873 -0.07780175 0.02804901
0000e0 37 3d 38 be 89 32 c4 bc fb 71 6f 3c b5 cc b4 3d
       -0.17992102 -0.023949878 0.014614577 0.08828107
0000f0 b2 f4 61 be 6b 18 ff 3d c6 2f db bd 8a 18 81 be
       -0.22066 0.12455829 -0.107024714 -0.25214034
000100 81 5d 8b 3e 67 d7 37 3e 81 0c ce bb 36 9d 25 3d
       0.27219775 0.17953263 -0.0062881117 0.04043313
000110 c0 b4 15 be 19 66 50 3e 64 ea bd bd 6b 7f 9d 3d
       -0.14619732 0.20351447 -0.09273222 0.07690319
000120 7b 82 22 be 1f b4 86 3e ed 58 c2 3d fa 6e 8b be
       -0.15870087 0.26309296 0.094896175 -0.27233106
000130 ad 18 5f 3c 18 06 04 3e 5a 24 30 be 19 32 06 3e
       0.013616723 0.1289295 -0.17201367 0.13105048
000140 34 3b ca bd e2 9b cf bd 20 87 65 be 30 ba 5d be
       -0.09874573 -0.10137154 -0.22414827 -0.21653056
000150 a6 50 48 be cf 1e b2 be 01 ce 6a bd 30 d4 a2 3e
       -0.19562015 -0.3478913 -0.057325367 0.3180251
000160 26 19 79 bd 51 2b 1d bd c6 49 80 bd af c2 92 be
       -0.060815 -0.038371388 -0.06264071 -0.28664157
000170 f9 ce 03 3e c3 3e 89 be 17 b6 ee 3d f6 39 7e bd
       0.12871923 -0.26805696 0.11655825 -0.062066995
000180 e3 8e 24 3e 89 84 77 3d f3 a0 83 3d 7b 2c 17 3e
       0.16070132 0.06042913 0.06427183 0.14763062
000190 50 1b c9 3d cb 2f 11 be e7 06 4d 3d 59 b1 c5 bd
       0.098196626 -0.14178388 0.05005541 -0.09652967
0001a0 56 a0 c5 bd 93 27 e6 bd 9f 79 b5 bc ce 0c b1 3d
       -0.09649722 -0.11238017 -0.02215272 0.086450204
0001b0 bf 58 84 3e a7 89 0e 3d d2 c6 89 3c a2 37 17 3e
       0.25848958 0.034799244 0.016818438 0.14767316
0001c0 fc 8d 80 3c e3 be f0 3c 24 d6 6d 3d 3a 2d 83 3d
       0.015692703 0.029387897 0.05806555 0.06405111
0001d0 ca 4f 0d be 8c fc 80 bd 1b a3 a1 bd 4a 05 1e bd
       -0.13799968 -0.062981695 -0.07892438 -0.038579263
0001e0 17 d1 0c 3e 02 38 4e bd 3b 6c 45 3d 3c 2f 18 3e
       0.13751636 -0.050346382 0.04819892 0.14861768
0001f0 b8 89 06 3d a3 8d ff bd 09 72 2f bc e9 84 19 bc
       0.032846183 -0.12478187 -0.01070834 -0.009370067
000200 26 d5 61 be e3 68 b8 3e 4a c3 37 3d 2c 2e aa be
       -0.22053966 0.36017522 0.044863977 -0.3323835
000210 8c 2b 61 3e 60 a7 7b 3c 69 dd 17 bd 19 7b 3e bc
       0.21989268 0.0153597295 -0.037076388 -0.011626028
000220 93 ee 14 3e 51 15 d7 bc e9 0c 0f 3e aa 8f 8a 3d
       0.14544134 -0.026255282 0.13969769 0.06765683
000230 ff 0f 83 bd 54 77 e6 3d dd 8a be bc 9c d8 04 bb
       -0.063995354 0.11253229 -0.023259575 -0.002027071
000240 10 e2 8c be a3 8d f0 bd e8 30 fd 3d db 5e 00 3e
       -0.27516222 -0.11745765 0.12362844 0.12536184
000250 ac 25 62 3c df 46 8a bd 7b 8b 6b be 55 e8 1f 3d
       0.013802927 -0.06751799 -0.23002426 0.03903993
000260 1f 1e 11 bd 14 ad 99 bd 2b 95 17 bd c6 22 a0 bd
       -0.035429116 -0.07503715 -0.037007492 -0.078191325
000270 90 3a 94 3b 77 cc d8 bd 0c f8 5c bd 98 79 53 bd
       0.0045235828 -0.105858736 -0.053947493 -0.051629633
000280 27 4d e0 be c7 5b 03 be 57 69 09 be 70 96 4c be
       -0.43808863 -0.12827979 -0.1341909 -0.19979262
000290 17 74 81 3d 21 25 81 bd 16 ca 52 bd 7b 71 19 be
       0.063209705 -0.0630591 -0.051462255 -0.14984696
0002a0 fa 35 c4 bc 83 11 43 3e b3 f5 17 3e 2e 41 bf bb
       -0.02395152 0.19049649 0.1483982 -0.0058366274
0002b0 08 b3 9b 3d 2c 4e 66 3d 37 a0 7e be 68 c8 5f 3d
       0.07602507 0.056226894 -0.24865805 0.05463448
0002c0 6d 90 6b be 04 ae 4d be cf 11 b9 bd f0 f0 85 3e
       -0.23004313 -0.20085913 -0.090366 0.26160383
0002d0 60 2a 85 3d a5 d9 b8 bd 84 a1 38 bd e9 fc 80 bd
       0.06502223 -0.090258874 -0.04507591 -0.06298239
0002e0 a5 bf ad bd 98 f5 10 3d ef 6a 8d be 12 f0 1f bd
       -0.08483819 0.035390466 -0.27620646 -0.03904731
0002f0 d1 7d 96 bb f9 3d 0f be a7 05 39 3c 2d f4 6c 3e
       -0.004592635 -0.13988484 0.0112928515 0.2314002
000300 17 25 c0 3d 02 87 9b 3d f2 a7 8e be 90 c5 d6 bd
       0.09382074 0.0759411 -0.27862507 -0.10486901
000310 80 bb 49 3e 51 17 83 bd 7f da aa bd bb 0a 96 3c
       0.19700432 -0.064009316 -0.08342456 0.018315664
000320 77 66 1e bd 23 9b a9 3b 8e 69 09 be 22 9b 0e 3e
       -0.038671937 0.0051759644 -0.13419172 0.13926366
000330 77 f9 a3 3d 76 d3 4b be d7 27 60 be c6 7e 15 ba
       0.08006566 -0.19904885 -0.21890198 -0.00057027896
000340 a7 6c a7 bc 89 de f0 bc 44 a9 49 3e 23 db 85 ba
       -0.020437552 -0.029402988 0.19693476 -0.0010212403
000350 c0 56 15 bd 9c 40 05 be 58 86 01 3e 0a 34 a0 be
       -0.036459684 -0.13012928 0.12648904 -0.31289703
000360 75 56 74 3d f5 90 a2 3d 9b 00 e3 3d 85 c4 18 be
       0.059652764 0.079378046 0.110841 -0.14918716
000370 ac b8 7b bd 79 c3 d5 be e2 0e b2 be e9 03 1e be
       -0.061455414 -0.41750696 -0.3477698 -0.15431179
000380 f0 83 b4 be 07 d8 92 3e 4b 14 28 be 17 8e fb bd
       -0.3525691 0.2868044 -0.16413991 -0.12282961
000390 b1 db 05 3e 22 ba b4 bc e9 05 38 be 7f 15 a7 be
       0.13072087 -0.022061411 -0.17971005 -0.32633588
0003a0 56 e6 5a 3e fa bf df bd 48 d8 00 bd 35 6f 47 3e
       0.21376929 -0.109252885 -0.031456262 0.19476016
0003b0 ee 23 3c 3c e3 db 7a be 87 bf 0e be 3f 10 c6 3e
       0.011483176 -0.24497943 -0.1394025 0.3868427
0003c0 39 00 9d 3d bf e2 70 be 42 e3 ac bd d6 a2 78 be
       0.07666058 -0.23523997 -0.084417835 -0.24280867
0003d0 74 48 30 be ca 58 21 3e 5e b3 5d be 9b 98 c5 bd
       -0.17215139 0.15756527 -0.21650454 -0.09648248
0003e0 63 eb b1 3d e5 ef b3 bd 83 bc 56 3d 8a 95 61 bb
       0.086874746 -0.087859906 0.052425873 -0.0034421408
0003f0 4a 48 3d bc 32 8a 98 be c1 fe 02 bf 79 9f d7 bd
       -0.01155288 -0.29792935 -0.51169974 -0.10528464

backbone.2.bias f4 [32]
000000 b2 17 da bd c1 96 03 be a3 f4 cb 3b d2 e1 dc bd
       -0.10649051 -0.12850477 0.0062242313 -0.10785259
000010 9a fe 93 bc 03 11 ae 3d 15 52 22 bd 63 42 84 bd
       -0.01806574 0.084993385 -0.03962906 -0.06457975
000020 9c 97 c2 3d a0 57 07 bd e5 ba 0f 3e 4a 0b 74 bc
       0.095015734 -0.03304255 0.14036138 -0.01489527
000030 7d 78 bc 3c 29 50 90 3d 94 ab ae 3d e0 a4 d6 bd
       0.023006672 0.07046539 0.0852882 -0.10480666
000040 40 da 35 3d 75 db 9d 3c 62 4d 9f 3c 9b 5b ab bd
       0.044397593 0.019269684 0.019446079 -0.08367082
000050 34 7a 44 3c ba 84 ec 39 54 07 43 bd 41 fd ba 39
       0.011992026 0.00045112317 -0.04761441 0.00035665373
000060 52 72 83 3d 3d 18 09 3c 4e 76 46 bd 60 24 57 3c
       0.06418289 0.008367595 -0.048452668 0.013131231
000070 21 a3 cd bd 42 b3 8c 3b bb 95 33 3d a5 47 a5 3d
       -0.1004088 0.00429383 0.043843966 0.08070306

backbone.2.weight f4 [32, 16, 3, 3]
000000 4d c8 7c be 13 47 8e bd 0d 5e cf bd 9e 02 70 be
       -0.24685784 -0.0694715 -0.10125361 -0.23438498
000010 3b 5c f1 bd a7 b7 22 be 19 95 dd bc da 84 c1 3d
       -0.1178517 -0.1589037 -0.027048634 0.094491675
000020 d6 ab 34 be 34 ca 5d 3d 05 37 2f be e5 2d bb 3d
       -0.17643675 0.054147914 -0.17110832 0.09139613
000030 1c 44 9d bd 63 1e 6b 3d 90 82 1e 3e c4 f3 90 bc
       -0.076790065 0.057402026 0.15479493 -0.017694362
000040 ba 1f a7 3b 83 fa 00 3e 00 7c 36 3d 3e c4 12 3e
       0.0051002176 0.12595563 0.04455185 0.14332673
000050 ce e2 57 ba aa ad b7 be c0 83 29 3e 9f c4 90 bc
       -0.00082353957 -0.35874683 0.16554165 -0.017671881
000060 c9 0a 77 bd 04 6a 37 be d7 aa 73 3d 44 79 a7 3d
       -0.06031302 -0.17911536 0.059489097 0.081774265
000070 cf 0b 5c be d7 b3 c1 3d 43 5b 57 ba d2 3c 12 be
       -0.2148888 0.0945813 -0.0008215198 -0.14281014
000080 ea 69 dc bb 4f 8b 52 bd 7f 60 ab bc b1 48 6a bd
       -0.006726493 -0.051402386 -0.020920036 -0.05719823
000090 8c d6 eb 3c 91 b4 4c be c9 dc ec bd 98 00 1b bf
       0.028788827 -0.19990756 -0.11565549 -0.6054778
0000a0 66 62 3d bd 81 54 84 bd 4f 3e 29 bf d4 d7 f0 be
       -0.04623642 -0.0646143 -0.661107 -0.47039664
0000b0 68 c5 94 be 23 24 a8 3d bd 21 f1 bd 20 ce e0 bd
       -0.2905686 0.082100175 -0.11774013 -0.10976815
0000c0 c5 ff 32 3c 18 24 82 be 6c 9e cc 3d bc d6 45 3e
       0.010925238 -0.25418162 0.09991154 0.19320196
0000d0 63 a2 0a 3e 9b 54 2d 3e a3 1f a2 3d f7 d4 03 3e
       0.13538508 0.16926806 0.079161905 0.12874208
0000e0 2f fe 38 be 57 33 1c 3e 19 b6 40 3e 45 bf 85 3e
       -0.18065713 0.1525396 0.18819465 0.2612249
0000f0 d4 65 26 3e 0c 16 30 be 0d 6f 67 3e d7 02 3e 3d
       0.16249782 -0.1719591 0.22600956 0.046389427
000100 bb 9b 18 be da 02 67 bd 67 a8 35 be 3c 67 71 bd
       -0.14903156 -0.056399204 -0.17740022 -0.058936343
000110 3c c8 86 be 3f 3b 64 3d 1f 6c fb bc b6 7b 4a 3d
       -0.26324642 0.055720564 -0.030691205 0.049434386
000120 22 c1 a3 3d d4 d8 f9 bd f4 77 2c bd 12 cf 87 be
       0.079958215 -0.1219956 -0.042106584 -0.2652517
000130 70 96 32 be c9 8d 82 bc b3 07 30 be 24 15 b9 3d
       -0.174402 -0.015936749 -0.17190437 0.090372354
000140 0a 93 d8 3d a3 af 1e 3d 17 2c bd bd 90 49 12 3e
       0.105749205 0.03874172 -0.09236925 0.14285874
000150 1e 77 86 be 47 55 83 bd 00 05 89 3d 10 4a 4a 3d
       -0.26262754 -0.0641275 0.06690407 0.049387038
000160 9a d7 75 be e9 eb 4f 3e ac b8 c5 3d 5d 75 f8 3d
       -0.24008027 0.20304836 0.09654364 0.1213176
000170 90 a9 21 3e 4b 19 0d 3e 73 70 58 3e 8e 20 16 3e
       0.15787339 0.1377918 0.21136646 0.14660856
000180 bf 39 f3 bd 20 d1 89 3c 47 12 81 3e b0 29 92 3d
       -0.118762486 0.016823351 0.25209257 0.071368575
000190 9c 03 5c bd 63 4d 24 be 4d 82 6c bd c2 52 00 be
       -0.05371438 -0.16045146 -0.057741452 -0.1253157
0001a0 ea 72 e6 bd 74 8b 3a be c4 f8 84 bd 76 e3 47 bd
       -0.11252387 -0.1821726 -0.06492761 -0.048800908
0001b0 19 e0 28 3d e5 98 0e 3e cc 5a b6 3e 39 fe c1 bb
       0.04122934 0.13925512 0.35616148 -0.0059201983
0001c0 32 86 13 bc 04 3c 13 be 6b 11 6b be 93 04 39 be
       -0.009004163 -0.14378363 -0.22955863 -0.18068151
0001d0 c1 df 10 be c2 c3 8e 3d f5 e7 99 bd de 50 d0 bd
       -0.14147855 0.069709316 -0.075149454 -0.10171674
0001e0 90 ea 62 bd a7 8d e4 3c da de 49 bd 4e 29 2e be
       -0.055399477 0.027899576 -0.049284793 -0.17007944
0001f0 56 be e2 bd b5 21 ba bd bf ce ab 3d 5a a3 64 3e
       -0.1107146 -0.0908846 0.08389043 0.22327939
000200 20 73 be 3d a0 c5 80 3e 8b a3 a3 3e 2e 05 c5 3d
       0.09299302 0.25150776 0.3196071 0.096201286
000210 80 c0 e6 3e f8 07 d2 3e e8 5f 5d 3e 6b 04 02 bd
       0.4506874 0.41021705 0.21618617 -0.031742495
000220 51 83 81 bd 59 70 08 bd 6b 48 5f 3e 75 a0 1d 3e
       -0.06323875 -0.033310268 0.21804969 0.15393241
000230 6a fc 9f bd da 34 f7 bd d1 c6 fc 3c bc 29 18 bd
       -0.07811816 -0.120706275 0.030856522 -0.037149176
000240 8c aa a8 3d b2 64 61 bc 07 78 84 3e 0c 6c 4e 3d
       0.08235654 -0.013756918 0.25872824 0.05039601
000250 ce ca ec bd e0 c2 0b bd 04 b9 4f 3b 02 5e ca bd
       -0.115621194 -0.034121394 0.0031695971 -0.09881212
000260 db 63 21 ba b2 23 20 3d b3 d2 0f be 25 eb 8c 3d
       -0.0006156542 0.03909654 -0.14045219 0.06880788
000270 7a 3d ae 3d b1 8c ae 3d 5c 1b 9f 3e 52 72 63 3e
       0.085078195 0.085229285 0.3107556 0.22211578
000280 d3 05 5a 3d 4e 01 ab 3d 8a 10 56 3e c8 09 99 be
       0.05322821 0.08349858 0.20904747 -0.29890275
000290 6d d1 df bb e1 af 88 3e d4 8d b3 be 69 c3 0e 3c
       -0.0068303854 0.26696685 -0.35069144 0.008713582
0002a0 18 cf c7 3e 55 1a 09 3e 77 19 8b 3e ff 2b 9c 3c
       0.39025187 0.13388951 0.27167866 0.019063948
0002b0 b4 21 2a 3e 4c a7 f6 3d c2 9a 36 3d 9c 45 6c bd
       0.16614419 0.12043628 0.044581182 -0.057683572
0002c0 a0 3e 96 bd 16 bc 5c 3e 3e a4 fb 3c ef 53 ac bd
       -0.073361635 0.21556124 0.030717965 -0.084144466
0002d0 ec 2f 5a bd ce 02 d0 3d 7f 22 19 be b3 ee ab be
       -0.053268358 0.10156785 -0.14954565 -0.3358055
0002e0 57 08 75 be 1f 0e eb be ab 35 10 be fd f3 5c be
       -0.23928963 -0.4590921 -0.14082973 -0.21577449
0002f0 96 2d d4 be e0 d5 a4 bb e2 1a 50 bd 36 11 e8 bc
       -0.4144103 -0.0050303787 -0.050806887 -0.02832852
000300 a6 59 e4 bd 4d 1f 02 be 2f f4 62 be bc 83 11 3d
       -0.111499116 -0.12707253 -0.22163461 0.035526022
000310 ce 84 12 3e c4 0c 57 3e 3e c0 86 3b 83 a3 b2 3e
       0.14308473 0.21000963 0.0041122725 0.34890375
000320 71 60 54 3d f6 f0 44 3e 88 d8 b5 3d a5 23 e1 bd
       0.051849786 0.19232544 0.08879191 -0.10993127
000330 ce 16 c1 3b c6 7f 58 be d3 26 14 3d 49 c5 95 be
       0.005892611 -0.21142492 0.03616984 -0.2925208
000340 22 25 4a be 1c 95 1b be 54 87 3c be e0 e9 61 be
       -0.19740728 -0.151936 -0.18410999 -0.22061872
000350 00 6f ae be ee 24 37 3d 14 c7 a0 bd 67 09 5e bd
       -0.3406906 0.044712953 -0.07850471 -0.054208186
000360 b3 07 4c be d3 9a 38 3e 24 90 03 3d 25 d9 01 be
       -0.19924812 0.18027811 0.032119885 -0.1268049
000370 42 7f 8c be 0c 2e 43 be 54 1d 81 bd 04 37 28 be
       -0.2744084 -0.19060534 -0.06304422 -0.16427237
000380 d3 dc e8 bd c3 08 3e 3d d9 18 f7 bd a5 8a 0c 3c
       -0.11370244 0.046395075 -0.12065286 0.008577977
000390 15 3f 30 3e 38 2d 01 bc 28 34 41 3d bc 70 3c 3d
       0.17211564 -0.007884316 0.04716888 0.04600595
0003a0 dd 0b dc 3d 30 3a 89 3e 9b 42 12 be 78 bb 87 bd
       0.1074445 0.26802206 -0.1428322 -0.06627554
0003b0 d9 e2 25 be 6c ad 93 3d 60 5b 54 3e 15 d4 64 be
       -0.16199817 0.07210812 0.20737982 -0.22346528
0003c0 c4 70 90 3d 34 41 6e 3d 6f 55 3a 3e 1f a7 c0 be
       0.07052758 0.05816765 0.18196653 -0.37627503
0003d0 72 05 eb bd 34 c8 6e be 44 d4 a4 be 03 5a 84 be
       -0.11475648 -0.23318559 -0.32193196 -0.25849923
0003e0 e8 d2 86 3d 68 d4 da be 44 40 e2 be 17 7d db bd
       0.06583196 -0.42740178 -0.44189656 -0.10717218
0003f0 8d 5c 81 bd b8 33 45 3d e2 7c 08 be 6a a7 89 bd
       -0.06316481 0.048145026 -0.13328889 -0.06721385

backbone.5.bias f4 [64]
000000 8a 37 12 bd 33 58 65 3d bb 72 c8 bd 32 60 08 be
       -0.035697497 0.055992316 -0.09787508 -0.13317946
000010 10 c6 8e bd e6 75 0b be d5 4c 2e bd 94 3f e3 bd
       -0.06971371 -0.13619193 -0.04255374 -0.11096111
000020 aa 35 27 bd 95 40 d9 3c 0f a3 9a 3c f1 ba 87 bc
       -0.040822662 0.026520053 0.01887658 -0.016568633
000030 e3 99 b7 3d 9d 0f 5e bd 07 54 19 bd 6d d2 0b 3d
       0.089648984 -0.05421411 -0.03743365 0.034136225
000040 2b 6a 8c bd 23 7b a8 bc 11 58 f5 bd b5 ab d4 3d
       -0.068561874 -0.020566529 -0.11979688 0.10384313
000050 d5 d3 50 3d bd a1 97 bc 15 ed ef bd 0d cb d8 bd
       0.05098327 -0.01850974 -0.11715142 -0.10585604
000060 b2 7e ff bd a5 9c 01 be a8 f1 e9 bd db 3a e3 3c
       -0.12475337 -0.12657411 -0.114230454 0.027738025
000070 2b 53 85 bc 48 98 c5 b9 c6 c2 6a 3b bb bb ec bd
       -0.01627501 -0.00037688226 0.003582166 -0.11559244
000080 a3 d3 85 bd 3f 49 09 3d 76 89 e5 bd c7 f3 89 be
       -0.06534507 0.03351712 -0.11207859 -0.269438
000090 90 8b d6 bd 57 67 1f bc be 92 a0 bd ab fc 81 bd
       -0.10475838 -0.009729228 -0.07840489 -0.06347021
0000a0 4b 6b d7 3c 63 0d 11 bd 7e 7c 66 3d f2 68 4a bd
       0.026296278 -0.035413157 0.05627107 -0.04941649
0000b0 ef 6d c6 bc d6 95 ff bd 78 2c 7d 3b 1f ae 40 3d
       -0.024222342 -0.12479751 0.0038631242 0.047041055
0000c0 56 94 53 3c 65 76 2b bd 3b 0b 95 bc 32 08 63 be
       0.012913784 -0.041860957 -0.018193832 -0.22171095
0000d0 b9 4d 84 3d e7 1f 22 3c 40 46 f1 bd 6f 6d cf bd
       0.06460137 0.009895301 -0.11780977 -0.10128295
0000e0 c8 e1 15 3c 3b 1a 2b be d6 30 e0 bd 90 19 85 bd
       0.009148069 -0.16709225 -0.10946815 -0.06499016
0000f0 ae f4 a1 3d ba 23 58 be d6 23 16 3d 4f de 82 be
       0.07907997 -0.21107379 0.03665527 -0.25560233
